src/t1dsim_ai/models/IndividualModel/T1DEXI-01-0199/individual_model.pt (torch, 50089 bytes, 7 tensors)

net_model.0.weight f4 [128, 10]
0	0x3d275f33	0.040862273
1	0x3a8ccd56	0.0010742347
2	0xbd4d4665	-0.05011596
3	0x3ce06fd8	0.027397081
4	0x3dc1fb13	0.09471717
5	0x3b403422	0.0029327949
6	0x3bb17300	0.0054153204
7	0x3ccb1a42	0.024792794
8	0xbcc48a11	-0.023991616
9	0x3c4bed5c	0.012446728
10	0x3d379d14	0.044827536
11	0x3bbf4d5d	0.00583808
12	0xbd510d44	-0.05103804
13	0x3ce8033b	0.028321853
14	0x3dccf733	0.10008087
15	0x3bd955c8	0.0066325404
16	0x3b96ef3b	0.004606155
17	0x3ccdfd50	0.025145203
18	0xbcefd900	-0.029278278
19	0x3c39f71f	0.011350422
20	0x3c505500	0.012715578
21	0x3d2f2390	0.042758524
22	0xbc3f99a0	-0.011694342
23	0xbd4a9e1e	-0.0494672
24	0xbe13c045	-0.14428814
25	0x3c34a7c3	0.011026326
26	0x3c24052e	0.010011001
27	0x3d328159	0.043580387
28	0x3cd0121d	0.025399262
29	0x3c59b477	0.013287655
30	0x3c4eaf16	0.012614986
31	0x3d2faf54	0.042891815
32	0xbc3aea9b	-0.011408473
33	0xbd4a28ee	-0.04935544
34	0xbe13e198	-0.14441526
35	0x3c33ca1f	0.010973482
36	0x3c1f2855	0.009714206
37	0x3d34cfe9	0.04414359
38	0x3ccf4b28	0.025304392
39	0x3c5b4498	0.013383053
40	0x3d390904	0.045174614
41	0x3bcc1217	0.0062277424
42	0xbd515a5d	-0.051111568
43	0x3ce891a9	0.028389769
44	0x3dce16ce	0.100629434
45	0x3be6fb08	0.007048968
46	0x3b920203	0.004455806
47	0x3cce6d8b	0.025198719
48	0xbcf3d8ce	-0.029766466
49	0x3c377c47	0.011199064
50	0x3c53df8d	0.012931717
51	0x3d2efc66	0.042721175
52	0xbc45d425	-0.012074505
53	0xbd4b2cf2	-0.04960341
54	0xbe139289	-0.14411367
55	0x3c3604b2	0.011109518
56	0x3c292c78	0.010325544
57	0x3d2fb52c	0.04289739
58	0x3cd1225e	0.025529083
59	0x3c579fca	0.013160655
60	0x3d3bfe9e	0.04589712
61	0x3be6da89	0.0070450944
62	0xbd52071a	-0.051276304
63	0x3ce9d55e	0.028544124
64	0x3dd08dd9	0.10183305
65	0x3c00bd1f	0.00785759
66	0x3b8b0c6b	0.0042434237
67	0x3ccfddea	0.025374372
68	0xbcfc2486	-0.030779134
69	0x3c33696e	0.010950429
70	0x3d3ac2c5	0.045595903
71	0x3bdc0809	0.006714825
72	0xbd519ae9	-0.051173124
73	0x3ce935f2	0.028468106
74	0x3dcf7ce2	0.101312414
75	0x3bf77b53	0.007552543
76	0x3b8d1a7d	0.004306136
77	0x3ccf458e	0.025301721
78	0xbcf8ac71	-0.030355664
79	0x3c344bcb	0.011004399
80	0x3c46308d	0.012096536
81	0x3d309d99	0.043119047
82	0xbc28ee39	-0.010310703
83	0xbd4752bd	-0.04866289
84	0xbe14b210	-0.1452105
85	0x3c304407	0.0107584065
86	0x3c10846f	0.008820637
87	0x3d3c408a	0.045959987
88	0x3ccc2b6c	0.024923049
89	0x3c604770	0.013688907
90	0x3c4565d8	0.012048207
91	0x3d309d61	0.04311884
92	0xbc275af9	-0.010214561
93	0xbd472931	-0.048623268
94	0xbe14afa9	-0.14520134
95	0x3c2f1156	0.010685286
96	0x3c0e8e36	0.008700898
97	0x3d3cfe35	0.04614087
98	0x3ccbe3e7	0.024888946
99	0x3c619dd4	0.013770539
100	0x3c53a7a4	0.012918387
101	0x3d2f23fb	0.042758923
102	0xbc4517d3	-0.012029606
103	0xbd4b1563	-0.049580943
104	0xbe138a0e	-0.14408132
105	0x3c35c9c9	0.011095473
106	0x3c284fb0	0.010272905
107	0x3d3007c6	0.042976163
108	0x3cd100e6	0.025513124
109	0x3c57cbd6	0.013171157
110	0x3d3079a8	0.04308477
111	0x3b7c2c37	0.0038478503
112	0xbd5027c4	-0.050819173
113	0x3ce58026	0.028015207
114	0x3dc867f3	0.09785452
115	0x3b9db93f	0.004813343
116	0x3ba6514d	0.00507561
117	0x3ccc6830	0.024952024
118	0xbcdcb63a	-0.026942361
119	0x3c451605	0.012029176
120	0x3d3813af	0.044940647
121	0x3bc33c47	0.0059581134
122	0xbd512f00	-0.051070213
123	0x3ce83555	0.028345743
124	0x3dcd5ccb	0.100274645
125	0x3bde23b5	0.006779159
126	0x3b9529c5	0.0045520985
127	0x3cce1e03	0.025160795
128	0xbcf13b63	-0.029447263
129	0x3c391d4d	0.01129849
130	0x3d33c279	0.043886635
131	0x3b9c3952	0.0047675753
132	0xbd509a4b	-0.050928395
133	0x3ce6d537	0.02817784
134	0x3dca7f88	0.09887606
135	0x3bb86ca9	0.0056281877
136	0x3b9eabb7	0.0048422473
137	0x3cccd09a	0.025001813
138	0xbce5e3d0	-0.028062731
139	0x3c3ff604	0.01171637
140	0x3c52e749	0.0128725255
141	0x3d2f402b	0.042785805
142	0xbc43b688	-0.011945374
143	0xbd4b015c	-0.049561843
144	0xbe1397a8	-0.14413321
145	0x3c359c51	0.011084632
146	0x3c26c4a5	0.01017872
147	0x3d30a975	0.043130357
148	0x3cd0c9e4	0.025486894
149	0x3c582fba	0.013194973
150	0x3d2e87e2	0.042610057
151	0x3b57be28	0.0032919738
152	0xbd4fdee5	-0.05074968
153	0x3ce4c2e7	0.027924968
154	0x3dc71b84	0.09722045
155	0x3b912090	0.0044289306
156	0x3baa076c	0.005188873
157	0x3ccc33b6	0.024927001
158	0xbcd73145	-0.02626861
159	0x3c476e14	0.012172241
160	0x3d39effd	0.045394886
161	0x3bd4685a	0.0064821662
162	0xbd517952	-0.05114109
163	0x3ce8d6b2	0.028422687
164	0x3dced815	0.10099808
165	0x3bf0c034	0.007347131
166	0x3b8f2b9f	0.0043692137
167	0x3ccee56d	0.025255883
168	0xbcf67e7c	-0.03008961
169	0x3c353c8b	0.011061798
170	0x3d3a6a69	0.045511637
171	0x3bd84387	0.0065998468
172	0xbd519c36	-0.051174365
173	0x3ce91435	0.028452018
174	0x3dcf33a4	0.101172715
175	0x3bf388c0	0.0074320734
176	0x3b8dea37	0.004330899
177	0x3ccf1bff	0.025281904
178	0xbcf78c19	-0.030218171
179	0x3c3555d7	0.011067829
180	0x3d2da505	0.042393703
181	0x3b44b9d9	0.0030018
182	0xbd4fd210	-0.05073744
183	0x3ce478ec	0.027889691
184	0x3dc68622	0.096935526
185	0x3b8b1074	0.0042439047
186	0x3bab6a2e	0.0052311635
187	0x3ccc41a4	0.024933644
188	0xbcd47d71	-0.025938721
189	0x3c48ccbc	0.012255844
190	0x3d378c54	0.04481156
191	0x3bbe92d1	0.0058158417
192	0xbd510af5	-0.05103584
193	0x3ce801cb	0.028321167
194	0x3dccec53	0.10006013
195	0x3bd8b871	0.006613784
196	0x3b971053	0.0046101003
197	0x3ccdef68	0.025138572
198	0xbcefac30	-0.02925691
199	0x3c39f01c	0.01134875
200	0x3d38aae9	0.045084868
201	0x3bc89d96	0.0061223013
202	0xbd5145eb	-0.05109207
203	0x3ce86869	0.0283701
204	0x3dcdcca3	0.10048797
205	0x3be3e03f	0.0069542225
206	0x3b930efa	0.0044878693
207	0x3cce5b8b	0.025190135
208	0xbcf2cb81	-0.029638054
209	0x3c380870	0.01123248
210	0x3d3c157a	0.04591892
211	0x3be7f028	0.0070781894
212	0xbd5208bb	-0.051277857
213	0x3ce9e008	0.02854921
214	0x3dd09f94	0.10186687
215	0x3c013dc5	0.007888262
216	0x3b8af107	0.0042401585
217	0x3ccfe209	0.025376337
218	0xbcfc6e9f	-0.030814467
219	0x3c3341b9	0.0109409625
220	0x3d3a2fba	0.04545567
221	0x3bd60f03	0.0065325513
222	0xbd519784	-0.051169887
223	0x3ce8f4a4	0.028436966
224	0x3dcf081a	0.10108967
225	0x3bf1bb1b	0.007377041
226	0x3b8e8752	0.0043496275
227	0x3ccf0aef	0.025273768
228	0xbcf6f164	-0.0301444
229	0x3c35a541	0.011086763
230	0x3d34a1da	0.044099666
231	0x3ba50ce8	0.005036939
232	0xbd5095e9	-0.050924215
233	0x3ce6f855	0.028194586
234	0x3dcb030f	0.09912693
235	0x3bc07daf	0.0058743577
236	0x3b9d2cee	0.004796616
237	0x3ccd0821	0.02502829
238	0xbce855bd	-0.028361196
239	0x3c3e196a	0.011602739
240	0x3d3acdc6	0.045606397
241	0x3bdc50b1	0.0067234864
242	0xbd51a364	-0.051181212
243	0x3ce93dde	0.028471883
244	0x3dcf85ac	0.10132918
245	0x3bf7c75f	0.0075616087
246	0x3b8d0d14	0.0043045375
247	0x3ccf455e	0.025301632
248	0xbcf8c5a9	-0.03036769
249	0x3c344982	0.011003854
250	0x3c4f2131	0.012642191
251	0x3d2f75c0	0.042836905
252	0xbc3c3092	-0.011486189
253	0xbd4a5325	-0.0493957
254	0xbe13d7c9	-0.14437784
255	0x3c33bec6	0.010970777

net_model.0.bias f4 [128]
0	0x3cd477f3	0.025936102
1	0x3cee1221	0.029061379
2	0x3c911c8d	0.01771381
3	0x3c8f5637	0.017497165
4	0x3cf0bc28	0.029386595
5	0x3c938f91	0.018012794
6	0x3cf6040e	0.03003123
7	0x3cf3b125	0.029747555
8	0x3c88fbe4	0.016721673
9	0x3c885270	0.016640872
10	0x3c9341a1	0.01797563
11	0x3ce36240	0.02775681
12	0x3cef20d8	0.029190466
13	0x3ce85473	0.028360581
14	0x3c929a84	0.017895944
15	0x3ce03bc5	0.02737225
16	0x3cf25113	0.029579675
17	0x3cf33325	0.029687474
18	0x3cdeffaa	0.02722152
19	0x3cedfc82	0.02905107
20	0x3cf014e9	0.029306846
21	0x3cf61c8f	0.030042915
22	0x3cf2de53	0.029647028
23	0x3ce977ce	0.02849951
24	0x3cf3c8df	0.029758869
25	0x3c8fda33	0.0175601
26	0x3c9936e9	0.018702941
27	0x3ce23225	0.027611801
28	0x3cf4fb21	0.029904904
29	0x3cea89ad	0.028630102
30	0x3ca1669c	0.019702248
31	0x3ca043a6	0.019563507
32	0x3cf3fc39	0.029783355
33	0x3cf235d4	0.029566683
34	0x3cf736c7	0.030177487
35	0x3cf1dc23	0.029523915
36	0x3cf360c6	0.029709231
37	0x3c91a21b	0.017777493
38	0x3cf12d4a	0.02944054
39	0x3cf34f38	0.02970086
40	0x3cf40ea1	0.029792132
41	0x3ce4a2fa	0.027909745
42	0x3ce44b71	0.027868005
43	0x3ce341c7	0.027741326
44	0x3cee63e6	0.02910037
45	0x3cf94cf4	0.030432202
46	0x3ce762fd	0.028245443
47	0x3cf35b62	0.02970666
48	0x3cf51f97	0.02992229
49	0x3cf616a6	0.030040096
50	0x3cf3fbf4	0.029783227
51	0x3c9331bd	0.017968053
52	0x3c697adb	0.014250482
53	0x3cf498fc	0.029858105
54	0x3cf09d9f	0.029372035
55	0x3cd5c118	0.02609305
56	0x3c88537d	0.016641373
57	0x3cf7d345	0.030252108
58	0x3cf22353	0.02955786
59	0x3cecaf4d	0.028892184
60	0x3ce15a6e	0.02750894
61	0x3cec631f	0.028855858
62	0x3c666b58	0.014063679
63	0x3c503ceb	0.0127098365
64	0x3cf08d60	0.029364288
65	0x3c6744d2	0.014115529
66	0x3cee8230	0.029114813
67	0x3c97e3f6	0.018541317
68	0x3c92dc11	0.017927201
69	0x3ce8b65c	0.028407268
70	0x3cf29790	0.029613286
71	0x3ce12a3a	0.027485956
72	0x3c8fa021	0.01753241
73	0x3ce5d3ef	0.02805516
74	0x3ceec206	0.029145252
75	0x3cf2f1f2	0.029656384
76	0x3cf67f2b	0.030089935
77	0x3c9b2d44	0.018942483
78	0x3cee00d7	0.029053135
79	0x3ced0c0c	0.028936408
80	0x3cda90b0	0.02668032
81	0x3cf33c33	0.029691791
82	0x3ce1a24c	0.02754321
83	0x3ce3da1f	0.02781397
84	0x3cf61a27	0.030041767
85	0x3c4f9348	0.012669392
86	0x3cd7c930	0.02634105
87	0x3c56e847	0.013116903
88	0x3c89d541	0.01682532
89	0x3cf4e977	0.029896481
90	0x3c4eac8a	0.012614379
91	0x3cf7c3c5	0.030244717
92	0x3c9416da	0.018077303
93	0x3cdddea0	0.027083695
94	0x3cefec1c	0.02928739
95	0x3c875485	0.016519794
96	0x3cf4b417	0.02987103
97	0x3c7430ce	0.014904214
98	0x3c8e538e	0.017373826
99	0x3cf07cff	0.029356478
100	0x3cf27aea	0.029599626
101	0x3cf3a066	0.02973957
102	0x3c996d13	0.018728768
103	0x3cf675fc	0.030085556
104	0x3ce9d0da	0.028541971
105	0x3cecb431	0.028894516
106	0x3c8bf3b1	0.017083975
107	0x3cf5caf5	0.030004004
108	0x3c5986e2	0.0132767875
109	0x3cea7984	0.028622396
110	0x3cf55451	0.029947432
111	0x3cf0e8ad	0.029407823
112	0x3cdf98b4	0.027294494
113	0x3c83cb8c	0.01608827
114	0x3cd854c0	0.0264076
115	0x3c96eacb	0.018422505
116	0x3c859983	0.016308552
117	0x3cf37786	0.02972008
118	0x3cedfcdc	0.029051237
119	0x3cf2343d	0.029565925
120	0x3cd7121b	0.02625375
121	0x3ce40557	0.027834577
122	0x3c9872e1	0.018609466
123	0x3cde56ba	0.027140964
124	0x3c913baf	0.017728655
125	0x3c8b85b3	0.017031526
126	0x3c9bc0be	0.019012805
127	0x3c89bf40	0.016814828

net_model.2.weight f4 [64, 128]
0	0x3d42a663	0.04752196
1	0x3d33a2e1	0.043856505
2	0xbd49006f	-0.04907268
3	0xbd49e6bb	-0.049292307
4	0x3d32539a	0.04353676
5	0xbd4812c7	-0.048846032
6	0x3d2fc71f	0.042914506
7	0x3d30cc6e	0.04316371
8	0xbd4c72f3	-0.04991431
9	0xbd4cc27d	-0.049990166
10	0xbd483c35	-0.048885543
11	0x3d3a1343	0.045428526
12	0x3d332df7	0.043745007
13	0x3d36f63b	0.044668417
14	0xbd487810	-0.048942626
15	0x3d3bf37e	0.04588651
16	0x3d317b94	0.043330744
17	0x3d312785	0.04325058
18	0x3d3cdf91	0.046111647
19	0x3d33b075	0.043869454
20	0x3d32a580	0.043614864
21	0x3d2fb409	0.042896304
22	0x3d3157f2	0.04329676
23	0x3d362185	0.04446556
24	0x3d30c4fe	0.043156616
25	0xbd49ac7f	-0.04923677
26	0xbd45d8cb	-0.048302453
27	0x3d3ac54f	0.045598324
28	0x3d3032d1	0.043017212
29	0x3d359bae	0.04433792
30	0xbd42fa55	-0.047602016
31	0xbd435e1b	-0.047697168
32	0x3d30a861	0.04312933
33	0x3d319e2d	0.04336374
34	0x3d2f45f1	0.04279131
35	0x3d31bea7	0.04339471
36	0x3d30f689	0.043203864
37	0xbd48ce96	-0.04902514
38	0x3d32157c	0.04347752
39	0x3d31144c	0.043232247
40	0x3d309e45	0.043119688
41	0x3d392483	0.045200836
42	0x3d395eb7	0.045256343
43	0x3d3a294e	0.045449547
44	0x3d337fa6	0.043822907
45	0x3d2e7ae8	0.04259768
46	0x3d37777e	0.04479169
47	0x3d310b0c	0.043223426
48	0x3d3026fa	0.04300592
49	0x3d2fb8bb	0.042900782
50	0x3d30b940	0.04314542
51	0xbd484044	-0.048889413
52	0xbd54b138	-0.05192682
53	0x3d305b74	0.043055966
54	0x3d325875	0.04354139
55	0x3d420906	0.047371887
56	0xbd4cc34d	-0.04999094
57	0x3d2f0a62	0.04273451
58	0x3d318e07	0.04334834
59	0x3d348059	0.044067714
60	0x3d3b524c	0.04573278
61	0x3d349f41	0.04409719
62	0xbd55b5af	-0.05217522
63	0xbd5f3a66	-0.054499052
64	0x3d325ac0	0.043543577
65	0xbd555d56	-0.052090965
66	0x3d336ea0	0.043806672
67	0xbd465a7c	-0.048426136
68	0xbd4863b9	-0.048923228
69	0x3d36a54c	0.044591233
70	0x3d31645d	0.043308605
71	0x3d3b711e	0.045762174
72	0xbd49c0bc	-0.04925607
73	0x3d387833	0.045036506
74	0x3d335179	0.04377887
75	0x3d3148a3	0.043282162
76	0x3d2f7dbf	0.04284453
77	0xbd451f08	-0.048125297
78	0x3d33aabd	0.043864
79	0x3d343231	0.04399318
80	0x3d3fa6ee	0.046790056
81	0x3d311f53	0.043242764
82	0x3d3b2eea	0.045699038
83	0x3d39b6c9	0.045340333
84	0x3d2fb586	0.042897724
85	0xbd676f32	-0.05650253
86	0x3d410e5f	0.047132846
87	0xbd5add41	-0.05343366
88	0xbd4c1014	-0.04982002
89	0x3d30348d	0.043018866
90	0xbd60ab5d	-0.054850925
91	0x3d2f10ef	0.04274076
92	0xbd47e563	-0.048802745
93	0x3d3d94d1	0.0462845
94	0x3d32b51b	0.043629747
95	0xbd4d4394	-0.050113276
96	0x3d3057ca	0.043052472
97	0xbd523a24	-0.05132498
98	0xbd4a67a1	-0.049415234
99	0x3d326b40	0.043559313
100	0x3d3171bd	0.04332136
101	0x3d30d8e3	0.04317559
102	0x3d62cd51	0.055371586
103	0x3d2f85ae	0.042852096
104	0x3d36073a	0.044440486
105	0x3d347aea	0.044062532
106	0xbd4b2f8e	-0.0496059
107	0x3d2fdd0b	0.042935412
108	0xbd59bdb6	-0.053159438
109	0x3d35adf5	0.04435535
110	0x3d301024	0.042984143
111	0x3d32335f	0.043506023
112	0x3d3c5e36	0.045988284
113	0xbd4ee318	-0.050509542
114	0x3d40d2ac	0.047075912
115	0xbd46bfe8	-0.04852286
116	0xbd4e0db8	-0.050306052
117	0x3d30ed24	0.043194905
118	0x3d33b1d2	0.043870755
119	0x3d319eb1	0.04336423
120	0x3d416004	0.04721071
121	0x3d399773	0.04531045
122	0xbd461884	-0.048363224
123	0x3d3d44e8	0.046208292
124	0xbd4908c6	-0.049080633
125	0xbd4b5cdd	-0.04964911
126	0xbd44cead	-0.048048664
127	0xbd4c2162	-0.049836524
128	0xba8c830e	-0.001072021
129	0xba8d7671	-0.0010792745
130	0xba64b456	-0.0008724382
131	0xba630efe	-0.0008661597
132	0xba8d5013	-0.001078131
133	0xba6667ba	-0.000878926
134	0xba8d3c31	-0.0010775385
135	0xba8d15c1	-0.001076393
136	0xba5e54a4	-0.00084812404
137	0xba5dcb8d	-0.00084608124
138	0xba66230f	-0.0008779028
139	0xba8e25b3	-0.0010844975
140	0xba8d6c41	-0.0010789708
141	0xba8dcad3	-0.0010817893
142	0xba65b902	-0.0008763225
143	0xba8e1a83	-0.0010841641
144	0xba8d0e18	-0.0010761647
145	0xba8d3ec0	-0.0010776147
146	0xba8e3088	-0.0010848204
147	0xba8d76d1	-0.0010792856
148	0xba8d53ad	-0.0010782384
149	0xba8d3365	-0.0010772763
150	0xba8d4031	-0.0010776577
151	0xba8d8f2d	-0.0010800116
152	0xba8d1b37	-0.0010765557
153	0xba637d71	-0.0008678055
154	0xba6a4184	-0.0008936154
155	0xba8e223c	-0.0010843943
156	0xba8d2307	-0.0010767885
157	0xba8da19a	-0.0010805607
158	0xba6f332e	-0.0009124753
159	0xba6e90f7	-0.0009100581
160	0xba8d1696	-0.0010764177
161	0xba8d38a3	-0.0010774325
162	0xba8d5207	-0.0010781892
163	0xba8d23ff	-0.0010768174
164	0xba8d1c9f	-0.0010765976
165	0xba6520e8	-0.000874056
166	0xba8d3150	-0.0010772143
167	0xba8d37af	-0.0010774041
168	0xba8d159d	-0.0010763888
169	0xba8df30e	-0.0010829882
170	0xba8dfb0d	-0.0010832265
171	0xba8e2ebc	-0.0010847668
172	0xba8d7435	-0.0010792079
173	0xba8daf6d	-0.0010809727
174	0xba8dc853	-0.0010817148
175	0xba8d326e	-0.0010772476
176	0xba8d2d27	-0.0010770903
177	0xba8d352f	-0.0010773296
178	0xba8d286a	-0.0010769491
179	0xba661cc7	-0.0008778092
180	0xba4d598c	-0.0007833473
181	0xba8d1409	-0.0010763417
182	0xba8d49cd	-0.0010779441
183	0xba8ce5bb	-0.0010749617
184	0xba5dc51b	-0.0008459852
185	0xba8d67a2	-0.0010788331
186	0xba8d03c0	-0.0010758564
187	0xba8da1c6	-0.0010805659
188	0xba8e2fb1	-0.0010847953
189	0xba8d99a0	-0.001080323
190	0xba4af765	-0.0007742553
191	0xba39c6a9	-0.00070867926
192	0xba8d40d4	-0.0010776767
193	0xba4b9eff	-0.0007767528
194	0xba8d74d7	-0.0010792267
195	0xba6973b2	-0.00089054846
196	0xba65ee36	-0.0008771153
197	0xba8da81a	-0.0010807544
198	0xba8d19ca	-0.0010765132
199	0xba8e343b	-0.0010849306
200	0xba635948	-0.0008672667
201	0xba8df54a	-0.0010830548
202	0xba8d7744	-0.001079299
203	0xba8d3a3c	-0.0010774801
204	0xba8d2bbf	-0.0010770484
205	0xba6b6024	-0.00089788646
206	0xba8d72d7	-0.0010791671
207	0xba8d8383	-0.001079664
208	0xba8e11fc	-0.00108391
209	0xba8d390a	-0.0010774445
210	0xba8e4253	-0.0010853506
211	0xba8e10f9	-0.0010838798
212	0xba8d33e2	-0.0010772909
213	0xba31e05c	-0.00067854463
214	0xba8da61d	-0.0010806952
215	0xba3e64f8	-0.00072629703
216	0xba5ef194	-0.0008504626
217	0xba8d1726	-0.0010764345
218	0xba3845ac	-0.0007029425
219	0xba8d67fc	-0.0010788436
220	0xba66c767	-0.0008803517
221	0xba8e3851	-0.0010850524
222	0xba8d4fb0	-0.0010781195
223	0xba5cdf08	-0.0008425568
224	0xba8d2215	-0.0010767604
225	0xba528ad3	-0.00080315507
226	0xba6215c8	-0.00086244615
227	0xba8d4b26	-0.0010779842
228	0xba8d1cf5	-0.0010766076
229	0xba8d1bfe	-0.0010765789
230	0xba74a1ce	-0.0009331972
231	0xba8d3547	-0.0010773324
232	0xba8da839	-0.001080758
233	0xba8d9f11	-0.0010804852
234	0xba608a1f	-0.00085655035
235	0xba8d352b	-0.0010773292
236	0xba405477	-0.0007336805
237	0xba8dab0d	-0.0010808423
238	0xba8d2e49	-0.001077124
239	0xba8d41fc	-0.0010777111
240	0xba8e1631	-0.0010840354
241	0xba5a1261	-0.0008318779
242	0xba8dc966	-0.0010817468
243	0xba68a2c2	-0.00088743505
244	0xba5b6170	-0.00083687063
245	0xba8d21dd	-0.0010767538
246	0xba8d7888	-0.0010793367
247	0xba8d377c	-0.0010773982
248	0xba8d648a	-0.0010787409
249	0xba8e0cc4	-0.0010837545
250	0xba69ce0c	-0.0008918948
251	0xba8e3a73	-0.001085116
252	0xba64d39d	-0.00087290426
253	0xba6031eb	-0.000855236
254	0xba6be206	-0.00089982187
255	0xba5ede78	-0.00085017784

net_model.2.bias f4 [64]
0	0x3c1f01e8	0.009705044
1	0xbb28503c	-0.002568259
2	0x94ba0fed	-1.8787482e-26
3	0xba862bee	-0.0010236481
4	0xb96a8f4c	-0.00022369361
5	0xb38a1cff	-6.4314e-08
6	0x9f9a80dd	-6.5434723e-20
7	0xbb159b46	-0.0022828146
8	0x3ba3882d	0.0049905987
9	0x3ba70e0c	0.00509811
10	0xb9f7b909	-0.00047249373
11	0xbb30cd33	-0.0026977777
12	0xba0032b5	-0.00048903684
13	0x39f844b5	0.00047353437
14	0x3c81aaab	0.015828451
15	0xba3404e7	-0.00068671856
16	0xb9c38b39	-0.00037297027
17	0x3c1fa39d	0.009743598
18	0x3c821b6f	0.015882222
19	0xba476340	-0.0007606037
20	0xbb4e0354	-0.003143509
21	0x93a74a9e	-4.2230305e-27
22	0x8f728ba4	-1.1958415e-29
23	0xadc7be81	-2.2708281e-11
24	0xba4e046c	-0.0007858935
25	0x3add79e0	0.0016897283
26	0xb77e6e65	-1.5165283e-05
27	0xa946ab50	-4.411342e-14
28	0xa3d773f2	-2.3359451e-17
29	0x3a9d6c6c	0.0012010462
30	0x91c91e0b	-3.1730724e-28
31	0xb7b97a68	-2.2110718e-05
32	0x9b287af1	-1.3936359e-22
33	0xb8a1e5ae	-7.7198594e-05
34	0x9e6b0a84	-1.2442971e-20
35	0x3ce90344	0.02844394
36	0xbabafca7	-0.001426597
37	0x3c92ba3d	0.017911071
38	0xbadaafc7	-0.0016684466
39	0xac2d4710	-2.4624226e-12
40	0xbab9a42f	-0.001416331
41	0x9ed2fefc	-2.2340074e-20
42	0xa3b45345	-1.9550905e-17
43	0xbaf45437	-0.0018640821
44	0xbb2824f1	-0.0025656784
45	0x3bc317f0	0.0059537813
46	0xa7b67b5b	-5.064889e-15
47	0x3bc41715	0.005984197
48	0xba1da4cd	-0.0006013632
49	0x3b406618	0.0029357728
50	0xa5a79f0b	-2.9077654e-16
51	0xbb46bca0	-0.0030324832
52	0xbb709a69	-0.003671313
53	0xbb06a6f3	-0.0020546287
54	0x3bc9cc41	0.006158382
55	0xb960b2a9	-0.00021428861
56	0xbb3238a5	-0.0027194407
57	0x8c560fa7	-1.649067e-31
58	0x3a40d351	0.00073557073
59	0xb809e7b3	-3.2879132e-05
60	0xba085de8	-0.00052019814
61	0x3bd32403	0.006443502
62	0xae269184	-3.7873274e-11
63	0xbb3ae16f	-0.0028515717

net_model.4.weight f4 [32, 64]
0	0x834d8f45	-6.040855e-37
1	0x02c84b63	2.9430629e-37
2	0x8360c60c	-6.605503e-37
3	0x81eecfde	-8.7725667e-38
4	0x034a03a4	5.9366644e-37
5	0x832c1992	-5.057561e-37
6	0x82d1dfe8	-3.0838306e-37
7	0x034d1cac	6.0277e-37
8	0x0340b262	5.6628502e-37
9	0x006d5290	1.0039687e-38
10	0x818c449d	-5.1526333e-38
11	0x8359bb7f	-6.3985803e-37
12	0x82e2ac81	-3.3306728e-37
13	0x82da1ecf	-3.2049904e-37
14	0x8319820b	-4.511194e-37
15	0x035a0875	6.407415e-37
16	0x032e9674	5.1306716e-37
17	0x021ffded	1.1754348e-37
18	0x82f6d090	-3.626616e-37
19	0x036e78b5	7.008048e-37
20	0x8327931f	-4.9245776e-37
21	0x0319b788	4.5173342e-37
22	0x831b1da9	-4.5584454e-37
23	0x03330a14	5.261494e-37
24	0x82c1bce5	-2.8467221e-37
25	0x8110658c	-2.652148e-38
26	0x03154cee	4.3875476e-37
27	0x82304aac	-1.2951868e-37
28	0x832247ea	-4.7690075e-37
29	0x82dec96e	-3.2735583e-37
30	0x82c79ad3	-2.9329287e-37
31	0x826ede7f	-1.7549332e-37
32	0x813fe50c	-3.5245493e-38
33	0x82b42984	-2.6472452e-37
34	0x02018b74	9.517444e-38
35	0x0324b58e	4.8403683e-37
36	0x835734cc	-6.324343e-37
37	0x835603fc	-6.289352e-37
38	0x835ad3ff	-6.43078e-37
39	0x031ff2de	4.70047e-37
40	0x83335286	-5.2698104e-37
41	0x832c7053	-5.06752e-37
42	0x01ea267b	8.601324e-38
43	0x8292fcf6	-2.1597964e-37
44	0x02561b62	1.5730095e-37
45	0x8311a652	-4.2802597e-37
46	0x01a1f334	5.949104e-38
47	0x0225c648	1.2179189e-37
48	0x80a7d588	-1.5413128e-38
49	0x830619a5	-3.94085e-37
50	0x0367ca75	6.811721e-37
51	0x831c03d7	-4.5848688e-37
52	0x030e2eca	4.178376e-37
53	0x8323f0ef	-4.8177973e-37
54	0x83140c04	-4.3507084e-37
55	0x834020a9	-5.646122e-37
56	0x8105f2d8	-2.4602474e-38
57	0x031b57ea	4.5651326e-37
58	0x02b2fa08	2.629826e-37
59	0x0336095f	5.349575e-37
60	0x82ec81b1	-3.4751523e-37
61	0x834e503e	-6.0630073e-37
62	0x83023bfe	-3.8272434e-37
63	0x0339e837	5.4633183e-37
64	0x02123405	1.0741315e-37
65	0x033cee24	5.5521607e-37
66	0x8210f0ff	-1.0648612e-37
67	0x83292843	-4.9710855e-37
68	0x03259b8a	4.866769e-37
69	0x8323cd09	-4.8136764e-37
70	0x829ab11e	-2.2729927e-37
71	0x82100d07	-1.0583188e-37
72	0x03554dc4	6.2684345e-37
73	0x8303bbdc	-3.871309e-37
74	0x0335f75d	5.347508e-37
75	0x0347bdb8	5.869863e-37
76	0x835d0387	-6.495011e-37
77	0x0233a7c7	1.3198993e-37
78	0x8320d5b4	-4.7265093e-37
79	0x02d48eae	3.1232494e-37
80	0x83249b4b	-4.8373536e-37
81	0x0331f097	5.229181e-37
82	0x8338dadd	-5.4323983e-37
83	0x8363691e	-6.6829973e-37
84	0x0331646e	5.2130913e-37
85	0x825a22c7	-1.6026091e-37
86	0x027a06c2	1.8369039e-37
87	0x821c77da	-1.1495466e-37
88	0x03361fc8	5.3521476e-37
89	0x83011874	-3.7937764e-37
90	0x0303f5da	3.8779664e-37
91	0x0324665c	4.831277e-37
92	0x82848aa3	-1.947523e-37
93	0x820d522c	-1.0382626e-37
94	0x8306f190	-3.965636e-37
95	0x03462479	5.822884e-37
96	0x835a88f7	-6.422167e-37
97	0x03380a79	5.408476e-37
98	0x036284e6	6.656799e-37
99	0x8222613d	-1.1929786e-37
100	0x83072252	-3.971233e-37
101	0x834ca1fb	-6.0136156e-37
102	0x0332d449	5.255319e-37
103	0x030185b8	3.8063194e-37
104	0x036a994b	6.894239e-37
105	0x832d2862	-5.088649e-37
106	0x035b778c	6.449555e-37
107	0x83225b9c	-4.7712684e-37
108	0x82502a3c	-1.5293547e-37
109	0x82c7e4ca	-2.937174e-37
110	0x81959024	-5.494079e-38
111	0x835a8c05	-6.4225177e-37
112	0x031139e5	4.267813e-37
113	0x03056922	3.9205874e-37
114	0x03260640	4.879019e-37
115	0x832e4069	-5.1207943e-37
116	0x033a5a7d	5.4764363e-37
117	0x8347a019	-5.8664627e-37
118	0x02fa8a9c	3.6813756e-37
119	0x830ff2ee	-4.2302793e-37
120	0x02e834ba	3.41196e-37
121	0x035fbea0	6.5752637e-37
122	0x82d784f0	-3.1667713e-37
123	0x831e8a6a	-4.659092e-37
124	0x834ed729	-6.078495e-37
125	0x03306744	5.1840295e-37
126	0x834db866	-6.0455765e-37
127	0x832d187d	-5.086824e-37
128	0x03585dc2	6.3584324e-37
129	0x02835ece	1.9303135e-37
130	0x83000bb6	-3.7629263e-37
131	0x02df3bb4	3.2801173e-37
132	0x8338d782	-5.432013e-37
133	0x8359fc0c	-6.4059904e-37
134	0x033ea50f	5.602546e-37
135	0x032a5fc2	5.0068434e-37
136	0x0305b909	3.9297597e-37
137	0x8312f6de	-4.3188933e-37
138	0x83189c56	-4.484825e-37
139	0x83201b7d	-4.705133e-37
140	0x8306b825	-3.959045e-37
141	0x82f7efae	-3.6430957e-37
142	0x82d910b8	-3.189488e-37
143	0x8367a5fd	-6.8075344e-37
144	0x0320ae0f	4.7219583e-37
145	0x832e0210	-5.113637e-37
146	0x03364527	5.3564376e-37
147	0x0339b594	5.4575055e-37
148	0x034d6bec	6.0367974e-37
149	0x830723b1	-3.9713906e-37
150	0x02e2790b	3.327719e-37
151	0x030a6e05	4.068085e-37
152	0x83368ec5	-5.3648884e-37
153	0x034b032f	5.9659993e-37
154	0x8311376d	-4.2675296e-37
155	0x031433c7	4.355273e-37
156	0x03107b52	4.245936e-37
157	0x830f5099	-4.2116445e-37
158	0x8328c934	-4.9601733e-37
159	0x02095b1d	1.0091319e-37
160	0x83394720	-5.444826e-37
161	0x82d45a72	-3.1202513e-37
162	0x034d62b2	6.035738e-37
163	0x0313d418	4.344289e-37
164	0x0280bc92	1.8916144e-37
165	0x03302600	5.1765373e-37
166	0x03376e10	5.390521e-37
167	0x031c4897	4.592761e-37
168	0x030afdbe	4.0845837e-37
169	0x834fa429	-6.102028e-37
170	0x8270761c	-1.7666311e-37
171	0x0307af76	3.9874354e-37
172	0x82016465	-9.506235e-38
173	0x82332177	-1.3160447e-37
174	0x03146be3	4.361714e-37
175	0x034015e0	5.644884e-37
176	0x8363aa28	-6.6904634e-37
177	0x03263f85	4.8855932e-37
178	0x01d336f4	7.758801e-38
179	0x82dbb860	-3.2284984e-37
180	0x01a859d8	6.1842373e-38
181	0x02e0dd76	3.3040954e-37
182	0x0334660b	5.3014385e-37
183	0x826d4686	-1.7432249e-37
184	0x8311a5f5	-4.280218e-37
185	0x8325fcce	-4.8779348e-37
186	0x033674cd	5.3619074e-37
187	0x82c74e30	-2.92853e-37
188	0x033c584a	5.5349585e-37
189	0x835714d6	-6.320674e-37
190	0x831972e2	-4.509454e-37
191	0x03393eda	5.4438764e-37
192	0x0323ca1e	4.8133414e-37
193	0x835e5d85	-6.534729e-37
194	0x034df801	6.052878e-37
195	0x8339589e	-5.446834e-37
196	0x81d98564	-7.9904617e-38
197	0x834cdc7e	-6.0203325e-37
198	0x8364f948	-6.728934e-37
199	0x028dbf3c	2.082785e-37
200	0x030028b2	3.7662535e-37
201	0x82ebbd6c	-3.463887e-37
202	0x03172bc6	4.442516e-37
203	0x834eaf52	-6.0739217e-37
204	0x82c59bb7	-2.9035924e-37
205	0x833c5d7a	-5.535554e-37
206	0x02a05ef9	2.3564399e-37
207	0x035d6c20	6.5070184e-37
208	0x02ae951e	2.5652591e-37
209	0x0321309f	4.736946e-37
210	0x834e1855	-6.056589e-37
211	0x02cbead0	2.9962945e-37
212	0x831ac4ca	-4.5482435e-37
213	0x83194184	-4.5037867e-37
214	0x83546c16	-6.2425277e-37
215	0x03330f4d	5.2620937e-37
216	0x82d5c41e	-3.1410103e-37
217	0x0326d198	4.9023617e-37
218	0x8353e51d	-6.2270336e-37
219	0x03075b06	3.9777424e-37
220	0x82ad1bf4	-2.543611e-37
221	0x83511c4c	-6.1452063e-37
222	0x82f41a5b	-3.5867705e-37
223	0x033a4bb4	5.474739e-37
224	0x03699d94	6.8653437e-37
225	0x8332d634	-5.255539e-37
226	0x82af1712	-2.572718e-37
227	0x033f93b5	5.6299415e-37
228	0x034c6352	6.0064226e-37
229	0x0331ac65	5.2213524e-37
230	0x81a84228	-6.1808383e-38
231	0x832f0a32	-5.143958e-37
232	0x034a0c98	5.937692e-37
233	0x035f3f33	6.560636e-37
234	0x033fa05a	5.631393e-37
235	0x034a8fed	5.9527683e-37
236	0x829208da	-2.1457852e-37
237	0x829ab4cc	-2.2732039e-37
238	0x835542d9	-6.267181e-37
239	0x0358dd13	6.3730476e-37
240	0x01f233de	8.8971186e-38
241	0x033ecceb	5.6071216e-37
242	0x8349829d	-5.921853e-37
243	0x031acf07	4.549419e-37
244	0x83012d95	-3.796202e-37
245	0x83457b36	-5.8034536e-37
246	0x020813c7	9.997378e-38
247	0x82fb3d62	-3.6916367e-37
248	0x0338f69e	5.4355843e-37
249	0x81961ffa	-5.514718e-38
250	0x81860b16	-4.9239733e-38
251	0x032892a5	4.9539102e-37
252	0x834e35f2	-6.0599885e-37
253	0x83578657	-6.3337036e-37
254	0x8306031e	-3.938264e-37
255	0x83698390	-6.8623572e-37

net_model.4.bias f4 [32]
0	0xb9bc40c9	-0.00035906423
1	0xb76a0ddd	-1.3950715e-05
2	0xb9b17a4c	-0.0003385119
3	0xba151297	-0.0005686669
4	0xb9fe3449	-0.0004848561
5	0xb9771b7c	-0.00023565994
6	0xba06c1b8	-0.00051405607
7	0xb82e2a9c	-4.1524516e-05
8	0xba0d9c2d	-0.0005401995
9	0xb9e4f96a	-0.00043673377
10	0xb9a7bda3	-0.00031994013
11	0xb9ab53a1	-0.0003267797
12	0xb99ac2b3	-0.0002951823
13	0xb99dad59	-0.00030074528
14	0xb9f72ae6	-0.00047143473
15	0xb9f3626d	-0.00046421905
16	0xba08fb76	-0.0005225459
17	0xb9eec541	-0.00045541863
18	0xb99c6a2e	-0.0002983375
19	0xb8fd1038	-0.00012067001
20	0xba16b800	-0.0005749464
21	0xba060d05	-0.00051136344
22	0xba0fd5ca	-0.0005486874
23	0xaff7896e	-4.5026688e-10
24	0xb9fa348b	-0.00047722863
25	0xb9e4da39	-0.00043650137
26	0xb9e39046	-0.00043404306
27	0xb87cce0e	-6.0273385e-05
28	0xb965b73d	-0.00021907403
29	0xb9f2a190	-0.0004627821
30	0xb982ade1	-0.00024925082
31	0xbb0bf1cc	-0.002135384

net_model.6.weight f4 [1, 32]
0	0xb92f2da4	-0.00016706303
1	0x8310304e	-4.2373248e-37
2	0x02490963	1.4769842e-37
3	0x835c7862	-6.479038e-37
4	0x39e9fa39	0.00044627654
5	0x8325fdd2	-4.8780513e-37
6	0x836ca686	-6.9545326e-37
7	0x385177be	4.9941e-05
8	0x831d1150	-4.6158027e-37
9	0x39e1eb8c	0.0004309084
10	0x39ca691d	0.00038606758
11	0x8332860a	-5.246337e-37
12	0x39b07dc2	0.00033663033
13	0xb8fd238c	-0.00012070601
14	0xba03aed5	-0.00050233054
15	0x39f5f009	0.00046908882
16	0x8359a5b2	-6.3960777e-37
17	0xba063a22	-0.0005120357
18	0x39c0c4c6	0.000367677
19	0x83548758	-6.2456568e-37
20	0x39c8b9c3	0.00038285376
21	0x39edeca4	0.00045380474
22	0x832da8d1	-5.1033922e-37
23	0x0344b625	5.7808315e-37
24	0xba009e1a	-0.00049063715
25	0x3805313e	3.175553e-05
26	0x831d7880	-4.627648e-37
27	0x3886bec8	6.425154e-05
28	0xba14b4d3	-0.0005672697
29	0x3928d2b3	0.0001610022
30	0xb9117cbe	-0.00013874748
31	0xbd7d4943	-0.061837446
