src/t1dsim_ai/models/IndividualModel/T1DEXI-01-1245/individual_model.pt (torch, 50089 bytes, 7 tensors)

net_model.0.weight f4 [128, 10]
00000000: 5369 49bc 35df 0ebe 7181 12bd d746 b9bd
00000010: aba8 f8bd 5b6c c3bd c927 71be 06ba 243d
00000020: cce1 8c3d e82c e13d fde2 b7bb 1b11 803c
00000030: 27a4 693c afe3 263c 7814 0ebc d0b8 7eba
00000040: 207d f13c 37da 263c 59cc 83bc b61b c2bd
00000050: 5952 aabb 4c2f 823c 88c3 683c 3abd 273c
00000060: 81c6 0abc ac67 93b9 ed71 f43c 66ff 2a3c
00000070: 5978 85bc 2d06 c4bd 2251 223d 3065 693d
00000080: 4549 223c a5bb e8b8 cdab 513d 83c8 3dbc
00000090: b0ab 183d b6cd 113a 6f17 ffbc 2be9 33be
000000a0: 38c7 ba3c 79fa a0bd b573 7dbd 87dd 18be
000000b0: 774b 20be 635a 39bb 0f7e 463c 9793 813d
000000c0: 9d80 493c 9550 783d d146 b93c 49f9 873c
000000d0: e6a3 9bbc 2dff 93bc 9ad1 003d 80c2 3dbd
000000e0: 17b1 8bbb b8e8 40bc 9b2b 66bc 11e8 4abd
000000f0: f62b 203b 991f f33c 3772 9e3c 4a95 e63b
00000100: 0c7e da3b b5f5 57bb 20fc ff3c 002a 333c
00000110: 1f2a c3bc c5e1 fdbd 049d c13c 72d6 8e3c
00000120: 603d 9ebc 7074 8fbc d872 ed3c 84b1 5abd
00000130: f485 aaba 5117 53bc 8ae8 6cbc 3496 2cbd
00000140: 9abd aabb b259 823c 448b 683c a772 273c
00000150: 7ba0 0bbc e715 9eb9 0098 f43c fee2 283c
00000160: 148d 85bc 1ca9 c3bd aa8d b13c 9b0c 863c
00000170: ba0d 92bc 9ee8 8ebc e671 fc3c 29a5 3dbd
00000180: c5d3 97bb 1255 50bc 7910 71bc 5dcd 6ebd
00000190: 2454 d03c ce8d 8b3c 6c9f babc 8997 a3bc
000001a0: ae59 0b3d 8f75 34bd c120 93bb 8f78 1ebc
000001b0: 7535 35bc 1925 25bd af49 be3c ce71 883c
000001c0: f81a a3bc 7444 98bc fff0 033d 84d4 38bd
000001d0: f586 91bb 1f7f 34bc d76a 5fbc 7b1a 3ebd
000001e0: d498 a9bb ed8f 823c 3ec0 673c 95c9 273c
000001f0: 1c95 0cbc 8744 bfb9 04cd f43c 9fe1 263c
00000200: 1137 86bc 949a c3bd f4de d03c 3194 8b3c
00000210: 0198 bbbc 69f7 a3bc 25bc 0b3d 4c1f 33bd
00000220: c4ae 98bb f7ee 1abc 2ab9 34bc 70e8 24bd
00000230: b010 a9bb cee2 823c 133b 683c 1cad 273c
00000240: 876e 0cbc 51ca c1b9 521a f53c 2f5c 263c
00000250: 2a58 86bc b4a6 c3bd 93b7 a9bb 0b95 823c
00000260: 0560 693c 47d3 273c 3dd6 0abc a45b 9eb9
00000270: fda5 f43c 4213 2a3c c2b1 85bc d0fb c3bd
00000280: cd71 193b f3c0 c93c 8977 0b3c b3c1 36bc
00000290: bd4e e63b b3e6 aabb b5da bb3c e441 daba
000002a0: 2f7a b3bc 2d88 d0bd 9b19 19bc 49e7 653c
000002b0: 75d7 923c 582e 473c cf81 08bc be76 91bb
000002c0: 1b72 ed3c 9cb8 433c edeb 5abc 9a32 c2bd
000002d0: 0a68 c13c cfe3 8f3c 3071 9cbc d962 8dbc
000002e0: 4b4c e93c 2ab3 5ebd 8228 35ba 4e04 5abc
000002f0: 7ccc 6fbc e946 2abd a7be e53c fba2 cf3c
00000300: 5856 8cbc e0c4 5abc 9ece 3b3d f82f 84bc
00000310: bc84 07bc e8c4 cfbb f2d9 3abc bbaf cebc
00000320: 3586 d33c 2372 bb3c a567 89bc feb2 63bc
00000330: 5c1e 323d 2d39 a8bc 9245 2ebc 39e9 f7bb
00000340: 5db0 2cbc cf0d 26bd 1f50 c63c 3338 8c3c
00000350: cb5f aabc fe03 9dbc 7a5a 053d 487b 3bbd
00000360: 653a 83bb 9c43 2dbc b46a 4dbc 17dd 2cbd
00000370: 56cf b43c 8a00 8b3c b45f 9abc 8713 97bc
00000380: 042a 113d c864 0abd 8378 42bc d45b 13bc
00000390: 3c0f 2abc d002 75bd 42a1 18bc 49e3 663c
000003a0: 9f38 933c 447a 473c 1847 08bc 6292 91bb
000003b0: fcef ec3c 66bd 433c fa71 5abc 4433 c2bd
000003c0: f2bb d13c c688 8b3c 463a bdbc 1569 a3bc
000003d0: 158b 0b3d 4bbd 34bd 1db6 8abb 619a 1bbc
000003e0: 6bdb 32bc a814 23bd 1a94 ea3c f34e d63c
000003f0: c17c 87bc bcc5 38bc c13b 3e3d 2e55 67bc
-0.012293178 -0.13952334 -0.035767976 -0.09046715 -0.12141546 -0.095421515 -0.23550333 0.04021647
0.06879005 0.10994893 -0.005611776 0.015633157 0.014260328 0.01018612 -0.008671872 -0.000971687
0.02947861 0.010183862 -0.016088651 -0.09477942 -0.005197805 0.015891694 0.0142067745 0.010237986
-0.008470179 -0.00028115266 0.02983948 0.010436868 -0.016292738 -0.095714904 0.039628156 0.056981266
0.009905164 -0.000110975736 0.051189233 -0.01158345 0.03727311 0.00055619644 -0.031139104 -0.17569415
0.022800073 -0.07860274 -0.061877925 -0.14928256 -0.15653788 -0.0028282634 0.012115016 0.06326979
0.01229873 0.060623724 0.022616776 0.01659836 -0.018999051 -0.018066013 0.03144989 -0.046328068
-0.004263054 -0.0117742345 -0.014048482 -0.049537722 0.0024440265 0.029678153 0.019341571 0.0070368396
0.006667858 -0.003295285 0.031248152 0.010935307 -0.023823796 -0.12396578 0.023634441 0.01743624
-0.019316375 -0.017511576 0.028985426 -0.05339195 -0.0013009892 -0.012883977 -0.0144597385 -0.042135432
-0.0052105905 0.01591191 0.01419336 0.010220206 -0.008522148 -0.00030152427 0.029857635 0.010308025
-0.016302623 -0.095537394 0.021673996 0.016363433 -0.017828811 -0.017444905 0.03081603 -0.046300087
-0.004633399 -0.012715595 -0.0147134 -0.05830132 0.025430746 0.017035391 -0.022781096 -0.019969719
0.034021072 -0.044057425 -0.0044899886 -0.009672298 -0.011060108 -0.040318582 0.023228494 0.016655829
-0.01991032 -0.018587328 0.032212254 -0.045124546 -0.004441137 -0.011016636 -0.013636312 -0.046411972
-0.0051756892 0.01593777 0.014144955 0.010240932 -0.008580472 -0.00036481416 0.029882915 0.010185628
-0.01638368 -0.09550968 0.025496937 0.017038437 -0.02289963 -0.020015435 0.034114975 -0.04373102
-0.0046595056 -0.009456388 -0.011030475 -0.040260732 -0.00515946 0.01597729 0.014174241 0.010234144
-0.008571274 -0.00036962566 0.029919777 0.010153814 -0.016399462 -0.095532805 -0.0051793545 0.01594021
0.014244084 0.010243244 -0.00847393 -0.00030204386 0.029864306 0.010380568 -0.016320113 -0.09569514
0.0023413778 0.024628138 0.008512386 -0.01115458 0.0070284293 -0.00521549 0.022931436 -0.0016651717
-0.021908848 -0.101822235 -0.009344484 0.014032193 0.017925004 0.012157045 -0.00833173 -0.004439204
0.028985074 0.01194587 -0.013361913 -0.09482308 0.02360918 0.017564682 -0.01909694 -0.017259048
0.028478762 -0.054370083 -0.0006910638 -0.01330669 -0.014636155 -0.04157153 0.028045012 0.02534627
-0.017131016 -0.013352603 0.045851342 -0.016136155 -0.008271392 -0.0063406117 -0.011404501 -0.02523028
0.02582083 0.022881573 -0.016773054 -0.0138976555 0.043485984 -0.020535076 -0.010636704 -0.007565644
-0.010540095 -0.040540513 0.024208127 0.017116642 -0.02079763 -0.019166943 0.03255699 -0.045771867
-0.004004764 -0.010575201 -0.012537647 -0.042203035 0.022071522 0.01696803 -0.018844463 -0.018441929
0.03544046 -0.03378752 -0.011869553 -0.0089940615 -0.010379609 -0.059817135 -0.009315791 0.014092275
0.017971335 0.0121751465 -0.008317731 -0.004442499 0.028923027 0.011947012 -0.013332838 -0.094824344
0.025602315 0.017032992 -0.023099076 -0.019947568 0.034068186 -0.044125836 -0.0042331354 -0.009497256
-0.010916571 -0.03981462 0.028635073 0.026160693 -0.01653898 -0.011277612 0.046443705 -0.0141194295

net_model.0.bias f4 [128]
00000000: 7d96 b33c 6bae 413d 963a 433d f9a2 a23d
00000010: a074 af3c 75bd b1bc f903 5f3d 77ba adbc
00000020: 6315 433d f2df b8bc 2224 9cbc 9951 adbc
00000030: b10b 433d 47a0 9bbc a110 433d 994f 433d
00000040: 3b4d 463d a3d5 393d 7b08 aebc f840 66bc
00000050: b123 86bc ae29 a6bc a3d8 acbc 66f7 393d
00000060: e29a 9abc 550f 58bc 71ce 9fbc ffe5 acbc
00000070: c9c9 423d bbae 8fbc 1856 4ebc b967 84bc
00000080: 93cd 393d b245 433d c760 433d f851 433d
00000090: 1026 453d eb46 433d a070 533d 7b89 9fbc
000000a0: be2e 3a3d 243f a1bc bd11 3a3d 2f5c 423d
000000b0: 05d5 b3bc 12bc 153d fb0d b3bc 3d7d 86bc
000000c0: dad0 adbc 943c 9abc 4f05 89bc 78d0 423d
000000d0: 4532 b2bc 9cf5 afbc 0518 9bbc 4f2f a6bc
000000e0: 0e37 a1bc a5b9 afbc 6e69 9bbc 6fea 573d
000000f0: dc42 433d e1a0 afbc 66d3 b0bc 7a07 433d
00000100: 69d7 9abc 8bc5 adbc c359 a7bc e532 383d
00000110: af1e 3e3d b09b acbc b079 a2bc f30b 433d
00000120: a1a0 423d 0cc0 393d 9aae afbc 57df 62bc
00000130: a056 a0bc 7b4c 423d f134 3a3d 2994 aabc
00000140: 8762 3a3d 44f8 9ebc bee9 9cbc 6e81 9abc
00000150: 2d0b abbc add6 3a3d 441f a6bc ace5 55bc
00000160: c751 acbc ab48 433d 107e 81bc 3d12 3a3d
00000170: 2e22 b1bc 8d59 433d 561a 433d bb33 433d
00000180: bdf7 96bc fcf1 62bc 8d54 433d d20c bbbc
00000190: 5fd2 9b3d 3cbe a5bc 0f29 9ebc 6298 a4bc
000001a0: cf61 433d 9dc6 393d 6709 a5bc 4660 a4bc
000001b0: 4d76 393d baf4 3d3d 6502 84bc ebcb c2bc
000001c0: f3b7 a4bc 0996 a6bc f948 9ebc 0e62 433d
000001d0: f44c a3bc 9451 9bbc 0c79 433d 692b 3b3d
000001e0: 8ac4 b3bc 2316 3a3d 03af 99bc 8c13 483d
000001f0: 8800 98bc f1db 393d f14a 433d 28e4 423d
0.021922344 0.04728548 0.047663294 0.07941241 0.021417916 -0.021696785 0.054447148 -0.021207077
0.047627818 -0.022567723 -0.019060198 -0.021157073 0.04761857 -0.018997325 0.04762328 0.047683332
0.048413496 0.045369755 -0.021244278 -0.014053576 -0.01637444 -0.020283546 -0.021099394 0.045401953
-0.018872682 -0.013187249 -0.019507619 -0.021105764 0.04755572 -0.017539373 -0.012593769 -0.01616274
0.045362066 0.04767389 0.047699716 0.047685593 0.048132002 0.047675055 0.05162108 -0.019474735
0.045454733 -0.019683428 0.045427073 0.047451194 -0.021952162 0.03655631 -0.021857252 -0.01641714
-0.021217752 -0.018827714 -0.016726164 0.047562093 -0.021752486 -0.02147942 -0.018932352 -0.02028623
-0.019679572 -0.021450827 -0.018971171 0.052713808 0.047671184 -0.021439018 -0.021585178 0.047614552
-0.018901544 -0.02121236 -0.020428544 0.04497041 0.04641598 -0.021070331 -0.019833416 0.047618818
0.04751647 0.045349166 -0.021445561 -0.013847194 -0.019572556 0.04743622 0.045460645 -0.020822601
0.04550412 -0.019405492 -0.019154426 -0.018860545 -0.020879352 0.045614887 -0.02027858 -0.013055246
-0.021035088 0.047676723 -0.015807182 0.04542755 -0.021622743 0.047692824 0.047632538 0.047656756
-0.018428678 -0.013851639 0.047688056 -0.022833262 0.076084845 -0.020232312 -0.019306688 -0.020092193
0.0477007 0.045355428 -0.020146085 -0.020065438 0.045278836 0.046375968 -0.016114423 -0.023778876
-0.020107245 -0.020335214 -0.019321905 0.047700934 -0.019934155 -0.018959798 0.04772286 0.045695696
-0.021944303 0.045431267 -0.01876021 0.048846766 -0.01855494 0.045375768 0.04767889 0.047580868

net_model.2.weight f4 [64, 128]
00000000: 0edb 3883 5d18 4703 f365 3f83 bdbc 0d03
00000010: 3879 5d83 2c83 3c83 1bd5 4103 783d fa00
00000020: f464 1183 424d a402 22a7 0c83 b282 3b83
00000030: 0a03 4383 d412 5683 44d6 f602 0a20 5d03
00000040: dc37 4b83 ed81 dc02 de30 bb02 1a86 0b83
00000050: 8fc4 0003 f214 5883 2e25 2903 da06 5c83
00000060: 622c a402 8a2a b582 b177 1e83 0478 6083
00000070: 0a32 1683 353b 1b03 75ee 5b03 81d4 2083
00000080: 17eb 5783 0baa 2e03 5af3 8582 da94 3583
00000090: 9cf9 4783 3820 da02 6aa4 6883 a408 1683
000000a0: 6f46 1d03 68b2 f682 d7a7 5a83 6350 5003
000000b0: fcf0 2203 a679 4583 3bee 8c82 db03 5483
000000c0: 4c9c 4901 6524 4783 87aa 8c02 57de 0b03
000000d0: 0bd8 0883 09c7 4c83 456d 3383 0641 4e82
000000e0: 2aad e102 4aee 6103 7db3 a602 1fe0 5e83
000000f0: a27e d682 2ee4 1c83 04f2 3483 3033 2703
00000100: 9d10 4183 307f 4c83 89d7 4783 f926 2283
00000110: f039 1d83 edd0 3683 bd2c 3203 1aa1 6483
00000120: 72e1 1f83 e972 1b03 177d 4b03 9714 5c83
00000130: 00d1 2a01 fd69 3f03 256d 3c03 b454 6b83
00000140: cc52 1e83 0537 6383 98c9 1603 907a 2d03
00000150: 29c4 5083 cde8 3883 0174 4383 4a4a 5a03
00000160: 4802 0483 1591 6003 2669 f902 d41c 1b83
00000170: f267 3283 a72e 1983 c00f 3403 8426 fc82
00000180: 7052 2d03 3063 4a83 6c59 1283 3648 a602
00000190: 1d94 4803 20ba 1a83 842b 4e03 c659 2f83
000001a0: f8c2 0a03 b403 3683 38eb 1c03 cf6b 3883
000001b0: 9a29 5583 f963 0a02 a73e 3383 208c a002
000001c0: 0e2c 4703 c246 d702 9056 5683 052e 5782
000001d0: 168e c302 aee9 2b03 2224 4403 b46a 9702
000001e0: 3e4f 3f03 08ff 0903 c1fd d502 dd48 6b82
000001f0: 62ef 6b03 e215 1703 f825 fa82 1e3f 2803
00000200: 5ddc 2c83 a2f3 4203 1d0a 3383 8bfc 0783
00000210: 287c 7582 e0a0 2f81 6b98 5583 2488 9101
00000220: 5ec7 6183 48c7 1283 58dd 8802 791e 0c02
00000230: f65c 3203 a869 5503 6dce 3a83 fc3b 3783
00000240: 4476 ba82 50bd 4983 bc97 1e02 4e17 3283
00000250: 88ed f602 8aa9 f282 946d 1f01 2c61 bf82
00000260: 4e72 4383 1e2e 2303 358b 3c83 923c 2983
00000270: 264c 9a82 0440 9202 81d6 2e83 657e 1883
00000280: 7228 2683 f738 8482 ce4f 5b83 8039 1683
00000290: 051f 5003 69a4 3303 e948 2383 d394 4083
000002a0: 7214 4e83 2ef4 4e03 f0f2 df02 eba4 1183
000002b0: 58e8 8002 4a47 5e03 5034 a601 e9ed c882
000002c0: 00f1 fa02 2e8e 3c83 9a42 9481 8ced 6883
000002d0: 56ab 4e03 f2ef 2b83 f11d 3d83 6e63 1d03
000002e0: e942 3303 f6c2 3b03 0e19 6803 9613 1a03
000002f0: 104e 2c03 789a 4603 7437 d302 9e42 1b03
00000300: ac71 2803 d4dd 5503 f8d2 2983 f0a3 3a83
00000310: ccba 2f03 9e6e 3a83 85d1 0503 f8e1 1803
00000320: 3dd1 4183 38af fa82 a7f9 5f03 9ac9 3483
00000330: 4655 1283 1996 0f03 90a8 6083 91e5 6783
00000340: 463c 4503 bd13 4983 3247 3083 4ada 2f83
00000350: d6f1 3303 fa62 2883 04bd 4303 1682 5603
00000360: 4c17 0481 a445 5f03 4cac 0f03 f7dc 0a83
00000370: 7855 4283 36e8 3903 08e3 f080 bab0 3283
00000380: 633c 2383 5609 5c83 6aba 6d03 5a54 5b03
00000390: fe8d 0f03 ddc3 2b83 cecf 4783 26ee 3203
000003a0: d0ad 5983 90ef 0683 4a80 0983 d77e 5503
000003b0: 6e31 3183 3d3e 4f83 008e 2a83 abc5 4b82
000003c0: e262 0783 d0f1 4383 b8f8 4303 3e76 1103
000003d0: 3808 1103 7613 1e03 e6c6 3983 9ae8 3f03
000003e0: a84b 0483 b51b 4d82 442f 1683 f629 b502
000003f0: 370f 6183 174b 1a03 8972 4683 8113 3983
-5.4324203e-37 5.850881e-37 -5.6246887e-37 4.1652837e-37 -6.5085215e-37 -5.5398812e-37 5.6962236e-37 2.2980925e-38
-4.272756e-37 2.4141978e-37 -4.133416e-37 -5.510439e-37 -5.730884e-37 -6.291056e-37 3.6269434e-37 6.498284e-37
-5.972046e-37 3.2400668e-37 2.7505229e-37 -4.100237e-37 3.7841457e-37 -6.350074e-37 4.9707317e-37 -6.4660055e-37
2.4123109e-37 -2.6619976e-37 -4.6569426e-37 -6.5965455e-37 -4.413848e-37 4.5618372e-37 6.463205e-37 -4.7263717e-37
-6.345269e-37 5.1329204e-37 -1.968227e-37 -5.3361993e-37 -5.876738e-37 3.2050714e-37 -6.836741e-37 -4.4090957e-37
4.6219007e-37 -3.6248851e-37 -6.4257113e-37 6.1217986e-37 4.7884158e-37 -5.8032742e-37 -2.0707889e-37 -6.2305626e-37
3.7030007e-38 -5.8522623e-37 2.066903e-37 4.1103662e-37 -4.0214813e-37 -6.0178693e-37 -5.2728807e-37 -1.5153151e-37
3.316017e-37 6.63951e-37 2.449453e-37 -6.5497215e-37 -3.1517158e-37 -4.6106217e-37 -5.3175066e-37 4.913565e-37
-5.6736674e-37 -6.0096216e-37 -5.8728266e-37 -4.765226e-37 -4.6204662e-37 -5.372483e-37 5.2360856e-37 -6.7188114e-37
-4.69847e-37 4.5682316e-37 5.9799934e-37 -6.4675825e-37 3.137402e-38 5.6251524e-37 5.5373526e-37 -6.9157528e-37
-4.6527073e-37 -6.6772464e-37 4.4312456e-37 5.0980826e-37 -6.1350887e-37 -5.4339982e-37 -5.7438516e-37 6.414972e-37
-3.8793932e-37 6.599423e-37 3.6647614e-37 -4.55835e-37 -5.242882e-37 -4.5016213e-37 5.2915326e-37 -3.705018e-37
5.0934764e-37 -5.9476326e-37 -4.3008195e-37 2.4432955e-37 5.8944743e-37 -4.5470194e-37 6.0587913e-37 -5.1530933e-37
4.077837e-37 -5.3489244e-37 4.6114298e-37 -5.41965e-37 -6.264283e-37 1.016733e-37 -5.2675294e-37 2.3590315e-37
5.8531416e-37 3.1632024e-37 -6.2988317e-37 -1.5808912e-37 2.8734228e-37 5.0520635e-37 5.76407e-37 2.22487e-37
5.622082e-37 4.0553443e-37 3.1443185e-37 -1.7285984e-37 6.933509e-37 4.440003e-37 -3.6755991e-37 4.9443218e-37
-5.079922e-37 5.7291153e-37 -5.261498e-37 -3.996284e-37 -1.8035388e-37 -3.2257846e-38 -6.277004e-37 5.345994e-38
-6.635042e-37 -4.3134307e-37 2.011045e-37 1.0294321e-37 5.2416213e-37 6.271636e-37 -5.4897452e-37 -5.3847725e-37
-2.7398125e-37 -5.928591e-37 1.1651552e-37 -5.233625e-37 3.6282788e-37 -3.5656015e-37 2.9282306e-38 -2.8120702e-37
-5.7436565e-37 4.7954335e-37 -5.5408036e-37 -4.9734168e-37 -2.2671973e-37 2.1489515e-37 -5.1380243e-37 -4.481388e-37
-4.8829445e-37 -1.9428353e-37 -6.4449927e-37 -4.4147045e-37 6.1161315e-37 5.2792106e-37 -4.798509e-37 -5.659457e-37
-6.056143e-37 6.0818264e-37 3.2906344e-37 -4.2800987e-37 1.8941268e-37 6.5321772e-37 6.1053834e-38 -2.9523913e-37
3.6872526e-37 -5.541145e-37 -5.446218e-38 -6.8451363e-37 6.0734643e-37 -5.0527827e-37 -5.557648e-37 4.6252293e-37
5.268018e-37 5.5178165e-37 6.8207434e-37 4.5279016e-37 5.063587e-37 5.836429e-37 3.1035492e-37 4.562688e-37
4.950125e-37 6.284972e-37 -4.9906817e-37 -5.484868e-37 5.164231e-37 -5.478747e-37 3.9325704e-37 4.4928185e-37
-5.6957796e-37 -3.683477e-37 6.5820397e-37 -5.3128673e-37 -4.3003433e-37 4.2196227e-37 -6.6021184e-37 -6.814833e-37
5.7962287e-37 -5.909125e-37 -5.180348e-37 -5.167846e-37 5.2880986e-37 -4.9484382e-37 5.752233e-37 6.303828e-37
-2.4261286e-38 6.5613754e-37 4.222171e-37 -4.080821e-37 -5.710959e-37 5.463318e-37 -2.2121963e-38 -5.251237e-37
-4.7970715e-37 -6.4662906e-37 6.9862033e-37 6.4455147e-37 4.218692e-37 -5.0477224e-37 -5.871939e-37 5.258288e-37
-6.3970095e-37 -3.9654065e-37 -4.040795e-37 6.274068e-37 -5.2072368e-37 -6.090328e-37 -5.012152e-37 -1.4970813e-37
-3.9786446e-37 -5.7582937e-37 5.7590865e-37 4.2747406e-37 4.2621105e-37 4.6454367e-37 -5.459494e-37 5.639687e-37
-3.8878163e-37 -1.5068973e-37 -4.4135296e-37 2.6619644e-37 -6.6139023e-37 4.534273e-37 -5.831845e-37 -5.4389003e-37

net_model.2.bias f4 [64]
00000000: 17e6 6fa0 9904 5ca6 4f02 353d 203a 2fa4
00000010: e3d0 f33c d96d a4a1 ed5b 50b6 22a3 deb4
00000020: bbac 2cbb 28a0 2ea1 40c6 3fa9 d3a1 80a5
00000030: 712d 1aa6 b5e1 f4ba cfba 4a96 e9bc 35bb
00000040: 2500 9a90 8bff b1ba d748 a5bb 2c24 8bb8
00000050: 0baa 5cae 90b1 fab8 3280 fcaf 5d3f 2fa4
00000060: 9ea0 14bb 1764 c4b9 3b8b 429e bc13 91b7
00000070: 99ad 9cba 99ef 77b4 8c25 89b9 54f0 08ab
00000080: 1b66 85ab fef6 3eaa 83fc c7a3 2bd0 99a3
00000090: b1b2 efba 615c 39b9 6b05 37ba 67f3 beba
000000a0: 0212 dea9 827b 899f 5a96 2f3d e573 07bb
000000b0: 7df8 a5a7 f3f7 22ab dd1a 10bb 7e2f 3fa4
000000c0: fe88 d6b9 becb 50b9 0e48 0abb 97d7 5ea3
000000d0: 89ad 25bb a218 deb9 318f 2fa0 e003 ed3c
000000e0: 8e5d 1dbb 5d6c 80a6 98d8 11b8 ab9d 02a9
000000f0: 753e 583d c903 a6a7 6b39 1ebb d181 dcb9
-2.0320218e-19 -7.6334064e-16 0.044191655 -3.799631e-17 0.02976269 -1.1142149e-18 -3.1047923e-06 -4.1469417e-07
-0.0026348073 -5.916546e-19 -4.2582474e-14 -2.2314117e-16 -5.349107e-16 -0.0018682989 -1.6376376e-25 -0.0027731007
-6.074251e-29 -0.0013580186 -0.0050440836 -6.634774e-05 -5.0173237e-11 -0.000119540025 -4.592962e-10 -3.8000747e-17
-0.0022678743 -0.00037458606 -1.0299067e-20 -1.7294537e-05 -0.0011953592 -2.3090833e-07 -0.0002615865 -4.865043e-13
-9.478558e-13 -1.6961083e-13 -2.1682566e-17 -1.6676456e-17 -0.0018287507 -0.00017677389 -0.00069817033 -0.0014568389
-9.861904e-14 -5.8226083e-20 0.042867996 -0.0020668444 -4.606611e-15 -5.789806e-13 -0.0021988668 -4.145675e-17
-0.00040919328 -0.00019912326 -0.0021100077 -1.2080297e-17 -0.0025280437 -0.00042361493 -1.4870455e-19 0.028932512
-0.0024012062 -8.911156e-16 -3.4772413e-05 -2.9002554e-14 0.05279394 -4.607836e-15 -0.002414311 -0.0004205839

net_model.4.weight f4 [32, 64]
00000000: e275 6d82 5e87 7f02 3cdc 363d b2dd 8902
00000010: 0881 1a3d 7c36 1f22 1b23 9431 6012 e702
00000020: 1a62 aeb1 3172 5702 ec70 4b01 d99b 3482
00000030: 8cb8 fd82 12b4 86bd 40fe 9601 57ce 163b
00000040: f658 3c01 eec8 82b9 045b 7dbd a5c4 8726
00000050: 9391 f601 3597 0299 aa2e 4702 1bee cd81
00000060: fd43 003b c1be 2938 b1c1 1703 9ac6 1a2b
00000070: 1e59 c5b9 4acf a181 1a80 95b9 5a7a b701
00000080: 44da 3c82 181b 7501 bec2 dd82 0cc8 f402
00000090: 5378 d43a 97f2 913a bac8 8539 27ec 8cbd
000000a0: 321f 0383 0c92 1b83 dd2d 2d3d 4ddd faba
000000b0: b667 1502 73ca ce2a 38e9 a939 80a0 4e23
000000c0: 414f a838 1cd9 2a32 dccd 0639 42b8 1b01
000000d0: 9a99 9029 efd5 2138 db5d 2282 a56d dabd
000000e0: 1f73 8fba 20f9 c182 7e1d e38b f42c 3f01
000000f0: 7291 6e3d e887 6600 f4be a1ba 21c1 db38
00000100: 1c03 f001 5bbe 4403 3882 0a00 7caf 2f83
00000110: d3d0 4003 72d8 1c83 5832 d582 a6fb 2582
00000120: 01b2 6503 8093 3783 d111 5403 932f 5303
00000130: 0c55 4683 8295 6802 21f3 1483 522d a902
00000140: c656 1a83 36f2 2a03 d270 2883 b2ab 5f83
00000150: b237 3e03 4a1a b482 99bd ae02 f69e 5d82
00000160: b688 4b03 5c9b 2c83 7061 1903 924d c402
00000170: 1ccd 7182 a8a2 e380 6d27 2583 2bc1 2803
00000180: b466 3883 bbc1 3603 43dc 4403 a6aa d481
00000190: b96c 3483 56fb 6183 fa3b 4203 3003 1a03
000001a0: f465 6103 f8a7 5383 3a8c 3b03 5a80 0b83
000001b0: 88d6 3d82 3943 b982 b408 5e81 f7dc 5f83
000001c0: 9f52 0a03 e07a 3e03 48f2 3603 6ede 1e83
000001d0: d45c 3103 65da 2b83 be50 ed02 e676 1783
000001e0: 88b6 b202 b5a9 4503 224f 1683 6ae2 1583
000001f0: 1a07 6a83 0c96 3f03 bbcc 5683 925f 5d83
00000200: f9b1 3203 a288 c802 db57 dd82 c8be 1903
00000210: 4522 1583 58a4 4883 fa65 5a03 76ec 0f03
00000220: c1aa 1903 ee92 1583 3780 3983 25d0 1583
00000230: f560 1083 ae9a fc82 6dbc d382 d0f7 4183
00000240: 149f 1b03 1913 1783 aec2 1703 0721 5103
00000250: df81 3a03 f63f 1f83 70b7 d902 3302 0e03
00000260: 072f 2c83 4e25 5403 4238 0883 c25f 0303
00000270: c213 2603 c427 eb82 add5 4583 2c2b e201
00000280: 72d1 4283 27a5 1283 9627 3e03 229c 1803
00000290: 0c97 4402 8447 0003 2047 0b03 ee12 1d03
000002a0: 27d1 2a03 fe7d 6683 9939 ae82 a031 1203
000002b0: c9cd 6882 ac7c 2782 5883 0103 db43 3e03
000002c0: 9e1c 2b83 603f 0103 f4af 6801 484e bf82
000002d0: 068c d201 1ed8 3503 6c6f 3703 2650 2d82
000002e0: 10b9 4583 fcaf 6c83 4207 3e03 92c6 e382
000002f0: 8694 3903 df42 4283 3426 2583 6022 3303
00000300: 74cd f602 719c 3c83 ebf9 4a03 021a 0c83
00000310: 8eaa ae01 1883 3c83 5a91 3783 9b5f a602
00000320: 5fea d002 afd4 6383 a0f9 f402 b219 5883
00000330: 1b26 1403 0adf 6b83 744b 9202 adf9 3d03
00000340: 1e9f a702 dad8 2403 fe06 5783 e3bb 2e02
00000350: a39d 5a83 b8bb 0583 4262 4583 2c33 e102
00000360: a6c1 1b83 1073 0903 082e 4c83 385b 1e03
00000370: deb2 ec82 9afb 5683 8245 1083 cbaa 1b03
00000380: 404b 4c03 70c4 2783 e8b0 a882 89c8 2103
00000390: 3026 5603 6075 5803 8f2a 4083 c4b1 3983
000003a0: 1a8a 6d03 38f0 5a03 9d26 6103 fe1e 4c03
000003b0: 30a5 9a82 0924 0c82 8bf4 6583 34d3 4c03
000003c0: e6ef 5102 1bab 4603 94d4 6783 7e38 2803
000003d0: ea09 0a83 88cb 2c83 d868 2180 2bce 0583
000003e0: 17de 2503 0834 b681 2210 d001 a604 1803
000003f0: c7c7 5a83 3b27 3b83 5b5a 3d83 22f1 6583
-1.7445841e-37 1.877329e-37 0.044643626 2.0257588e-37 0.03772071 2.1577362e-18 4.311358e-09 3.3952946e-37
-5.0752194e-09 1.5828477e-37 3.736623e-38 -1.3269038e-37 -3.7280934e-37 -0.065773144 5.546613e-38 0.0023011172
3.4593973e-38 -0.00024945237 -0.061854377 9.420807e-16 9.0575017e-38 -6.7513785e-24 1.4633603e-37 -7.564677e-38
0.0019571774 4.0470393e-05 4.459726e-37 5.4987406e-13 -0.00037641166 -5.9439505e-38 -0.00028514938 6.739915e-38
-1.3874698e-37 4.5018832e-38 -3.2584808e-37 3.59674e-37 0.0016210176 0.001113492 0.0002551729 -0.0688098
-3.853325e-37 -4.571806e-37 0.042280067 -0.0019139439 1.0976555e-37 3.6733428e-13 0.00032407953 1.12012696e-17
8.0256264e-05 9.944667e-09 0.00012855924 2.8601202e-38 6.42153e-14 3.8584632e-05 -1.1928816e-37 -0.10665444
-0.0010944343 -2.8501792e-37 -8.7481594e-32 3.5113412e-38 0.058244176 9.415975e-39 -0.0012340234 0.00010478707
8.816654e-38 5.781774e-37 9.65069e-40 -5.1629324e-37 5.6663447e-37 -4.6092747e-37 -3.1326433e-37 -1.2194505e-37
6.750139e-37 -5.394819e-37 6.2321653e-37 6.206194e-37 -5.82846e-37 1.7087575e-37 -4.377239e-37 2.485833e-37
-4.5356144e-37 5.0236554e-37 -4.9500274e-37 -6.5730907e-37 5.5899917e-37 -2.6463712e-37 2.5675826e-37 -1.6282135e-37
5.9813275e-37 -5.07246e-37 4.507451e-37 2.8844135e-37 -1.7764747e-37 -2.0905008e-38 -4.85344e-37 4.959251e-37
-5.4190638e-37 5.3707385e-37 5.785207e-37 -7.812137e-38 -5.3022053e-37 -6.6410077e-37 5.7080326e-37 4.526019e-37
6.6238594e-37 -6.2200146e-37 5.5115333e-37 -4.099577e-37 -1.3947094e-37 -2.722189e-37 -4.0781204e-38 -6.5787465e-37
4.06494e-37 5.5977035e-37 5.376312e-37 -4.6687364e-37 5.2122186e-37 -5.050309e-37 3.4870364e-37 -4.45114e-37
2.6259517e-37 5.808791e-37 -4.417188e-37 -4.4047075e-37 -6.877457e-37 5.63021e-37 -6.3123967e-37 -6.505577e-37
5.25138e-37 2.9465782e-37 -3.2523458e-37 4.5181665e-37 -4.3826504e-37 -5.8963375e-37 6.4181505e-37 4.2295367e-37
4.5158675e-37 -4.395583e-37 -5.4513797e-37 -4.4026103e-37 -4.24291e-37 -3.7116854e-37 -3.1111815e-37 -5.7002077e-37
4.573302e-37 -4.4396835e-37 4.4598393e-37 6.1457493e-37 5.480957e-37 -4.6799324e-37 3.1990572e-37 4.1732574e-37
-5.060024e-37 6.2344024e-37 -4.003139e-37 3.8607365e-37 4.8805696e-37 -3.455297e-37 -5.8138385e-37 8.3081237e-38
-5.7251907e-37 -4.309513e-37 5.5881424e-37 4.4848017e-37 1.4443154e-37 3.7697915e-37 4.0930076e-37 4.6159883e-37
5.0198605e-37 -6.7735557e-37 -2.5600062e-37 4.296251e-37 -1.7103726e-37 -1.2305001e-37 3.806047e-37 5.5913876e-37
-5.0285234e-37 3.7982444e-37 4.273791e-38 -2.8109859e-37 7.734274e-38 5.343921e-37 5.3906773e-37 -1.2733034e-37
-5.810554e-37 -6.9556187e-37 5.5844313e-37 -3.3468626e-37 5.453711e-37 -5.708824e-37 -4.8532997e-37 5.2642833e-37
3.6264376e-37 -5.542782e-37 5.9649356e-37 -4.117216e-37 6.416224e-38 -5.5398723e-37 -5.394572e-37 2.4446383e-37
3.0697376e-37 -6.6953453e-37 3.5995855e-37 -6.350619e-37 4.3537034e-37 -6.931633e-37 2.149608e-37 5.582872e-37
2.4629773e-37 4.84442e-37 -6.319085e-37 1.2837422e-37 -6.42454e-37 -3.9300678e-37 -5.800589e-37 3.309015e-37
-4.5772704e-37 4.0392767e-37 -6.0003053e-37 4.653674e-37 -3.4779748e-37 -6.317777e-37 -4.2397588e-37 4.5746467e-37
6.0036595e-37 -4.930239e-37 -2.478692e-37 4.754385e-37 6.2932785e-37 6.3611435e-37 -5.6472584e-37 -5.457068e-37
6.9806573e-37 6.43402e-37 6.6165883e-37 5.998579e-37 -2.272308e-37 -1.0295917e-37 -6.7577773e-37 6.019266e-37
1.5423742e-37 5.838339e-37 -6.8128826e-37 4.9435613e-37 -4.0565936e-37 -5.07799e-37 -3.068182e-39 -3.9321856e-37
4.874409e-37 -6.69309e-38 7.643028e-38 4.467412e-37 -6.4293775e-37 -5.4999395e-37 -5.564583e-37 -6.757386e-37

net_model.4.bias f4 [32]
00000000: 7800 143d 272f b9b9 215b d3b9 970e 17ba
00000010: 6646 14ba e57b ddb9 bdf2 14ba d467 aab9
00000020: 8b3a 12ba 5815 07ba d29f 133d f585 143d
00000030: 77fb a5b9 037c 133d fa7d c4b9 b11c 1cba
00000040: f6e6 09ba f594 0eba f197 133d 4f66 fdb9
00000050: 0838 143d ab22 143d d695 143d ba2e 64b9
00000060: 28cf 00ba ecd1 00ba ff25 68b9 f7a2 99b9
00000070: eb3e 05ba dee7 133d 1426 e7b9 9854 c9b9
0.03613326 -0.0003532108 -0.00040312952 -0.0005762367 -0.0005656242 -0.00042244713 -0.0005681923 -0.00032502285
-0.00055781816 -0.0005153022 0.03604109 0.036260564 -0.00031658608 0.03600694 -0.00037477893 -0.0005955203
-0.0005260551 -0.00054390664 0.036033574 -0.00048332146 0.036186248 0.036165874 0.036275707 -0.00021761181
-0.0004913681 -0.00049140933 -0.00022139399 -0.00029303852 -0.0005082923 0.036109798 -0.00044088124 -0.00038400735

net_model.6.weight f4 [1, 32]
00000000: 36a5 573d b445 1f83 a885 4781 866a 0883
00000010: 9dfd 033a 63c4 8682 ef2f 4e83 2d5a 1c3a
00000020: 6a95 2283 69db fd39 8cdf 583d 5959 543d
00000030: 0bfc 1803 115d 593d ece7 da38 2087 063a
00000040: c541 1b83 8067 c238 7b10 593d ce94 4b83
00000050: fada 563d 0701 573d fe0b 533d 9c08 6d81
00000060: 9de4 3e83 59e3 3403 4b2c 5f83 2625 223a
00000070: ac03 8b38 0c22 583d 87a1 e739 d33c 263a
0.05264779 -4.6805916e-37 -3.664642e-38 -4.008909e-37 0.0005035045 -1.980225e-37 -6.0592984e-37 0.0005964365
-4.777904e-37 0.00048419394 0.052947566 0.05184302 4.4958116e-37 0.05306727 0.00010438249 0.00051318295
-4.5625906e-37 9.269919e-05 0.052994233 -5.9827158e-37 0.052454926 0.052491214 0.05152511 -4.3536202e-38
-5.6098417e-37 5.315823e-37 -6.5584656e-37 0.0006185345 6.6287204e-05 0.052766845 0.000441801 0.0006341461
