src/t1dsim_ai/models/IndividualModel/T1DEXI-01-1040/individual_model.pt (torch, 50089 bytes, 7 tensors)

net_model.0.weight f4 [128, 10]
0	0xbc3cf150	-0.011532143
1	0x3cc07e70	0.02349779
2	0x3c71b64c	0.014752936
3	0xbb424956	-0.0029645762
4	0x3c307548	0.0107701495
5	0x3c0fbbeb	0.0087728305
6	0xbbd3e6ec	-0.006466737
7	0xbcacca5e	-0.02109259
8	0x3c3f191d	0.011663702
9	0x3bfaa709	0.0076493067
10	0x3cb1cbce	0.021703627
11	0xbc24492f	-0.010027214
12	0xbbd9a242	-0.006641657
13	0x3c81f316	0.015862983
14	0x3c6f0ff2	0.014591204
15	0xbcf6dd2e	-0.030134764
16	0xbbd5cfa9	-0.006524999
17	0x3a453bde	0.00075238745
18	0xbc846538	-0.016161546
19	0x3c981aa6	0.018567394
20	0xbc378bb6	-0.011202743
21	0x3cc99382	0.02460647
22	0x3c881d57	0.016615553
23	0x3a8850ec	0.0010400093
24	0x3c3cb9a4	0.01151887
25	0x3c18b967	0.009321547
26	0xbbc84d74	-0.0061127488
27	0xbcc209b8	-0.023686275
28	0x3c607c13	0.013701457
29	0x3bfbc722	0.0076836506
30	0xbc36975f	-0.011144488
31	0x3cc91438	0.024545774
32	0x3c87f22f	0.016594974
33	0x3a90d01c	0.001104835
34	0x3c3c139a	0.011479283
35	0x3c18d77c	0.009328719
36	0xbbc8f2ac	-0.0061324444
37	0xbcc20e3e	-0.023688432
38	0x3c60d0d8	0.013721667
39	0x3bfaa1ff	0.007648706
40	0x3cb296b5	0.021800378
41	0xbc0a0aea	-0.008425454
42	0xbbf4ea82	-0.0074742446
43	0x3c6e68d4	0.01455136
44	0x3c806c63	0.015676683
45	0xbced6cbc	-0.028982513
46	0x3c37e2aa	0.0112234745
47	0xbbfd8e6d	-0.0077379257
48	0xbba45386	-0.0050148396
49	0x3c7de9ac	0.015497606
50	0x3cc8ffbb	0.024536004
51	0xbc0df85f	-0.008665173
52	0xbc7d69ae	-0.0154670905
53	0x3c141818	0.0090389475
54	0x3ca48e11	0.020087274
55	0xbccb1cc5	-0.024793992
56	0x3c587417	0.013211272
57	0xbca1c050	-0.019745022
58	0x3d10fb75	0.035396058
59	0x3c4d75a6	0.012540257
60	0xbc389a3a	-0.011267239
61	0x3cc9788b	0.024593612
62	0x3c891113	0.016731774
63	0x3ac96c09	0.001536728
64	0x3c36fd76	0.011168828
65	0x3c19fcc6	0.009398645
66	0xbbc09ca7	-0.0058780494
67	0xbcc18bbe	-0.023626205
68	0x3c659167	0.014011717
69	0x3bf3cf28	0.0074404664
70	0xbc34ad38	-0.011027627
71	0x3cca7aa5	0.024716685
72	0x3c8873df	0.016656814
73	0x3afc6c97	0.0019258437
74	0x3c31bca6	0.0108482
75	0x3c1cf273	0.009579289
76	0xbbc49e2e	-0.006000302
77	0xbcc66a83	-0.02422071
78	0x3c6cf0be	0.014461694
79	0x3becf431	0.0072312583
80	0xbc32e047	-0.01091773
81	0x3cbd2f4d	0.023093844
82	0x3c5a58ee	0.013326867
83	0xbb95dcc8	-0.0045734383
84	0x3c277db3	0.01022284
85	0x3c0ffeda	0.008788789
86	0xbbfbd38c	-0.0076851305
87	0xbcb8db64	-0.022565551
88	0x3c30b46d	0.010785204
89	0x3c0da355	0.008644898
90	0x3ce322ce	0.027726557
91	0xbbe95585	-0.0071207904
92	0xbc8688bb	-0.01642262
93	0x3bd291fd	0.0064260946
94	0x3ca0fef7	0.019652827
95	0xbce88872	-0.028385375
96	0x3c8d4769	0.017245965
97	0xbbe1d67d	-0.006892024
98	0x3b9d1e01	0.0047948365
99	0x3c71723c	0.014736708
100	0xbc34d134	-0.011036206
101	0x3cca8de3	0.02472586
102	0x3c898d66	0.016791057
103	0x3ae89670	0.0017745029
104	0x3c35316c	0.011059146
105	0x3c1d706f	0.009609326
106	0xbbc7c10c	-0.006096011
107	0xbcc62fcc	-0.024192713
108	0x3c6b1114	0.014347333
109	0x3bf39653	0.0074336915
110	0x3ce4e522	0.02794129
111	0xbbbcc2dd	-0.005760534
112	0xbc2ed862	-0.010671707
113	0x3c44adb5	0.012004306
114	0x3c85741c	0.016290717
115	0xbceec286	-0.02914549
116	0x3c7e294a	0.015512774
117	0xbc06c4bf	-0.008225619
118	0x3b98a5f5	0.0046584555
119	0x3c6375ec	0.013883095
120	0xbc33e691	-0.010980264
121	0x3cca64dc	0.024706297
122	0x3c899f4d	0.016799593
123	0x3b00bc62	0.0019643535
124	0x3c36c57f	0.011155485
125	0x3c1dc2d5	0.009628971
126	0xbbc78270	-0.0060885474
127	0xbcc6ae50	-0.02425304
128	0x3c6bdd10	0.014395967
129	0x3bf51310	0.007479079
130	0x3c764353	0.0150307
131	0xbc324197	-0.010879896
132	0x39dfdb5f	0.0004269732
133	0x3cee8e08	0.02912046
134	0xbc18e1c4	-0.0093311705
135	0xbc79bb24	-0.015242372
136	0x3ce34572	0.027743075
137	0xbbc0f41a	-0.005888474
138	0x3c3bb087	0.011455662
139	0x3c486507	0.012231118
140	0xbc3c87e0	-0.0115070045
141	0x3cc868a4	0.024463959
142	0x3c890827	0.01672752
143	0x3a86c897	0.0010283169
144	0x3c3cde72	0.0115276445
145	0x3c160cb3	0.009158301
146	0xbbbe7fd1	-0.0058135767
147	0xbcbfb1b4	-0.023400165
148	0x3c5e375f	0.013563006
149	0x3c01282f	0.007883116
150	0xbc45df25	-0.012077128
151	0x3cbf6dbf	0.02336776
152	0x3c78a01d	0.015174893
153	0xbb351ac5	-0.0027634364
154	0x3c2fbe78	0.010726564
155	0x3c0c6276	0.008568397
156	0xbbc00480	-0.0058599114
157	0xbca74842	-0.020420197
158	0x3c3cb827	0.011518515
159	0x3bff9995	0.007800291
160	0xbc3475ef	-0.011014446
161	0x3ccaad63	0.02474088
162	0x3c8a3d27	0.016874863
163	0x3af728f0	0.0018856805
164	0x3c3554c5	0.011067574
165	0x3c1d3a33	0.009596395
166	0xbbc66b9e	-0.0060553094
167	0xbcc65d38	-0.024214372
168	0x3c6bbf56	0.01438888
169	0x3bf497b7	0.007464375
170	0x3cba3e0d	0.022734666
171	0xbc1a1bf1	-0.009406076
172	0xbbdffc0b	-0.006835466
173	0x3c77bc24	0.01512054
174	0x3c649576	0.01395165
175	0xbcfdef5f	-0.03099793
176	0xbc26025d	-0.010132399
177	0x3b46e28a	0.003034743
178	0xbcafed22	-0.021475378
179	0x3c218f9e	0.009860901
180	0x3cc3896c	0.023869239
181	0xbbe80a38	-0.0070812963
182	0xbc04ca92	-0.008104937
183	0x3c4cad68	0.012492515
184	0x3c875176	0.016518336
185	0xbcf99f92	-0.030471597
186	0x3c2ae33e	0.010430155
187	0xbb6d9980	-0.0036254823
188	0xbc1a9dee	-0.009437067
189	0x3c855e3d	0.016280288
190	0x3c621476	0.013798824
191	0xbc1b2a89	-0.00947059
192	0x3a622a1c	0.00086274906
193	0x3cbb5ba1	0.02287084
194	0xbae9f001	-0.0017848016
195	0xbcc22022	-0.023696963
196	0xbcb9f500	-0.022699833
197	0x3b30f329	0.0027000403
198	0xbc4fe7d7	-0.012689552
199	0x3c416790	0.011804476
200	0xbc42c1fd	-0.011887071
201	0x3cc659c7	0.024212731
202	0x3c861bf2	0.016370747
203	0x392169f6	0.0001539363
204	0x3c3abe80	0.011397958
205	0x3c13b01b	0.009014155
206	0xbbb04f02	-0.005380512
207	0xbcb7e663	-0.022448724
208	0x3c566f9d	0.013088134
209	0x3c009571	0.00784813
210	0xbd56c633	-0.05243511
211	0x3c5985d6	0.013276538
212	0x3cf02d3f	0.02931845
213	0x3b6e8070	0.0036392473
214	0x3cdd2751	0.026996287
215	0xbc8ef397	-0.017450137
216	0x3c44784f	0.011991574
217	0x3cbb966c	0.022898875
218	0xbba45be8	-0.005015839
219	0x3bbe3c76	0.0058055473
220	0x3cba55f6	0.022746067
221	0xbc19df00	-0.009391546
222	0xbbeaeb96	-0.0071691973
223	0x3c75f2d5	0.015011509
224	0x3c73010a	0.014831791
225	0xbcfeb589	-0.031092422
226	0xbc0b16bc	-0.008489307
227	0x3b2a6218	0.002599841
228	0xbc9de572	-0.019274447
229	0x3c914b4e	0.017736103
230	0xbc3d7778	-0.011564128
231	0x3cc813f3	0.024423575
232	0x3c869cd1	0.016432198
233	0x398f0e20	0.0002728561
234	0x3c3e28e7	0.011606432
235	0x3c160902	0.009157421
236	0xbbc169c2	-0.0059025
237	0xbcbb3c99	-0.022856044
238	0x3c580da3	0.013186845
239	0x3c02d63b	0.007985647
240	0xbc4c0160	-0.0124515
241	0x3cc1f83c	0.023677938
242	0x3c806580	0.015673399
243	0xbad2ce4f	-0.0016083213
244	0x3c36c989	0.011156448
245	0x3c0e6419	0.008690857
246	0xbbaf234d	-0.0053447844
247	0xbcadb698	-0.021205232
248	0x3c48919d	0.012241748
249	0x3c036dfd	0.008021829
250	0x3ccd08b8	0.025028571
251	0xbbee6fca	-0.00727651
252	0xbc18245b	-0.009286012
253	0x3c64505a	0.013935173
254	0x3c78d63b	0.015187795
255	0xbcdd2069	-0.026992993

net_model.0.bias f4 [128]
0	0x3c276577	0.010217062
1	0xbceb98e0	-0.02875942
2	0x3c6b1f98	0.014350794
3	0x3c6b130b	0.014347802
4	0xbcced9db	-0.025250366
5	0xbc8d4ac5	-0.017247567
6	0x3c719130	0.014744088
7	0x3c76f951	0.01507409
8	0x3c14dc28	0.009085692
9	0xbc9c0636	-0.01904593
10	0x3c743364	0.014904831
11	0xbc93fd33	-0.01806507
12	0x3c742e56	0.0149036255
13	0xbd17ad81	-0.0370307
14	0x3c6d62ec	0.014488917
15	0x3c2ba8ea	0.010477284
16	0x3c759c8b	0.014990936
17	0xbcedcc1a	-0.029027987
18	0xbcc3481c	-0.023838095
19	0xbd1e6929	-0.038674507
20	0x3c5f116d	0.0136149945
21	0x3d136d7c	0.035993084
22	0xbce69098	-0.02814512
23	0x3c604299	0.013687753
24	0x3c445918	0.011984132
25	0xbcafeaf8	-0.021474347
26	0x3c265b74	0.01015364
27	0xbc96774b	-0.01836743
28	0xbcabcf43	-0.020972854
29	0xbcd391f4	-0.025826432
30	0x3c745e6f	0.014915093
31	0x3c6af1bc	0.0143398605
32	0xbcd4c1be	-0.02597129
33	0x3c0add4d	0.008475614
34	0x3c60a191	0.013710395
35	0x3b8e3514	0.0043398235
36	0x3bcf18e6	0.006320107
37	0x3c55cbd9	0.013049089
38	0xbd2c6c1d	-0.042095292
39	0x3c71f771	0.014768467
40	0x3c727b6f	0.014799937
41	0x3c1b912c	0.009495061
42	0x3c75ed05	0.015010123
43	0x3c6d7408	0.014492996
44	0x3c5526f4	0.013009775
45	0xbceced86	-0.028921854
46	0xbcdeb61f	-0.027186451
47	0x3c7aa4a3	0.0152980415
48	0x3c7585b7	0.014985493
49	0x3c7313e0	0.014836282
50	0xbcdc1bde	-0.026868757
51	0x3c19daf0	0.009390578
52	0x3ba2c8de	0.004967793
53	0x3c742cf7	0.014903299
54	0xbcd6a6f1	-0.02620265
55	0x3c728957	0.014803252
56	0xbcd66d7d	-0.026175255
57	0x3c337e62	0.010955425
58	0xbcefc17c	-0.029267065
59	0x3c748d6b	0.014926295
60	0x3c75148c	0.014958512
61	0xbd3034ac	-0.04301898
62	0x3c7523d4	0.014962155
63	0x3c6e3c9b	0.014540817
64	0xbcebb76e	-0.02877399
65	0x3c769139	0.015049272
66	0x3c2e5c5a	0.0106421355
67	0x3be9f731	0.007140063
68	0x3aae5b4b	0.0013302354
69	0x3c096581	0.008386017
70	0x3c671435	0.014103939
71	0xbcb5f8e6	-0.02221341
72	0x3c6baf6a	0.014385084
73	0x3c748903	0.014925244
74	0x3cc30a9a	0.023808766
75	0x3c6a47de	0.014299361
76	0xbc9629ea	-0.018330533
77	0xbd0e10c4	-0.034683958
78	0x3c770039	0.015075737
79	0x3c7b6873	0.015344727
80	0x3c734dd6	0.0148501005
81	0xbd0ef105	-0.034897823
82	0x3c750b3f	0.014956295
83	0xbc8c21f6	-0.017106038
84	0x3c721348	0.014775105
85	0x3c71a44b	0.014748643
86	0x3c64f539	0.013974481
87	0xbd01e5b5	-0.031713206
88	0xbce1d7d7	-0.02756874
89	0x3c6ff6fd	0.014646289
90	0xbcf26e2b	-0.029593548
91	0xbc9635b0	-0.018336147
92	0xbc97dd00	-0.018537998
93	0x3c730203	0.014832023
94	0x3bef3d6d	0.0073010237
95	0x3c694d5b	0.014239634
96	0x3c6451cb	0.013935517
97	0xbd2c8faa	-0.042129196
98	0x3c707887	0.014677173
99	0xbcd032ab	-0.025414785
100	0xbcd762a6	-0.026292156
101	0xbd298509	-0.041386638
102	0xbcdf3a75	-0.027249554
103	0x3d85e5e4	0.06537989
104	0x3c08334a	0.0083130095
105	0xbc9c7512	-0.019098792
106	0xbc9c1736	-0.019054037
107	0xbcd35d1f	-0.02580124
108	0x3c716acc	0.014734935
109	0x3d7cd4af	0.06172627
110	0xbcecd1d7	-0.028908653
111	0x3c633ca1	0.0138694355
112	0xbd030e49	-0.031996045
113	0xbc9f4272	-0.019440863
114	0x3c706e4c	0.014674734
115	0x3c6a2d1b	0.014292981
116	0xbc92d0b9	-0.017921792
117	0xbca09aa1	-0.019604983
118	0x3c6c9b89	0.014441379
119	0x3c634afd	0.013872859
120	0x3c469b14	0.012121934
121	0x3c26566c	0.0101524405
122	0xbd21006a	-0.039307036
123	0xbcaf3fa4	-0.02139265
124	0x3c6e4535	0.014542867
125	0x3c06fcc1	0.008238972
126	0x3c6a978d	0.014318359
127	0xbc89aabd	-0.016805047

net_model.2.weight f4 [64, 128]
0	0x82f20ae2	-3.556495e-37
1	0x03188a95	4.482787e-37
2	0x02d270b4	3.0921415e-37
3	0x018bb818	5.13247e-38
4	0x01bb420e	6.8787735e-38
5	0x833c1aa4	-5.5278816e-37
6	0x0363fec4	6.700176e-37
7	0x0347f72f	5.8764597e-37
8	0x834ed244	-6.077933e-37
9	0x82a4d174	-2.4217854e-37
10	0x8246b229	-1.4597872e-37
11	0x82bf9b26	-2.8153978e-37
12	0x0178c70c	4.5693215e-38
13	0x82b35320	-2.6349398e-37
14	0x8307da57	-3.9923576e-37
15	0x8296be7d	-2.2149854e-37
16	0x02d870da	3.180312e-37
17	0x82ca2672	-2.97033e-37
18	0x01048860	2.4342415e-38
19	0x02c0d058	2.8331448e-37
20	0x036d1bb6	6.967985e-37
21	0x032ee7c5	5.1400063e-37
22	0x02e2404e	3.3244624e-37
23	0x02dd019c	3.2473955e-37
24	0x005b6228	8.392242e-39
25	0x8286cf20	-1.9808414e-37
26	0x82154324	-1.096606e-37
27	0x01d3341a	7.758392e-38
28	0x0228204d	1.235196e-37
29	0x02413592	1.4194775e-37
30	0x82fee561	-3.7453603e-37
31	0x0315a64d	4.397807e-37
32	0x829011e9	-2.1169178e-37
33	0x835700cc	-6.3183736e-37
34	0x034ffbea	6.1121016e-37
35	0x03083369	4.0025824e-37
36	0x8313f850	-4.3484466e-37
37	0x030d402e	4.150985e-37
38	0x82c4a04a	-2.8891613e-37
39	0x03458a3e	5.805179e-37
40	0x02c9359e	2.956507e-37
41	0x81a1fc62	-5.950421e-38
42	0x82f6cb22	-3.6263044e-37
43	0x0357171e	6.320936e-37
44	0x034c7840	6.008825e-37
45	0x830bffba	-4.114199e-37
46	0x82b79e6c	-2.6980363e-37
47	0x82b32714	-2.6324116e-37
48	0x0348d14f	5.901499e-37
49	0x031a4132	4.5331373e-37
50	0x00c94910	1.8485145e-38
51	0x833e5ed4	-5.594484e-37
52	0x8292cd8f	-2.1570757e-37
53	0x830593a6	-3.925468e-37
54	0x826b779c	-1.72994e-37
55	0x03405ade	5.652804e-37
56	0x02b58bc4	2.6675781e-37
57	0x0364e92c	6.7270846e-37
58	0x00d02fa8	1.9118879e-38
59	0x834ddf4e	-6.0500427e-37
60	0x005b36b8	8.37666e-39
61	0x82ee7574	-3.5038372e-37
62	0x035017a4	6.1152844e-37
63	0x021cf4b6	1.1531299e-37
64	0x8348181c	-5.8802394e-37
65	0x8184867a	-4.8682106e-38
66	0x830ad9d6	-4.080462e-37
67	0x811073dc	-2.6531748e-38
68	0x022bfe80	1.2636134e-37
69	0x02fd8e7e	3.7256795e-37
70	0x032e18ce	5.116248e-37
71	0x82cf0d10	-3.0423414e-37
72	0x02088955	1.0031114e-37
73	0x0283f335	1.9388314e-37
74	0x833b34e9	-5.50151e-37
75	0x834716ca	-5.8507005e-37
76	0x80cb8140	-1.8688972e-38
77	0x8325e5a1	-4.8752743e-37
78	0x03310fc0	5.2033705e-37
79	0x02243a4d	1.2065549e-37
80	0x82af9814	-2.5801227e-37
81	0x83445237	-5.76936e-37
82	0x02676307	1.6999619e-37
83	0x02c7531a	2.928812e-37
84	0x82fb1003	-3.6890326e-37
85	0x02b4ac48	2.6547507e-37
86	0x81c1ef02	-7.123996e-38
87	0x035e55e9	6.5338556e-37
88	0x8298b248	-2.243672e-37
89	0x018f9454	5.2742744e-38
90	0x02c9e130	2.9663547e-37
91	0x822541b4	-1.2141141e-37
92	0x82b1ed80	-2.614413e-37
93	0x82201d5c	-1.1763369e-37
94	0x8156465c	-3.9356073e-38
95	0x821d6e40	-1.1566179e-37
96	0x032287e7	4.776353e-37
97	0x833966ac	-5.4484475e-37
98	0x02bcdc03	2.7750398e-37
99	0x01273fd8	3.071886e-38
100	0x025d978b	1.6280006e-37
101	0x831b7fda	-4.5697172e-37
102	0x030aa98f	4.07492e-37
103	0x8369d7d4	-6.8720304e-37
104	0x82aa0514	-2.498217e-37
105	0x82f372c1	-3.5771506e-37
106	0x0289e984	2.0264372e-37
107	0x82119a85	-1.0697262e-37
108	0x82475bd3	-1.4646563e-37
109	0x82c5836b	-2.9021979e-37
110	0x82cf674a	-3.0475201e-37
111	0x82f2e298	-3.5688763e-37
112	0x033f174c	5.61566e-37
113	0x019760ee	5.5607727e-38
114	0x822073d9	-1.178819e-37
115	0x0220850f	1.179313e-37
116	0x022bf1cf	1.2632492e-37
117	0x019ce858	5.7638747e-38
118	0x01d7e3fa	7.9305657e-38
119	0x02865fce	1.974452e-37
120	0x02ab4ab4	2.516907e-37
121	0x83305bd5	-5.182717e-37
122	0x834fa506	-6.102127e-37
123	0x824a1978	-1.4847925e-37
124	0x02e36b76	3.3416332e-37
125	0x8218128e	-1.1172521e-37
126	0x83086fbc	-4.0095073e-37
127	0x029f576e	2.3413132e-37
128	0x3c5b21ea	0.013374785
129	0xbd1fff6b	-0.039061945
130	0x3c543896	0.012952944
131	0x3c53b56c	0.012921672
132	0xbd040d03	-0.03223897
133	0xbd3e84d5	-0.046513397
134	0x3c51d592	0.012807267
135	0x3c5167e7	0.01278112
136	0x3c66ddea	0.014090994
137	0xbd04b4e3	-0.03239907
138	0x3c51fbdf	0.012816398
139	0xbcfeede0	-0.031119287
140	0x3c51536c	0.012776237
141	0xbd7ee665	-0.06223144
142	0x3c5396a2	0.012914332
143	0x3c57c916	0.013170501
144	0x3c51a531	0.012795732
145	0xbd230e14	-0.039808348
146	0xbcfd59db	-0.030926635
147	0xbd469a08	-0.04848674
148	0x3c541d63	0.012946459
149	0x3d5efea7	0.054442074
150	0xbd20181a	-0.039085485
151	0x3c553cb5	0.013014962
152	0x3c56b335	0.01310425
153	0xbd083f2c	-0.03326337
154	0x3c5ac35e	0.013352243
155	0xbd0d6def	-0.03452867
156	0xbcfdfe5b	-0.031005075
157	0xbd04d1de	-0.032426707
158	0x3c51a546	0.012795752
159	0x3c53cc66	0.01292715
160	0xbd05fb33	-0.032710265
161	0x3c6ceb90	0.014460459
162	0x3c5562c1	0.013024033
163	0x3cbaf6a7	0.022822691
164	0x3cdcf568	0.026972488
165	0x3c5365da	0.012902701
166	0xbd819e1d	-0.06328986
167	0x3c51ac00	0.012797356
168	0x3c51e4a4	0.01281086
169	0x3c607c5d	0.0137015255
170	0x3c514de6	0.01277492
171	0x3c529798	0.012853526
172	0x3c528ff4	0.012851704
173	0xbd1ae8a5	-0.037819523
174	0xbd16a42e	-0.036777668
175	0x3c51da19	0.012808346
176	0x3c516900	0.012781382
177	0x3c514ef0	0.012775168
178	0xbd172693	-0.03690202
179	0x3c5fa0d3	0.013649183
180	0x3cb3db44	0.02195514
181	0x3c510708	0.012758024
182	0xbd0cadbd	-0.034345377
183	0x3c519a93	0.012793201
184	0xbd0de57e	-0.03464269
185	0x3c570cc4	0.013125602
186	0xbd20ff03	-0.039305698
187	0x3c51cbfd	0.012804982
188	0x3c51a8ad	0.012796563
189	0xbd852875	-0.06501857
190	0x3c5188ed	0.012788993
191	0x3c526a46	0.01284272
192	0xbd21c177	-0.039491143
193	0x3c50ff3a	0.012756163
194	0x3c5b9209	0.013401517
195	0x3c64234f	0.013924434
196	0x3cc44b80	0.023961782
197	0x3c6bba0e	0.014387621
198	0x3c54a8e5	0.012979721
199	0xbd03ca28	-0.032175213
200	0x3c53b737	0.0129221
201	0x3c51e4f6	0.012810936
202	0x3d1ab95c	0.03777443
203	0x3c53d59f	0.012929349
204	0xbd05272e	-0.032508068
205	0xbd2fd4e8	-0.042927653
206	0x3c5054e7	0.012715555
207	0x3c5090b1	0.01272981
208	0x3c51c45f	0.012803166
209	0xbd2f4aec	-0.04279606
210	0x3c51d8c8	0.012808032
211	0xbd111084	-0.03541614
212	0x3c52676e	0.012842042
213	0x3c5192c8	0.012791343
214	0x3c551e6a	0.01300774
215	0xbd2d11a1	-0.04225314
216	0xbd1243bd	-0.03570913
217	0x3c528723	0.012849602
218	0xbd273f7c	-0.040832028
219	0xbd0726ae	-0.032995872
220	0xbcfe41b4	-0.031037189
221	0x3c51a155	0.012794812
222	0x3c64ffd7	0.013977013
223	0x3c54ff78	0.013000362
224	0x3c556760	0.013025135
225	0xbd80bba6	-0.06285791
226	0x3c523681	0.012830378
227	0xbd03d27f	-0.032183167
228	0xbd12d6d3	-0.035849404
229	0xbd75ecc3	-0.060040247
230	0xbd0eff1d	-0.034911264
231	0x3de120c2	0.10992576
232	0x3c6c5916	0.014425537
233	0xbd0c9503	-0.034321796
234	0xbcfbf29a	-0.03075533
235	0xbd045665	-0.032308955
236	0x3c527706	0.01284576
237	0x3dc11356	0.09427516
238	0xbd2367f0	-0.039894044
239	0x3c55b033	0.013042497
240	0xbd250ef4	-0.040297464
241	0xbcf9d797	-0.030498309
242	0x3c5240fb	0.012832875
243	0x3c54bc77	0.012984387
244	0xbd000998	-0.03125915
245	0xbd01224f	-0.03152686
246	0x3c535d12	0.012900608
247	0x3c5619cb	0.013067673
248	0x3c5971c9	0.013271757
249	0x3c605904	0.013693098
250	0xbd4b705e	-0.04966771
251	0xbcf96412	-0.030443225
252	0x3c534408	0.012894638
253	0x3c5f071b	0.013612534
254	0x3c5435a1	0.012952239
255	0xbd10196a	-0.035180487

net_model.2.bias f4 [64]
0	0xb7e2c9ec	-2.7035327e-05
1	0x3c7b27a9	0.01532928
2	0xba70530d	-0.0009167649
3	0xb7b484ee	-2.1519572e-05
4	0xbb027f99	-0.001991248
5	0xbb310f87	-0.0027017312
6	0x3c955d78	0.018233046
7	0x3c930e0d	0.017951036
8	0x3c963507	0.018335832
9	0x3c93e559	0.018053697
10	0xb7d8d626	-2.5848927e-05
11	0xbaa3ad62	-0.0012487585
12	0xb7979642	-1.8070572e-05
13	0x3c95d7e7	0.018291427
14	0x3c9579ff	0.018246649
15	0xb50664e4	-5.0065705e-07
16	0xbcb15964	-0.02164907
17	0x3c4a0268	0.012329675
18	0xb624c46e	-2.4552241e-06
19	0xbb6cc82a	-0.003613005
20	0xb8059cd7	-3.185574e-05
21	0xa8691be2	-1.2940144e-14
22	0xb7fe0b48	-3.0284413e-05
23	0xb7baf0ec	-2.2285116e-05
24	0xa66022b7	-7.776266e-16
25	0x3c81e1e4	0.015854783
26	0xb8ae4cdb	-8.311282e-05
27	0x3d4e1515	0.050313074
28	0xba815ff2	-0.0009870513
29	0xb7a155a6	-1.9232579e-05
30	0xb8902e4e	-6.87508e-05
31	0xb7889c69	-1.6285298e-05
32	0x3c92c731	0.017917247
33	0xb7b78308	-2.1876316e-05
34	0x3c92d606	0.01792432
35	0x3c9581e1	0.018250408
36	0xbaa23e37	-0.0012378161
37	0xb95f3679	-0.0002128723
38	0x3c956d65	0.01824064
39	0x3c94bc0d	0.018156076
40	0xb7bd8516	-2.2592529e-05
41	0xba926514	-0.001116904
42	0xaecbaa7b	-9.2616546e-11
43	0x3c8f2b69	0.017476754
44	0xb7ad7ac4	-2.0680374e-05
45	0xb11e4f97	-2.3037268e-09
46	0xb7e0fcaa	-2.6820537e-05
47	0xb8afb61b	-8.37857e-05
48	0xba04a1bf	-0.00050595024
49	0x3c1ac3ec	0.0094461255
50	0xbd33d845	-0.043907423
51	0xb79899d7	-1.819145e-05
52	0xba2dbe5b	-0.00066277914
53	0xb7633a98	-1.3543897e-05
54	0x3c953c99	0.018217372
55	0x3c970fdf	0.018440185
56	0x3c957042	0.018242005
57	0xb7b21466	-2.1228752e-05
58	0xbb35b51a	-0.0027726353
59	0xb7d3465a	-2.518592e-05
60	0xb8121fc8	-3.483871e-05
61	0xb7abebd1	-2.0494599e-05
62	0x3c9541af	0.018219797
63	0x3c956102	0.018234733

net_model.4.weight f4 [32, 64]
0	0xa4c8839e	-8.695914e-17
1	0x3cecce26	0.028906893
2	0x3a0b199e	0.00053062465
3	0xa7925d31	-4.062418e-15
4	0x3b0c6028	0.0021419618
5	0x39fb12fd	0.00047888598
6	0x3d013320	0.031542897
7	0x3d015663	0.031576525
8	0x3d007756	0.031363808
9	0x3d017ca9	0.031613026
10	0xa6353f10	-6.2882455e-16
11	0x3a605d6e	0.0008558844
12	0xaa3816f4	-1.6350446e-13
13	0x3d00bc3b	0.03142951
14	0x3d017525	0.03160586
15	0x02e6e077	3.39243e-37
16	0xbd352915	-0.044228632
17	0x3ce9317a	0.028465975
18	0xba776479	-0.0009437274
19	0x337a76bb	5.8315646e-08
20	0xa3c1878f	-2.0982513e-17
21	0x834bf789	-5.9940495e-37
22	0xa28fd5d8	-3.8986644e-18
23	0xa49615a4	-6.508879e-17
24	0x029849e2	2.23768e-37
25	0x3ce53000	0.02797699
26	0x82b12c36	-2.6033188e-37
27	0x3daefc0c	0.08544168
28	0x3a09cc77	0.0005256603
29	0xa8853e7a	-1.4793061e-14
30	0x1c0129e9	4.2736687e-22
31	0xac83cb05	-3.7457836e-12
32	0x3d018928	0.031624943
33	0xa78d2a2c	-3.9181084e-15
34	0x3d0146f7	0.031561818
35	0x3d019e16	0.031644903
36	0xbaf64c4d	-0.001879105
37	0xba1694c1	-0.0005744212
38	0x3d016684	0.031591907
39	0x3d014b8e	0.031566195
40	0xa4873705	-5.8640124e-17
41	0xba8e23bb	-0.0010844389
42	0x032ef85a	5.14191e-37
43	0x3d004462	0.031315215
44	0xa8e7f72c	-2.5753346e-14
45	0x035eed4d	6.5512344e-37
46	0xa7704a12	-3.3346844e-15
47	0x81f9b378	-9.172568e-38
48	0x3531177b	6.5971807e-07
49	0xbd5dedc9	-0.054181848
50	0xbdaac2bf	-0.08337926
51	0xaab9543e	-3.2921056e-13
52	0xb995ee92	-0.00028597243
53	0xa97a15a2	-5.5529915e-14
54	0x3d0168cc	0.031594083
55	0x3d010123	0.031495225
56	0x3d00fc49	0.031490598
57	0xaa6e0652	-2.1140839e-13
58	0xbb0d4781	-0.0021557512
59	0xa8403714	-1.0670084e-14
60	0xa24ac28f	-2.7479103e-18
61	0xa387db61	-1.472964e-17
62	0x3d01e537	0.031712737
63	0x3d00fd76	0.03149172
64	0xaa44734a	-1.7448296e-13
65	0x3ced4d24	0.028967448
66	0x3a06cc77	0.0005142162
67	0x2ae2dd74	4.0299329e-13
68	0x3b0c1303	0.0021373637
69	0x39f92d46	0.00047526712
70	0x3d02b79b	0.03191338
71	0x3d02d5d1	0.031942192
72	0x3d01dbb8	0.03170368
73	0x3d030ada	0.03199277
74	0xab78c01b	-8.83739e-13
75	0x3a5ebf68	0.00084971497
76	0x2d356cfd	1.0312859e-11
77	0x3d028bd4	0.03187163
78	0x3d02ae03	0.03190423
79	0x02cfc40e	3.0528446e-37
80	0xbd3590db	-0.044327598
81	0x3ce97c96	0.02850179
82	0xba7186a8	-0.0009213486
83	0x3332c7ad	4.162546e-08
84	0xa9bd3e67	-8.404111e-14
85	0x82edcdae	-3.4942074e-37
86	0xa88d605c	-1.5695934e-14
87	0xa9cb8dc6	-9.039605e-14
88	0x031a1e12	4.529105e-37
89	0x3ce5815d	0.028015787
90	0x0153bc20	3.8889552e-38
91	0x3db1991b	0.08671781
92	0x39fb9176	0.00047982828
93	0xac0589e3	-1.897698e-12
94	0x1b84226c	2.1859813e-22
95	0xaf377f2e	-1.6688936e-10
96	0x3d033d67	0.03204098
97	0xac761b44	-3.4973838e-12
98	0x3d02d0b9	0.031937335
99	0x3d02695c	0.03183876
100	0xbaf6597a	-0.0018794977
101	0xba112ac0	-0.0005537681
102	0x3d02591b	0.03182326
103	0x3d029b04	0.031886116
104	0xaa35d2c3	-1.6149152e-13
105	0xbac312e7	-0.0014882953
106	0x031e340e	4.6491783e-37
107	0x3d01c745	0.03168418
108	0xabc18818	-1.3751248e-12
109	0x0355d7a6	6.2842626e-37
110	0xabd751a0	-1.5299324e-12
111	0x0217128a	1.1099048e-37
112	0x34fbc6c7	4.6897023e-07
113	0xbd5dd133	-0.054154586
114	0xbdaa16e8	-0.0830515
115	0x2e6a76c3	5.331092e-11
116	0xb98c7956	-0.00026793283
117	0x2d4dd246	1.1699591e-11
118	0x3d01fa02	0.031732567
119	0x3d02a705	0.031897563
120	0x3d0266b5	0.03183623
121	0xadeffadd	-2.728256e-11
122	0xbb0cff8c	-0.0021514622
123	0xab085ce6	-4.844583e-13
124	0xa828a34e	-9.3612845e-15
125	0xa99df2d2	-7.014323e-14
126	0x3d02e334	0.03195496
127	0x3d029e04	0.031888977
128	0x035d074d	6.4954444e-37
129	0x02f3e18e	3.5835103e-37
130	0x82b29ac4	-2.624358e-37
131	0x0301fe87	3.8201876e-37
132	0x833238c8	-5.237468e-37
133	0x83677624	-6.8020418e-37
134	0x032d68f8	5.096063e-37
135	0x0349019c	5.907044e-37
136	0x030c7f84	4.1288683e-37
137	0x831bf550	-4.583201e-37
138	0x831e070b	-4.644011e-37
139	0x8339f50e	-5.4647923e-37
140	0x83329270	-5.24776e-37
141	0x82d7b21a	-3.1693636e-37
142	0x828add5c	-2.0404332e-37
143	0x8355150f	-6.261925e-37
144	0x033ba0d1	5.513897e-37
145	0x8323b63e	-4.81106e-37
146	0x0329daaf	4.9915673e-37
147	0x03443eba	5.767123e-37
148	0x033f2417	5.6171284e-37
149	0x83178ef6	-4.4539023e-37
150	0x028f70e6	2.1076762e-37
151	0x034a8c2e	5.9523383e-37
152	0x832c9b0e	-5.072425e-37
153	0x02c835c4	2.9418219e-37
154	0x8311a4f6	-4.2801036e-37
155	0x03082f64	4.002121e-37
156	0x03209ab6	4.7197373e-37
157	0x831173a4	-4.274442e-37
158	0x83401550	-5.6448194e-37
159	0x02480b86	1.4696986e-37
160	0x834b9cc4	-5.9836296e-37
161	0x8301365f	-3.797211e-37
162	0x034820aa	5.8812214e-37
163	0x0319e2a5	4.5222834e-37
164	0x029ff5b0	2.3503968e-37
165	0x03255b7c	4.859416e-37
166	0x031c34d8	4.590494e-37
167	0x02f01806	3.527862e-37
168	0x032e5713	5.123396e-37
169	0x83432862	-5.7351707e-37
170	0x82394a99	-1.3613062e-37
171	0x0314df8f	4.3749924e-37
172	0x8261cd08	-1.658923e-37
173	0x8270f656	-1.770311e-37
174	0x0315cfc4	4.402567e-37
175	0x033e32e0	5.5894383e-37
176	0x8352eeb8	-6.198749e-37
177	0x03054a56	3.917052e-37
178	0x02302a31	1.2942546e-37
179	0x82bcb89e	-2.7730082e-37
180	0x00941480	1.3599007e-38
181	0x03020de6	3.821952e-37
182	0x03420cdb	5.7026233e-37
183	0x825a0cc5	-1.6019775e-37
184	0x830d0376	-4.144015e-37
185	0x833a2832	-5.470663e-37
186	0x032840d7	4.9445195e-37
187	0x82d57a5a	-3.1367763e-37
188	0x034adf9d	5.961916e-37
189	0x83196fbd	-4.509093e-37
190	0x831d9b06	-4.631611e-37
191	0x03232d9e	4.795376e-37
192	0x032dd31a	5.1082463e-37
193	0x832bcc9e	-5.0487273e-37
194	0x031d885c	4.6294686e-37
195	0x833684f4	-5.3637616e-37
196	0x826f924f	-1.7600935e-37
197	0x835cf650	-6.493494e-37
198	0x833fa085	-5.6314123e-37
199	0x02bb3438	2.7507153e-37
200	0x02fd7d60	3.724697e-37
201	0x8321d244	-4.755502e-37
202	0x030d0f10	4.1453467e-37
203	0x835518d6	-6.2623584e-37
204	0x8355a5fc	-6.2785615e-37
205	0x83531998	-6.2036707e-37
206	0x0281f360	1.9094537e-37
207	0x035bd7b8	6.460595e-37
208	0x028f9026	2.1094699e-37
209	0x031b30dd	4.56065e-37
210	0x834fb360	-6.1037745e-37
211	0x032f8d77	5.159027e-37
212	0x83454154	-5.796809e-37
213	0x8319840e	-4.511425e-37
214	0x8359fe62	-6.4062586e-37
215	0x0339787c	5.4504923e-37
216	0x82ca861e	-2.9758212e-37
217	0x03211882	4.734178e-37
218	0x8340689f	-5.654383e-37
219	0x0336dc9a	5.373823e-37
220	0x82dad54b	-3.2154645e-37
221	0x830c4bc1	-4.1229263e-37
222	0x831eba56	-4.664593e-37
223	0x02f8f810	3.6582706e-37
224	0x0341c516	5.6943846e-37
225	0x83361766	-5.3511853e-37
226	0x82d4b876	-3.1256476e-37
227	0x0349b418	5.927533e-37
228	0x035d31d8	6.500328e-37
229	0x035b2b7a	6.4408224e-37
230	0x8259bf5f	-1.5997563e-37
231	0x833f3ae9	-5.619748e-37
232	0x034dceb1	6.0481356e-37
233	0x035283a6	6.186458e-37
234	0x03560911	6.2899355e-37
235	0x0346dfa3	5.8443693e-37
236	0x824e5de3	-1.5161434e-37
237	0x8235d28d	-1.3358205e-37
238	0x8351934c	-6.158867e-37
239	0x035ee0d3	6.549802e-37
240	0x02abc976	2.5241825e-37
241	0x0313e899	4.3466426e-37
242	0x8352be6d	-6.193205e-37
243	0x031d2762	4.6183363e-37
244	0x82dafadc	-3.2176207e-37
245	0x833d12d0	-5.5563704e-37
246	0x821b8913	-1.142694e-37
247	0x82d7112f	-3.1601274e-37
248	0x033694fe	5.3656028e-37
249	0x014946b0	3.6968585e-38
250	0x0262c702	1.666097e-37
251	0x0347cdea	5.871722e-37
252	0x8326be6b	-4.9001605e-37
253	0x8339e181	-5.462548e-37
254	0x8312b77f	-4.3116187e-37
255	0x83652362	-6.733767e-37

net_model.4.bias f4 [32]
0	0x3c8166bb	0.015796056
1	0x3c80d4a4	0.015726395
2	0xb99c0124	-0.00029755489
3	0xba109317	-0.0005515082
4	0x3c814d3c	0.015783899
5	0xb98f5817	-0.00027340717
6	0xb9674533	-0.00022055655
7	0xba125ff5	-0.0005583757
8	0xba0a4149	-0.00052740105
9	0x3c80f85a	0.015743423
10	0x3c80f12e	0.015740003
11	0x3c80affb	0.015708914
12	0xba02daf0	-0.00049917307
13	0xb9b0159c	-0.00033585436
14	0xba169696	-0.0005744485
15	0x3c80da45	0.015729079
16	0xba1270b8	-0.00055862544
17	0x3c80d2dc	0.015725546
18	0xb9ea30b2	-0.0004466824
19	0x3c80b9d1	0.015713604
20	0x3c80de93	0.015731132
21	0xb783db89	-1.5718646e-05
22	0xb9eced5d	-0.00045190277
23	0xb8db4785	-0.00010456055
24	0xb9e938d5	-0.00044483566
25	0xb9a68738	-0.00031762733
26	0xb8e65dc9	-0.000109847235
27	0x3c809f13	0.015700852
28	0x3c80d8d7	0.015728397
29	0x3c810588	0.015749708
30	0xba08996d	-0.00052108505
31	0xb9b9af7e	-0.00035416702

net_model.6.weight f4 [1, 32]
0	0x3cfe2c66	0.03102703
1	0x3cf99c04	0.030469902
2	0x82b6458a	-2.678241e-37
3	0x834603ec	-5.8191472e-37
4	0x3cff4eeb	0.03116556
5	0x836653fa	-6.7687326e-37
6	0x8354bf76	-6.2520987e-37
7	0x3a217177	0.000615857
8	0x828f556a	-2.1060987e-37
9	0x3d0091d7	0.031389084
10	0x3d007a34	0.031366542
11	0x3cf99bd0	0.030469805
12	0x3a2031cd	0.00061109365
13	0x364222a6	2.892842e-06
14	0x39fc5e7e	0.00048135588
15	0x3cfa392e	0.030544844
16	0x8342917e	-5.7178493e-37
17	0x3cf9cb45	0.030492434
18	0xb798a3ec	-1.8196144e-05
19	0x3cf9b395	0.03048114
20	0x3cf98c35	0.030462364
21	0x02ca135c	2.9692344e-37
22	0x83538281	-6.215714e-37
23	0x023fc6e2	1.408954e-37
24	0x8325a021	-4.867296e-37
25	0xb91b2059	-0.00014794002
26	0x833292f7	-5.2478206e-37
27	0x3d030c6c	0.03199427
28	0x3cf9f912	0.030514274
29	0x3cfaa855	0.030597845
30	0x3a240101	0.0006256253
31	0x3a426a92	0.0007416393
