src/t1dsim_ai/models/IndividualModel/T1DEXI-01-0998/individual_model.pt (torch, 50089 bytes, 7 tensors)

net_model.0.weight f4 [128, 10]
0	0xbc988df6	-0.01862238
1	0x3d1a341b	0.037647348
2	0xbd1320f8	-0.035920113
3	0x3c0e2734	0.008676339
4	0xbb38d954	-0.002820571
5	0x3c03a717	0.008035443
6	0xbc10999e	-0.008825688
7	0xbb3da784	-0.0028938958
8	0xbc2fb6a1	-0.0107246945
9	0xbd7f6147	-0.06234863
10	0xbd149298	-0.036272615
11	0x3d1621d0	0.03665334
12	0xbcfb7e7f	-0.030699966
13	0xbae71cfc	-0.0017632539
14	0x3c7550c6	0.014972871
15	0xbae9815e	-0.0017815044
16	0xbc9e3773	-0.01931355
17	0x3bbf0916	0.0058299406
18	0x3bb337ef	0.0054693143
19	0xbd7a7d78	-0.061154813
20	0xbc979212	-0.018502269
21	0x3d1b995e	0.03798806
22	0xbd12c7a2	-0.035834916
23	0x3c0ffc39	0.008788162
24	0xbb1720a1	-0.002306022
25	0x3c008770	0.007844791
26	0xbc0dc759	-0.008653485
27	0xbb145c53	-0.0022638037
28	0xbc303b04	-0.010756258
29	0xbd7cea1b	-0.061746698
30	0xbc12e63f	-0.008966028
31	0x3d2b010d	0.04174905
32	0xbd0e78ad	-0.034783054
33	0x3c25791d	0.010099676
34	0xbb5e35c9	-0.003390657
35	0x3bb608f7	0.005555268
36	0xbc13de16	-0.009025117
37	0x3ab1b6d4	0.0013558515
38	0xbc59a983	-0.013285044
39	0xbd3b96f8	-0.045798272
40	0xbcb0c258	-0.021577045
41	0x3d139eeb	0.036040228
42	0xbd11ab68	-0.035563856
43	0x3c0a372b	0.008436005
44	0x3af2666e	0.0018493661
45	0x3c02efd5	0.007991751
46	0xbc1e91ac	-0.009678286
47	0xbb54a650	-0.0032447763
48	0xbc148c13	-0.009066599
49	0xbd85184a	-0.064987734
50	0xbcbba223	-0.022904461
51	0x3d109b76	0.03530451
52	0xbd120132	-0.03564567
53	0x3c095f89	0.008384594
54	0x3b802266	0.0039103506
55	0x3c0a9868	0.008459188
56	0xbc0edeae	-0.008720083
57	0xbb74f884	-0.0037379572
58	0xbc100c93	-0.00879206
59	0xbd850305	-0.064947166
60	0x3d1340cd	0.03595047
61	0x3acb3d50	0.0015505943
62	0xbc04bfab	-0.008102338
63	0x3cab2487	0.020891441
64	0x3da6da00	0.08147049
65	0xbdb61cd4	-0.08892217
66	0xbe0c26aa	-0.13686624
67	0x3d8d03aa	0.068854645
68	0xbd39f941	-0.045403723
69	0x3cdbf1fa	0.026848782
70	0xb0daa458	-1.5908297e-09
71	0x2388561f	1.4781623e-17
72	0x2e94fa9b	6.774777e-11
73	0x2a90610b	2.5646876e-13
74	0xb18d1fef	-4.1072705e-09
75	0xa17a2c17	-8.4761647e-19
76	0xafa2f2f8	-2.9640268e-10
77	0x311137e7	2.1132054e-09
78	0x2dd6cdbe	2.4420351e-11
79	0xaba2cac5	-1.1567072e-12
80	0xbcc7a54c	-0.024370812
81	0x3d22985f	0.039696094
82	0xbd0ae0a6	-0.033905648
83	0x3b4dc512	0.003139798
84	0xbb998ce1	-0.0046859835
85	0x3c0609ae	0.008181019
86	0xbc4e64a9	-0.012597241
87	0x3a128e13	0.0005590629
88	0xbc5d026d	-0.013489348
89	0xbd8234d3	-0.06357732
90	0xbc2a77cd	-0.010404539
91	0x3d61490c	0.055001304
92	0xbd0de2e0	-0.034640193
93	0xbdce026f	-0.10059058
94	0x3d420f15	0.047377665
95	0xbccd1a40	-0.025036931
96	0x3caf1da7	0.021376444
97	0x39f69c3f	0.0004703719
98	0x3ca54d82	0.02017856
99	0x3d38e2bb	0.045138102
100	0xbd07353d	-0.033009756
101	0x3d2e3f73	0.04254098
102	0xbcd9c6a6	-0.02658398
103	0x3bf4ae28	0.00746705
104	0x3b74d903	0.0037360794
105	0x3b581377	0.0032970586
106	0xbcb53cda	-0.022123743
107	0x3c0c55fc	0.008565422
108	0xbc26b596	-0.010175129
109	0xbd8385d6	-0.064220116
110	0xbc1cb2a4	-0.009564076
111	0x3d696511	0.05698115
112	0xbd07b047	-0.033127096
113	0xbdc95b9a	-0.09831925
114	0x3d360e85	0.04444744
115	0xbcbe51ba	-0.02323233
116	0x3ca0a0b9	0.019607889
117	0x3ac1375a	0.0014741227
118	0x3c56ede3	0.01311824
119	0x3d2d699f	0.042337056
120	0xbcb295e7	-0.021799995
121	0x3d1566cc	0.036474988
122	0xbd10f88c	-0.035393283
123	0x3c08630e	0.008324398
124	0x3acc4995	0.0015585894
125	0x3c05b116	0.008159896
126	0xbc12d0d5	-0.008960922
127	0xbb2408cf	-0.0025029664
128	0xbc19ff9b	-0.00939932
129	0xbd8598b5	-0.06523267
130	0xbcc61b70	-0.024183005
131	0x3d12405d	0.035705913
132	0xbd13302d	-0.035934616
133	0x3bb4ec90	0.0055213645
134	0xbb9fce41	-0.0048768823
135	0x3c1a3de5	0.009414171
136	0xbc5a8ec9	-0.013339707
137	0xbbdd0dd8	-0.006746035
138	0xbc14b11a	-0.009075427
139	0xbd82a3f1	-0.063789256
140	0xbc10d26d	-0.008839232
141	0x3d2b079b	0.0417553
142	0xbd0d7cfa	-0.034543015
143	0x3c277508	0.0102207735
144	0xbb5b1410	-0.0033428706
145	0x3bb53200	0.005529642
146	0xbc14dbab	-0.009085576
147	0x3ab5ea30	0.0013878997
148	0xbc590f9a	-0.013248349
149	0xbd3c2f9c	-0.04594384
150	0xbd1c667e	-0.03818368
151	0x3d141d3d	0.036160696
152	0xbcfbebbd	-0.030752057
153	0xbb21a738	-0.002466632
154	0x3c8033e0	0.015649736
155	0xbb06d355	-0.002057274
156	0xbc969d9d	-0.018385703
157	0x3bc01b12	0.005862602
158	0x3bcea1eb	0.006305923
159	0xbd74fa12	-0.059808798
160	0xbcb5f553	-0.022211706
161	0x3d16631d	0.036715616
162	0xbd116081	-0.035492424
163	0x3c02c526	0.007981574
164	0xbb0565e1	-0.0020354914
165	0x3c1a0e95	0.009402891
166	0xbc095242	-0.008381428
167	0xbb873ce3	-0.0041271313
168	0xbc2eacc1	-0.010661305
169	0xbd84a243	-0.064762615
170	0xbcb409e2	-0.021977369
171	0x3d1370c1	0.035996202
172	0xbd125441	-0.035724882
173	0x3c0d8c8f	0.008639469
174	0x3b3fadab	0.0029247801
175	0x3c01058c	0.007874858
176	0xbc1a7adb	-0.009428705
177	0xbb45dbe7	-0.0030190886
178	0xbc0f4a24	-0.008745704
179	0xbd8638cd	-0.06553803
180	0xbd798589	-0.060918365
181	0x3d48b853	0.04900391
182	0xbcfddc27	-0.030988766
183	0xbd4678de	-0.04845511
184	0x3d2fb268	0.04289475
185	0x3b8d8198	0.0043184273
186	0xbba69a37	-0.005084302
187	0xbbb141c9	-0.0054094535
188	0x3b2512d7	0.0025188231
189	0xbd7a7ece	-0.061156087
190	0xbcc2be13	-0.023772275
191	0x3d140251	0.03613502
192	0xbd108b92	-0.035289355
193	0x3c1717e3	0.009222004
194	0x39dee3af	0.00042512777
195	0x3c1c8328	0.009552754
196	0xbbecbaee	-0.007224432
197	0xbb94aa3b	-0.0045368946
198	0xbc2ebd61	-0.010665269
199	0xbd871dc0	-0.06597471
200	0xbccf1c46	-0.025282037
201	0x3d154d15	0.036450464
202	0xbd0e3050	-0.034714043
203	0x3b92445e	0.0044637164
204	0xbb28b541	-0.0025742801
205	0x3c21d665	0.009877776
206	0xbc6734e7	-0.014111734
207	0xbba5dccd	-0.005061722
208	0xbc0fa1b3	-0.008766579
209	0xbd82043b	-0.06348463
210	0xbcb985f5	-0.022646884
211	0x3d13c03b	0.036071997
212	0xbd171e08	-0.036893874
213	0x3c042291	0.008064882
214	0xbb816ac0	-0.003949493
215	0x3c1d5417	0.009602568
216	0xbb977a90	-0.004622765
217	0x392b903e	0.00016361565
218	0xbc42d1ac	-0.01189081
219	0xbd86591a	-0.065599635
220	0xbcf061a5	-0.029343436
221	0x3d090c1a	0.033458807
222	0xbd1704b9	-0.03686974
223	0x3c228cac	0.009921234
224	0x3b7cc974	0.0038572224
225	0x3c3d19eb	0.011541824
226	0xbb6b6a39	-0.0035921468
227	0xbb21d256	-0.002469202
228	0xbc3636c4	-0.011121456
229	0xbd89fd77	-0.06737798
230	0xbcb2a152	-0.02180544
231	0x3d124353	0.035708737
232	0xbd11ebc6	-0.03562524
233	0x3c114a8b	0.00886787
234	0x3b4f3987	0.0031619982
235	0x3c00c3b6	0.007859161
236	0xbc19884c	-0.009370875
237	0xbb60d57f	-0.003430694
238	0xbc0ebce9	-0.008712032
239	0xbd85d8e4	-0.06535509
240	0xbd81083f	-0.06300401
241	0x3d4ca17a	0.049958684
242	0xbd010cd9	-0.031506393
243	0xbd435220	-0.047685742
244	0x3d334b10	0.043772757
245	0x3b8439e1	0.00403522
246	0xbbac4d2d	-0.0052582235
247	0xbb9e7ffb	-0.004837034
248	0x3b44e791	0.003004525
249	0xbd8381b9	-0.06421227
250	0xbcafda2b	-0.021466335
251	0x3d14b791	0.036307875
252	0xbd11d44d	-0.035602856
253	0x3c0cb78c	0.008588683
254	0x3a9c64bd	0.0011931878
255	0x3c041cc4	0.008063499

net_model.0.bias f4 [128]
0	0x3c70caf4	0.014696825
1	0x3c668e43	0.014072004
2	0x3c6f0b2a	0.014590064
3	0x3c80333a	0.015649427
4	0x3c728851	0.014803008
5	0x3c7a39b5	0.0152725475
6	0x3b32bbd4	0.0027272599
7	0xb5e8fe51	-1.7359363e-06
8	0x3c1292e2	0.008946152
9	0x3c107223	0.008816275
10	0x3bc890d2	0.0061207796
11	0x3bdb7d3e	0.0066982796
12	0x3c6e534e	0.014546229
13	0x3c68edfe	0.014216898
14	0x3c820cef	0.015875308
15	0x3c6670ab	0.014064948
16	0x3c6beecb	0.014400194
17	0x3c762023	0.01502231
18	0xbb924ae0	-0.004464492
19	0x3c700e5f	0.014651864
20	0x3c64106e	0.013919933
21	0x3c70cea9	0.014697709
22	0x3c84f333	0.016229248
23	0x3c77d5c1	0.0151266465
24	0xbb898137	-0.004196312
25	0x3c73928d	0.014866483
26	0x3c6ef8d2	0.014585691
27	0x3c79f829	0.01525692
28	0x3bf0c4b9	0.00734767
29	0x3c6046b1	0.013688729
30	0x3c711f36	0.014716914
31	0x3c871db8	0.016493663
32	0x3bf4160c	0.0074489173
33	0x3c5f2b77	0.013621203
34	0x3c50fd53	0.01275571
35	0x3c81c52e	0.015841093
36	0x3c5c30a2	0.013439329
37	0x3bb9505f	0.005655333
38	0x3c1923ae	0.009346886
39	0x3c2cdab9	0.010550194
40	0xb99acf09	-0.00029527422
41	0x3cc9d1ab	0.02463611
42	0x3c6d2a6b	0.014475445
43	0x3bce3de8	0.006294001
44	0x3c6be36e	0.014397485
45	0x3c1530f2	0.009105908
46	0xbb8afcac	-0.0042415466
47	0x3c6d2653	0.014474469
48	0x3c5ee6ff	0.013604878
49	0x3c437082	0.011928679
50	0x3c143a40	0.009047091
51	0x3c6195d9	0.013768637
52	0x3c74bff4	0.014938343
53	0x3ba2e419	0.004971039
54	0xbc2ad947	-0.0104277795
55	0x3c6316b4	0.013860393
56	0xbc4f5013	-0.0126533685
57	0x3c3b8fec	0.011447888
58	0xbc1fb2b1	-0.009747193
59	0x3c6d3e91	0.014480249
60	0x3c64876a	0.013948301
61	0x3c5c39f1	0.013441549
62	0xbb3a9d14	-0.0028474974
63	0x3c5c4399	0.013443851
64	0xbc4576b1	-0.012052224
65	0x3c350da3	0.0110506145
66	0x3c7b14b3	0.015324759
67	0x3c6fcca1	0.01463619
68	0x3c04a5df	0.008096187
69	0x3c5db349	0.013531514
70	0x3c5dffcf	0.013549759
71	0x3c646b67	0.013941622
72	0x3c4c47ba	0.012468273
73	0x3c6e1e49	0.014533588
74	0x3c76281d	0.015024212
75	0x3c7213a2	0.014775189
76	0xbc4b1e7c	-0.012397405
77	0x3c70c566	0.014695501
78	0x3c352de4	0.011058304
79	0x3c6ad5d7	0.01433321
80	0x3c734ce6	0.014849877
81	0x3c225dca	0.009910056
82	0x3c8036fb	0.015651217
83	0x3b302d72	0.0026882556
84	0x3c19c697	0.009385726
85	0x3b455297	0.0030109042
86	0x3c6d8c85	0.0144988345
87	0x3c816b29	0.015798168
88	0x3c5880f8	0.013214342
89	0x3c7379b1	0.014860556
90	0x3c401cbd	0.011725602
91	0x3c103118	0.008800767
92	0x3c43c3d9	0.011948549
93	0x3c4213bd	0.011845526
94	0x3c3d4962	0.01155314
95	0x3c81ada1	0.015829863
96	0xbc6cbc18	-0.014449142
97	0x3c710b05	0.0147121
98	0x3c253e7f	0.010085701
99	0x3c1d9a67	0.009619332
100	0x3c291e07	0.0103221005
101	0xbb1b2201	-0.002367139
102	0xbb1ec800	-0.0024228096
103	0x3c613d81	0.013747574
104	0x3c70f823	0.014707598
105	0x3c6de062	0.014518829
106	0xbb34440f	-0.0027506386
107	0x3c3208f9	0.010866397
108	0x3c7e95c6	0.015538638
109	0x3c4d9397	0.012547395
110	0x3b45e558	0.0030196514
111	0x3c219269	0.009861567
112	0x3ca7ca7b	0.020482292
113	0x3c04433b	0.00807267
114	0x3c45456e	0.012040479
115	0x3c73a7f5	0.014871587
116	0x3c68e303	0.01421428
117	0x3b7dd954	0.0038734274
118	0x3b8f5c69	0.00437503
119	0xbc2c38ac	-0.0105115585
120	0xbba919d0	-0.005160548
121	0x3c77d09f	0.015125423
122	0x3c5c4677	0.0134445345
123	0x3c6c1e5b	0.014411534
124	0x3c73a054	0.014869768
125	0x3c6d0059	0.014465415
126	0x3c803385	0.015649566
127	0x3c5c3c59	0.013442122

net_model.2.weight f4 [64, 128]
0	0x3ccd048f	0.025026588
1	0x3cf5ad60	0.029989898
2	0x3cca758c	0.024714254
3	0x3cd8e5d3	0.026476776
4	0x3cc39352	0.023873959
5	0x3cc3db96	0.023908418
6	0xbdc26d41	-0.09493495
7	0x83031ed1	-3.8532815e-37
8	0x3cd78751	0.026309641
9	0x3db712dd	0.08939145
10	0x3d002890	0.031288683
11	0x3daa777f	0.08323573
12	0x3cc379ba	0.023861755
13	0x3cd5b0c9	0.026085274
14	0x3cd9ddcf	0.026595024
15	0x3cfdc20e	0.030976322
16	0x3ccfa4c7	0.025347127
17	0x3cc4f1ad	0.024041021
18	0x3d9f84b2	0.077889815
19	0x3cd2c887	0.025730385
20	0x3cd1f7f1	0.025630923
21	0x3cd7b2d8	0.026330397
22	0x3ce7110f	0.028206376
23	0x3cc4a9ba	0.024006713
24	0x3da3038b	0.0795966
25	0x3cc61f94	0.02418498
26	0x3cd00571	0.02539322
27	0x3cc2ff7c	0.023803465
28	0x3cfa3586	0.0305431
29	0x3cec6640	0.02885735
30	0x3cc4cc4d	0.0240232
31	0x3ce4b763	0.027919477
32	0x3cfc102c	0.03076943
33	0x3cdc7f23	0.026916092
34	0x3cd5f1e8	0.026116326
35	0x3ce5b904	0.028042324
36	0x3ccd36ee	0.025050607
37	0x3cfb6093	0.030685699
38	0x3d07d1d3	0.03315909
39	0x3d1e79e1	0.03869045
40	0x3d98b0f0	0.07455623
41	0xbd5df53d	-0.054188956
42	0x3ccf6d93	0.025320804
43	0x3cdf64a2	0.027269665
44	0x3cf6e31e	0.030137595
45	0x3d11d1c5	0.035600442
46	0xbd2dc33a	-0.04242251
47	0x3cd73a0b	0.026272794
48	0x3cebcd84	0.02878452
49	0x3cdb89f5	0.026799181
50	0x3cfd5238	0.030922994
51	0x3ce6338f	0.028100757
52	0x3cc59cec	0.024122678
53	0x3cef9590	0.029246122
54	0x3d8c536a	0.068518475
55	0x3cd158a1	0.025554957
56	0x3da8fd84	0.08251479
57	0x3d08552d	0.033284355
58	0x3d93fd30	0.07226026
59	0x3cce5214	0.025185622
60	0x3cd496c6	0.0259508
61	0x3cdb774d	0.026790285
62	0x3d930c32	0.071800604
63	0x3cd42d02	0.025900368
64	0x3da26ada	0.079305366
65	0x3d227dd6	0.039670788
66	0x3cd82b03	0.026387697
67	0x3ccf81f5	0.025330523
68	0x3cd99b93	0.026563441
69	0x3cd43af3	0.025907015
70	0x3d046fab	0.032333057
71	0x3cf4fcc0	0.029905677
72	0x3cf03286	0.029320966
73	0x3cd60361	0.026124658
74	0x3cc41784	0.023936994
75	0x3d037350	0.032092392
76	0x3da776e7	0.08176976
77	0x3cc4b811	0.024013551
78	0x3cd434b4	0.025904037
79	0x3d015698	0.031576723
80	0x3cc76efb	0.024344912
81	0x3d16a6e6	0.03678026
82	0x3d0a21f6	0.033723794
83	0x3d67cb94	0.05659063
84	0x3d13c972	0.036080785
85	0x3cfef6c8	0.031123534
86	0x3ccad806	0.024761211
87	0x3ce9cecc	0.028540991
88	0x3cd2ddf3	0.0257406
89	0x3d041feb	0.032257
90	0x3d014f08	0.03156951
91	0x3d127fc9	0.035766397
92	0x3cfd4da4	0.030920811
93	0x3cd1fad5	0.025632301
94	0x3cd1e9bb	0.025624147
95	0x3cdb2cc7	0.02675475
96	0x3da2cb41	0.07948924
97	0x3cd27cc7	0.025694264
98	0x3ce0cb38	0.027440652
99	0x3d0f13c4	0.03493096
100	0x3cd708fb	0.0262494
101	0x3da81580	0.08207226
102	0x3da37552	0.079813614
103	0x3cd11da7	0.025526835
104	0x3cc49e8e	0.024001386
105	0x3cd0d314	0.025491275
106	0x3da0dcde	0.07854627
107	0x3cd86eec	0.02642008
108	0x3cd5b3b4	0.026086666
109	0x3cdc0c10	0.02686122
110	0x3d719419	0.058979128
111	0x3d02c977	0.031930413
112	0xbd690e75	-0.056898553
113	0x3d0b4e70	0.03401035
114	0x3cdd6ba1	0.02702886
115	0x3cc4bd70	0.024016112
116	0x3d040691	0.032232825
117	0x3cf89c23	0.03034789
118	0x3cf84b58	0.030309364
119	0x3d94f482	0.07273199
120	0x3da06545	0.07831816
121	0x3cc3d259	0.023904013
122	0x3ccff1b8	0.025383815
123	0x3cd20959	0.025639223
124	0x3cc5a91e	0.024128493
125	0x3ccc37d9	0.024928974
126	0x3ce6ebdb	0.028188637
127	0x3cf279e7	0.029599143
128	0xbaf78d20	-0.0018886663
129	0xba31aefa	-0.00067780877
130	0xbaf35f24	-0.0018567783
131	0xbaf1d5ce	-0.001845056
132	0xbace3628	-0.0015732693
133	0xbac7f16b	-0.0015254443
134	0xbb84c249	-0.004051481
135	0x0140b9d4	3.5398156e-38
136	0xba8b28a5	-0.0010616971
137	0x3a5b8047	0.0008373302
138	0xb9f78c5a	-0.0004721608
139	0x3a40406c	0.00073338184
140	0xbadf6ccb	-0.0017045973
141	0xbab5c724	-0.0013868553
142	0xbaf1084b	-0.0018389312
143	0xba366096	-0.00069571414
144	0xbaef0f5e	-0.0018238833
145	0xbacecabc	-0.0015776972
146	0xba94f943	-0.001136579
147	0xbaf4c634	-0.0018674792
148	0xba84b4fd	-0.001012474
149	0xbb0401c6	-0.0020142659
150	0xbb0c9243	-0.0021449483
151	0xbacc1b69	-0.0015572134
152	0xba96d807	-0.0011508473
153	0xbad745e2	-0.0016424025
154	0xbaf511c8	-0.0018697316
155	0xbacdbdcb	-0.0015696822
156	0xb99a669f	-0.00029449628
157	0xba07d004	-0.0005180838
158	0xbad7e08f	-0.0016470122
159	0xbaeef383	-0.0018230531
160	0xb9c8d8b2	-0.00038308423
161	0xbaa4703f	-0.0012545659
162	0xba945f7c	-0.001131996
163	0xbac9208e	-0.0015344785
164	0xbad20270	-0.0016022455
165	0xba2c383e	-0.000656966
166	0xba3e2284	-0.0007253068
167	0xba801553	-0.000977198
168	0x399eda2e	0.00030298665
169	0xba2e86a1	-0.00066576345
170	0xbaf2c483	-0.00185217
171	0xba8fe25a	-0.0010977492
172	0xba240bf8	-0.0006257887
173	0xba6cb910	-0.0009030262
174	0xba831717	-0.0010001388
175	0xbaf8339c	-0.0018936279
176	0xba19ac4b	-0.00058621605
177	0xb9aeb240	-0.00033320673
178	0xb9dc8779	-0.00042062605
179	0xbb063d6f	-0.0020483395
180	0xbacc3f53	-0.0015582837
181	0xba81424f	-0.000986168
182	0xbaa0d497	-0.0012270388
183	0xbac2ebbd	-0.0014871281
184	0xbaac3a28	-0.001313989
185	0xba387863	-0.0007036982
186	0xbaa3cc8e	-0.0012496875
187	0xbaf9777b	-0.00190328
188	0xbacec76e	-0.0015775987
189	0xba9d428a	-0.001199798
190	0xb92c37aa	-0.00016423935
191	0xba931705	-0.001122207
192	0xbaa8dd50	-0.0012883339
193	0xba7610f2	-0.00093866803
194	0xbaba769a	-0.001422602
195	0xbaf37201	-0.0018573405
196	0xba882260	-0.0010386221
197	0xba8e8a11	-0.0010874887
198	0xba341458	-0.00068694865
199	0xba307df1	-0.0006732634
200	0xbaf5d774	-0.0018756227
201	0xbafa0134	-0.0019073845
202	0xbad0fb24	-0.0015943986
203	0xba37cf60	-0.0007011797
204	0xbaa92c45	-0.001290687
205	0xbadbe920	-0.0016777851
206	0xbac6d205	-0.0015168792
207	0xba2f97c4	-0.0006698335
208	0xbada570e	-0.0016658024
209	0xba737d44	-0.00092883804
210	0xba436bff	-0.00074547523
211	0xba8fb8c9	-0.0010965104
212	0xba6e2be6	-0.0009085521
213	0xba9d8c5a	-0.0012019977
214	0xbaef36bf	-0.0018250569
215	0xbaca2819	-0.0015423327
216	0xba8d6b2e	-0.0010789388
217	0xba2e602e	-0.0006651905
218	0xba162c68	-0.0005728663
219	0xba6eeb9f	-0.000911409
220	0xba1bb00f	-0.00059390155
221	0xbacf3386	-0.0015808202
222	0xb9de0593	-0.00042347293
223	0xbafb1628	-0.0019156383
224	0xbab753ab	-0.0013986727
225	0xbaea9461	-0.0017897004
226	0xb9b4fcca	-0.00034520618
227	0xba5ebfdf	-0.0008497219
228	0xba8eaa8d	-0.0010884568
229	0xba93b5a0	-0.0011269338
230	0xba9367dc	-0.0011246162
231	0xba89e040	-0.0010519102
232	0xbadcc559	-0.0016843482
233	0xbaf21ad9	-0.0018471136
234	0xba9018a8	-0.0010993676
235	0xbaa1e1c0	-0.0012350604
236	0xbaef53e4	-0.0018259254
237	0xb9a4a263	-0.00031401505
238	0xba934503	-0.0011235777
239	0xba36fd92	-0.0006980534
240	0xba3cceb7	-0.0007202434
241	0xba5d212a	-0.0008435423
242	0xb9c66dc3	-0.00037847282
243	0xbace5220	-0.0015741028
244	0xba28b819	-0.0006436124
245	0xbaa0aef6	-0.0012259174
246	0xba8dddc2	-0.0010823535
247	0xbaa5c5bf	-0.0012647434
248	0xba9976da	-0.0011708394
249	0xbaca18d8	-0.0015418781
250	0xb9f41bbf	-0.0004655998
251	0xbaf564aa	-0.0018722017
252	0xbad9a106	-0.0016603775
253	0xba8a9a91	-0.0010574629
254	0xbaf5f6dc	-0.0018765586
255	0xba19f110	-0.0005872408

net_model.2.bias f4 [64]
0	0x3bf1f447	0.0073838565
1	0xbb704f64	-0.0036668414
2	0x93fca8c4	-6.378016e-27
3	0x3bf12fee	0.00736045
4	0xbac7528f	-0.00152071
5	0x9d63f1fd	-3.0168305e-21
6	0xb49935a2	-2.8537494e-07
7	0x3bf0d4c4	0.0073495824
8	0x9a980388	-6.287143e-23
9	0xbb1b499e	-0.0023695002
10	0xadc6dd6f	-2.260833e-11
11	0x3bf1c939	0.007378724
12	0x3cb05522	0.02152497
13	0x3bf18513	0.0073706
14	0x3bf11f3d	0.00735846
15	0x3bf1b45b	0.0073762364
16	0x3bf1f164	0.0073835123
17	0x3bf19b7d	0.007373272
18	0x3be44c30	0.00696709
19	0x920118c8	-4.073577e-28
20	0x3bf1e329	0.007381816
21	0x3befdb13	0.007319817
22	0x3bf1ef82	0.007383288
23	0x3bf1b229	0.0073759747
24	0x3bf1270c	0.007359391
25	0x3cc7de1f	0.024397908
26	0xb7b8a2c8	-2.201031e-05
27	0x3bc97a41	0.006148607
28	0xbc829b66	-0.01594324
29	0xb1a961b3	-4.9296545e-09
30	0xb882bbfb	-6.233897e-05
31	0x3bf1dc91	0.00738103
32	0x3bf1e115	0.007381568
33	0x3bf1bbc6	0.0073771207
34	0x3bf1e334	0.007381821
35	0x3bf19cbf	0.007373422
36	0xae812305	-5.8724615e-11
37	0x3bdefada	0.006804806
38	0xbaad2816	-0.0013210799
39	0xba861292	-0.0010228923
40	0x3bf1c01e	0.0073776385
41	0xbaedb540	-0.0018135682
42	0x3bf1331b	0.0073608286
43	0x3bf1e04f	0.007381476
44	0xade00c73	-2.547138e-11
45	0xb9422a23	-0.00018516979
46	0x3bf1c233	0.0073778867
47	0x3bca28ea	0.006169428
48	0x3bf133e6	0.007360923
49	0x3bf1e16f	0.00738161
50	0x3d03dc76	0.03219267
51	0x3bf14f8d	0.0073642195
52	0xbb1867d1	-0.0023255239
53	0x3bf1b609	0.0073764366
54	0x3bf1a970	0.007374935
55	0x3b1e19cc	0.0024124263
56	0xbb2baee6	-0.0026196777
57	0x3bf1ef9c	0.0073833
58	0xbaf40e01	-0.0018619896
59	0x3bf1de15	0.0073812106
60	0x3bf1ec1b	0.0073828823
61	0x3bf1adf9	0.0073754755
62	0x9f0c19c0	-2.9667453e-20
63	0x3d394e7a	0.045240857

net_model.4.weight f4 [32, 64]
0	0x3d42f446	0.04759624
1	0x3ac24e77	0.001482441
2	0x91447a32	-1.5499328e-28
3	0x3d42cd5d	0.04755913
4	0x3a56a4cb	0.0008188008
5	0x8310177e	-4.2344764e-37
6	0x032b6192	5.036439e-37
7	0x3d42f336	0.047595225
8	0x0333d69b	5.2849727e-37
9	0xa916fb3e	-3.352461e-14
10	0xa81f90b5	-8.857651e-15
11	0x3d42abe8	0.047527224
12	0xbd515433	-0.05110569
13	0x3d4282cd	0.047488023
14	0x3d435730	0.04769057
15	0x3d432d1d	0.047650445
16	0x3d42936e	0.04750388
17	0x3d43041c	0.04761134
18	0x3d47842f	0.048710044
19	0x02ddcc94	3.2590454e-37
20	0x3d42d245	0.04756381
21	0x3d46b375	0.048510987
22	0x3d42c610	0.04755217
23	0x3d42863b	0.047491293
24	0x3d42ec8b	0.047588866
25	0xbd58172e	-0.05275648
26	0x01ffdd19	9.3989466e-38
27	0x3d48c469	0.049015436
28	0x3d9dc41e	0.07703422
29	0x0231fdc4	1.3076733e-37
30	0x2e056426	3.032965e-11
31	0x3d424ce3	0.047436606
32	0x3d42c5ff	0.047552105
33	0x3d430a05	0.047616977
34	0x3d426fd7	0.04746994
35	0x3d437062	0.0477146
36	0xab492232	-7.1457e-13
37	0x3d481305	0.048846263
38	0xbb0462d9	-0.002020052
39	0x392c38ce	0.0001642436
40	0x3d426ceb	0.047467154
41	0x3a9ca5f3	0.0011951312
42	0x3d42db5c	0.04757248
43	0x3d42cfdf	0.047561523
44	0x93cf2ac6	-5.2296324e-27
45	0xa0265b1d	-1.4090894e-19
46	0x3d428a16	0.04749497
47	0x3d49364b	0.049124043
48	0x3d42db08	0.047572166
49	0x3d4341f1	0.04767031
50	0xbd55976b	-0.052146357
51	0x3d42874e	0.047492318
52	0xbb19e667	-0.0023483278
53	0x3d4251f8	0.047441453
54	0x3d42f95e	0.047601096
55	0xbc8f2f06	-0.017478477
56	0x3a982a0d	0.0011609212
57	0x3d41d70b	0.04732422
58	0x3a24531c	0.0006268488
59	0x3d42712b	0.047471207
60	0x3d42d122	0.047562726
61	0x3d4325f2	0.04764361
62	0x8f35852c	-8.949637e-30
63	0xbd838db6	-0.064235136
64	0x02803bcc	1.8842231e-37
65	0x0337dcec	5.4032472e-37
66	0x00999758	1.4105123e-38
67	0x832f955c	-5.1599334e-37
68	0x034b0c05	5.9670136e-37
69	0x83292ea1	-4.9718164e-37
70	0x8341faa3	-5.700532e-37
71	0x821441ec	-1.0892241e-37
72	0x03660226	6.759339e-37
73	0x830a2fed	-4.060957e-37
74	0x036286e0	6.657026e-37
75	0x033e6b18	5.595892e-37
76	0x8365ff50	-6.7590136e-37
77	0x02595a35	1.596853e-37
78	0x83047225	-3.8922345e-37
79	0x833cea65	-5.5517306e-37
80	0x8324244a	-4.8236926e-37
81	0x031d7304	4.6270185e-37
82	0x827ff396	-1.8804347e-37
83	0x8350a69d	-6.131697e-37
84	0x0338adc0	5.4272195e-37
85	0x82b65cca	-2.6795755e-37
86	0x8301b330	-3.811539e-37
87	0x826f450c	-1.7578762e-37
88	0x0356d1e1	6.3129877e-37
89	0x8323c2e0	-4.81251e-37
90	0x033847dd	5.4155235e-37
91	0x033bd9f5	5.5204563e-37
92	0x82972958	-2.2211186e-37
93	0x83259f73	-4.867218e-37
94	0x832e4b5b	-5.122051e-37
95	0x03492aad	5.911758e-37
96	0x83337881	-5.2741704e-37
97	0x03547c20	6.244369e-37
98	0x0355c4e6	6.2821103e-37
99	0x822ac39f	-1.2545768e-37
100	0x83345cb9	-5.3003686e-37
101	0x8369b056	-6.867497e-37
102	0x033cdf52	5.5504594e-37
103	0x0305236d	3.9125854e-37
104	0x034f2a17	6.088015e-37
105	0x833f0158	-5.61314e-37
106	0x0345dcad	5.814642e-37
107	0x832d489f	-5.0923496e-37
108	0x82096e8c	-1.0096896e-37
109	0x8297ef39	-2.2324763e-37
110	0x81279064	-3.077665e-38
111	0x834ceaa0	-6.021955e-37
112	0x0334f12c	5.3174098e-37
113	0x0342913c	5.7178197e-37
114	0x0341dd54	5.6971675e-37
115	0x832f1181	-5.144797e-37
116	0x034787ff	5.863696e-37
117	0x831e8ffb	-4.659731e-37
118	0x0313d787	4.344683e-37
119	0x832640f3	-4.8857574e-37
120	0x02bf06c6	2.8068815e-37
121	0x034c1290	5.997152e-37
122	0x83194687	-4.504362e-37
123	0x832b1d05	-5.0285696e-37
124	0x8354e01e	-6.2558475e-37
125	0x032a1ee4	4.999397e-37
126	0x835341de	-6.208294e-37
127	0x833cf632	-5.5530853e-37
128	0x032ed2e8	5.1376113e-37
129	0x827b5c65	-1.8467084e-37
130	0x82e45189	-3.3548388e-37
131	0x02f9b590	3.6691473e-37
132	0x830fc576	-4.2250597e-37
133	0x835757a3	-6.3283423e-37
134	0x03336671	5.272097e-37
135	0x034062fd	5.653736e-37
136	0x031b7664	4.568631e-37
137	0x83167f39	-4.4227083e-37
138	0x834a01ce	-5.9364536e-37
139	0x82df928e	-3.2851023e-37
140	0x83289f4a	-4.9553618e-37
141	0x82f2aed0	-3.5659042e-37
142	0x8279ec2b	-1.8361408e-37
143	0x835ab946	-6.4277126e-37
144	0x0345a364	5.808066e-37
145	0x83188d40	-4.4830932e-37
146	0x0324a006	4.8378966e-37
147	0x03373859	5.384355e-37
148	0x032ba958	5.044678e-37
149	0x83172cde	-4.4426417e-37
150	0x835cfb26	-6.4940494e-37
151	0x031f6b77	4.6849264e-37
152	0x8316ffab	-4.437453e-37
153	0x834d7226	-6.037512e-37
154	0x82f4d02e	-3.5972067e-37
155	0x030dcbf8	4.167032e-37
156	0x031ebb10	4.6646764e-37
157	0x82eef4be	-3.5111432e-37
158	0x83390364	-5.4370506e-37
159	0x0193d3f6	5.430342e-38
160	0x8365f899	-6.7582428e-37
161	0x82f0610e	-3.5320537e-37
162	0x036178f1	6.626039e-37
163	0x03002737	3.7660836e-37
164	0x0244770c	1.4433971e-37
165	0x032f6590	5.1544466e-37
166	0x0324582f	4.82965e-37
167	0x031b26ee	4.5595095e-37
168	0x033735b8	5.3840533e-37
169	0x83503b67	-6.1193897e-37
170	0x8240fd3a	-1.4178605e-37
171	0x03019549	3.8081064e-37
172	0x8268ac3e	-1.7094099e-37
173	0x827f23e7	-1.8744745e-37
174	0x030c67fd	4.1261675e-37
175	0x033fe02e	5.63872e-37
176	0x833723e2	-5.382006e-37
177	0x02db143e	3.2190776e-37
178	0x02574a80	1.5817086e-37
179	0x82c3359e	-2.868345e-37
180	0x8210e00c	-1.0643747e-37
181	0x030eccff	4.1965373e-37
182	0x032f0854	5.143744e-37
183	0x8288c638	-2.0097176e-37
184	0x8302f860	-3.8488687e-37
185	0x8339bae6	-5.4581163e-37
186	0x01945b46	5.4497585e-38
187	0x82fd8760	-3.725271e-37
188	0x033b4a1c	5.5039434e-37
189	0x833f8d48	-5.629204e-37
190	0x8328d24f	-4.9612185e-37
191	0x03247172	4.8325497e-37
192	0x03375ada	5.388316e-37
193	0x82d7a973	-3.168867e-37
194	0x033dc150	5.576402e-37
195	0x830d9252	-4.1604143e-37
196	0x00b67a98	1.6758039e-38
197	0x83593121	-6.3826966e-37
198	0x832770e6	-4.920649e-37
199	0x02e2e1e8	3.333738e-37
200	0x031da113	4.6323057e-37
201	0x828c1eee	-2.0588904e-37
202	0x03213a49	4.7380556e-37
203	0x832163c0	-4.7428155e-37
204	0x025b95eb	1.6132603e-37
205	0x8358b843	-6.3688217e-37
206	0x026f1021	1.7563576e-37
207	0x034b9c1e	5.983555e-37
208	0x029393de	2.168458e-37
209	0x03056dd6	3.9211273e-37
210	0x834ce523	-6.021325e-37
211	0x02acf43e	2.5413317e-37
212	0x835657ae	-6.29896e-37
213	0x8319c5a8	-4.5189557e-37
214	0x832bd91f	-5.0501626e-37
215	0x032f34b8	5.1488396e-37
216	0x83436828	-5.7424915e-37
217	0x02cbac56	2.9927085e-37
218	0x8336a3b8	-5.3672933e-37
219	0x03290c58	4.9678806e-37
220	0x8207d0e2	-9.97818e-38
221	0x8343814c	-5.7453775e-37
222	0x8314dccc	-4.3746753e-37
223	0x02f8d658	3.6563352e-37
224	0x0343303c	5.736072e-37
225	0x8354adc6	-6.2500683e-37
226	0x82a89f1a	-2.4776701e-37
227	0x03304d44	5.181045e-37
228	0x034d3388	6.030324e-37
229	0x032e57f1	5.1234956e-37
230	0x81f7f7ce	-9.108905e-38
231	0x833f1d1e	-5.616328e-37
232	0x035ed69d	6.54863e-37
233	0x034bfea1	5.994864e-37
234	0x0335d726	5.3438098e-37
235	0x0366dd46	6.7844935e-37
236	0x821c964f	-1.1504206e-37
237	0x82826c99	-1.9164115e-37
238	0x83475459	-5.857767e-37
239	0x0360de47	6.6082846e-37
240	0x015be034	4.0384805e-38
241	0x031e57ac	4.653267e-37
242	0x83680005	-6.8178695e-37
243	0x02e548b3	3.3690253e-37
244	0x83036380	-3.861166e-37
245	0x834773b8	-5.8613683e-37
246	0x81fe7f4e	-9.348754e-38
247	0x82fa5818	-3.6784762e-37
248	0x0343980b	5.7479886e-37
249	0x02719053	1.7747303e-37
250	0x02ac56dc	2.5322983e-37
251	0x03166f30	4.4208675e-37
252	0x83498bcc	-5.922907e-37
253	0x834f19e0	-6.0861536e-37
254	0x832ff5fa	-5.1710245e-37
255	0x83452da6	-5.79455e-37

net_model.4.bias f4 [32]
0	0x3ac6559b	0.0015131714
1	0xba185593	-0.00058110914
2	0xba12547e	-0.00055820483
3	0xba1c4e0d	-0.0005962558
4	0x3ac41ee9	0.0014962825
5	0xba0685bb	-0.0005131622
6	0xba167090	-0.0005738819
7	0x3ac74392	0.0015202633
8	0xba1b5139	-0.0005924884
9	0x3ac33aa5	0.0014894797
10	0x3ac74b1b	0.0015204878
11	0xba138431	-0.0005627303
12	0x3ac558d3	0.0015056379
13	0x3ac6c168	0.0015163841
14	0xba0e1d70	-0.00054212566
15	0x3ac016bd	0.0014655214
16	0xba1a487d	-0.00058854354
17	0xb8b13722	-8.450287e-05
18	0x3ac469ff	0.0014985203
19	0x9a4f6beb	-4.2893772e-23
20	0x3ac27799	0.0014836668
21	0x3ac305fa	0.00148791
22	0xba1ac144	-0.00059034326
23	0xb96cc441	-0.00022579824
24	0xba0f7016	-0.0005471719
25	0x3ac6dec5	0.0015172592
26	0xb8a7d75c	-8.003294e-05
27	0x3ac74964	0.0015204367
28	0xba08b0d0	-0.00052143354
29	0x3ac68655	0.0015146235
30	0x3ac476ff	0.0014989077
31	0x3ac808a0	0.001526136

net_model.6.weight f4 [1, 32]
0	0xbd29969e	-0.041403405
1	0x82ece796	-3.4810007e-37
2	0x82fdb4ba	-3.727874e-37
3	0x826f4172	-1.7577729e-37
4	0xbd29d0d1	-0.04145891
5	0x82159a9f	-1.0991165e-37
6	0x836e11da	-6.9962406e-37
7	0xbd29b662	-0.0414337
8	0x820d2040	-1.0368299e-37
9	0xbd29abc1	-0.041423563
10	0xbd29985f	-0.041405078
11	0x834e89b0	-6.0696017e-37
12	0xbd2a06cb	-0.041510385
13	0xbd299d98	-0.04141006
14	0x01992518	5.625655e-38
15	0xbd29ea3e	-0.041483156
16	0x8325a50a	-4.8678598e-37
17	0x83135d44	-4.330648e-37
18	0xbd29d4e6	-0.0414628
19	0x836975f8	-6.8607967e-37
20	0xbd29a954	-0.04142125
21	0xbd29aeee	-0.04142659
22	0x832ad076	-5.019781e-37
23	0x02c13a02	2.8392096e-37
24	0x833f8a0f	-5.628834e-37
25	0xbd298acd	-0.041392136
26	0x833bc6b9	-5.5182483e-37
27	0xbd29b797	-0.04143485
28	0x833424d8	-5.293954e-37
29	0xbd29aa0d	-0.04142194
30	0xbd29c41f	-0.0414468
31	0xbd29ce4a	-0.0414565
