src/t1dsim_ai/models/IndividualModel/T1DEXI-01-0223/individual_model.pt (torch, 50089 bytes, 7 tensors)

net_model.0.weight f4 [128, 10]
0	0xbbdd54ac	-0.0067544784
1	0x3c71b5cb	0.0147528155
2	0xbc62334b	-0.0138061745
3	0xbb4543fa	-0.0030100332
4	0x3c5fd408	0.013661392
5	0x3c72fa6e	0.014830215
6	0xb94e359b	-0.0001966566
7	0x3c48d6d1	0.0122582475
8	0xbcd374d8	-0.025812551
9	0x3cc0a46c	0.023515902
10	0xbbc50f5b	-0.0060137934
11	0x3c8200a3	0.015869444
12	0xbc0cf53b	-0.008603389
13	0x3c8129a5	0.015766928
14	0x3c562174	0.013069499
15	0x3c59ab4c	0.013285469
16	0xba844d7a	-0.0010093891
17	0x3bc30507	0.005951527
18	0xbcf99017	-0.030464215
19	0x3cf5c76c	0.030002318
20	0xbc10bff4	-0.008834828
21	0x3c855dbc	0.016280048
22	0xbc51cca6	-0.01280514
23	0xbc0c1084	-0.0085488595
24	0x3c700c2f	0.014651342
25	0x3ca8aa0b	0.020588895
26	0x3c4c9c7e	0.0124884825
27	0x3c78a44d	0.015175891
28	0xbcb4c9ef	-0.022068946
29	0x3d03f79f	0.03221857
30	0xbbc3d139	-0.005975869
31	0x3cae4523	0.021273201
32	0xbc371511	-0.011174456
33	0xbc800cf5	-0.015631178
34	0x3c9d2bca	0.01918592
35	0x3c9ac4c0	0.018892646
36	0x3c178bd4	0.009249646
37	0x3c44908a	0.011997351
38	0xbc91e861	-0.017811002
39	0xbc572d65	-0.0131333815
40	0xbb862e6c	-0.0040948894
41	0x3cec1ab6	0.02882133
42	0xbbf1fef3	-0.0073851286
43	0xbcb42a62	-0.021992866
44	0x3ca50286	0.020142805
45	0x3c8bdbd8	0.017072603
46	0x3c4c0d01	0.012454272
47	0x3c1c6566	0.00954566
48	0xbc071722	-0.008245261
49	0xbcf17c5c	-0.029478244
50	0xbc0b4216	-0.008499643
51	0x3c8bdf1e	0.017074164
52	0xbc4968bd	-0.012293038
53	0xbc0d4d4e	-0.008624388
54	0x3c7147e0	0.014726609
55	0x3ca04ae6	0.019566964
56	0x3c1dfcef	0.009642824
57	0x3c6049d3	0.013689476
58	0xbcbfa225	-0.023392746
59	0x3cded52f	0.027201263
60	0xbb9cdcfd	-0.004787086
61	0x3d04a008	0.03237918
62	0xbbcafe2f	-0.006194852
63	0xbcdc0156	-0.026856106
64	0x3cb593da	0.022165228
65	0x3c61c7c7	0.013780541
66	0x3c4eda5a	0.012625301
67	0x3c1a9030	0.009433791
68	0xbb9f8a8d	-0.0048688115
69	0xbd1b80de	-0.037964694
70	0xbbdc763d	-0.0067279623
71	0x3c75d1e7	0.015003658
72	0xbc0b5931	-0.008505152
73	0x3c9c701f	0.019096432
74	0x3c5e0a5a	0.013552273
75	0x3c697cd2	0.014250951
76	0xbaad4c72	-0.0013221635
77	0x3bb3562c	0.005472919
78	0xbd047cff	-0.032345768
79	0x3d03e0ce	0.032196812
80	0xbbc68ca5	-0.0060592466
81	0x3cb14cef	0.02164313
82	0xbc3894eb	-0.011265974
83	0xbc78ba25	-0.015181099
84	0x3c99d39f	0.018777667
85	0x3c98fb4a	0.018674511
86	0x3c1aa591	0.009438888
87	0x3c4947b4	0.012285162
88	0xbc94e1b9	-0.01817404
89	0xbc22f458	-0.009945951
90	0xbbb4cc94	-0.0055175517
91	0x3c8b4d44	0.017004617
92	0xbc0de640	-0.008660853
93	0x3c4a1790	0.012334719
94	0x3c54c9c4	0.012987558
95	0x3c59bfa3	0.013290319
96	0xba28486e	-0.0006419484
97	0x3bf519a3	0.007479863
98	0xbcecf57b	-0.028925648
99	0x3ce998b5	0.0285152
100	0xbc0ace69	-0.008472064
101	0x3c80a180	0.01570201
102	0xbc534172	-0.012894021
103	0xbbf1e0a0	-0.0073815137
104	0x3c67b31b	0.014141823
105	0x3c962f23	0.018333023
106	0x3c183be2	0.009291621
107	0x3c5c8f02	0.01346183
108	0xbcc32233	-0.023820018
109	0x3cf6f8b1	0.030147882
110	0xbcec46ee	-0.028842416
111	0x3b61f59b	0.0034478668
112	0x3d88fa40	0.066883564
113	0x3bf1d497	0.007380079
114	0x3cfa0a7b	0.030522576
115	0x3d25f6e5	0.04051866
116	0x3c96d6cb	0.018412968
117	0xbccd12af	-0.025033323
118	0x3d1909ea	0.03736297
119	0x3d684263	0.056703936
120	0xbbd68b25	-0.006547349
121	0x3c778de7	0.015109516
122	0xbc60d1cb	-0.013721894
123	0xba84fb74	-0.001014574
124	0x3c5df3ba	0.0135468785
125	0x3c79c5c4	0.015244905
126	0xba4746c5	-0.0007601793
127	0x3c46cacf	0.012133314
128	0xbccb85b9	-0.024844037
129	0x3cc529d0	0.02406779
130	0xbbbdbd7d	-0.005790411
131	0x3cc3a68e	0.02388313
132	0xbc1d78fb	-0.0096113635
133	0xbc8a953d	-0.016916865
134	0x3ca21357	0.019784613
135	0x3c98dc6d	0.018659795
136	0x3c38bcac	0.011275452
137	0x3c3de83d	0.011591014
138	0xbc7ba794	-0.015359778
139	0xbc8e0a22	-0.017338816
140	0xbc148d69	-0.009066918
141	0x3c78e819	0.015192055
142	0xbc55864f	-0.01303251
143	0xbc0a51bb	-0.008442338
144	0x3c67e8c9	0.014154621
145	0x3ca638e5	0.020290801
146	0x3c5c8a08	0.013460644
147	0x3c7e73c0	0.015530527
148	0xbcb06dbf	-0.021536706
149	0x3d118b04	0.035532966
150	0x3b87d8b5	0.0041457065
151	0x3d13ed1d	0.0361148
152	0xbcccb29e	-0.024987515
153	0xbd333ce2	-0.043759234
154	0x3c9986d4	0.018741049
155	0x3b9ee970	0.0048496053
156	0x3bc0fad8	0.005889278
157	0xbc0bd056	-0.008533558
158	0x3b9b77e5	0.004744517
159	0xbd88ba7e	-0.066761956
160	0xbbeb4d8c	-0.007180875
161	0x3c6f0187	0.0145877665
162	0xbc63c32f	-0.013901516
163	0xbb2b3aeb	-0.0026127647
164	0x3c5ec613	0.013597029
165	0x3c717d05	0.01473928
166	0xb858ccbc	-5.1689087e-05
167	0x3c4dcdfd	0.012561318
168	0xbcd5ae98	-0.02608423
169	0x3cca0b53	0.024663603
170	0xbbe4a874	-0.006978089
171	0x3cbd0161	0.023071947
172	0xbc2c9b91	-0.010535137
173	0xbc5a1c8f	-0.013312473
174	0x3c8ba38a	0.017045755
175	0x3ca04525	0.01956422
176	0x3c3d682a	0.011560479
177	0x3c6eefa1	0.014583499
178	0xbc948e51	-0.018134268
179	0x3c5d02da	0.013489449
180	0xbbbbd8b7	-0.0057326215
181	0x3c82c15e	0.015961345
182	0xbc1290d6	-0.008945664
183	0x3c81eb72	0.01585934
184	0x3c583876	0.013197055
185	0x3c6634ce	0.014050676
186	0xbab07925	-0.0013463838
187	0x3bc78950	0.006089367
188	0xbcf75965	-0.030193994
189	0x3cf615db	0.030039718
190	0xbba82aad	-0.0051320405
191	0x3c8e743d	0.017389411
192	0xbc13f155	-0.009029706
193	0x3c485085	0.012226229
194	0x3c575c58	0.013144575
195	0x3c651d1b	0.01398399
196	0xba80b2ec	-0.0009818948
197	0x3bf6ff00	0.0075377226
198	0xbce85b1c	-0.028363757
199	0x3ce51e58	0.02796857
200	0xbba71c28	-0.005099792
201	0x3c90d446	0.017679345
202	0xbc13566f	-0.008992775
203	0x3c3366a9	0.010949769
204	0x3c54b6a8	0.012983002
205	0x3c5f39dd	0.0136246355
206	0xba41b772	-0.0007389701
207	0x3c041208	0.00806094
208	0xbce5c102	-0.028046135
209	0x3cdf8bff	0.027288435
210	0xbba4a7f2	-0.0050249035
211	0x3c8e2187	0.017349971
212	0xbc14e28a	-0.009087214
213	0x3c4ceb7b	0.012507315
214	0x3c56564e	0.0130821
215	0x3c668acf	0.0140711805
216	0xba764287	-0.00093940686
217	0x3bf57be1	0.007491574
218	0xbce84241	-0.028351905
219	0x3ce57500	0.028009892
220	0xbc3702fe	-0.011170147
221	0x3c777935	0.015104582
222	0xbb9aed35	-0.0047279843
223	0x3ca95fcf	0.020675568
224	0x3c160299	0.009155893
225	0x3c129c21	0.008948357
226	0x3ab3bc6d	0.0013712771
227	0x3c0ad2a7	0.008473075
228	0xbd1fe7b3	-0.039039325
229	0x3d17e492	0.037083216
230	0xbbd7a6ed	-0.0065811784
231	0x3cba2fe0	0.022727907
232	0xbc2c1ee7	-0.010505415
233	0xbc544548	-0.012955971
234	0x3c89e20d	0.016831422
235	0x3c9f6067	0.019455148
236	0x3c3b23fa	0.011422152
237	0x3c6c5e18	0.014426731
238	0xbc94f8ba	-0.018185008
239	0x3c5845e9	0.013200262
240	0xbc066ec1	-0.008205117
241	0x3c8e0659	0.017337011
242	0xbc4663ab	-0.012108724
243	0xbc0b7eb4	-0.008514095
244	0x3c6f243e	0.014596043
245	0x3ca35ca6	0.01994164
246	0x3c25b7a0	0.01011458
247	0x3c644328	0.013932027
248	0xbcbe4047	-0.02322401
249	0x3cde480f	0.02713397
250	0xbbbda832	-0.0057878727
251	0x3cc283a9	0.023744421
252	0xbc1efcf1	-0.009703861
253	0xbc8c1cd4	-0.01710359
254	0x3ca238be	0.019802447
255	0x3c9a3e70	0.0188286

net_model.0.bias f4 [128]
0	0xbc6fb059	-0.014629447
1	0xbc181537	-0.009282402
2	0xbc453c97	-0.0120383715
3	0xbc70269d	-0.014657644
4	0xbca25c71	-0.01981947
5	0xbc5988be	-0.013277231
6	0xbcbed3cf	-0.023294358
7	0xbc0e857f	-0.00869882
8	0xbc7782a6	-0.015106833
9	0xbc29dc85	-0.010367517
10	0xbc551008	-0.01300431
11	0xbb4305ed	-0.002975817
12	0xbc6847f3	-0.01417731
13	0xbc842706	-0.01613189
14	0xbc424a83	-0.011858585
15	0xbc4b48fa	-0.012407536
16	0xbc753d24	-0.01496819
17	0xbc752967	-0.014963484
18	0xbc1857ed	-0.009298307
19	0xbc267b93	-0.010161298
20	0xbc2dac99	-0.0106002325
21	0xbc260faf	-0.010135575
22	0xbc40e351	-0.011772946
23	0xbc75632f	-0.0149772605
24	0xbc5d1089	-0.013492712
25	0xbc800e8d	-0.015631938
26	0xbc2a7639	-0.010404163
27	0xbc970937	-0.018437011
28	0xbca628b3	-0.020283079
29	0xbc6cd3a1	-0.014454753
30	0xbc72a5e8	-0.014810063
31	0xbc58fe74	-0.01324426
32	0xbc82548e	-0.01590946
33	0xbc967f3f	-0.018371223
34	0xbca5f2ce	-0.02025738
35	0xbca0180b	-0.019542715
36	0xbc9f7c4e	-0.019468453
37	0xbc69d9ed	-0.014273149
38	0xbca45f8f	-0.020065097
39	0xbb490856	-0.0030675135
40	0xbc32a9bb	-0.010904725
41	0xbc170a96	-0.0092188325
42	0xbc54fc0f	-0.012999549
43	0xbc3fe620	-0.011712581
44	0xbc6926f2	-0.014230477
45	0xbc1735d1	-0.009229139
46	0xbc61ea7a	-0.013788814
47	0xbc1181e2	-0.008881064
48	0xbc5e0c66	-0.013552761
49	0xbc65d4e4	-0.014027808
50	0xbca49325	-0.020089695
51	0xbc345502	-0.011006596
52	0xbc4f76ff	-0.012662648
53	0xbb7ebf7a	-0.0038871453
54	0xbc94f172	-0.018181536
55	0xbc441bd3	-0.011969524
56	0xbc932485	-0.01796175
57	0xbc5fa52c	-0.01365022
58	0xbc5f7f4a	-0.013641188
59	0xbc46b64e	-0.012128426
60	0xbc563216	-0.013073465
61	0xbc773d6b	-0.015090327
62	0xbc784ed4	-0.015155513
63	0xbc6c7ca0	-0.01443401
64	0xbc48ad5c	-0.012248363
65	0xbc42df09	-0.011893996
66	0xbca1f1ad	-0.01976856
67	0xbc60a984	-0.013712291
68	0xbca339e2	-0.019925062
69	0xbc80ff91	-0.015746864
70	0xbc70550c	-0.014668714
71	0xbca0a266	-0.019608688
72	0xbc2fe58e	-0.010735882
73	0xbc16884d	-0.00918777
74	0xbc83c28e	-0.016083982
75	0xbc5d991f	-0.013525276
76	0xbb2fe474	-0.002683905
77	0xbc9dd820	-0.019268095
78	0xbc6cd198	-0.014454268
79	0xbc0c2f5f	-0.008556216
80	0xbc90e8ee	-0.017689195
81	0x3cefca2b	0.029271206
82	0xbc185737	-0.009298137
83	0xbcab65b2	-0.020922516
84	0xbc5ef0d3	-0.013607222
85	0xbc73e0a3	-0.014885101
86	0xbc768bb0	-0.0150479525
87	0x3ca242d5	0.019807259
88	0xbca39424	-0.0199681
89	0xbc5b896d	-0.013399464
90	0xbc5ec22b	-0.013596098
91	0xbcaf900c	-0.021430992
92	0xbc8ce91a	-0.017200995
93	0xbc73fd3a	-0.014891917
94	0xbc9e0d57	-0.01929347
95	0xbc718920	-0.014742166
96	0xbc596796	-0.013269326
97	0xbc576b71	-0.013148175
98	0xbc73b841	-0.0148754725
99	0xbc582d3e	-0.01319438
100	0xbc75daf9	-0.01500582
101	0xbcd32305	-0.025773535
102	0xbc404b8f	-0.011736765
103	0xbca4d45c	-0.020120792
104	0xbc78feff	-0.015197515
105	0xbc4e6c3f	-0.01259905
106	0xbc8ed5d6	-0.01743595
107	0xbca383a0	-0.019960225
108	0xbc2f89e2	-0.010714026
109	0xbc6030b8	-0.01368349
110	0xbb6ffb8a	-0.0036618435
111	0xbae6f3e1	-0.0017620289
112	0xbc926c67	-0.017873956
113	0xbc8bb21f	-0.017052708
114	0xbc76d959	-0.015066468
115	0xbc57a90c	-0.0131628625
116	0xbc90b789	-0.017665641
117	0xbc0ea3d6	-0.008706054
118	0xbc9dfbb7	-0.019285066
119	0xbc905cc6	-0.017622363
120	0xba83b667	-0.0010048867
121	0xbc54ce70	-0.012988672
122	0xbca5007e	-0.020141836
123	0xbc750559	-0.014954888
124	0xbc752b8d	-0.014963997
125	0xbca25846	-0.019817483
126	0xbc733d7e	-0.014846204
127	0xbca2a5a2	-0.01985437

net_model.2.weight f4 [64, 128]
0	0x3c4fbfc5	0.012679999
1	0x3c759506	0.014989143
2	0x3c91fce4	0.017820783
3	0x3c9d2138	0.019180879
4	0x3cb622ea	0.022233445
5	0x3c8f1eda	0.017470766
6	0x3cd4c43a	0.025972474
7	0x3c8aecbf	0.016958592
8	0x3c9d2c6f	0.019186227
9	0x3c5c3889	0.013441213
10	0x3c8526de	0.016253885
11	0xbd9e48af	-0.07728707
12	0x3c4a7c2a	0.012358705
13	0x3ca7806d	0.02044698
14	0x3c9069f4	0.017628647
15	0x3cf01adf	0.029309688
16	0x3c53fe86	0.012939101
17	0x3c9d3473	0.019190049
18	0x3c731577	0.014836661
19	0x3c56026f	0.013062104
20	0x3c4dd6dd	0.012563434
21	0x3c57e6ff	0.013177632
22	0x3ca73884	0.020412691
23	0x3c9ad47f	0.018900154
24	0x3c922663	0.01784057
25	0x3ca5b639	0.020228492
26	0x3c45d23b	0.012074049
27	0x3cb28d36	0.02179585
28	0x3cb493d9	0.022043156
29	0x3ca3816a	0.01995917
30	0x3c9be796	0.019031327
31	0x3c9240a2	0.017853085
32	0x3ca3f6af	0.020015089
33	0x3cad4b45	0.021154055
34	0x3cb413c5	0.021982083
35	0x3cb5279b	0.022113612
36	0x3cb972b6	0.022637706
37	0x3c968513	0.018374002
38	0x3cc07862	0.023494903
39	0xbd9e60c6	-0.07733302
40	0x3c86af08	0.016440883
41	0x3c76dd3a	0.015067393
42	0x3c3cb0c3	0.011516753
43	0x3c8ef6cb	0.017451664
44	0x3c9df90c	0.019283794
45	0x3cf4a1ae	0.029862251
46	0x3c95b8db	0.018276623
47	0x3c993e78	0.018706545
48	0x3c8edb1d	0.017438466
49	0x3c730033	0.0148315905
50	0x3cc15c11	0.023603471
51	0x3c44b303	0.01200557
52	0x3c87d9a5	0.016583273
53	0xbd9f1247	-0.07767158
54	0x3d14487a	0.03620193
55	0x3c8cc604	0.017184265
56	0x3d137dfa	0.036008812
57	0x3ca05d9f	0.019575892
58	0x3c9625b8	0.018328533
59	0x3c3e2bdf	0.011607139
60	0x3c91352a	0.017725546
61	0x3c57b144	0.013164822
62	0x3c5a8905	0.013338332
63	0x3c9692b8	0.018380508
64	0x3ca9bec8	0.020720854
65	0x3c8f4eb9	0.017493593
66	0x3cb8a09a	0.022537518
67	0x3c92fe50	0.017943531
68	0x3cb7dfaa	0.022445519
69	0x3ca5777e	0.02019858
70	0x3ca1c713	0.019748246
71	0x3cc0fe33	0.023558712
72	0x3c4222e6	0.011849141
73	0x3c6d570d	0.014486087
74	0x3ca7446d	0.02041837
75	0x3c932543	0.017962104
76	0xbd9e5d08	-0.07732588
77	0x3cb1b175	0.021691063
78	0x3c48e85b	0.012262429
79	0x3c95472c	0.018222414
80	0x3d0b5dde	0.034025066
81	0xbe010dac	-0.12602872
82	0x3c9929c1	0.018696668
83	0x3cb7ee0b	0.022452375
84	0x3c96526b	0.018349847
85	0x3c57ba79	0.013167017
86	0x3c5c6f4d	0.013454271
87	0x3d814eea	0.0631388
88	0x3cb84364	0.022493072
89	0x3cc1c2e8	0.023652509
90	0x3ca0e3c4	0.019639857
91	0x3cfd90ed	0.030952895
92	0x3cc7bb46	0.024381291
93	0x3ca0a0a4	0.01960785
94	0x3cb5e764	0.022205062
95	0x3c9dec26	0.019277643
96	0x3ca97008	0.020683303
97	0x3c94dffe	0.018173214
98	0x3c9cd0bb	0.0191425
99	0x3ca1233f	0.019670127
100	0x3c99c2f7	0.018769724
101	0x3d3b73fd	0.045764912
102	0x3c8c7803	0.01714707
103	0x3cb8773f	0.022517798
104	0x3c9f5773	0.019450879
105	0x3c943f44	0.018096574
106	0x3d11f13e	0.035630457
107	0x3cb4ccd9	0.022070335
108	0x3c48d4f4	0.012257803
109	0x3ca2f918	0.019894168
110	0xbd9e6361	-0.07733799
111	0x3d02cc34	0.031933025
112	0x3d3ff56b	0.04686491
113	0x3caf5ceb	0.021406611
114	0x3c9f870f	0.01947358
115	0x3c852e39	0.016257392
116	0x3cc84a2a	0.024449427
117	0x3c882c96	0.016622823
118	0x3cbad856	0.022808235
119	0x3ce6d97d	0.028179878
120	0xbd9c2e12	-0.07625975
121	0x3c8a05ee	0.01684853
122	0x3cb4f4f7	0.022089465
123	0x3c5c9381	0.013462902
124	0x3c50e3ee	0.012749655
125	0x3cb42d2c	0.021994196
126	0x3c9c6ee3	0.019095844
127	0x3cb6c041	0.02230847
128	0x23ae8324	1.8920658e-17
129	0x247651d3	5.3412055e-17
130	0x24164ebc	3.2592756e-17
131	0x240a83fe	3.0035782e-17
132	0x2413d651	3.2057077e-17
133	0x23fefe3a	2.7646404e-17
134	0x240b0315	3.014343e-17
135	0x2487aa7b	5.883572e-17
136	0x240866f1	2.9577494e-17
137	0x245b3510	4.7533e-17
138	0x23f7566b	2.6816393e-17
139	0x24b09a3f	7.6589136e-17
140	0x23bf9fcb	2.0775936e-17
141	0x24140b6e	3.2102066e-17
142	0x241aad0b	3.354e-17
143	0x241b61ed	3.3693214e-17
144	0x23abffc3	1.8648176e-17
145	0x2411187d	3.1462605e-17
146	0x24778af0	5.3677272e-17
147	0x245dcd99	4.8095884e-17
148	0x24519b14	4.5451007e-17
149	0x245f98cb	4.8484838e-17
150	0x245ea167	4.827529e-17
151	0x240ffb7d	3.12212e-17
152	0x2402a375	2.832771e-17
153	0x24156f0c	3.2403285e-17
154	0x244f70a4	4.498138e-17
155	0x2416d671	3.2707704e-17
156	0x24108ad1	3.1342605e-17
157	0x241470b6	3.2187854e-17
158	0x240a387b	2.997182e-17
159	0x240609d1	2.9064933e-17
160	0x240dafb1	3.0723318e-17
161	0x24159ccb	3.2442034e-17
162	0x2410d72f	3.140729e-17
163	0x2414e866	3.2289233e-17
164	0x241696fb	3.265395e-17
165	0x240d8b56	3.0692523e-17
166	0x24138c4f	3.199439e-17
167	0x24b165ea	7.693416e-17
168	0x245ac6f8	4.7439748e-17
169	0x247a2ed1	5.4249764e-17
170	0x240b2cac	3.017866e-17
171	0x24110851	3.1448907e-17
172	0x24111e0e	3.146732e-17
173	0x23ea3a26	2.5394958e-17
174	0x240863f6	2.957497e-17
175	0x248e1111	6.1611595e-17
176	0x24029365	2.8314105e-17
177	0x23c63532	2.1489732e-17
178	0x2414337f	3.2136003e-17
179	0x2446c439	4.3100613e-17
180	0x23fcf5dc	2.742602e-17
181	0x24b0dc08	7.670058e-17
182	0x23f65ae8	2.6709874e-17
183	0x240cb433	3.0510296e-17
184	0x23fc51c8	2.735653e-17
185	0x24170c89	3.2753523e-17
186	0x24068477	2.916882e-17
187	0x2429afa7	3.6794817e-17
188	0x2407c6c9	2.9441836e-17
189	0x23a650b9	1.8031943e-17
190	0x23a5760d	1.7939332e-17
191	0x240dc60c	3.0742253e-17
192	0x244e3736	4.4715895e-17
193	0x240d3972	3.062316e-17
194	0x241394de	3.200164e-17
195	0x240bba23	3.0298484e-17
196	0x24144f03	3.215931e-17
197	0x2410c781	3.139401e-17
198	0x2412f3a2	3.186507e-17
199	0x24161453	3.254328e-17
200	0x2445cb0f	4.2889563e-17
201	0x24779c7d	5.3692138e-17
202	0x2416f501	3.273359e-17
203	0x24014c2a	2.803693e-17
204	0x24b4c558	7.839687e-17
205	0x24147b1f	3.2196672e-17
206	0x23ccc3cf	2.2200652e-17
207	0x248dc9c5	6.1490813e-17
208	0x23f9308e	2.7017198e-17
209	0xa3d07dda	-2.2604705e-17
210	0x2488d427	5.934e-17
211	0x240c87d6	3.0472718e-17
212	0x240744c0	2.9331692e-17
213	0x23a949e8	1.8354317e-17
214	0x23a7e4f8	1.8203148e-17
215	0x24bf0663	8.2843866e-17
216	0x24120099	3.165921e-17
217	0x24271352	3.6228718e-17
218	0x2417aeac	3.289086e-17
219	0x241c48fc	3.3888928e-17
220	0x24225c4c	3.520633e-17
221	0x24089229	2.96141e-17
222	0x24154c3b	3.2373794e-17
223	0x240bc276	3.0305535e-17
224	0x2431d1fc	3.855862e-17
225	0x240fc0b5	3.117141e-17
226	0x2404a3b5	2.8761603e-17
227	0x241d6494	3.412914e-17
228	0x240ee291	3.098325e-17
229	0x242b0fab	3.7092986e-17
230	0x2413137c	3.1892048e-17
231	0x241131fe	3.1484208e-17
232	0x240b31b5	3.0182924e-17
233	0x2410d264	3.140323e-17
234	0x2400971e	2.7883577e-17
235	0x24133184	3.1917485e-17
236	0x244d4f03	4.4519215e-17
237	0x241c3d62	3.38791e-17
238	0x24b119f0	7.6805454e-17
239	0x2409b1f4	2.9857872e-17
240	0x24018d53	2.8092122e-17
241	0x241ad7cc	3.3576214e-17
242	0x2411417a	3.1497324e-17
243	0x23f2343d	2.6259816e-17
244	0x24216ade	3.500183e-17
245	0x2485917c	5.7926016e-17
246	0x2416ef40	3.2728718e-17
247	0x23e66d95	2.498306e-17
248	0x24cbdf5f	8.841562e-17
249	0x2400c9b6	2.792643e-17
250	0x2411b33b	3.1593677e-17
251	0x23a5f64f	1.7993652e-17
252	0x23aa4a8b	1.8463007e-17
253	0x2412b45f	3.1811484e-17
254	0x240a771e	3.0024876e-17
255	0x241472e1	3.218969e-17

net_model.2.bias f4 [64]
0	0x3ccc36bd	0.024928445
1	0x25d2f4c0	3.6595042e-16
2	0xb4c0a8a1	-3.588548e-07
3	0x3ccc0457	0.024904413
4	0xb20430af	-7.694481e-09
5	0x8dccf73c	-1.263199e-30
6	0x3ccc134a	0.024911541
7	0x3ccbf3e3	0.024896568
8	0xaa8108c8	-2.2921096e-13
9	0x3ca22f17	0.019797845
10	0xbb2c412e	-0.0026283967
11	0x3ccc29c5	0.024922261
12	0x3ccc253d	0.0249201
13	0x3ccc3120	0.024925768
14	0x3a487fb7	0.00076484255
15	0x3ccc0104	0.024902828
16	0x3cc5813f	0.02410948
17	0x3ccc31c5	0.024926076
18	0xba4ac7a9	-0.000773544
19	0xb7820aba	-1.5502203e-05
20	0x3ccc2564	0.024920173
21	0x3c88da15	0.016705552
22	0x3ccc211c	0.024918132
23	0x3ccbf99c	0.024899296
24	0x3ccc0443	0.024904376
25	0x3b8b1edb	0.0042456216
26	0xba6eb371	-0.00091057183
27	0xafef6fba	-4.3553233e-10
28	0xba9fe2dc	-0.0012198347
29	0xb4ddbff5	-4.1304125e-07
30	0xbb599bd7	-0.003320446
31	0x3ccc2ed7	0.024924679
32	0x3ccc28e3	0.02492184
33	0x3ccc1edd	0.02491706
34	0x3ccc04bf	0.024904607
35	0x3ccc2881	0.024921658
36	0x3ccbfbac	0.02490028
37	0xbb29fb2d	-0.0025937066
38	0xba9358a7	-0.001124163
39	0x3ca7f603	0.02050305
40	0x3ccc325a	0.024926353
41	0x3c900ea2	0.017585102
42	0x3ccbe59b	0.024889758
43	0x3ccc1cd0	0.024916083
44	0x3ccc1b0a	0.024915237
45	0xbaf26957	-0.0018494528
46	0x3ccc05aa	0.024905045
47	0xafb07445	-3.2096828e-10
48	0xba9198ef	-0.00111082
49	0x3ccc2d09	0.024923818
50	0xb5cf271b	-1.5434083e-06
51	0x3ccc0905	0.024906645
52	0xbb2d81fe	-0.0026475186
53	0x3ccc2470	0.024919719
54	0x3ccc0146	0.024902951
55	0xb933ef9c	-0.00017160032
56	0xac13e5bb	-2.1017482e-12
57	0x3ccc2f3c	0.024924867
58	0x3c8b1577	0.016978009
59	0x3ccc2008	0.024917617
60	0x3ccc1f93	0.0249174
61	0x3ccc2690	0.024920732
62	0xba1ad2f7	-0.000590607
63	0xb7dc1a6a	-2.6238344e-05

net_model.4.weight f4 [32, 64]
0	0x3d0b1e9e	0.033964746
1	0x25ec2c1d	4.0969366e-16
2	0xb7a0a0e4	-1.9148407e-05
3	0x3d0ae211	0.033907
4	0xb14b6cd2	-2.9602245e-09
5	0x8ac00a02	-1.8492692e-32
6	0x3d0af046	0.03392055
7	0x3d0ad243	0.033891927
8	0x265de65e	7.6986983e-16
9	0x3dfdef4d	0.123991586
10	0x3cd39497	0.02582769
11	0x3d0acc13	0.033886027
12	0x3d09db81	0.0336566
13	0x3d0a90bd	0.03382944
14	0x3cc14436	0.023592096
15	0x3d0b2fe1	0.033981208
16	0x3d06abbe	0.03287863
17	0x3d0b06ca	0.03394202
18	0x2c6e21df	3.3840636e-12
19	0x2c936158	4.1887986e-12
20	0x3d0afc5f	0.033932086
21	0x3cde1198	0.027107999
22	0x3d0afe5d	0.033933986
23	0x3d0a7bd2	0.03380949
24	0x3d0ad712	0.033896513
25	0x3c4ab18d	0.012371433
26	0x39ab7fac	0.00032710785
27	0x8254b070	-1.5625935e-37
28	0xb8dc7bd2	-0.00010513481
29	0x03309bd4	5.1900633e-37
30	0x3cd8bc8a	0.02645709
31	0x3d0a5578	0.033772916
32	0x3d0ae53f	0.033910032
33	0x3d0b2b12	0.033976622
34	0x3d0a82c3	0.03381611
35	0x3d0b7b24	0.034052983
36	0x3d0b19d8	0.033960193
37	0x3cd36a53	0.025807535
38	0x3a557eda	0.00081442075
39	0xbd6cc378	-0.0578036
40	0x3d0a75a5	0.0338036
41	0xbd6670ba	-0.05625985
42	0x3d0abfaf	0.03387421
43	0x3d0af210	0.033922255
44	0x3d0a4912	0.03376109
45	0x3a90a295	0.0011034781
46	0x3d0a9b0c	0.03383927
47	0x30001de3	4.66086e-10
48	0x3cc9cfb4	0.024635173
49	0x3d0b5ecb	0.03402595
50	0x30d3cf9d	1.5411278e-09
51	0x3d0a839a	0.03381691
52	0x3cd72cc3	0.026266461
53	0x3d0a6409	0.033786807
54	0x3d0afb28	0.033930928
55	0x368ccbc5	4.196047e-06
56	0xb8a6e29d	-7.957707e-05
57	0x3d09fbb9	0.033687327
58	0x3d90d719	0.070722766
59	0x3d0a97c2	0.033836134
60	0x3d0af412	0.03392417
61	0x3d0b3ee4	0.033995524
62	0x020d7abf	1.039427e-37
63	0x26b085ce	1.2248721e-15
64	0x0204dbb3	9.760879e-38
65	0x035ba78f	6.4550664e-37
66	0x01b7c5fa	6.7507666e-38
67	0x83279b53	-4.9255193e-37
68	0x0322d5d1	4.785297e-37
69	0x832ea355	-5.13215e-37
70	0x82d12683	-3.0731895e-37
71	0x82945020	-2.1792635e-37
72	0x035ebe80	6.545862e-37
73	0x833a18d8	-5.4689007e-37
74	0x03599f26	6.395326e-37
75	0x032ef8fc	5.1419824e-37
76	0x836516be	-6.732316e-37
77	0x020c3742	1.0301434e-37
78	0x830ffb1f	-4.2312196e-37
79	0x0210e663	1.0645567e-37
80	0x831d96c8	-4.631124e-37
81	0x033e07f1	5.58451e-37
82	0x8346cfb8	-5.842542e-37
83	0x8359cd5d	-6.4006314e-37
84	0x03352679	5.3235284e-37
85	0x82a6a441	-2.4485785e-37
86	0x83553d56	-6.2665484e-37
87	0x8207eec0	-9.986751e-38
88	0x0337d572	5.402389e-37
89	0x832adfc4	-5.021538e-37
90	0x03181333	4.4690825e-37
91	0x02c635bc	2.9124327e-37
92	0x8212a26e	-1.0773001e-37
93	0x834aaee4	-5.956323e-37
94	0x832b8806	-5.040853e-37
95	0x032890f7	4.9537174e-37
96	0x835045d2	-6.1205856e-37
97	0x0347e303	5.874144e-37
98	0x035e7521	6.5374394e-37
99	0x8216f511	-1.109059e-37
100	0x8316a9d2	-4.4275982e-37
101	0x83685f56	-6.8288113e-37
102	0x03251f66	4.8525186e-37
103	0x03179bb8	4.455367e-37
104	0x03572530	6.322551e-37
105	0x83294e66	-4.9754633e-37
106	0x035804a3	6.3482018e-37
107	0x831f8846	-4.6882335e-37
108	0x81f30914	-8.927713e-38
109	0x82b72dbc	-2.6915684e-37
110	0x80c21298	-1.7822756e-38
111	0x834d28d2	-6.0290945e-37
112	0x0339e5d6	5.4630452e-37
113	0x03641c8f	6.703596e-37
114	0x03590c7c	6.37849e-37
115	0x8307b84a	-3.988449e-37
116	0x0317cf88	4.4613146e-37
117	0x833f2e81	-5.618324e-37
118	0x031b79c5	4.569019e-37
119	0x8305b478	-3.9292355e-37
120	0x02cbb9fd	2.9934921e-37
121	0x032cba0b	5.0759824e-37
122	0x82d569fa	-3.1358365e-37
123	0x83298d91	-4.9827147e-37
124	0x834ff1f8	-6.11096e-37
125	0x031e3175	4.64888e-37
126	0x835b2102	-6.4396207e-37
127	0x83435927	-5.740769e-37
128	0x0337e126	5.4037324e-37
129	0x830708cc	-3.9683033e-37
130	0x82da9992	-3.2120366e-37
131	0x02e830be	3.4117313e-37
132	0x83285a31	-4.9474297e-37
133	0x8360e978	-6.6095693e-37
134	0x0352c966	6.1944647e-37
135	0x0308b816	4.017813e-37
136	0x03106b9c	4.2441326e-37
137	0x83301514	-5.174595e-37
138	0x8322a26d	-4.7793977e-37
139	0x8330e2fd	-5.198232e-37
140	0x8323aebe	-4.810199e-37
141	0x8306ae52	-3.957917e-37
142	0x82b10902	-2.6012983e-37
143	0x83454e05	-5.798266e-37
144	0x03426573	5.7127934e-37
145	0x832af524	-5.0239918e-37
146	0x0311b6c0	4.2821457e-37
147	0x032fad95	5.162714e-37
148	0x034b9c50	5.9835776e-37
149	0x83225ae6	-4.7711867e-37
150	0x83478c5e	-5.8641978e-37
151	0x03259530	4.86604e-37
152	0x83491287	-5.908986e-37
153	0x8331022d	-5.2018123e-37
154	0x82f49cf4	-3.5942664e-37
155	0x02fa79b2	3.6804048e-37
156	0x0328532a	4.946623e-37
157	0x830ab320	-4.076018e-37
158	0x831aad71	-4.5455633e-37
159	0x0120f644	2.9564046e-38
160	0x8351b1be	-6.162362e-37
161	0x82f8afc0	-3.65412e-37
162	0x032e7591	5.1268964e-37
163	0x0313e4b4	4.3461956e-37
164	0x023f47d9	1.4053083e-37
165	0x0322e07c	4.7865217e-37
166	0x0330b5b7	5.193035e-37
167	0x031b904a	4.571604e-37
168	0x031e5c06	4.6537665e-37
169	0x835ec05c	-6.5460754e-37
170	0x81d24ab0	-7.724899e-38
171	0x02f4aff8	3.5953579e-37
172	0x82097d45	-1.0101121e-37
173	0x82807e1c	-1.8880293e-37
174	0x030b4400	4.092649e-37
175	0x031abced	4.547341e-37
176	0x833625a1	-5.352819e-37
177	0x0308ea69	4.0235898e-37
178	0x01ca3c4a	7.428959e-38
179	0x82eaf157	-3.4521732e-37
180	0x0075f7d0	1.0833651e-38
181	0x0325d695	4.873547e-37
182	0x03326988	5.2430643e-37
183	0x82602538	-1.6467602e-37
184	0x82a919cc	-2.4847125e-37
185	0x8309bd1f	-4.047778e-37
186	0x828ac1cc	-2.0388512e-37
187	0x830021a9	-3.765446e-37
188	0x033a6e04	5.478678e-37
189	0x83319038	-5.218118e-37
190	0x834e0ff4	-6.0556272e-37
191	0x032e3cfd	5.1204015e-37
192	0x031d5971	4.6240827e-37
193	0x82e1adc6	-3.316052e-37
194	0x033689da	5.364324e-37
195	0x8305604d	-3.9195735e-37
196	0x028c0223	2.0572378e-37
197	0x833cb1e5	-5.5452447e-37
198	0x8324cfc6	-4.843378e-37
199	0x02b97114	2.724821e-37
200	0x0306ca65	3.96114e-37
201	0x83204b6a	-4.7106345e-37
202	0x02f64e9a	3.6191566e-37
203	0x8308681d	-4.0086324e-37
204	0x02c14fd7	2.8404627e-37
205	0x83380ae4	-5.408524e-37
206	0x02b7a414	2.698361e-37
207	0x0330f548	5.200332e-37
208	0x02ba9289	2.741435e-37
209	0x0301ae43	3.8109735e-37
210	0x8340bddd	-5.664168e-37
211	0x02b54deb	2.6640282e-37
212	0x8343a37d	-5.7493025e-37
213	0x830c956b	-4.1313826e-37
214	0x834b69bf	-5.977773e-37
215	0x0349c8a2	5.9298906e-37
216	0x8363bb53	-6.692434e-37
217	0x0302b472	3.8410707e-37
218	0x834c9bc0	-6.0129004e-37
219	0x032b8340	5.040305e-37
220	0x81cf169a	-7.607222e-38
221	0x832b55aa	-5.035072e-37
222	0x831d1cee	-4.6171363e-37
223	0x031fadba	4.692533e-37
224	0x036dca91	6.9880575e-37
225	0x8343b313	-5.7510917e-37
226	0x82b39118	-2.6384966e-37
227	0x03642711	6.7048024e-37
228	0x03617ae5	6.6262633e-37
229	0x03425b2e	5.7116145e-37
230	0x83148061	-4.3640663e-37
231	0x83294108	-4.973929e-37
232	0x034fed36	6.1104137e-37
233	0x0356ea07	6.31576e-37
234	0x0345444e	5.7971507e-37
235	0x034bc841	5.988622e-37
236	0x825fc883	-1.6440997e-37
237	0x828356a3	-1.9298447e-37
238	0x834b02e5	-5.965966e-37
239	0x0350a09e	6.1310086e-37
240	0x02384846	1.3538926e-37
241	0x0325f424	4.87694e-37
242	0x83450bc9	-5.7906625e-37
243	0x031b6226	4.5663075e-37
244	0x83170b87	-4.4388144e-37
245	0x83499066	-5.9234352e-37
246	0x82c09575	-2.8297649e-37
247	0x82c08a38	-2.8291198e-37
248	0x0317ec4d	4.464617e-37
249	0x014d1b8c	3.7672317e-38
250	0x02929d72	2.154314e-37
251	0x031f434c	4.6803153e-37
252	0x83585458	-6.3573517e-37
253	0x8355e18b	-6.2853985e-37
254	0x833239da	-5.237591e-37
255	0x83485abe	-5.8878884e-37

net_model.4.bias f4 [32]
0	0x3b0f51bb	0.0021868784
1	0xba07964d	-0.0005172238
2	0xba08df87	-0.00052212965
3	0xba1b3b31	-0.0005921601
4	0x3b0f4872	0.002186325
5	0xb9fa07f6	-0.00047689647
6	0xba16ead7	-0.000575704
7	0x3b0f5397	0.0021869892
8	0xba195ecd	-0.0005850613
9	0x3b0f151b	0.0021832648
10	0x3b0f2fff	0.0021848676
11	0xba123cfe	-0.00055785466
12	0x3b0f5394	0.0021869885
13	0x3b0fb1e6	0.0021926104
14	0xbb2e3fae	-0.002658825
15	0x3b0f4b6e	0.0021865028
16	0xba1845ef	-0.0005808761
17	0xafb0fd5f	-3.2194244e-10
18	0x3b0f21a9	0.0021840131
19	0xb9d15c49	-0.00039932344
20	0x3b0f7e31	0.0021895284
21	0x3b0f2a2b	0.0021845202
22	0xba18f233	-0.00058344303
23	0xa3c257f3	-2.107077e-17
24	0xba2395ed	-0.0006240297
25	0x3b0f7ba6	0.0021893769
26	0xba0338b3	-0.0005005702
27	0x3b0f4124	0.0021858895
28	0xba029142	-0.00049807515
29	0x3b0f8a98	0.0021902677
30	0x3b0fa79c	0.0021919971
31	0x3b0f5c48	0.0021875072

net_model.6.weight f4 [1, 32]
0	0xbcfc17cc	-0.030773066
1	0x832e9dba	-5.1315065e-37
2	0x8289985c	-2.021779e-37
3	0x0054c6b0	7.785457e-39
4	0xbcfbfdf6	-0.030760746
5	0x01d4ce64	7.8172657e-38
6	0x83445a7e	-5.7703103e-37
7	0xbcfc65af	-0.030810205
8	0x004b9fe0	6.945015e-39
9	0xbcfc020d	-0.030762697
10	0xbcfc02b9	-0.030763017
11	0x835f803c	-6.5681016e-37
12	0xbcfc7dde	-0.030821737
13	0xbcfc2196	-0.030777734
14	0xbb2a707a	-0.0026006983
15	0xbcfbe539	-0.03074895
16	0x834070fe	-5.6553438e-37
17	0x833cd706	-5.549507e-37
18	0xbcfc2c34	-0.030782796
19	0x8364d501	-6.7247694e-37
20	0xbcfbf437	-0.0307561
21	0xbcfbe498	-0.03074865
22	0x83269388	-4.8952373e-37
23	0x034c2b42	5.999987e-37
24	0xba2a154c	-0.0006488159
25	0xbcfbfdf4	-0.030760743
26	0x83246adc	-4.8317937e-37
27	0xbcfc7fc9	-0.030822651
28	0x02b8cc1a	2.7153519e-37
29	0xbcfc2f3d	-0.030784244
30	0xbcfc2daf	-0.030783502
31	0xbcfc99c7	-0.030835046
