src/t1dsim_ai/models/IndividualModel/T1DEXI-01-0240/individual_model.pt (torch, 50089 bytes, 7 tensors)

net_model.0.weight f4 [128, 10]
00000000: 86d3 e3bc 7edb 0b3d 22cd 1cbd 70a2 9cba
00000010: 53bd a53a e9ca 703b e82c a2ba 7e82 55ba
00000020: d8cd fbba 9dc3 a63b f486 eabc 9974 0b3d
00000030: 9a67 1ebd b1de e7bb 1d84 093c 9535 09ba
00000040: 7b3c 5ebb b96a 653a cee0 613b 2d24 ad3b
00000050: be38 f1bc 9b00 0f3d 8bf8 19bd 744d 88ba
00000060: 3e97 e73a 63fc 683b ba03 62b9 1a74 b438
00000070: a57e 5dbb 768e c13b 0556 e4bc 86bb 0b3d
00000080: 3b70 1dbd 9113 92ba e3b6 a23a 706f 723b
00000090: a6dc 98ba b336 51ba 2641 f1ba 46ef a33b
000000a0: 7a1f e9bc 7e06 0c3d a425 1dbd d935 d0ba
000000b0: c0fb c33a 70fc 653b 205e 30ba 080d 70ba
000000c0: e1ed b2ba 01bc 923b f987 04bd 2970 183d
000000d0: 89e8 10bd 8b9e 26bc e695 1c3c c48a f8b9
000000e0: 709e eeba a1d4 2eba 494a 19bb fbba 9b3b
000000f0: 6dd9 f4bc 6f93 113d 7f28 1bbd 1376 35bc
00000100: 8bf5 523c 23da 6eb9 5f49 b6bb 473c ab3a
00000110: a64c 8f3b f833 623b eac5 5dbd 281d 4bbd
00000120: be9a 203c 90b1 aabb 281a 50bd d692 20ba
00000130: 4952 87bc 1556 f6bc fe6f 813d 9aed b73c
00000140: 5ff2 04bd 334f 0e3d 47a2 1cbd 4a85 d5bb
00000150: 28fa b03b f950 61b9 29fa a53a 7c6a 09ba
00000160: 8693 92bb c1b6 b33b 0607 f8bc 57b8 1c3d
00000170: 97d7 11bd f768 51bc 59fb 2b3c 7593 dcb9
00000180: 2fa3 e2ba ba00 39ba ba84 22bb ce8d d83b
00000190: f58a 13bd c298 1f3d a8ae 0cbd 5ad7 65bc
000001a0: 4820 2f3c c4c8 37ba 7fdb 5abb 86f7 a1ba
000001b0: 0e75 5ebb 8610 ce3b a49c 4ebd e0c3 3d3d
000001c0: 5ed7 febc 089c 1abd f92e d63c a6f7 0c3a
000001d0: 2d8f ffb9 0bf9 88bb 6ab4 773c e0ad 2abc
000001e0: 0bec 04bd 5d14 0e3d 220c 1bbd c523 c5bb
000001f0: c588 a73b ca81 52b9 8bf6 a13a edee 22ba
00000200: 03ef 8abb 7865 a13b 0d8d f9bc 7ad2 0e3d
00000210: 0355 1bbd 5138 adbb fb64 3e3b aa49 8538
00000220: b2d6 133b 87a4 6aba d1e1 6ebb 7f1d 913b
00000230: 5b1d 05bd 2373 1b3d 918c 0fbd dcc6 3cbc
00000240: e7b1 1f3c 6491 0eba 8f42 c7ba f489 86ba
00000250: 711f 47bb 84f0 b33b 61c9 dabc cb82 073d
00000260: 8212 26bd a6f8 e3bb f143 50bb ccfe 953a
00000270: b931 223b 80c5 1dbb e63c 9a3a a3f1 713b
00000280: 547b 00bd f8ed 0d3d 5690 1bbd db7a b6bb
00000290: 14e8 833b fcfd 66b8 dbb5 e53a 1e98 1eba
000002a0: 7042 85bb ed6e 973b c964 eebc c9c3 0d3d
000002b0: 725d 20bd 81d9 b6bb b54f 2d3b c4d4 69b8
000002c0: 7f2c 173b 626d 12ba 7a39 96bb 5759 a73b
000002d0: 1ab2 03bd baf2 153d 6349 12bd f8d3 13bc
000002e0: 9c71 1d3c 2e0b dbb9 03a5 14bb 6d05 84b9
000002f0: c695 e2ba 3d8f 8d3b b253 debb 0d00 073d
00000300: ff52 3fbd af8e 38bc e0da 0bbb c65f 6fbb
00000310: 1f8d 0dbb 2e0c b33b 0b12 5c3c e2d3 c63b
00000320: 3c81 49bd 8caa 493d 9cc6 f0bc 3d01 17bd
00000330: ba1d d13c 1250 91ba fbd2 b33a 946e 3dbb
00000340: ddf1 5eba d501 cbba c590 dabb dc29 003d
00000350: 808e 46bd c64e 3ebc c919 96bb 3cce 79bb
00000360: 278f 5dbb 3ca8 e53b 48ab 583c c228 c63b
00000370: b345 bbbb 432a f33c a285 4ebd 5861 42bc
00000380: 8aae f9bb 47b3 6ebb c0ed 6bbb 9a06 0f3c
00000390: 0f4e 6c3c d8ea d43b d526 04bd c896 1b3d
000003a0: 33eb 0fbd d2fd 3dbc e136 213c 42bd 12ba
000003b0: b01d b4ba 68c1 82ba b98d 45bb ecde b83b
000003c0: 479d b3bb ab31 f33c b7c3 4ebd e8f2 41bc
000003d0: ae12 00bc 539e 71bb 3c06 6bbb acac 0e3c
000003e0: 6359 6d3c abda d43b 3449 f8bc f3b7 0e3d
000003f0: 38b8 1bbd b752 a6bb 9e34 153b 6e3f 1139
-0.027810823 0.03414487 -0.038281567 -0.0011950266 0.0012644924 0.0036742038 -0.0012373002 -0.000814475
-0.0019211126 0.005089237 -0.028628804 0.034046743 -0.03867302 -0.0070761074 0.008393315 -0.00052341196
-0.003391056 0.00087515597 0.003446627 0.0052838535 -0.029446002 0.034912687 -0.037590545 -0.0010399059
0.0017668975 0.0035550825 -0.00021554428 8.6046944e-05 -0.003379741 0.0059068752 -0.027873049 0.034114383
-0.03843711 -0.0011144747 0.0012414124 0.0036992691 -0.0011662438 -0.0007980868 -0.0018406257 0.005002889
-0.028457392 0.03418588 -0.038365975 -0.0015885188 0.0014952347 0.0035093091 -0.0006727893 -0.0009157215
-0.0013651216 0.004477978 -0.032356236 0.03721634 -0.035378013 -0.0101696355 0.009557223 -0.00047405635
-0.0018205177 -0.00066692574 -0.0023390225 0.0047525144 -0.029888833 0.035540994 -0.037880417 -0.011075514
0.012875925 -0.00022778711 -0.0055629457 0.0013064229 0.004373151 0.003451584 -0.054143824 -0.049588352
0.009802518 -0.0052091554 -0.050806195 -0.0006125396 -0.016518729 -0.030070344 0.06320189 0.022452164
-0.032457706 0.0347435 -0.038240697 -0.0065161334 0.0054009147 -0.00021487837 0.0012663055 -0.00052420027
-0.0044731526 0.0054844324 -0.030276787 0.038261738 -0.035605993 -0.012781373 0.010496938 -0.00042071534
-0.0017291064 -0.0007057298 -0.002479835 0.0066087013 -0.03602119 0.03896404 -0.034346253 -0.014028395
0.010688849 -0.00070108124 -0.003339499 -0.0012357093 -0.0033944282 0.006288591 -0.050442353 0.04632938
-0.031108554 -0.03774646 0.026145445 0.00053774787 -0.00048744064 -0.004180079 0.015118698 -0.010417432
-0.03245167 0.03468739 -0.037853368 -0.006016227 0.0051127397 -0.00020075511 0.0012356801 -0.0006215412
-0.004239918 0.004925426 -0.030462766 0.034868695 -0.03792287 -0.0052862545 0.0029051888 6.355655e-05
0.0022558388 -0.0008950908 -0.0036450515 0.004428565 -0.0324987 0.0379516 -0.035046164 -0.011522021
0.009747005 -0.0005438535 -0.0015202331 -0.0010264502 -0.003038373 0.005491318 -0.026707353 0.03308372
-0.040544994 -0.0069571314 -0.0031778777 0.0011443733 0.0024748875 -0.0024074018 0.0011767417 0.0036917708
-0.031367615 0.034650773 -0.037979446 -0.0055688447 0.0040254686 -5.5072815e-05 0.0017525511 -0.0006049889
-0.004066758 0.0046213777 -0.029100792 0.034610543 -0.039151616 -0.0055801277 0.0026445214 -5.5749682e-05
0.0023067293 -0.00055857573 -0.0045844885 0.0051070857 -0.032152273 0.036608435 -0.03571452 -0.009022705
0.009609606 -0.00041779265 -0.0022681362 -0.00025181044 -0.0017287068 0.004320054 -0.0067848796 0.032959033
-0.04671001 -0.011264487 -0.0021340176 -0.0036525591 -0.0021599007 0.0054640984 0.013432036 0.006067739
-0.049195513 0.04923491 -0.02939158 -0.036866415 0.02552687 -0.0011086485 0.0013719493 -0.002890502
-0.00085046684 -0.0015488217 -0.00667009 0.03128992 -0.048475742 -0.011615461 -0.0045807105 -0.003811731
-0.003380725 0.0070085805 0.01322443 0.006047339 -0.005715096 0.029683238 -0.05042041 -0.011864029
-0.0076196836 -0.0036422776 -0.0035999864 0.008729601 0.0144229075 0.006497722 -0.032263596 0.037985593
-0.035136413 -0.01159616 0.009839744 -0.00055976596 -0.0013741758 -0.0009975852 -0.0030144288 0.0056418087
-0.0054813954 0.02968677 -0.050479617 -0.0118376985 -0.007816954 -0.003686805 -0.003586187 0.00870816
0.0144866435 0.006495794 -0.030308343 0.034843396 -0.03801748 -0.0050757783 0.0022766958 0.00013851907

net_model.0.bias f4 [128]
00000000: 1c5a 763b 9811 08ba 9dee 143b ea5d 733b
00000010: 910c 583b 39ec 43bb 7358 0bbb 548a 843c
00000020: e360 4abb 7ef2 89bb f637 55bb 2920 42bb
00000030: f654 2abb ec0e e8ba 051b 58bb 672d 1e3a
00000040: 54d9 10bb 446c 39bb 2a20 37bb 8d48 0e3b
00000050: bdd5 59bb b0b9 903b a305 d03b 123f 60bb
00000060: f9c9 d23b 9059 caba 8c3d df3a a1fb e3ba
00000070: d082 27bb 3a5a a9ba 1dd8 693b 32c5 113b
00000080: b22d 87bb bacb 6ebb 97f3 31bb 7e8c 003a
00000090: f264 4f3b 0b59 4fbb dea4 033a 50b0 00ba
000000a0: 534b 41bb fae8 70bb c021 24bb 37d0 173a
000000b0: 1917 0fbb 31bf 1839 b74e 28bb b481 5bbb
000000c0: 6d28 39bb 81fb 47ba f4c7 10bb e67f 793b
000000d0: 4d84 023a b653 59ba fa34 3cba bddd f2bb
000000e0: b130 90bb 41a6 dfbb 6f94 0eba 55e2 0dbb
000000f0: 3008 29bb 62e0 76bb 0a42 2bb9 e08d 80bb
00000100: 658e c938 cd42 92ba 62d3 123a 79e2 3c3b
00000110: 84e0 d13a c3ce eb3a be4b 683a 95a1 2439
00000120: ffeb c53a 5e29 40bb ab95 88bb 2570 7bbb
00000130: 549b 56bb 7d2a 083b 09e4 22bb 1e57 54bb
00000140: e863 72bb de31 71bb 9fea 8dba dbf3 78bb
00000150: 3483 c9b8 db11 06bb 87d0 5abb f8a9 2dbb
00000160: 367d 9439 8394 2dbb 5a6b 47bb fcee 82bb
00000170: ba38 a639 a7ee 1d3b 978b 393b 84bf 473b
00000180: 20c5 843c 9269 89bb c2d1 0a3b 9f46 78bb
00000190: 33a2 ffbb a745 60bb 7c8c f3ba e455 a0ba
000001a0: 29a7 3b3b 2580 183b 417a 3eb9 3988 60bb
000001b0: 31e1 33bb 55c3 14bb c393 c6ba 5a30 e43a
000001c0: 90be 28bb 4928 5d3b 07c4 86bb deb5 79bb
000001d0: ab8b 4d3a f903 74bb d605 05bb 44fc f339
000001e0: c907 f7bb f77b 42bb 89ed f639 cdb6 2fbb
000001f0: 80ca 62bb 49ae 693a 9349 e939 cf13 a43a
0.003759033 -0.000519061 0.0022725232 0.0037134835 0.0032966475 -0.0029895438 -0.0021262437 0.016179241
-0.0030880503 -0.0042098155 -0.0032534576 -0.002962122 -0.0025990582 -0.0017704642 -0.003297509 0.0006033987
-0.0022102194 -0.002829329 -0.0027942755 0.0021710724 -0.003323897 0.004416667 0.006348328 -0.003421728
0.0064327684 -0.0015438069 0.0017031892 -0.0017393717 -0.0025560148 -0.0012920566 0.0035681792 0.0022242782
-0.0041253204 -0.0036437348 -0.0027153248 0.00049037475 0.0031645861 -0.0031638767 0.00050218205 -0.0004909085
-0.002949436 -0.0036759959 -0.002504453 0.00057912193 -0.0021833836 0.00014567074 -0.0025681683 -0.0033494057
-0.0028252855 -0.00076287246 -0.0022091838 0.0038070618 0.0004978821 -0.0008290367 -0.0007179525 -0.007411687
-0.0044003357 -0.006825239 -0.00054389884 -0.0021649797 -0.0025792234 -0.0037670364 -0.00016332432 -0.003923163
9.61095e-05 -0.0011158824 0.00056009565 0.0028821512 0.0016012345 0.0017990697 0.0008861384 0.00015700453
0.001510024 -0.0029321532 -0.0041682324 -0.0038366404 -0.0032746391 0.0020777278 -0.0024855158 -0.0032400559
-0.0036985818 -0.0036803405 -0.0010827369 -0.0037987146 -9.6088654e-05 -0.002045742 -0.0033388452 -0.0026499014
0.0002832205 -0.0026486225 -0.0030428977 -0.0039957743 0.00031704252 0.0024098547 0.0028311962 0.0030479142
0.016207278 -0.004193493 0.0021182154 -0.003788389 -0.007801318 -0.0034221204 -0.0018581296 -0.0012232629
0.002863357 0.002326974 -0.00018165355 -0.0034260883 -0.0027447457 -0.0022699435 -0.0015150238 0.001740943
-0.002574835 0.0033745936 -0.0041127237 -0.0038102786 0.00078409415 -0.0037233813 -0.0020297668 0.00046536524
-0.00753877 -0.002967594 0.00047097754 -0.0026811839 -0.0034605563 0.0008914215 0.0004449604 0.001251811

net_model.2.weight f4 [64, 128]
00000000: 04f5 d63c c2d2 f03c 4974 d93c 9786 d73c
00000010: 5584 d63c 8f34 0d3d 9ccb 123d dc53 a9bd
00000020: 8171 033d a214 203d 8dd8 293d b596 933d
00000030: ff81 f93c 09e5 e93c 29cd 163d edb1 ed3c
00000040: 60a6 f03c 370b fd3c 9506 063d c500 333d
00000050: 6e68 903d 4cde 383d 4f1b 453d fbae 183d
00000060: ca83 453d 321a e83c 78d9 d83c bd66 e93c
00000070: b6a9 003d fcf0 f23c c11e d63c b026 d73c
00000080: 65fe 0d3d 2ad2 183d 758b f93c f65c ef3c
00000090: ac3f d43c 8f16 043d e5c2 d43c 1a9a 7d3d
000000a0: 2ac3 903d 0800 163d 28a5 083d 270a e03c
000000b0: 510b f43c f5bd ef3c c023 0b3d 316e 193d
000000c0: 5d04 053d 08d8 e23c 7c05 f93c 37af d73c
000000d0: a81e a03d da48 013d 769f 023d 8675 9e3d
000000e0: 4557 a63d dd13 973d 5904 103d b414 f53c
000000f0: 7fc4 f73c 3dc5 183d f340 763d 41e1 073d
00000100: 1c49 0e3d 833b 203d 35c2 e93c 6295 d83c
00000110: 0e6b d73c fa55 d63c dc98 e73c eea7 e53c
00000120: bae6 db3c 61d3 0e3d 2ad0 293d 5aca 133d
00000130: 58c1 923d db81 d53c e3ba 013d 0b18 203d
00000140: 9d6a 1c3d 9b08 923d 8a3c 223d 32c8 183d
00000150: 779e 0d3d 444e f03c 5421 1a3d 2012 8f3d
00000160: 9870 e83c 7a3d 033d be5a 0b3d bf11 983d
00000170: 2373 e33c 52c7 d33c a6a2 d63c 0be6 d63c
00000180: 34d3 a7bd 588c 293d b308 d13c 72b1 113d
00000190: edbe 9d3d ff3a 933d ad5b ea3c 43d0 f23c
000001a0: 72f9 d53c 0955 d83c b95c 9d3d e13a 163d
000001b0: dd5b 083d ca64 fe3c 5d70 f33c 70de d73c
000001c0: 5321 8e3d 7d65 d33c c51f 0f3d 3893 093d
000001d0: 7ce2 c63d 7492 153d b737 eb3c bc34 0f3d
000001e0: d234 9d3d 7d7b 003d d2a2 ef3c 0cc9 f93c
000001f0: 3172 143d 8fe0 d63c 586c e43c 26f6 d53c
00000200: 8360 d73c 1bce f03c 7578 d93c aa5e d83c
00000210: 8763 d63c 8019 0d3d b1fe 123d 665e a9bd
00000220: d45f 033d ed2b 203d 77bc 293d ac9b 933d
00000230: 9af8 f83c 255e e93c 73e8 163d 6672 ee3c
00000240: d261 f03c c297 fd3c 54fd 053d f5f5 323d
00000250: fd5c 903d 3cd2 383d d310 453d 4394 183d
00000260: 2a78 453d 2969 e73c c253 d93c 6c0a e93c
00000270: 089c 003d 6eff f23c b6c8 d63c 20f7 d63c
00000280: 60f2 0d3d 91f7 183d bcd4 f93c 8d35 ef3c
00000290: 3196 d33c bd05 043d 62a0 d43c 5a88 7d3d
000002a0: 56b0 903d 5d01 163d 8a7a 083d a43e e03c
000002b0: 9d3a f43c b221 ef3c eb0a 0b3d a146 193d
000002c0: d1f5 043d 84cc e23c f1f7 f83c 56d4 d73c
000002d0: 5a27 a03d 4c2f 013d d9a1 023d 5473 9e3d
000002e0: 6b57 a63d 890e 973d 04e3 0f3d 67d8 f43c
000002f0: cae8 f63c ca77 183d 043f 763d 4fba 073d
00000300: 0935 0e3d 810d 203d 4a21 ea3c 0654 d93c
00000310: 4bc1 d63c 633d d63c 050b e73c 3287 e53c
00000320: 5896 db3c 45f9 0e3d ab97 293d e2b3 133d
00000330: 3cb3 923d dbeb d53c d226 023d 8f13 203d
00000340: 9744 1c3d eb00 923d 7f45 223d 6fde 183d
00000350: 6463 0d3d 41a1 f03c 2de2 193d 2610 8f3d
00000360: 3855 e83c b53a 033d 2253 0b3d 030c 983d
00000370: 5417 e33c 7ec8 d23c 3af9 d63c a256 d73c
00000380: a8e8 a7bd 3973 293d 2298 d03c cd9b 113d
00000390: 3dbf 9d3d 7c38 933d ae2d eb3c 62c3 f13c
000003a0: 5782 d63c 102b d83c 2c56 9d3d 5cfa 153d
000003b0: 0a58 083d a6bc fe3c 725a f33c f1e0 d73c
000003c0: 3511 8e3d 87bd d33c 51d9 0e3d dc75 093d
000003d0: 50e3 c63d 8483 153d 2c90 eb3c 2f1d 0f3d
000003e0: 012b 9d3d 8286 003d 5376 f03c 0bb8 f93c
000003f0: 27e2 143d 8e46 d73c fdee e43c ae3a d63c
0.02623988 0.029397372 0.026544707 0.026309295 0.026186148 0.034473952 0.03583871 -0.08267948
0.032090668 0.039082177 0.041466285 0.072064795 0.030457495 0.028551595 0.03681675 0.029015506
0.029376209 0.030889137 0.03272112 0.043701906 0.070511684 0.045133874 0.048121747 0.03727625
0.048221387 0.028332803 0.026470885 0.028491372 0.03141185 0.029655926 0.026137711 0.026263565
0.034666438 0.037309803 0.030462006 0.029219132 0.025909267 0.032248076 0.02597184 0.06191454
0.070684746 0.036621124 0.03336063 0.027348591 0.029790552 0.029265383 0.03396964 0.037458602
0.032474864 0.027690902 0.030398123 0.026328666 0.07818347 0.031563617 0.031890355 0.077372596
0.08122114 0.073768355 0.035160396 0.029917099 0.030245064 0.037297476 0.060120534 0.033173803
0.03473769 0.039119255 0.028534988 0.026438419 0.026296165 0.026164044 0.028271131 0.028034177
0.026843417 0.034869555 0.041458286 0.03608165 0.07165784 0.026062896 0.03167237 0.03908543
0.03818761 0.071305476 0.039608516 0.037300296 0.034574952 0.029334195 0.03762944 0.06985879
0.028374001 0.03204105 0.034022085 0.0742526 0.027764862 0.02585188 0.026200604 0.02623274
-0.08194581 0.041393608 0.025516843 0.035569616 0.07702432 0.07188987 0.028608168 0.029640323
0.026119921 0.026407735 0.07683701 0.036677245 0.033290733 0.03105392 0.029716665 0.026351184
0.0693995 0.02580523 0.034942407 0.033587664 0.09711167 0.03651662 0.02871309 0.0349624
0.0767609 0.031367768 0.029252443 0.030491374 0.036241714 0.026230125 0.027883694 0.02611835
0.026291138 0.029395154 0.026546696 0.026412327 0.026170505 0.034448147 0.035887424 -0.08269958
0.03207381 0.03910439 0.0414395 0.072074264 0.03039198 0.028487274 0.036842775 0.029107284
0.02934352 0.030956153 0.032712296 0.043691594 0.07048986 0.04512237 0.048111748 0.03725077
0.0482103 0.028248386 0.026529197 0.028447352 0.031398803 0.029662814 0.026218753 0.026240885
0.034654975 0.037345473 0.030496947 0.02920034 0.025828453 0.032232035 0.025955383 0.061897613
0.070648834 0.036622394 0.033319987 0.02737362 0.029813105 0.029190872 0.03394596 0.037420873
0.03246099 0.027685411 0.030391665 0.026346367 0.07820006 0.031539246 0.03189263 0.07736841
0.081221424 0.07375819 0.03512861 0.029888345 0.0301403 0.037223615 0.06011869 0.033136662
0.034718547 0.03907538 0.028580327 0.026529323 0.026215216 0.026152318 0.028203497 0.028018568
0.026805088 0.03490569 0.041404407 0.03606022 0.071630925 0.026113441 0.031775303 0.039081153
0.03815135 0.07129081 0.039617058 0.037321504 0.034518614 0.029373767 0.037569214 0.06985502
0.028360948 0.03203841 0.03401483 0.07424166 0.027721085 0.025730368 0.026241887 0.026286427
-0.081986725 0.04136965 0.025463168 0.035548974 0.077024914 0.07188508 0.028708305 0.029512111
0.026185198 0.026387721 0.076824516 0.036615714 0.033287086 0.031095814 0.029706214 0.026352378
0.06936876 0.02584721 0.034875218 0.033559665 0.09711325 0.036502376 0.02875527 0.03493994
0.07674218 0.031378277 0.029353296 0.030483266 0.03634849 0.02627876 0.02794599 0.026151028

net_model.2.bias f4 [64]
00000000: 61a9 9b3b 080e 9c3b fddb fa3c 72d1 9b3b
00000010: a42d 7db5 2ff2 08b9 998b 9b3b 3482 093b
00000020: 491d 03bb e54c ed3a 8b23 9c3b 775c 9c3b
00000030: 7e48 9c3b 039d 9b3b 6f8b 9a3b f781 d0ba
00000040: 77d1 fd3c c4f0 9b3b 28ee 4cb7 8a58 fdba
00000050: a89d 9c3b d9aa 3e3b 68f1 9c3b 2b8c 9b3b
00000060: b922 ca3a ef28 a19a ab18 9c3b ab5c 0b3d
00000070: 1e7e 40b6 4c73 073d 86ed 0b3d e028 9c3b
00000080: 7cf5 9b3b dbe6 9b3b 1ced 9b3b ffb9 9b3b
00000090: 28d0 9b3b 849c 9b3b 4bf9 c03a 5754 163b
000000a0: c22b 9c3b c6af e53c 8e8a fe3c 4d7e 9c3b
000000b0: 288c 9b3b 3ec4 273b 31e0 9b3b cd4b 11bb
000000c0: 8d09 0bbb 61b8 9b3b 6fa9 aaba fa15 9c3b
000000d0: 5c86 0b3d 4b4a 9c3b 12ac 9b3b 3189 078e
000000e0: c6f3 f33c d0ef 9b3b 2df9 1da9 b42f 9c3b
000000f0: 8a4f 9c3b 9d1a 9c3b c1df 98ba 041c dc8d
0.004750416 0.004762415 0.030622477 0.0047551924 -9.431626e-07 -0.00013060191 0.004746866 0.0020982148
-0.002000647 0.0018104581 0.0047649792 0.004771765 0.004769384 0.004748942 0.004716329 -0.0015907873
0.03098367 0.004758926 -1.2214798e-05 -0.0019328755 0.0047795363 0.0029093532 0.00478952 0.004746934
0.0015421725 -6.665417e-23 0.004763683 0.034023922 -2.868364e-06 0.03306894 0.034162067 0.004765615
0.0047594886 0.0047577447 0.0047584902 0.004752397 0.004755039 0.0047488827 0.0014722733 0.0022938454
0.0047659585 0.028037917 0.031071927 0.0047757984 0.0047469325 0.0025599147 0.0047569503 -0.0022170425
-0.002121541 0.0047522043 -0.0013020466 0.004763362 0.034063682 0.0047695986 0.004750737 -1.670609e-30
0.029779326 0.0047588125 -3.507713e-14 0.004766429 0.004770224 0.0047639147 -0.0011663364 -1.3565291e-30

net_model.4.weight f4 [32, 64]
00000000: 9e1a 2e3d bae5 2d3d 37aa 46bd 73cc 2d3d
00000010: bbe0 1f93 e47c 9597 abfa 2d3d 75bd 383d
00000020: c81f 85b8 6e72 2d3d c570 2d3d feb5 2d3d
00000030: 24d4 2c3d 6f93 2d3d ef82 2e3d c8aa 23b9
00000040: 914e 46bd bbfd 2d3d 7302 228a d923 0cba
00000050: 91ec 2d3d a655 333d d9e5 2d3d 9d95 2d3d
00000060: 83dc 3b3d 3620 a102 28a1 2d3d 40fe 4dbd
00000070: 33b9 1803 03b1 49bd 74c8 4ebd 454e 2d3d
00000080: 0ff4 2d3d 192e 2e3d 1384 2d3d 147b 2e3d
00000090: 9a10 2e3d c508 2e3d a629 3c3d 4148 373d
000000a0: b56d 2d3d c6f8 45bd f998 46bd 55e8 2d3d
000000b0: 9251 2d3d edd6 353d 30be 2d3d df22 fdb9
000000c0: 44e1 0db8 215e 2e3d 6d9f 243a 0890 2d3d
000000d0: a775 4ebd d55c 2d3d aa21 2e3d e479 9209
000000e0: d319 42bd 78f0 2c3d 406a 2203 1296 2d3d
000000f0: f8e9 2d3d b134 2e3d 9bf7 09b9 e609 2383
00000100: 56ae a401 d08f 4103 d41a 5f01 10ca 2183
00000110: b966 1803 8511 1d83 9ebf 9b82 a1a9 6382
00000120: 1c45 3a03 385b 1c83 b90b 3203 0679 4d03
00000130: f1a9 4183 c788 6502 5e43 0983 2478 b902
00000140: 4a0b 2283 ad24 4003 78d8 3d83 b48b 5a83
00000150: 4846 2503 7657 a182 83ca 2c03 e2e7 db81
00000160: fc12 3c03 92c4 1a83 ffd1 1003 dcf6 1303
00000170: 02d8 4c82 ca15 ea81 fa63 1983 cd10 2603
00000180: 171d 2183 4506 4203 f323 5803 4262 1682
00000190: 2369 1183 56e4 5983 2c51 4303 a149 d402
000001a0: 6bc8 5e03 46f5 3083 ab9e 6e03 5a15 3183
000001b0: c99b 0d82 5265 bd82 3699 ad81 a0d6 3f83
000001c0: 6e3b 1e03 a619 1b03 3281 3203 9e68 3983
000001d0: a595 4203 aad4 4183 a76e 3203 f315 1083
000001e0: 8ce0 bf02 cc2e 4c03 5268 e482 c433 3383
000001f0: 6ec4 6a83 3050 3d03 fb5c 3583 685b 4983
00000200: 6e53 4603 48be c102 6a0b 0a83 02b4 e102
00000210: 1659 3283 4079 5183 c49a 1a03 567a 1703
00000220: ac6e 1803 284d 2883 b8e8 2083 4d4b 1083
00000230: 0410 0683 79f6 e982 4cd0 9982 6859 5483
00000240: 6c75 3803 3668 1a83 1eb5 1d03 0aa8 5003
00000250: e1a6 4903 199b 0283 5e95 eb02 e83c 2103
00000260: 78ad 1c83 8799 c902 0560 0583 9f2a 1b03
00000270: ae3d 2f03 ceec 0c83 9467 3b83 7307 7902
00000280: a176 5683 6707 eb82 cea5 2d03 914a 1903
00000290: 60ba af02 7ce5 1e03 2752 2903 fcee 0303
000002a0: 7457 1e03 0074 5383 eeea 5982 24ac d302
000002b0: 1a15 a181 2a2b aa82 6a60 2403 5c95 5303
000002c0: 6c00 5f83 1acc 0203 b26d 5d02 933a e382
000002d0: 5065 8380 cc5f 1c03 9d62 3e03 f5e8 0a82
000002e0: 451c 2883 b2ee 4483 e02b 5e03 7825 b182
000002f0: 02db 3c03 246f 2983 2ed2 f282 0aad f302
00000300: ea1e 0f03 e5e8 5e83 48da 3903 50f2 0a83
00000310: 2dc4 9d82 3601 5683 84ea 5d83 342f c302
00000320: 7918 c602 2e8b d182 1e9e 0703 4966 4983
00000330: 7ab8 3583 3857 4e83 bd6c ac02 4d8f 4203
00000340: 69aa aa02 cbec 3903 3ad4 5083 b742 4102
00000350: 1d2f 4383 d2ec 2883 a68b 3983 7c6e 2c03
00000360: a034 b282 f54f 2003 f06a 3f83 8980 3103
00000370: 07c8 1e83 c16a 4283 bc66 1e83 6c68 f102
00000380: 0791 3b03 7359 2b83 3c85 9c82 ceba 1303
00000390: 602b 5103 c03b 2c03 085f e780 f2f9 5583
000003a0: e23a 4a03 a982 6e03 d7db 4503 0808 4803
000003b0: 7a8a 2c82 8479 4482 3367 4083 38fc 5603
000003c0: 7c75 7f01 f215 4203 6f76 6483 5516 1a03
000003d0: 3bfc d382 dc1a 3c83 664e 7c82 9b2a b882
000003e0: d6c3 0e03 a409 5482 d827 2483 905f 0a03
000003f0: 28ff 4783 47b5 6783 cdd2 2383 f4df 6a83
0.042505853 0.042455412 -0.048502173 0.042431306 -2.0179422e-27 -9.660426e-25 0.042475384 0.045102555
-6.347854e-05 0.042345457 0.042343874 0.04240989 0.0421945 0.04237693 0.042605337 -0.00015608512
-0.04841477 0.042478304 -7.800477e-33 -0.0005345918 0.042461935 0.043782853 0.042455528 0.04237901
0.045864593 2.3675312e-37 0.04239002 -0.0502913 4.4881384e-37 -0.049241077 -0.050484136 0.04231097
0.04246908 0.04252443 0.042362284 0.042597845 0.0424963 0.042488832 0.045938157 0.04474664
0.042340953 -0.048332952 -0.04848573 0.042457897 0.04231412 0.044394422 0.042417705 -0.000482819
-3.3826815e-05 0.042570237 0.000627986 0.042373687 -0.05040517 0.04232486 0.042512573 3.5262847e-33
-0.04738791 0.042221516 4.772949e-37 0.042379446 0.042459458 0.04253072 -0.00013157578 -4.7912758e-37
6.0494245e-38 5.688269e-37 4.097788e-38 -4.7545604e-37 4.4786705e-37 -4.6158265e-37 -2.2885186e-37 -1.6726007e-37
5.473982e-37 -4.5948994e-37 5.2322956e-37 6.0383014e-37 -5.6912686e-37 1.6863516e-37 -4.0338015e-37 2.7252264e-37
-4.762048e-37 5.646583e-37 -5.57906e-37 -6.4224813e-37 4.856982e-37 -2.3707024e-37 5.077873e-37 -8.078063e-38
5.5270027e-37 -4.5482184e-37 4.255886e-37 4.34828e-37 -1.5049544e-37 -8.598929e-38 -4.5077426e-37 4.88023e-37
-4.734704e-37 5.7018673e-37 6.3517963e-37 -1.1048458e-37 -4.273236e-37 -6.4032685e-37 5.739853e-37 3.1192861e-37
6.5470005e-37 -5.200331e-37 7.0124056e-37 -5.2040135e-37 -1.0403752e-37 -2.782921e-37 -6.377001e-38 -5.6376233e-37
4.650025e-37 4.557985e-37 5.2457808e-37 -5.448671e-37 5.718326e-37 -5.696173e-37 5.243652e-37 -4.2342993e-37
2.8193811e-37 6.000393e-37 -3.3561466e-37 -5.2662796e-37 -6.899191e-37 5.563416e-37 -5.3297856e-37 -5.917352e-37
5.8282743e-37 2.8468017e-37 -4.056766e-37 3.3164098e-37 -5.2411764e-37 -6.155877e-37 4.5434195e-37 4.4515347e-37
4.479583e-37 -4.9459334e-37 -4.728692e-37 -4.2404238e-37 -3.9397446e-37 -3.4377741e-37 -2.2600886e-37 -6.2403834e-37
5.4207534e-37 -4.537616e-37 4.6346066e-37 6.1318606e-37 5.926016e-37 -3.838161e-37 3.461588e-37 4.7383565e-37
-4.604341e-37 2.9622416e-37 -3.919541e-37 4.5599333e-37 5.1498683e-37 -4.141414e-37 -5.5073263e-37 1.8295769e-37
-6.3025127e-37 -3.4534395e-37 5.1030465e-37 4.5048257e-37 2.5820913e-37 4.669546e-37 4.9758943e-37 3.877178e-37
4.653242e-37 -6.214049e-37 -1.6010064e-37 3.1102467e-37 -5.917234e-38 -2.500403e-37 4.8305946e-37 6.2178783e-37
-6.5534294e-37 3.8437864e-37 1.6267997e-37 -3.3388272e-37 -1.2066794e-38 4.595425e-37 5.5949184e-37 -1.0205494e-37
-4.9403215e-37 -5.787323e-37 6.5290303e-37 -2.6029319e-37 5.5499643e-37 -4.979222e-37 -3.5679341e-37 3.580496e-37
4.205941e-37 -6.5507286e-37 5.461719e-37 -4.0832716e-37 -2.3181676e-37 -6.289034e-37 -6.5215274e-37 2.8679768e-37
2.9107532e-37 -3.0789675e-37 3.9854444e-37 -5.918601e-37 -5.340289e-37 -6.063808e-37 2.5335541e-37 5.7175977e-37
2.5077066e-37 5.463844e-37 -6.136933e-37 1.4198547e-37 -5.7359433e-37 -4.964262e-37 -5.4526922e-37 5.0673087e-37
-2.6184955e-37 4.711156e-37 -5.6252613e-37 5.2163176e-37 -4.6661647e-37 -5.7134023e-37 -4.654996e-37 3.5471703e-37
5.5120844e-37 -5.0355066e-37 -2.2998613e-37 4.341386e-37 6.146937e-37 5.0614847e-37 -2.124809e-38 -6.2881997e-37
5.943006e-37 7.0091904e-37 5.814546e-37 5.8783937e-37 -1.2676305e-37 -1.4434679e-37 -5.6542196e-37 6.317848e-37
4.6920394e-38 5.703667e-37 -6.7139133e-37 4.528217e-37 -3.1148437e-37 -5.5279068e-37 -1.8536535e-37 -2.7060824e-37
4.195486e-37 -1.5578067e-37 -4.8241007e-37 4.0664255e-37 -5.877375e-37 -6.8092895e-37 -4.814338e-37 -6.9023505e-37

net_model.4.bias f4 [32]
00000000: a4bf 4e3b 9cc8 63b9 b26e a5b9 4ea6 11ba
00000010: f8f0 62bb 92e4 8cb9 2467 04ba 52e6 723c
00000020: 49c7 0bba ff38 87b9 c0f4 4e3b 5b0e b9b9
00000030: 0889 4d3b 3994 6c3c b1da ccb9 5228 b6bb
00000040: f422 0bba 143e 83b9 175a 4e3b bef1 92b9
00000050: 7637 4d3b 4090 6cbb e01a 0cba da04 9bb1
00000060: c91e 8eb9 3c30 4e3b 0776 89b9 cef1 723c
00000070: c95d 1abc fe37 4e3b 3ca4 4e3b 32bf 7f3c
0.0031547332 -0.0002172314 -0.00031553727 -0.00055560924 -0.0034628492 -0.0002687318 -0.00050507695 0.01482542
-0.0005332125 -0.00025791672 0.0031578988 -0.00035296645 0.0031362195 0.014439636 -0.0003907285 -0.005559006
-0.00053076376 -0.0002503252 0.0031486803 -0.00028027402 0.0031313575 -0.0036096722 -0.0005344581 -4.5116453e-09
-0.00027107287 0.0031461855 -0.00026218613 0.014828159 -0.009421774 0.003146648 0.0031530997 0.015609549

net_model.6.weight f4 [1, 32]
00000000: 25e8 21bd 0ee5 1583 3607 fd01 1e22 5283
00000010: 74e9 25bd bc98 0b83 73fc 4083 fac2 27bd
00000020: a180 1383 394d 24bd 1ce0 21bd 9473 5d83
00000030: 2d51 22bd adc2 25bd 6a89 0aba 8955 27bd
00000040: 5892 3f83 fdc1 0eba 1bfa 21bd 2f6b 6e83
00000050: 5a14 22bd c500 26bd ee75 5983 8fe4 3603
00000060: 2b21 4383 f610 22bd c488 4483 40c6 27bd
00000070: 4afa 36bd fef0 21bd fd06 22bd cd7b 2fbd
-0.03952803 -4.4050106e-37 9.294787e-38 -6.175262e-37 -0.04050584 -4.102376e-37 -5.6713526e-37 -0.04095743
-4.3347076e-37 -0.040112708 -0.039520368 -6.507874e-37 -0.039628197 -0.04046886 -0.00052847585 -0.040853057
-5.629785e-37 -0.00054457766 -0.03954516 -7.0064955e-37 -0.03957019 -0.040528078 -6.3905945e-37 5.3747365e-37
-5.7343425e-37 -0.039566956 -5.7756222e-37 -0.04096055 -0.044672288 -0.03953647 -0.039557446 -0.042842675
