src/t1dsim_ai/models/IndividualModel/T1DEXI-01-1681/individual_model.pt (torch, 50089 bytes, 7 tensors)

net_model.0.weight f4 [128, 10]
000000 e5 01 21 bd ec 51 f6 3c ac 3f 68 bb 2f 71 fe bc
       -0.039308447 0.03006836 -0.0035438342 -0.03105983
000010 fd 4d 22 3d 38 6d 10 3b 69 6f 05 bd 85 0b 04 bd
       0.039625157 0.0022037756 -0.032576952 -0.03223755
000020 de 10 7f bb 24 63 80 3c 6f ad cf bb a5 19 df 3c
       -0.0038919966 0.015672274 -0.0063378136 0.027233908
000030 ff 0e 87 bd 65 aa e1 3c 41 45 97 bb fb c6 44 bb
       -0.06594657 0.02754707 -0.00461641 -0.0030025828
000040 06 bd 17 ba 6d 8b 9f 3b 4f 39 8e 3a 0f a4 d3 bc
       -0.00057883596 0.004868916 0.001085082 -0.025835065
000050 19 2b 32 bd 9e 52 fb 3c ff 0c a1 bb 0e 42 ff bc
       -0.043498132 0.030679043 -0.0049148793 -0.031159427
000060 c1 82 28 3d 7b b9 0d 3b 13 5e 07 bd 35 6a 06 bd
       0.04114032 0.0021625448 -0.0330487 -0.03281613
000070 da cf b1 bb b6 44 22 3b 97 29 04 bd 59 da b5 3c
       -0.005426389 0.0024760193 -0.032266226 0.022198843
000080 fa 62 7b bc 5b 9d 5c 3c 91 08 a0 3c aa 3b 50 b9
       -0.015343422 0.013465251 0.019535335 -0.00019858652
000090 8b e6 89 bc 92 1f 2e bd fa bc 62 bc d3 0a 71 3d
       -0.016833564 -0.042510577 -0.013839001 0.058848213
0000a0 13 91 01 bd 93 c2 b6 3c e0 21 81 bc 04 be 55 3c
       -0.031632494 0.022309577 -0.015763223 0.013045792
0000b0 72 6c 9c 3c 14 07 7f b9 ec 74 89 bc 21 0d 2d bd
       0.01909468 -0.00024321332 -0.016779386 -0.04224885
0000c0 af df 64 bc 43 1d 63 3d 73 b4 17 bd 03 12 02 3d
       -0.013969346 0.055447828 -0.037037324 0.03175546
0000d0 44 05 23 bc 36 d2 5f bd 47 5c 2a 3d c0 f0 a5 ba
       -0.009949986 -0.054643832 0.04159191 -0.001266025
0000e0 7a ec 18 bd 59 a3 35 bc 78 3b 59 bc 94 67 ca 3c
       -0.037334897 -0.011086308 -0.013258807 0.024707593
0000f0 99 21 07 bb 24 62 e1 3c 25 f4 87 bd d3 b6 07 3d
       -0.002061939 0.027512617 -0.06638364 0.03313334
000100 1a f0 35 bc be d3 41 bb 1e 0b 4e 3a cb db c8 3b
       -0.011104608 -0.002957567 0.0007859933 0.006129717
000110 a1 b0 03 3b 0b e9 cb bc 97 78 88 bb ec 76 d2 3c
       0.0020094293 -0.024891397 -0.004164766 0.025691472
000120 ef 19 8c bd d0 fa ed 3c 95 58 31 bc 43 05 35 bb
       -0.06840884 0.02905026 -0.010824342 -0.0027621544
000130 2b 20 b5 39 c3 4f 1a 3c a7 61 c8 3a 5b 43 49 bc
       0.00034546977 0.009418431 0.0015287892 -0.012284125
000140 80 dd 5d bc b2 1b a6 3c ad ba 0b bd 16 08 f1 b8
       -0.013541579 0.020276878 -0.034113575 -0.000114932816
000150 a2 bc 4a 3c d8 bb 88 3a 7d 0c ad 3c 82 43 97 bc
       0.012374075 0.0010431958 0.021124119 -0.018464807
000160 23 0c d1 bc 75 95 04 3d de 08 db ba c5 64 d7 3c
       -0.025518483 0.032369096 -0.0016711017 0.026293168
000170 68 41 8e bd 64 17 06 3d ac a6 84 bc 86 2b 22 bb
       -0.06946069 0.03273715 -0.016192757 -0.002474518
000180 42 06 0a 3b 14 f2 27 3c 17 c4 23 3b 12 50 14 bc
       0.002106086 0.010250587 0.0024988705 -0.009052293
000190 57 4b a5 bb e6 58 e1 3c 1b 49 87 bd d7 b4 f9 3c
       -0.0050443816 0.02750821 -0.06605741 0.030481739
0001a0 73 93 d8 bb 74 6c 4d bb 00 09 03 b9 bd 48 92 3b
       -0.006609374 -0.003134516 -0.00012496486 0.0044642375
0001b0 dc b7 ea 3a de bb ef bc 65 28 ab bc da 15 e2 3c
       0.0017907578 -0.029264387 -0.020893285 0.02759831
0001c0 56 74 ea bc 6d b3 82 bd 70 84 21 3d 2c 14 28 3b
       -0.028619926 -0.06381879 0.039432943 0.002564679
0001d0 5e 0b 03 bd c1 0c 9f bc d6 92 41 3c 8e be 19 3d
       -0.031993262 -0.019415261 0.011814794 0.037535243
0001e0 b3 7d 19 bd 14 24 02 3d 3c 75 0e bc db d2 5a bd
       -0.03747339 0.031772688 -0.008694943 -0.053423744
0001f0 07 1f 2b 3d 00 56 9e ba b9 d2 14 bd e1 c2 72 bc
       0.041777637 -0.0012080073 -0.036333773 -0.014816971
000200 d8 e0 50 bc 1a 68 11 3c 7a e7 17 bd e9 dd 01 3d
       -0.012748919 0.008874917 -0.037085988 0.03170577
000210 68 1c 20 bc 26 31 5f bd cf 80 2a 3d bc 3e b7 ba
       -0.009772398 -0.05449023 0.041626748 -0.0013980488
000220 24 88 19 bd ce a6 3c bc 1b 56 5b bc 2a b6 b2 3c
       -0.03748335 -0.011514379 -0.013387228 0.021815378
000230 64 1e f7 bc c6 f6 f2 3c 39 d1 1c bc 2a 9e 2f bd
       -0.030165859 0.029658686 -0.009571367 -0.042875446
000240 7d 0a 17 3d 49 2a f9 b9 fb 64 12 bd 04 5a 97 bc
       0.036875237 -0.00047524486 -0.035740834 -0.01847554
000250 91 39 f6 bb cb 04 5f 3d 90 5f 03 bd 4b a1 b5 3c
       -0.0075141867 0.05444793 -0.032073557 0.022171637
000260 92 0c 7b bc 2e d9 56 3c 7d 32 a0 3c 2c 56 2d b9
       -0.015322821 0.013113303 0.019555325 -0.00016530667
000270 85 da 89 bc b7 e2 2b bd 34 aa 58 bc 4d 39 6a 3d
       -0.016827831 -0.04196426 -0.013224173 0.057183553
000280 d2 4c 19 bd 9f fd 02 3d 47 6f 02 bc 04 cf 58 bd
       -0.037426777 0.031980153 -0.007961101 -0.0529318
000290 29 72 2b 3d 65 62 9b ba 82 1d 15 bd d5 2e 7d bc
       0.04185692 -0.0011854885 -0.036405094 -0.01545306
0002a0 d2 d5 4d bc 25 53 06 3c 6d 6b 19 bd 38 dd 01 3d
       -0.012563186 0.008198534 -0.037455965 0.03170511
0002b0 49 97 16 bc bb 80 5b bd 34 01 2a 3d 04 03 9d ba
       -0.009191343 -0.053589564 0.041505054 -0.0011979048
0002c0 61 33 14 bd 59 e8 70 bc 15 1c 51 bc e8 c0 11 3c
       -0.03618181 -0.0147038335 -0.012763043 0.00889609
0002d0 38 bd ff bb 54 6c cc 3c 49 bc 8f bd f1 de 9b 3c
       -0.007804539 0.024953999 -0.070183344 0.019027205
0002e0 15 d5 57 39 01 d3 a0 ba a5 22 0e bb e2 cf 42 3c
       0.00020583377 -0.0012269915 -0.002168813 0.011890383
0002f0 48 60 1e bb be 78 03 bc b4 11 c8 ba 19 f4 cf 3c
       -0.0024166275 -0.008024393 -0.0015264065 0.02538495
000300 31 9c 8e bd dd f3 f8 3c 95 b9 83 bc c2 09 22 bb
       -0.06963385 0.03038972 -0.016079703 -0.0024725054
000310 df 19 07 3b 58 00 35 3c fa 55 a4 3a 2a f0 ea bb
       0.0020614786 0.011047445 0.001253783 -0.007169743
000320 c9 f6 cf bb cd 9e de 3c 98 73 87 bd 49 98 e3 3c
       -0.0063465578 0.027175331 -0.06613845 0.027782576
000330 e6 5f 9b bb c5 5d 45 bb cd 61 2f ba 2f 75 9b 3b
       -0.0047416566 -0.0030115705 -0.00066902937 0.004744194
000340 6a 59 a2 3a 8d 68 e3 bc 40 bf 69 3b 30 b5 a9 3c
       0.0012386267 -0.027759815 0.0035666972 0.02071628
000350 4e a8 41 bd b8 b5 64 bc 41 94 2d 3c 6f e2 95 3b
       -0.04727965 -0.013959341 0.0105944285 0.004574112
000360 fe 82 95 3c 62 e1 8c bc 7a b3 aa bb 7d ef eb 3c
       0.018250939 -0.017197315 -0.0052093836 0.02880072
000370 a3 45 12 bd 3a cd 00 3d 24 57 34 bc 81 ff 60 bd
       -0.035710942 0.03144572 -0.011007104 -0.054931168
000380 d6 6d 2a 3d 6c 0e 90 ba e8 ce 41 bd 68 1d 34 bc
       0.041608654 -0.0010990626 -0.04731646 -0.010993339
000390 7f 97 25 bc 90 44 54 3c 5c de 16 bd 53 be 01 3d
       -0.01010692 0.0129558 -0.036833152 0.031675648
0003a0 34 d6 21 bc 1a 10 5d bd 9a 47 29 3d 4b d1 b1 ba
       -0.00987773 -0.053970434 0.04132805 -0.0013566402
0003b0 a6 c3 17 bd 13 10 3f bc f0 17 59 bc 8e 11 8a 3c
       -0.03705182 -0.011661547 -0.013250336 0.016854074
0003c0 3a 96 1b bd f6 a3 fe 3c 4a 88 26 bc c5 8d 59 bd
       -0.037985064 0.031084042 -0.01016433 -0.053113718
0003d0 3b 2d 2b 3d 4f da 18 ba 0c a8 0e bd f9 34 3a bc
       0.041791182 -0.00058308704 -0.03482823 -0.011365169
0003e0 35 34 42 bc cd d2 59 3d e6 38 0c bd 8a 4a 7e 3c
       -0.011853267 0.05317955 -0.03423395 0.015520701
0003f0 d0 47 f8 bc 26 79 45 3c 50 c9 3a 3c 6e 29 45 ba
       -0.03030768 0.01205281 0.011400536 -0.0007521127

net_model.0.bias f4 [128]
000000 f1 ca af bc 19 f9 9e 3b 13 4b bc bc a2 d6 d1 bb
       -0.021459075 0.004851472 -0.022985017 -0.00640376
000010 9d 44 ce bb 7c 63 be bc 0c 69 00 3c 0a 1f 0a 3c
       -0.0062948004 -0.023240797 0.007837545 0.008430252
000020 17 5a 7d 3b 87 9e 21 3c 59 5d be 3b 3c a7 2d bc
       0.0038658434 0.009864456 0.0058094678 -0.010598954
000030 fa a4 c5 bc 3f 44 c0 bc 4e 2c 96 bc f3 4a cb bb
       -0.024126519 -0.023470042 -0.018331673 -0.006204003
000040 df e1 c7 bc 08 fc c3 bc 81 41 51 3b ac 75 22 3c
       -0.024399696 -0.023923889 0.0031929913 0.0099157505
000050 a0 3c 9c 3b d5 f6 f3 3b 63 58 ba bc 3d 7e c0 bc
       0.0047679693 0.007445196 -0.022747224 -0.023497695
000060 b5 be ba bc 8b 33 ff 3a 3d 2b c6 bc 12 35 96 bc
       -0.022796014 0.0019470317 -0.02419054 -0.018335853
000070 c3 9f bf bb 44 ed 2c 3c 72 d1 bf 3a 1c 04 8b 3b
       -0.0058479025 0.010554615 0.0014634563 0.0042424332
000080 6b 40 c2 bc f8 88 07 3c b5 91 c0 bc 57 23 91 3b
       -0.023712358 0.008272402 -0.023506979 0.0044292617
000090 a8 45 d0 bb 20 ac 27 3b 49 a1 80 bb 58 cf a0 3b
       -0.00635596 0.0025584772 -0.0039254767 0.00490753
0000a0 71 83 4b 3b b1 c4 cc bc d5 0d c6 bc 00 fe 96 3b
       0.0031053687 -0.024996134 -0.024176518 0.004607916
0000b0 5c 15 c2 bc 6d 18 74 3c 9e dd 78 3b 4e 38 c4 bc
       -0.023691826 0.014898402 0.003797389 -0.02395263
0000c0 8a 5d 98 bc 52 84 c2 bc 2b 23 ab bb a8 c5 06 bc
       -0.01859929 -0.023744736 -0.005222698 -0.008225836
0000d0 ef e5 50 3b bf 15 da bc e5 cf 84 3b 12 58 bf bc
       0.0031875332 -0.026621697 0.0040531033 -0.023357425
0000e0 97 6b 57 3b 6c ae 92 3b c7 5e 28 3b 3c ff b4 bc
       0.0032870525 0.004476359 0.0025691257 -0.022094361
0000f0 93 cd d2 bb 9c a8 3e 3b fe 5e 36 3b 80 8e 2a bc
       -0.0064331978 0.0029092198 0.0027827616 -0.010409951
000100 6b f8 c0 bc 11 85 56 3b 34 31 45 3b 2b 88 9a 3a
       -0.023555955 0.0032733122 0.0030089142 0.0011789849
000110 cd d3 82 3b 91 a8 8c bc 69 19 af 3a de bf b8 bb
       0.003992534 -0.017170222 0.0013359013 -0.0056381067
000120 c3 e6 be bc f6 de 98 bc 6e c2 8c bc 56 74 fd 3b
       -0.023303395 -0.018661004 -0.017182555 0.0077348156
000130 72 5c 0e 3b de ad a3 3a d7 e8 bd bc d1 79 0c 3c
       0.0021722582 0.001248773 -0.023182316 0.008573965
000140 01 39 c5 bc 25 a5 c0 bc 8e 13 15 3b 2f ed 14 3c
       -0.024075033 -0.023516247 0.0022747251 0.009089752
000150 2b 93 39 3b 4e 1b c6 bc f9 96 cd bc 44 ff f9 3a
       0.0028316479 -0.024182942 -0.025096403 0.0019073267
000160 be d9 57 3b ae 97 07 3c 97 c9 11 3c 25 4a 4e 3b
       0.003293618 0.008275909 0.00889816 0.00314773
000170 1c d2 cf 3a 13 a0 d5 bb 2b c5 d1 bb 98 41 cd bb
       0.0015855464 -0.0065193265 -0.006401678 -0.006263923
000180 fe 65 92 3b 31 0f 07 3c 63 21 03 3b 56 71 7d 3b
       0.004467725 0.008243368 0.0020008914 0.003867229
000190 10 f9 4c bc 2c 0b bc bc c6 a3 c8 bc 3b 4e 8d 3b
       -0.012510553 -0.022954546 -0.024492156 0.0043123043
0001a0 51 c5 be bc f4 f1 c1 bc 4a f1 27 3c 09 a5 16 3c
       -0.023287447 -0.023674943 0.010250399 0.009194621
0001b0 b2 9d bf bc ca 61 af 3b 4f 1e 2a bb 1c 7d 0f 3b
       -0.023390625 0.0053522335 -0.0025958007 0.002189464
0001c0 69 e6 c4 bc c0 9b ba bb 49 bf c3 bc 61 0a 91 3b
       -0.02403565 -0.0056948364 -0.023894923 0.004426286
0001d0 34 35 2d 3b b5 f3 be bc 4e 0a 93 3b c7 80 b9 bc
       0.0026429417 -0.023309568 0.0044873124 -0.022644414
0001e0 38 2b 19 3c 05 51 bf bc ee 99 8c bc 1d cf bf bc
       0.009348683 -0.023354063 -0.017163243 -0.023414189
0001f0 fa 52 9b 3b 2f 52 c2 bc f9 9c d5 3a 92 aa bd bc
       0.004740116 -0.023720829 0.0016297392 -0.023152623

net_model.2.weight f4 [64, 128]
000000 0b d6 21 3d 0d 2a d5 3c 63 7e 2b 3d 4f 95 e1 3c
       0.039510768 0.026021028 0.04186858 0.027537016
000010 40 ae de 3c 5a 36 2c 3d b7 66 ff 3c 5a e5 fb 3c
       0.027182698 0.04204402 0.031176908 0.030749012
000020 80 7e 8f 3c 7b 7b 11 3d 71 ac e7 3c fe 80 19 3d
       0.017516375 0.03551815 0.028280469 0.037476532
000030 37 19 2e 3d 09 2a 2d 3d 2d 51 0e 3d 08 d1 da 3c
       0.042504515 0.042276416 0.034745384 0.026711002
000040 e9 89 2e 3d 82 2d 2d 3d 48 99 d4 3c df 5b 09 3d
       0.04261199 0.042279728 0.025951996 0.03353488
000050 c2 2e da 3c e9 3b 87 3c 44 38 28 3d cc 3e 2c 3d
       0.026633624 0.01650806 0.041069284 0.042052075
000060 a9 90 2e 3d c1 1b c1 3c 38 93 2d 3d 54 6c 11 3d
       0.042618427 0.023572804 0.042376727 0.0355037
000070 de d0 d0 3c 05 23 0f 3d 1f 40 a0 3c 67 42 8e 3c
       0.02549022 0.034945507 0.019561825 0.017365647
000080 96 46 2c 3d 53 88 84 3c c5 06 28 3d 6e d6 8a 3c
       0.042059503 0.016178286 0.04102208 0.016947951
000090 b8 ed e3 3c 1f 1b 92 3c c3 e4 cf 3c 2c ba dc 3c
       0.027823314 0.017835198 0.025377637 0.026944242
0000a0 3c 9d d8 3c f8 6a 30 3d eb 60 2e 3d 8d 46 8e 3c
       0.026442163 0.043070763 0.042572897 0.017367626
0000b0 da b0 2c 3d 7e c8 36 3d 35 59 c4 3c e3 1b 2d 3d
       0.042160846 0.044624798 0.023968318 0.042262923
0000c0 e9 48 11 3d ca 44 2c 3d d2 b6 c8 3c 96 22 e3 3c
       0.035469923 0.04205779 0.024501238 0.027726453
0000d0 4e 4d da 3c 0d 51 33 3d eb ea cc 3c df 96 26 3d
       0.02664819 0.043778468 0.025014361 0.040671226
0000e0 b6 22 e6 3c 2c 82 d0 3c c8 2a d0 3c df a0 23 3d
       0.028092723 0.025452696 0.025411025 0.03994834
0000f0 7a 53 e8 3c ad a6 c9 3c 43 a4 d0 3c 4f 4c 05 3d
       0.028360117 0.02461561 0.025468951 0.032543477
000100 9b 20 29 3d 7b fd 2d 3d 3d ff c7 3c ca f9 bd 3c
       0.04129086 0.042478066 0.0244137 0.023190398
000110 c0 e0 8c 3c 91 41 01 3d c2 6b c7 3c 57 a2 cb 3c
       0.017197013 0.03155667 0.024343375 0.024857683
000120 4f 1a 2c 3d a3 ad 11 3d 91 e7 00 3d 32 ef f7 3c
       0.042017277 0.035565984 0.03147084 0.030265424
000130 bf 8b 32 3d be a3 b8 3c a2 c0 2d 3d b3 4f fd 3c
       0.043590304 0.022539016 0.042420037 0.030921793
000140 ea fc 2e 3d 5d 93 2d 3d 45 8d d1 3c bf 4f 6b 3c
       0.042721666 0.042376865 0.025580058 0.014362275
000150 cd ec cc 3c b8 03 2e 3d fe fe 30 3d 42 63 c5 3c
       0.02501526 0.042484015 0.04321193 0.024095181
000160 c6 13 cc 3c dc 7c 84 3c 03 7f 01 3d c5 9a cd 3c
       0.024911772 0.016172819 0.03161527 0.025098214
000170 5f 9e c1 3c b3 e6 e7 3c 33 8b e0 3c 83 be dc 3c
       0.023635088 0.028308248 0.027410125 0.026946312
000180 8a 33 d6 3c d5 2a 86 3c f3 cc c3 3c b3 f7 c6 3c
       0.026147623 0.016377846 0.023901438 0.024288034
000190 b8 ca 17 3d 10 77 2f 3d a8 9b 2d 3d 81 6d 89 3c
       0.037058562 0.042838156 0.042384773 0.016775848
0001a0 13 93 2a 3d 20 ca 29 3d f5 38 3d 3d 8e 0b 75 3c
       0.041644167 0.041452527 0.046196897 0.014956368
0001b0 66 45 2d 3d c4 72 d9 3c 59 10 b4 3c ec 0b c5 3c
       0.04230251 0.026543982 0.021980451 0.024053536
0001c0 2a f8 2e 3d b8 16 ce 3c de fc 2e 3d a4 ba 88 3c
       0.042717136 0.025157318 0.04272162 0.01669056
0001d0 86 df cc 3c 19 51 2e 3d 91 dd 8a 3c 5d 3a 2c 3d
       0.025008928 0.04255781 0.016951354 0.042047847
0001e0 d9 24 0f 3d 77 be 2c 3d 53 a6 fe 3c 0a 4b 2d 3d
       0.03494725 0.04217383 0.031085169 0.04230789
0001f0 29 ca 89 3c d4 88 2b 3d 25 ef 9e 3c 61 53 2b 3d
       0.01682003 0.041878536 0.019401142 0.041827563
000200 d5 33 22 3d 0b 3f d5 3c d6 8c 2b 3d cb f4 e2 3c
       0.039600212 0.026031038 0.04188236 0.027704617
000210 30 8e de 3c 45 12 2c 3d 6e 4c 00 3d 4a da fb 3c
       0.02716741 0.04200961 0.03132289 0.030743737
000220 bf 58 8f 3c 32 af 11 3d f7 4d e7 3c f0 42 19 3d
       0.017498372 0.03556747 0.028235419 0.037417352
000230 0c a9 2d 3d aa bf 2c 3d 86 a3 0e 3d 3a 1a dc 3c
       0.042397544 0.042174973 0.034823917 0.026867975
000240 7f 59 2e 3d 49 c2 2d 3d 20 97 d4 3c eb 66 09 3d
       0.04256582 0.042421613 0.025950968 0.033545416
000250 aa 97 da 3c 9d 1a 87 3c db 4a 28 3d 32 19 2c 3d
       0.026683647 0.016492182 0.041087013 0.042016216
000260 70 c5 2e 3d c5 27 c0 3c 54 00 2e 3d a6 24 11 3d
       0.04266876 0.023456464 0.04248078 0.03543534
000270 cb bd d0 3c cd 41 0f 3d 1e 42 a1 3c 48 0a 8e 3c
       0.025481125 0.034974862 0.019684847 0.017338887
000280 4e 44 2c 3d 6d 42 85 3c 92 59 28 3d 39 b1 8a 3c
       0.042057328 0.016267026 0.041101046 0.01693021
000290 ee ff e2 3c e1 f9 91 3c f6 bf cf 3c 9c 10 dd 3c
       0.027709927 0.017819347 0.025360089 0.026985459
0002a0 e8 20 d9 3c dc 87 30 3d 9c 19 2e 3d 5d ac 8e 3c
       0.026504949 0.043098316 0.04250489 0.017416174
0002b0 39 f0 2c 3d 72 5a 36 3d e8 20 c4 3c 86 cb 2c 3d
       0.04222128 0.04451985 0.023941472 0.042186283
0002c0 ea 3d 11 3d d8 46 2c 3d 41 c0 c8 3c e7 6c e3 3c
       0.035459436 0.04205975 0.024505736 0.02776189
0002d0 0d b5 d9 3c 10 10 33 3d c8 30 cd 3c 0f 6b 26 3d
       0.02657559 0.04371649 0.025047675 0.040629443
0002e0 c3 13 e6 3c d2 5f d0 3c 95 bd cf 3c 45 75 23 3d
       0.028085595 0.025436316 0.025358954 0.03990676
0002f0 37 ff e6 3c f7 a5 c8 3c c8 51 d0 3c 5f 1b 05 3d
       0.028197868 0.0244932 0.025429621 0.032496806
000300 be 07 29 3d 04 a5 2d 3d 17 a5 c8 3c 26 1d bf 3c
       0.04126715 0.0423937 0.024492783 0.023329329
000310 93 fe 8b 3c d3 37 01 3d 2d b8 c6 3c c1 84 cb 3c
       0.017089164 0.03154738 0.024257744 0.024843575
000320 29 e3 2b 3d 7c 06 12 3d 62 72 00 3d 24 be f7 3c
       0.041964684 0.035650715 0.031359084 0.030242033
000330 7a 7e 32 3d af 50 b9 3c ad a8 2e 3d 50 5c fd 3c
       0.04357765 0.02262148 0.04264133 0.030927807
000340 56 a9 2e 3d 91 aa 2d 3d 75 1d d2 3c 30 2f 6c 3c
       0.04264196 0.042398993 0.025648812 0.014415547
000350 87 1b cc 3c 24 61 2e 3d 94 71 30 3d fe 12 c5 3c
       0.02491547 0.04257311 0.043077067 0.024056908
000360 75 01 cc 3c a3 8b 84 3c d5 81 01 3d 43 be cd 3c
       0.024903039 0.016179865 0.031617958 0.025115138
000370 36 2c c1 3c 39 69 e6 3c 74 1f e1 3c 32 84 dd 3c
       0.023580652 0.028126346 0.027480818 0.027040575
000380 70 85 d6 3c 10 c6 85 3c c3 2e c3 3c 8f c8 c6 3c
       0.026186675 0.016329795 0.023826009 0.024265556
000390 91 a5 17 3d 81 62 2f 3d 11 6e 2e 3d a4 d5 87 3c
       0.03702313 0.04281855 0.042585436 0.016581364
0003a0 36 0c 2b 3d 7e b2 29 3d ac 2e 3d 3d c2 39 73 3c
       0.041759692 0.04142999 0.046187088 0.0148453135
0003b0 a9 50 2d 3d 65 14 da 3c 32 0d b4 3c 46 15 c5 3c
       0.04231325 0.026621053 0.021978948 0.024057996
0003c0 6f 82 2f 3d ea a1 ce 3c cd 75 2e 3d f6 6d 88 3c
       0.042849 0.025223691 0.042592812 0.016653996
0003d0 e0 62 cc 3c 78 44 2e 3d c3 79 8b 3c 0c 1f 2c 3d
       0.024949491 0.042545766 0.017025834 0.042021796
0003e0 98 1d 0f 3d 49 e6 2c 3d e4 0c 00 3d e5 4c 2d 3d
       0.034940332 0.042211805 0.031262293 0.04230966
0003f0 44 5f 8b 3c e1 e1 2b 3d 70 d8 9f 3c c1 98 2b 3d
       0.0170132 0.04196346 0.019512385 0.041893724

net_model.2.bias f4 [64]
000000 aa d3 2d bc 0f 81 2f bc a7 6e 7b b6 4e 96 2e bc
       -0.010609547 -0.010711922 -3.7466323e-06 -0.010655953
000010 98 fe b1 ba 61 e6 4d 3c 31 98 39 bc 53 c2 2f bc
       -0.0013579903 0.012567134 -0.011327789 -0.010727483
000020 ff 12 0a bb 95 b1 38 bc fc dc 2d bc 4d 7e 2f bc
       -0.0021068451 -0.011272808 -0.010611769 -0.010711265
000030 af 69 2f bc 05 f9 2d bc 91 98 2e bc 4d 01 32 bc
       -0.010706349 -0.010618453 -0.010656492 -0.010864568
000040 62 a9 cc 3b 41 49 2f bc df 92 3b bc ac d5 2c bb
       0.006245778 -0.010698617 -0.011448591 -0.0026372476
000050 9b 95 2e bc a0 65 17 3d a2 85 2e bc 81 f3 2d bc
       -0.010655786 0.03696215 -0.010651978 -0.010617138
000060 f1 fe 33 bc cc 0c 81 af ba e6 2d bc 45 fb fe 3c
       -0.010986076 -2.3474056e-10 -0.0106140915 0.031125674
000070 07 92 e5 ba db b0 09 b6 d1 06 08 b0 cc 5b 2f bc
       -0.0017514833 -2.0517534e-06 -4.94862e-10 -0.010703038
000080 cd 74 2f bc 22 43 2f bc fd d5 2d bc b7 d1 2d bc
       -0.010709 -0.010697158 -0.010610101 -0.010609082
000090 29 f9 2e bc 98 af 2e bc a8 b6 36 bc 55 b8 34 bc
       -0.010679522 -0.010661982 -0.011151947 -0.011030276
0000a0 fc 73 2f bc 90 fc 98 bc 18 49 f7 3c 4a 25 2f bc
       -0.010708805 -0.018675119 0.030186221 -0.010690043
0000b0 58 45 0a 94 59 16 32 bc ea a7 2e bc e1 ab 10 98
       -6.980895e-27 -0.010869586 -0.010660151 -1.869834e-24
0000c0 8f b5 24 3d be cd 2d bc ab b2 3b bc c5 ea 2d bc
       0.04021221 -0.010608135 -0.011456172 -0.010615055
0000d0 be 29 e3 b3 8a 5f 2f bc 71 fb 2d bc 17 04 37 bc
       -1.0578104e-07 -0.010703931 -0.01061903 -0.011170409
0000e0 15 2c c2 95 b5 82 2f bc f0 56 02 bb 17 7e 2f bc
       -7.8425525e-26 -0.010712315 -0.0019888245 -0.0107112145
0000f0 fb 87 2e bc 05 76 2f bc 10 76 00 3d 79 b9 3b bc
       -0.010652537 -0.01070929 0.031362593 -0.011457794

net_model.4.weight f4 [32, 64]
000000 eb 9c 08 3d c6 99 08 3d 5e 02 9b 02 c1 72 08 3d
       0.033352774 0.033349775 2.2776562e-37 0.033312563
000010 11 c0 8f 3a f8 d7 3a bc 8e 53 04 3d 64 7a 08 3d
       0.0010967274 -0.01140403 0.032306246 0.033319846
000020 b9 0d b1 39 46 3a 04 3d 4c fe 07 3d b0 79 08 3d
       0.00033770295 0.032282136 0.0332015 0.033319175
000030 d3 81 07 3d 95 11 08 3d 72 e9 08 3d a9 b8 06 3d
       0.033082794 0.033219893 0.033425756 0.03289095
000040 16 df 92 3d ee a0 08 3d aa 8a 04 3d 87 09 b9 ba
       0.071714565 0.0333566 0.032358803 -0.0014117219
000050 20 9a 08 3d 81 c2 3f bd 31 99 08 3d ed 16 08 3d
       0.03335011 -0.046816353 0.03334922 0.03322499
000060 28 ed 05 3d fe d6 18 82 38 2c 08 3d 1c df 3d bd
       0.032696873 -1.1228896e-37 0.033245295 -0.04635535
000070 af 8a a9 ba b0 f2 52 b0 01 e5 28 2d b6 fc 07 3d
       -0.0012935008 -7.6742435e-10 9.6005435e-12 0.03319999
000080 11 95 08 3d 20 cb 08 3d f2 08 08 3d e7 fa 08 3d
       0.033345286 0.03339684 0.033211656 0.033442404
000090 5c 8c 08 3d 60 9e 08 3d 2c 6a 05 3d 18 b4 05 3d
       0.033336982 0.033354163 0.032571957 0.032642454
0000a0 1b 18 08 3d 74 26 72 3d 7d fa 44 bd 04 97 08 3d
       0.033226114 0.059118703 -0.048090447 0.033347145
0000b0 de 5f 2b 83 1f 4b 06 3d 2f 31 08 3d 7f d5 ae 01
       -5.0362434e-37 0.032786485 0.03325003 6.4223857e-38
0000c0 80 c6 16 bd e0 e2 08 3d 0e 94 04 3d 1a 0f 08 3d
       -0.036810398 0.03341949 0.03236776 0.033217527
0000d0 ac a2 ad 31 21 0e 08 3d 8a 89 08 3d 15 67 05 3d
       5.0534563e-09 0.0332166 0.033334292 0.03256901
0000e0 f2 fe 8c 82 04 9e 07 3d f3 b5 5a 2a 32 42 08 3d
       -2.0717483e-37 0.03310968 1.9425416e-13 0.033266254
0000f0 da 88 08 3d 60 df 08 3d 92 61 3a bd 4b 9f 04 3d
       0.033333637 0.033416152 -0.045503207 0.032378476
000100 6d 97 25 02 81 ff 44 03 8a bf c8 82 30 aa 21 83
       1.2165743e-37 5.7892527e-37 -2.9497297e-37 -4.7509013e-37
000110 fb 7c 2a 03 1d 58 0d 83 c0 8a 6b 82 a2 5b 23 82
       5.010198e-37 -4.1537325e-37 -1.7304893e-37 -1.2001646e-37
000120 48 04 39 03 9e 74 13 83 98 4f 48 03 c2 61 51 03
       5.437153e-37 -4.3333287e-37 5.8866087e-37 6.15318e-37
000130 10 22 4d 83 52 e9 74 02 75 70 05 83 40 53 96 02
       -6.0283187e-37 1.7993248e-37 -3.921428e-37 2.2088302e-37
000140 09 14 fd 82 61 4d 27 03 20 a7 23 83 a0 4e 6e 83
       -3.7186508e-37 4.9165716e-37 -4.8093245e-37 -7.003217e-37
000150 97 f5 23 03 12 4f a3 82 c3 4e 3c 82 44 3a 16 82
       4.818332e-37 -2.3996082e-37 -1.3834662e-37 -1.1036981e-37
000160 4d b6 43 03 95 49 12 83 35 44 16 03 3a 22 e6 02
       5.751462e-37 -4.299001e-37 4.4159336e-37 3.3815108e-37
000170 ff 1d 40 82 89 20 54 82 e7 0c 3e 83 95 5b 0b 03
       -1.4114541e-37 -1.5584637e-37 -5.5850793e-37 4.095356e-37
000180 00 c8 22 83 b6 02 42 03 58 38 42 03 7c d4 34 01
       -4.783711e-37 5.701459e-37 5.7076155e-37 3.321323e-38
000190 23 a0 14 83 6a 1d 6c 83 2e 83 25 03 b2 61 06 03
       -4.367712e-37 -6.9387932e-37 4.863973e-37 3.949121e-37
0001a0 96 9b 4b 03 92 0c 62 83 0a 6c 44 03 7e e9 0b 83
       5.983494e-37 -6.642986e-37 5.7723246e-37 -4.1116465e-37
0001b0 10 e0 96 82 ca 54 b3 82 04 37 f1 81 50 63 29 83
       -2.2169125e-37 -2.6350353e-37 -8.860836e-38 -4.977864e-37
0001c0 91 84 0f 03 13 9c 1c 03 78 ad 37 03 c1 6f 13 83
       4.21761e-37 4.6023444e-37 5.3978e-37 -4.3327705e-37
0001d0 25 6f 41 03 4f 77 42 83 16 40 f2 02 c7 50 34 83
       5.684519e-37 -5.7148436e-37 3.5595488e-37 -5.2989974e-37
0001e0 1a fa e6 02 09 c6 59 03 0e 07 f4 82 1a ac 18 83
       3.3939014e-37 6.39979e-37 -3.5856627e-37 -4.486635e-37
0001f0 f1 72 65 83 55 3f 25 03 a6 10 59 83 42 25 4b 83
       -6.7429e-37 4.8561844e-37 -6.378968e-37 -5.969911e-37
000200 d5 b7 5c 03 e9 f6 7b 02 42 30 04 83 b8 86 14 03
       6.486322e-37 1.8511427e-37 -3.884671e-37 4.364794e-37
000210 0d 16 16 83 ec ca 5d 83 b6 15 59 03 d2 a9 4e 03
       -4.410635e-37 -6.5179006e-37 6.379549e-37 6.0732903e-37
000220 e8 8c 2b 03 7a 30 14 83 b9 2d ef 82 9a 72 2b 83
       5.0414136e-37 -4.354894e-37 -3.5144137e-37 -5.038394e-37
000230 71 ac 24 83 2e 93 01 83 cb 6e 6e 82 17 05 4a 83
       -4.839322e-37 -3.8078647e-37 -1.7517274e-37 -5.9368308e-37
000240 53 e5 40 03 db 27 22 83 64 0a 2a 03 ec fe 36 03
       5.668698e-37 -4.7653273e-37 4.997044e-37 5.377763e-37
000250 f9 c6 4b 03 be 6b 05 83 39 6c 72 02 aa b3 35 03
       5.9884748e-37 -3.920887e-37 1.781041e-37 5.3397364e-37
000260 79 29 61 83 1e 8d eb 81 59 4d 14 83 2c 85 27 03
       -6.6169166e-37 -8.652786e-38 -4.358208e-37 4.9229763e-37
000270 de 70 4b 03 a6 34 01 83 a6 39 3d 83 7c e7 70 01
       5.9785903e-37 -3.797013e-37 -5.5608285e-37 4.424712e-38
000280 f8 bd 31 83 e5 97 0c 83 98 86 2d 03 48 02 16 03
       -5.22337e-37 -4.131667e-37 5.0994637e-37 4.4083657e-37
000290 30 c5 a3 02 84 d5 0a 03 13 89 44 03 71 5e 1a 03
       2.4063877e-37 4.079966e-37 5.7756577e-37 4.5364946e-37
0002a0 81 09 25 03 dc a4 40 83 ed 99 aa 82 6a bb bf 02
       4.850005e-37 -5.661298e-37 -2.5067604e-37 2.8172498e-37
0002b0 08 aa 9e 81 47 d4 50 82 14 f4 1f 03 81 f6 25 03
       -5.8284016e-38 -1.5342347e-37 4.700609e-37 4.8772115e-37
0002c0 70 0a 19 83 b0 fe f6 02 fa 69 6e 02 1f 56 c0 82
       -4.497464e-37 3.6292635e-37 1.7515892e-37 -2.8261296e-37
0002d0 a2 b0 a5 81 b2 26 03 03 46 be 44 03 6f ee 9f 82
       -6.0864883e-38 3.854186e-37 5.7817646e-37 -2.3499804e-37
0002e0 2e 2f 04 83 da 56 43 83 e3 7a 32 03 28 53 f2 82
       -3.8845473e-37 -5.740505e-37 5.2450566e-37 -3.5606433e-37
0002f0 75 3d 4e 03 80 e3 2b 83 ed a4 15 83 60 10 24 03
       6.060851e-37 -5.051354e-37 -4.397649e-37 4.8214066e-37
000300 16 0b 0f 03 f4 b3 5b 83 5f fe 22 03 1e 25 2f 83
       4.203665e-37 -6.456489e-37 4.7899525e-37 -5.1470486e-37
000310 30 33 87 80 67 f8 4c 83 21 ac 53 83 68 79 99 02
       -1.2416155e-38 -6.0235364e-37 -6.220492e-37 2.2551013e-37
000320 ba 09 fd 02 c7 e3 13 83 80 c2 0f 03 72 ea 45 83
       3.7180592e-37 -4.3460893e-37 4.22472e-37 -5.8162227e-37
000330 1c 7e 8b 01 c8 00 2e 83 30 75 4a 02 82 92 38 03
       5.1241494e-38 -5.11349e-37 1.4874247e-37 5.4240923e-37
000340 1e 9f a7 02 7a e7 02 03 2e df 35 83 a4 79 93 02
       2.4629773e-37 3.846929e-37 -5.3447317e-37 2.1669527e-37
000350 c7 97 4f 83 54 72 1e 83 f6 a0 5b 83 2f 03 06 03
       -6.1006065e-37 -4.656327e-37 -6.454309e-37 3.9382715e-37
000360 8e 07 e5 82 b6 e3 12 03 26 78 38 83 7b a4 2b 03
       -3.3652862e-37 4.3166943e-37 -5.4210664e-37 5.04412e-37
000370 d5 46 0f 83 26 00 35 83 92 e9 e3 82 e4 0c 0e 03
       -4.2105234e-37 -5.319129e-37 -3.3488715e-37 4.1744847e-37
000380 4b 9b 5c 03 17 fb 5e 83 99 53 b8 82 79 dd 28 03
       6.4830457e-37 -6.5528173e-37 -2.7084353e-37 4.9625e-37
000390 b1 b2 40 03 e6 00 39 03 17 87 90 82 be 66 56 83
       5.6628857e-37 5.4367645e-37 -2.1236436e-37 -6.300689e-37
0003a0 f7 c7 60 03 db c8 44 03 1a f5 14 03 e4 c3 60 03
       6.605723e-37 5.7829794e-37 4.3774654e-37 6.6052555e-37
0003b0 a8 8a d8 81 35 48 6f 82 03 70 66 83 76 dd 5e 03
       -7.954483e-38 -1.7579669e-37 -6.771951e-37 6.549416e-37
0003c0 ab e9 62 02 7c d0 27 03 20 2e 5b 83 45 04 00 03
       1.6670917e-37 4.9316217e-37 -6.4411265e-37 3.762072e-37
0003d0 28 6d 03 83 1d fe 1d 83 3c 66 d5 81 5d fe af 82
       -3.8622745e-37 -4.642986e-37 -7.839054e-38 -2.5859936e-37
0003e0 c4 89 32 03 68 af 43 01 0d 83 33 82 15 ea 11 03
       5.2467646e-37 3.594169e-38 -1.3188453e-37 4.2880383e-37
0003f0 6d ff 3b 83 62 3e 54 83 ca a7 13 83 ca 28 63 83
       -5.5247575e-37 -6.2372813e-37 -4.339203e-37 -6.675613e-37

net_model.4.bias f4 [32]
000000 8b 05 03 bc bc 9b f6 b9 f4 a9 db b9 74 19 17 ba
       -0.007996927 -0.00047036808 -0.0004189756 -0.00057639857
000010 41 67 03 bc 8d c1 c1 b9 1f 41 0d ba 50 15 03 bc
       -0.008020223 -0.00036956035 -0.0005388427 -0.008000687
000020 f4 49 13 ba 91 6a 03 bc af 0a 03 bc 11 e7 0a ba
       -0.0005618625 -0.008021013 -0.007998153 -0.0005298714
000030 21 12 03 bc 8f 24 03 bc ab 26 d5 b9 f7 6a 03 bc
       -0.007999928 -0.008004322 -0.00040655336 -0.008021108
000040 a7 3d 13 ba 36 eb 03 bc 98 0a 03 bc 90 e6 ad b9
       -0.0005616792 -0.008051684 -0.007998131 -0.00033168914
000050 2f 74 03 bc 6d 70 03 bc ec 1a 12 ba 4f b7 32 b1
       -0.008023306 -0.00802241 -0.00055734697 -2.6006608e-09
000060 b4 2d af b9 b8 1b 03 bc 13 a0 d6 b9 91 fa 02 bc
       -0.00033412653 -0.008002214 -0.00040936525 -0.00799431
000070 b7 29 fd b9 c4 23 03 bc 74 0f 03 bc 4c 01 03 bc
       -0.00048287 -0.008004133 -0.00799929 -0.007995915

net_model.6.weight f4 [1, 32]
000000 20 37 04 bd 19 04 4e 83 c9 4e 96 82 96 8f 3a 83
       -0.032279134 -6.0542663e-37 -2.208574e-37 -5.4825316e-37
000010 2f 20 04 bd a8 ef 5d 83 e2 2b 5c 83 76 4e 04 bd
       -0.032257255 -6.5221175e-37 -6.4702564e-37 -0.03230139
000020 5b ed 30 83 00 30 04 bd a0 3e 04 bd 1e c6 54 83
       -5.199422e-37 -0.03227234 -0.032286286 -6.252863e-37
000030 39 69 04 bd 59 3a 04 bd 12 7e 25 ba 58 25 04 bd
       -0.03232691 -0.032282207 -0.00063130364 -0.032262176
000040 b2 99 33 83 b1 07 05 bd ae 44 04 bd 7e 1e 3f 83
       -5.2779806e-37 -0.03247804 -0.03229206 -5.616486e-37
000050 23 1a 04 bd f3 13 04 bd 47 20 4c 83 f3 9b 66 03
       -0.03225149 -0.032245588 -5.9987264e-37 6.7769946e-37
000060 3e 4f 32 83 a2 3c 04 bd 7c 54 25 83 f2 62 04 bd
       -5.2400464e-37 -0.032284386 -4.8586125e-37 -0.032320924
000070 d0 35 1a 03 4c 2e 04 bd 85 4a 04 bd c1 6f 04 bd
       4.5318306e-37 -0.032270715 -0.03229763 -0.03233314
