src/t1dsim_ai/models/IndividualModel/T1DEXI-01-1044/individual_model.pt (torch, 50089 bytes, 7 tensors)

net_model.0.weight f4 [128, 10]
-1.8754456e-37 3.4143648e-37 -5.245391e-37 1.9454332e-37 -4.320748e-37 -5.6828392e-37 -9.309533e-38 -5.7008664e-37
2.9741168e-37 -6.878862e-37 6.605409e-37 4.567459e-37 -5.1214123e-37 5.8282617e-37 -4.664993e-37 5.733083e-37
4.7098067e-37 -4.8630456e-37 5.175633e-37 -5.4480108e-37 -8.9961557e-38 3.6416877e-37 2.6897554e-37 2.205043e-37
3.1187034e-37 -2.0553206e-37 6.1908505e-37 4.144724e-37 5.3083594e-37 -2.2944729e-37 -6.9433285e-37 1.6045642e-37
3.863099e-37 -3.2270662e-37 -3.2009603e-37 -2.303885e-37 -5.5320385e-37 -3.443918e-37 4.147231e-37 5.7570596e-37
-1.5562233e-37 5.8648973e-37 5.4338274e-37 4.6068954e-37 -2.4286168e-37 -5.1081266e-37 3.732335e-37 1.2646304e-38
1.3527546e-37 -4.3442414e-37 2.6087065e-37 -4.610919e-37 3.6422225e-38 4.1752963e-37 -3.2911613e-37 -5.455641e-37
5.4508143e-37 -2.06161e-37 1.8877952e-37 1.2656462e-37 5.69138e-39 -3.3915768e-37 1.3346748e-37 -5.737341e-37
3.854499e-37 -1.8232253e-37 -6.6228374e-37 1.1408948e-37 -5.4888605e-37 -1.5776963e-37 3.735061e-37 2.7572949e-37
5.9979695e-37 -1.3902192e-38 -5.720355e-38 -4.7777264e-37 5.03341e-37 -1.4808526e-37 4.784986e-39 1.6025901e-37
3.4829435e-37 5.1024228e-37 5.78464e-37 -4.6931064e-37 -2.0551085e-37 2.9091613e-37 5.8945775e-37 -2.2827094e-37
-3.3535236e-38 2.5462459e-37 3.0824728e-37 1.299881e-37 -3.2438037e-37 4.772943e-37 -3.150722e-38 -6.364002e-37
-5.97057e-37 2.0417802e-37 3.18078e-39 1.2688736e-37 -3.4177625e-37 -5.4324557e-37 -3.906069e-37 -3.2067854e-37
-6.3918994e-37 3.3756226e-37 -4.2004484e-37 -1.6526804e-37 -5.361601e-37 -2.2240925e-37 5.639704e-37 4.436143e-37
2.8726e-37 3.5256602e-37 6.566754e-37 2.628445e-37 -4.9246924e-37 4.108286e-37 1.0556348e-37 5.2155145e-37
-1.6471285e-37 -4.685267e-37 -2.854162e-37 -5.527091e-37 -5.145044e-37 -3.8739934e-37 4.1411217e-37 8.8247365e-38
3.920105e-37 2.7211678e-37 2.273107e-37 3.8804757e-37 -3.07722e-37 -3.4628457e-37 -4.5984333e-37 -2.2618614e-37
3.994642e-37 4.390162e-37 5.032741e-37 1.9155445e-37 2.9427806e-37 -5.300324e-38 2.145611e-38 5.2984974e-37
2.6491612e-37 -1.7955644e-38 -1.9871874e-37 -2.5949698e-37 1.0378757e-37 -3.9815737e-37 1.5699867e-37 4.0950197e-37
1.0090699e-37 5.7765514e-37 5.0939778e-37 -5.4887744e-37 2.6565343e-37 1.7799207e-37 3.933158e-37 2.0059072e-38
-6.376022e-37 -4.5044647e-37 -4.786641e-37 5.8779175e-37 -1.8321421e-37 -5.5916374e-37 -5.8831397e-37 2.3979524e-38
2.417487e-37 6.557556e-37 5.0108814e-37 -4.220466e-37 5.731046e-37 3.7196761e-38 -3.6787163e-37 -5.7468896e-37
-3.1503604e-37 1.4190075e-37 -1.1201963e-37 -3.0867058e-37 5.3549027e-37 4.7193472e-37 2.10909e-37 2.1729202e-37
3.366035e-37 -5.75644e-37 3.9309503e-37 2.8295772e-37 -1.2562899e-37 4.742231e-37 2.0244909e-37 -6.166616e-37
-4.708445e-37 -4.686569e-37 -5.654731e-37 -2.3526972e-37 6.036471e-37 -1.3728676e-37 6.381409e-37 5.827869e-37
-1.74366e-37 -5.7224245e-37 2.6661073e-37 8.8882153e-38 5.242964e-37 4.365923e-37 4.2091943e-37 5.78553e-37
4.1941863e-37 5.0158965e-37 6.7897924e-37 5.4825746e-38 -5.8121925e-38 -8.520696e-38 1.492024e-39 -2.7636112e-37
-6.501059e-37 -2.0575541e-37 1.0897413e-37 5.6375614e-37 5.5858434e-37 6.3061023e-37 -5.7081675e-37 2.625801e-37
8.576792e-38 3.4388754e-37 5.1119843e-37 -5.484874e-37 -5.706947e-37 -5.64504e-37 -3.3263404e-37 5.3571497e-37
1.4422915e-37 -5.0873784e-37 4.568867e-37 -5.0217873e-37 3.8954586e-37 4.8267997e-37 -6.1431553e-37 6.7553178e-37
-4.022546e-37 -3.9212447e-37 -3.6945447e-38 -1.425316e-37 4.172805e-37 5.822397e-37 5.710335e-37 -5.704211e-38
-2.3497365e-38 -6.425048e-37 4.1608076e-37 -8.372847e-38 2.7568236e-37 -2.7002604e-37 -4.8662688e-37 4.1419517e-37
00000000: be45 7f82 a05e e802 cd7d 3283 3a66 8402
00000010: 0607 1383 8360 4183 fa6d fd81 8dfd 4183
00000020: 6c68 ca02 5713 6a83 3ac5 6003 2e6c 1b03
00000030: cb45 2e83 5253 4603 d2bd 1e83 3216 4303
00000040: 3444 2003 1a7b 2583 1f1e 3003 de62 3983
00000050: 0ee6 f481 26d7 f702 260e b702 4411 9602
00000060: 7a3f d402 bce0 8b82 eaa9 5203 a309 0d03
00000070: 55a2 3403 5b27 9c82 ec44 6c83 e766 5a02
00000080: 5774 0303 6c9f db82 98d8 d982 56cb 9c82
00000090: da3e 3c83 8461 ea82 7a1f 0d03 10e7 4303
000000a0: 78d2 5382 7692 4703 50e7 3803 b8c3 1c03
000000b0: 7948 a582 0fd2 2d83 7202 fe02 c0b4 8900
000000c0: 9e20 3802 aed3 1383 148a b102 c5e6 1c83
000000d0: 2c4d 4601 f613 0e03 1efc df82 56a5 3983
000000e0: 4a7b 3903 504e 8c82 087a 8002 5545 2c02
000000f0: 40f9 3d00 9ad1 e682 a1aa 3502 4a3b 4383
00000100: 6c29 0303 212a 7882 0d5d 6183 624a 1b02
00000110: b8c6 3a83 b1be 5682 f131 fe02 daa6 bb02
00000120: af19 4c03 a861 9780 0eb9 9b81 de93 2283
00000130: 2f47 2b03 2f90 4982 981a 3400 1d22 5a02
00000140: 6f09 ed02 5fa0 2d03 52d7 4403 b9b2 1f83
00000150: 0add 8b82 bdfc c502 0395 4803 685a 9b82
00000160: 4c95 3681 dc49 ad02 40c8 d102 3eee 3002
00000170: 08c3 dc82 336a 2203 a88a 2b81 478e 5883
00000180: 002b 4b83 d4f4 8a02 b8a2 2200 cbb5 2c02
00000190: d299 e882 5ddb 3883 a9ea 0483 153e da82
000001a0: 4c81 5983 a4bb e502 11ef 0e83 82f3 6082
000001b0: 2272 3683 285d 9782 c0e8 3f03 41f4 1603
000001c0: c07f c302 aaf1 ef02 7f74 5f03 f8e1 b202
000001d0: 1f94 2783 38cc 0b03 81af 0f02 8a79 3103
000001e0: 0d32 6082 6f6e 1f83 843e c282 c113 3c83
000001f0: a813 2f83 3ed3 0383 42ea 0c03 703b f001
00000200: ee64 0503 6e31 b902 1cb3 9a02 b60b 0403
00000210: bc6c d182 48ab eb82 017a 1c83 2fef 9982
00000220: 3dee 0703 b463 1503 5b41 2b03 7e5d 8202
00000230: 7846 c802 de49 9081 e8a2 e900 6c4c 3403
00000240: e64a b402 0885 c380 b03d 8782 c09a b082
00000250: b144 0d02 667c 0783 0db2 5502 a758 0b03
00000260: f458 0902 dc90 4403 ce56 2d03 f8c5 3a83
00000270: 5bcb b402 2f45 7202 a3d6 0503 886c da00
00000280: fcf6 5883 6c47 1983 86e1 2283 e203 4803
00000290: d660 7982 0846 3e83 6031 4883 948e 0201
000002a0: 9086 a402 5f24 5f03 ef82 2a03 729d 0f83
000002b0: 7404 4303 b884 4a01 475c fa82 788e 4383
000002c0: 0567 d682 3225 4102 2579 1882 0012 d282
000002d0: c837 3603 5097 2003 8889 8f02 9ce1 9302
000002e0: 9a14 e502 aae1 4383 68c3 0503 3092 c002
000002f0: 50ff 2a82 a95e 2103 9bc7 8902 cdd6 5183
00000300: 5738 2083 c679 1f83 a86b 4083 c41d a082
00000310: 1469 4d03 74dd 3a82 ea25 5903 e64f 4603
00000320: af55 6d82 59b9 4283 2472 b502 d2f5 f101
00000330: a868 3203 8e90 1403 413b 0f03 13df 4403
00000340: 84b8 0e03 9fae 2a03 6f0b 6703 f83f 9501
00000350: 1239 9e81 96f4 e781 283f 1000 e614 bc82
00000360: 3638 5d83 a607 8c82 f153 1402 16d6 3f03
00000370: 8f13 3e03 e695 5603 273d 4283 e8b3 b202
00000380: 847b e901 a909 ea02 aaf3 2d03 fea3 3a83
00000390: 8532 4283 3c17 4083 0661 e282 5b4b 3603
000003a0: 8650 4402 511d 2d83 7278 1b03 f0e1 2a83
000003b0: 3b8e 0403 5b3f 2403 6e0a 5183 1edf 6503
000003c0: 51e1 0883 dc6e 0583 7026 4981 0401 4282
000003d0: 42fe 0d03 3b20 4603 0950 4203 8c48 9b81
000003e0: 18dd ff80 10a2 5a83 bf95 0d03 3aee e381
000003f0: a49e bb02 2cc5 b782 2e97 2583 7df1 0c03

net_model.0.bias f4 [128]
-1.2297786e-37 -1.686164e-37 9.561839e-38 -6.5751857e-37 5.998162e-37 5.9771635e-37 6.916904e-37 8.408884e-38
-2.0798256e-37 3.8645713e-37 -4.2640884e-38 5.223693e-37 -5.921003e-37 5.5934243e-37 1.9799989e-37 1.8739957e-38
-4.2561806e-37 4.7383345e-37 6.9131654e-37 -1.6530379e-37 -9.971156e-38 5.5460667e-37 -3.58548e-38 5.324525e-37
4.281549e-37 -1.9801345e-38 3.2626242e-37 3.7467053e-37 3.424298e-38 5.7931194e-37 2.0003735e-37 3.838673e-37
-5.493292e-38 6.4709578e-37 4.777737e-37 -2.2142433e-37 2.487575e-37 5.8607624e-37 1.3730308e-37 2.1325664e-37
-4.3669964e-38 -2.890432e-37 -6.159803e-37 -6.1449785e-37 -4.0161734e-37 1.9750605e-37 4.35387e-37 -1.9385632e-37
-5.7270875e-37 2.4751202e-38 -1.6422257e-37 -3.0056153e-37 5.6352713e-37 -1.1284608e-37 3.7204528e-37 6.8568946e-37
6.028574e-37 -5.5110253e-37 2.0583444e-37 -3.2905898e-37 1.0792152e-37 5.8367395e-37 1.8285101e-37 3.3310053e-37
4.693121e-37 5.5727806e-37 -2.9726186e-37 -6.6752765e-37 2.7285505e-37 4.816038e-37 -5.675669e-37 -2.2466545e-37
2.7708298e-37 1.3330729e-37 3.7223083e-37 -9.277262e-38 -6.7264416e-37 -1.1779782e-37 3.6734687e-37 -1.5265544e-37
-1.2659011e-37 3.3523812e-37 -2.5220222e-38 1.0533775e-37 -3.8307827e-37 -1.429293e-37 -1.5289348e-37 2.0923079e-38
4.282655e-37 3.3247656e-37 2.4753646e-37 2.004001e-37 5.565703e-37 6.6690765e-38 2.9226512e-37 9.573923e-38
-4.8439547e-37 3.3415186e-37 -1.1572229e-37 2.9548183e-37 5.6132245e-37 -8.0236086e-38 2.7828799e-37 3.4039697e-37
6.2452617e-37 2.2857416e-37 1.1399942e-37 -5.650307e-37 -2.2414359e-37 -4.0042474e-37 -3.8753916e-37 1.5567934e-37
5.799877e-38 -3.3909557e-37 -1.17463e-37 -4.3875117e-37 9.97683e-38 6.46263e-37 1.9690844e-37 3.1673968e-37
4.2930933e-37 5.6638215e-37 4.8259455e-37 1.5289044e-37 -3.2676226e-37 4.3660667e-37 1.0896261e-38 4.93694e-37
00000000: 8863 2782 3d82 6582 2526 0202 f2bd 5f83
00000010: 5c1b 4c03 7064 4b03 bb5e 6b03 5ee9 e401
00000020: ac8b 8d82 2a81 0303 b828 6881 c9c0 3103
00000030: 367b 4983 9955 3e03 72c0 8602 600f cc00
00000040: 90d4 1083 b73c 2103 2a3e 6b03 f7ff 6082
00000050: 68b8 0782 0eb9 3c03 4c36 4381 282f 3503
00000060: 8db1 1103 189e d780 ee0a de02 d0fc fe02
00000070: c06f 3a01 3021 4503 6c23 8802 8f9f 0203
00000080: a88a 9581 fe31 5c03 f693 2203 8fb1 9682
00000090: ab4b a902 716e 4703 24e3 3a02 8c22 9102
000000a0: 0cc3 6d81 6eb6 c482 749b 5183 501a 5183
000000b0: cea9 0883 686a 8602 8f27 1403 89ee 8382
000000c0: f8e1 4283 24c2 0601 3787 5f82 348d cc82
000000d0: 23c2 3f03 1f99 1982 6e33 fd02 fa53 6903
000000e0: 4924 4d03 cd87 3b83 6b15 8c02 29f2 df82
000000f0: 29e5 1202 2c9d 4603 47e2 7802 4cb2 e202
00000100: dab2 1f03 c4a1 3d03 524e ca82 dc25 6383
00000110: 0eb2 b902 9ce1 2303 0d22 4183 3ee6 9882
00000120: aa92 bc02 d072 3502 c253 fd02 148d fc81
00000130: 92e3 6483 8d56 2082 da00 fa02 a8c8 4f82
00000140: 374e 2c82 b826 e402 dc4f 0981 d960 0f02
00000150: d35a 0283 988b 4282 9a1b 5082 08d5 e300
00000160: 30bb 1103 9645 e202 ef76 a802 9f62 8802
00000170: 1c64 3d03 ae8c b501 c4e7 c602 4150 0202
00000180: ccd4 2483 7769 e302 5583 1d82 3218 c902
00000190: 1502 3f03 646c da81 9b64 bd02 84a9 e702
000001a0: e783 5403 3c8f 9b02 002b 1b02 1e45 4083
000001b0: 528b 9882 ea41 0883 6cdf 0383 55e6 5302
000001c0: 3ee3 9d01 c8c6 e682 e2e1 1f82 9e4c 1583
000001d0: 2ecc 0702 72e9 5b03 4a02 8602 d68f d702
000001e0: 1e16 1203 d8ba 4003 ea37 2403 8b1a 5002
000001f0: 0462 de82 ce91 1403 58a6 7600 d0fe 2703

net_model.2.weight f4 [64, 128]
-5.8171235e-37 6.7369646e-37 -6.8365828e-37 1.8004704e-37 -6.608192e-37 -4.990676e-37 4.9341907e-37 -9.948265e-38
-3.6866055e-37 2.6634693e-38 -5.6815214e-37 -6.8639805e-37 -5.4454467e-37 -6.061075e-37 8.316064e-38 5.221492e-37
-6.5339014e-37 1.4452369e-37 8.38686e-38 -5.5685036e-37 4.320686e-37 -3.552135e-37 4.9340674e-37 -4.3928756e-37
-1.3364027e-37 -6.0212113e-38 -1.443813e-37 -5.525318e-37 -5.538538e-37 3.3538036e-37 3.7467385e-37 -5.9167637e-37
-5.99478e-37 5.455821e-37 1.6800878e-37 -6.6383163e-37 -4.989e-37 1.928749e-37 -6.550831e-37 -5.1108234e-37
5.080878e-37 4.842448e-37 -6.7183674e-37 3.1654142e-37 5.773962e-37 -3.6503359e-37 -5.671091e-37 -6.679208e-37
-9.2528937e-38 -3.6923728e-37 7.4182745e-38 1.5707114e-37 -6.3773667e-37 -6.6753985e-37 -5.6144796e-37 6.429818e-37
4.1425122e-37 6.7533098e-37 7.410526e-38 -5.9781065e-37 -2.383553e-37 -4.116462e-37 -5.7367356e-37 5.740036e-37
-5.3333617e-37 -3.4179584e-37 -5.7397705e-37 -3.1046756e-37 -5.417709e-37 -5.9576655e-37 5.064437e-37 5.2356154e-38
-5.2617834e-37 6.398099e-37 5.702972e-37 -4.8242504e-37 1.7088596e-37 2.8066616e-37 6.329342e-37 -4.8199466e-37
-3.6119327e-37 -6.383591e-37 4.51638e-37 5.7389463e-37 -5.9276696e-37 -2.873881e-37 -6.2193002e-37 -2.6251024e-37
-4.981266e-37 5.346998e-37 3.4682236e-37 -5.0671136e-37 -4.5751915e-37 -5.9538414e-37 6.647482e-37 -3.3250093e-37
4.7674416e-37 -6.918739e-37 -3.6280637e-37 3.7080913e-37 5.8155483e-37 -3.902561e-37 6.2788687e-37 -4.986213e-37
1.3979244e-37 -3.9942212e-37 3.0691062e-37 -6.8396145e-37 -6.699454e-37 1.563487e-38 -5.3067944e-37 -9.103494e-38
5.0235016e-37 -3.9722224e-37 -6.2176788e-37 -1.7895053e-37 6.2270574e-37 -5.880373e-37 6.75044e-37 1.8277121e-37
5.184799e-37 3.7372713e-37 4.2243413e-37 -6.9735948e-37 3.2517779e-37 5.0392155e-37 -5.7193806e-37 3.4521589e-37
-3.7565772e-37 6.265056e-37 -5.2603946e-37 -4.898265e-37 -2.1616847e-37 6.0246305e-38 -6.135318e-37 -7.1514785e-38
-4.138911e-37 -6.9771274e-37 4.2183985e-37 -2.3860117e-37 6.3817316e-37 6.9464697e-37 -4.4219912e-37 -4.4625513e-37
6.574441e-37 -3.910568e-37 3.1972315e-37 -3.3896766e-37 6.104528e-38 -1.7574873e-37 5.5024596e-38 -4.689994e-37
-4.9976303e-37 5.048416e-37 -5.6531806e-37 -6.065293e-37 1.9853036e-38 1.5253885e-38 -4.7571487e-37 -4.7850666e-37
-3.0653913e-37 -4.8473694e-37 -6.4218213e-37 -4.183247e-37 5.1831604e-37 6.0320397e-37 -5.376071e-37 -5.459626e-37
-3.1139798e-37 -1.4619254e-38 3.435061e-37 -6.1149244e-37 -5.160276e-38 4.9850114e-37 6.075122e-38 -3.9356806e-37
4.2327514e-37 -5.470871e-37 9.00431e-38 -4.0687663e-37 5.500531e-37 -6.359591e-37 -5.75426e-37 6.257487e-37
5.2337125e-37 6.4770777e-37 6.7566814e-37 5.7829166e-37 6.0941026e-37 4.0678964e-37 4.5346157e-37 4.1720884e-37
5.116587e-37 5.086624e-37 -5.249228e-37 -4.1630896e-37 4.086759e-37 -5.1423026e-37 3.945933e-37 3.2304416e-37
-5.5739918e-37 1.9005636e-37 6.366633e-37 -4.456452e-37 -6.425146e-37 4.479931e-37 -5.1702792e-37 -5.632324e-37
6.2897454e-37 -5.476446e-37 -5.37767e-38 -5.2800953e-37 6.1629662e-37 -6.593386e-37 5.3769723e-37 5.6562536e-37
1.337194e-37 6.4768966e-37 4.1067085e-37 -6.595163e-37 -5.81885e-37 5.1536184e-37 -2.870092e-37 -5.2514788e-37
-4.283752e-37 -5.7424184e-37 6.4109077e-37 6.8353223e-37 4.7184715e-37 -5.0351093e-37 -5.351205e-37 4.4661727e-37
-5.2261877e-37 -6.0062006e-37 -3.972668e-37 6.1710897e-37 -6.4382857e-37 -5.563181e-37 -5.012862e-37 -7.71851e-38
-4.647232e-37 -6.482982e-37 5.8100807e-37 6.6307497e-37 5.376874e-37 3.3867084e-37 -5.428006e-37 5.8442715e-37
-8.3806134e-38 -6.712871e-38 -4.4684157e-37 1.9475564e-37 -4.6578515e-37 3.5788589e-37 -5.8083664e-37 -6.5455333e-37
00000000: 4bf2 4583 3d3f 6503 09a3 6883 3d11 7502
00000010: 79dd 6083 ebd2 2983 dde6 2703 a568 0782
00000020: bae5 fa82 5803 1101 0855 4183 b491 6983
00000030: 884c 3983 693f 4e83 8262 e201 9cad 3103
00000040: 4f56 5e83 28b7 4402 e24f e401 827c 3d83
00000050: 7c06 1303 ecbe f182 cae5 2703 587b 1583
00000060: d6e6 3582 b8e9 a381 8a85 4482 4f04 3c83
00000070: 7877 3c83 803f e402 64fd fe02 4856 4983
00000080: e6fd 4b83 e7a6 3903 84ae 6402 e4e3 6183
00000090: 52c4 2983 8c43 8302 c9e9 5e83 8de9 2d83
000000a0: b1e4 2c03 acc7 2403 3c9d 6483 4b6d d702
000000b0: 4e7a 4403 d26d f882 2cfa 4083 1c48 6383
000000c0: 42e3 fb81 354a fb82 d4f1 c901 4ecb 5502
000000d0: b302 5983 ec26 6383 040d 3f83 9dcb 5a03
000000e0: 5ff6 0c03 a0cd 6503 d4bb c901 a76c 4b83
000000f0: 5a37 a282 7113 0c83 0436 4383 c452 4303
00000100: 227c 3583 3c9d e882 7450 4383 144b d382
00000110: e75a 3883 96ba 4a83 7855 2c03 ea86 8e01
00000120: 990c 3383 4eb7 5903 e50f 4203 2629 2483
00000130: 1199 6802 f102 bf02 5860 5703 a803 2483
00000140: bed0 f582 ec38 5983 38af 1903 4649 4303
00000150: 49b5 4983 1296 c382 bfa1 5383 bca7 b282
00000160: f280 2983 ecf2 3503 fa08 ec02 c96c 2c83
00000170: 8aaf 1b83 4699 4a83 bc33 6203 d549 e282
00000180: 463a 2203 b86e 6b83 c9e9 f682 105c fc02
00000190: 92e4 4503 1acc 0483 a9a8 5503 0bac 2983
000001a0: 8e46 3e02 93ea 0783 5fdf d002 72bd 6883
000001b0: 7af8 6383 a83f aa00 b394 3483 18d2 f781
000001c0: dff0 2a03 f02a 0783 9f93 5383 2993 7382
000001d0: 52e5 5303 4619 4883 a0b4 6503 79c6 7802
000001e0: f86d 3003 7358 fe02 34bf 0f03 944c 6d83
000001f0: f64d dd02 c279 2b03 d59e 4283 17f1 ea02
00000200: cea8 ff82 5630 5503 8000 3383 e8ad 2683
00000210: dc1d 9382 8c01 a401 28c6 5083 88ae c281
00000220: 00d7 0c83 5a6b 6d83 6f8b 0f03 3062 a282
00000230: b928 5903 4960 6c03 fa78 1683 4eda 1783
00000240: 75b7 5f03 da11 0583 a197 d902 7fb0 e682
00000250: 5a2e a601 7f37 6f82 8cca 9501 9c97 1f83
00000260: 800f 2a83 e8c9 2b03 265e 4083 2764 4e83
00000270: 302e d800 a019 a600 9ce0 2183 cfd3 2283
00000280: a69e d082 8bf2 2483 f485 5a83 3959 0e83
00000290: b25f 3003 7a42 4d03 2ff0 3683 0dc8 3983
000002a0: 2eed d382 8830 9f80 34c7 e902 8114 5083
000002b0: e079 8c81 93a1 2903 6c61 a501 9dec 0583
000002c0: 7708 1003 022a 3a83 e21e f501 f473 0a83
000002d0: 622c 3b03 da67 5883 adce 4383 66ee 5403
000002e0: 1118 3203 4e67 5c03 ffea 6503 4fc8 4403
000002f0: 1f5f 4f03 606c 0a03 134e 1a03 04f8 0d03
00000300: c21b 2e03 bf16 2d03 3a9f 3283 a0a9 0d83
00000310: b110 0b03 c6fb 2e83 ed45 0603 3bda db02
00000320: 51ac 3d83 7d58 8102 32a5 5803 2ca5 1783
00000330: eaa2 5a83 b471 1803 7cef 2f83 76a8 3f83
00000340: 6907 5603 935a 3a83 e464 9281 1eac 3383
00000350: 02b7 5103 7e5c 6083 09f8 3603 eb78 4003
00000360: 6902 3602 ba65 5c03 7abe 0b03 f96b 6083
00000370: 5501 4683 595e 2f03 0e54 c382 d5b2 3283
00000380: bec4 1183 8567 4383 e226 5a03 0e98 6803
00000390: af8f 2003 fd55 2b83 9217 3683 daf9 1703
000003a0: 84d6 3183 6361 4c83 d22e 0783 c6fd 5103
000003b0: 6115 5b83 244e 3d83 3094 2a83 2a1e d281
000003c0: 1a23 1e83 bd9a 5c83 f1b4 4503 faa1 6103
000003d0: 2ef7 3603 c87c e602 9ab4 3883 c9de 4603
000003e0: 5a24 e481 e2bd b681 640d 1883 388b 8402
000003f0: 9c7f 1e83 8490 f302 02a6 4583 a3bb 5e83

net_model.2.bias f4 [64]
-1.4546976e-08 1.5815892e-37 1.5481725e-37 9.19475e-38 2.106608e-37 -2.4021117e-37 -5.2789805e-08 2.0716577e-37
-4.2912086e-38 3.8136183e-37 -6.8023e-08 -6.026395e-08 -2.2533401e-08 -2.083421e-37 -4.231423e-38 1.1239387e-37
-1.1722454e-08 -1.3981267e-08 2.7290245e-37 -3.1620322e-37 -2.267625e-06 -2.531069e-37 -6.6584175e-06 -1.7592832e-08
1.8700721e-37 -5.2453275e-38 -2.2464834e-09 -1.8946008e-37 3.7453448e-37 -7.086236e-38 5.2581144e-37 -9.307905e-08
-5.2769877e-08 -1.1526725e-07 -3.5740072e-08 5.5591407e-37 -4.6197673e-08 -1.95721e-37 3.7830815e-38 -2.8364465e-37
-5.186939e-08 -5.285266e-09 -6.3779154e-10 -3.669057e-37 -3.517276e-08 -5.9714695e-37 -2.0210464e-08 -4.753971e-10
-3.9421945e-08 -7.809096e-08 -3.0213494e-09 -1.45277115e-08 -2.585916e-37 -6.699696e-08 4.009291e-37 -4.0740733e-37
-2.982186e-37 -3.0767996e-08 1.6286503e-37 -2.7662497e-07 -2.809518e-06 -6.43577e-08 2.4454015e-38 -3.0231857e-37
00000000: 47ea 79b2 5746 5702 f0b9 5202 0e4e fa01
00000010: 4a5e 8f02 b07a a382 01bb 62b3 5efd 8c02
00000020: b8a2 6981 4dc5 0103 0a14 92b3 756a 81b3
00000030: 798f c1b2 50ca 8d82 6e61 6681 8cfb 1802
00000040: e663 49b2 4332 70b2 50ba b902 5f32 d782
00000050: 802d 18b6 7141 ac82 5f6b dfb6 0c1f 97b2
00000060: 818a 7e02 99ca 8e81 8e60 1ab1 9af0 8082
00000070: 1ce5 fe02 dbe7 c081 a3ec 3203 c0e2 c7b3
00000080: 18a5 62b3 d788 f7b3 a080 19b3 f22a 3d03
00000090: e16a 46b3 6833 8582 76f8 4d01 de09 c182
000000a0: ffc6 5eb3 b199 b5b1 9750 2fb0 fdb3 f982
000000b0: dc10 17b3 d632 4b83 489b adb2 19ad 02b0
000000c0: e350 29b3 f6b2 a7b3 24a0 4fb1 8d95 79b2
000000d0: 03fd af82 f8df 8fb3 da6d 0803 2fa2 0a83
000000e0: 02f5 ca82 c525 04b3 2eae 5d02 0c83 94b4
000000f0: 278b 3cb6 0535 8ab3 ec23 0501 53bf cd82

net_model.4.weight f4 [32, 64]
1.139175e-31 -4.027703e-37 -5.2600153e-37 -2.084747e-37 5.1825187e-37 -4.5457853e-37 1.0986164e-33 6.0770705e-37
5.86904e-37 5.588983e-37 4.7335413e-33 1.7349154e-33 3.4263397e-33 6.257767e-37 -5.7245316e-37 -6.7971764e-37
-2.0926236e-37 2.374105e-37 1.947899e-37 4.664331e-37 -1.2332984e-23 -6.0434537e-37 -8.984692e-20 1.2839005e-33
5.908911e-37 1.0961779e-37 -4.05407e-37 4.235222e-37 4.2242364e-37 -3.67019e-37 6.1309853e-37 -7.6953e-28
-1.8213006e-28 7.89104e-38 1.3933657e-34 -4.5715656e-37 3.700487e-37 -6.1482093e-37 -5.86024e-37 4.5177396e-37
-1.1245465e-29 2.417136e-37 -6.4079484e-38 -5.117595e-37 -4.1160146e-36 -3.6286025e-37 4.6435028e-33 2.1756076e-37
1.4527494e-37 -7.542127e-38 -3.7493338e-38 3.9661863e-33 4.9987348e-37 3.7401627e-34 -4.450213e-37 -5.11808e-37
-4.222982e-37 8.80615e-33 4.0063935e-37 -2.14027e-30 -1.198678e-26 -8.6932564e-36 -3.9871874e-37 5.4152836e-37
-5.679103e-37 5.573873e-37 8.0456527e-38 -4.089744e-37 4.567352e-37 -4.962875e-37 -1.6187182e-37 -2.3709674e-37
5.7589923e-37 -4.8524854e-37 -7.259046e-38 3.5058806e-38 -9.628651e-38 1.3133786e-37 -3.813178e-37 3.5357836e-37
4.5434966e-37 6.2088295e-38 -6.2536206e-37 -6.440326e-37 -3.3583008e-37 -2.9392906e-37 -5.549825e-37 -1.6829397e-37
5.2624667e-37 -4.427601e-37 -6.1281374e-37 5.0065206e-37 -2.4606039e-37 -7.2178967e-38 -4.0529484e-37 -6.038268e-37
-4.3053924e-37 5.8202956e-37 -1.0515943e-38 -1.3969047e-37 -9.714206e-38 -6.9621476e-37 5.553879e-37 3.9202013e-37
-6.0847074e-37 -4.20484e-37 -1.5680687e-37 -4.689168e-37 6.407335e-37 -2.6579237e-37 -6.2539726e-38 -6.078937e-37
-1.6820799e-37 4.5020895e-37 -2.412221e-38 -6.185478e-37 5.454696e-37 -9.492867e-38 4.280745e-37 -5.2716386e-37
3.4943083e-37 -2.0775028e-37 -3.7100648e-37 -1.7830945e-37 -3.0116929e-37 8.7734366e-38 -5.9653065e-37 -5.930732e-37
5.389808e-37 2.8286555e-37 -3.2695638e-37 3.854196e-37 -3.551144e-37 -6.9387596e-37 6.156541e-37 3.982279e-37
4.6310192e-37 -4.8679624e-37 -3.7575953e-37 -3.2782387e-37 -4.0033765e-37 -3.997461e-37 -2.7328333e-37 -6.190183e-37
5.551112e-37 -4.7131708e-37 4.518424e-37 6.419277e-37 6.1528213e-37 -3.7552705e-37 -3.3425325e-37 5.2158773e-37
-5.3683807e-37 5.042044e-37 -4.1794854e-37 4.8679867e-37 5.9925397e-37 -3.6938344e-37 -4.7818137e-37 1.5672329e-37
-6.42935e-37 -3.7703233e-37 4.9628476e-37 4.3074587e-37 1.7593713e-37 4.4446833e-37 5.5162067e-37 4.925282e-37
4.156096e-37 -6.5017935e-37 -1.6361295e-37 3.967914e-37 -5.119858e-38 -2.9413587e-37 4.0149977e-37 5.334266e-37
-5.4447445e-37 3.9839305e-37 6.34953e-38 -2.7302895e-37 -2.6382852e-38 3.7397024e-37 5.636994e-37 -2.246106e-37
-4.662027e-37 -4.7140577e-37 4.45458e-37 -3.1742172e-37 5.6353355e-37 -5.5699932e-37 -5.1050612e-37 5.4660595e-37
3.8553026e-37 -5.758204e-37 5.081027e-37 -5.651568e-37 3.623315e-38 -4.5554626e-37 -6.9212414e-37 2.1428315e-37
3.945972e-37 -6.9120807e-37 4.0568994e-37 -5.684507e-37 9.097465e-38 -6.5149307e-37 1.4513545e-37 6.754004e-37
2.9718668e-37 3.2472583e-37 -5.6972585e-37 3.3290982e-37 -6.2660372e-37 -4.1320153e-37 -5.4405173e-37 5.085503e-37
-4.525123e-37 4.664461e-37 -5.4151258e-37 3.9747416e-37 7.25357e-40 -5.541683e-37 -4.8336874e-37 5.1593464e-37
6.1866435e-37 -5.7616918e-37 -1.8712538e-37 5.585097e-37 5.7111724e-37 6.3758416e-37 -3.926601e-37 -5.559234e-37
5.640076e-37 6.951287e-37 6.041475e-37 5.754439e-37 -1.915776e-37 -1.9958672e-37 -6.3598893e-37 5.8016138e-37
3.029854e-38 4.919013e-37 -6.114644e-37 4.0591787e-37 -3.438945e-37 -5.4561603e-37 -2.9545078e-38 -2.9974436e-37
4.8536504e-37 8.0917117e-38 1.046574e-37 4.5570154e-37 -5.2314404e-37 -5.636915e-37 -4.281651e-37 -6.7352763e-37
00000000: 95df 130c 3e0e 0983 32fd 3283 6ae1 8d82
00000010: 1b5a 3003 60af 1a83 f989 b608 c0ca 4e03
00000020: 8db6 4703 e92e 3e03 a59f c409 9221 1009
00000030: 1853 8e09 d7f0 5403 b4cb 4283 c24b 6783
00000040: a56a 8e82 be92 a102 3091 8402 0eb8 1e03
00000050: fb8d 6e99 e8a5 4d83 2125 d49f 1653 d508
00000060: e011 4903 3a34 1502 eef3 0983 fd1d 1003
00000070: 4abe 0f03 bac7 f982 6aa0 5003 b1df 7392
00000080: 95e0 6691 86d0 d601 c735 3907 f48f 1b83
00000090: 94d7 fb02 7536 5183 e469 4783 10bb 1903
000000a0: cb15 648f 7380 a402 e270 ae81 8a24 2e83
000000b0: 6e13 af84 2cf3 f682 31e2 c009 6e10 9402
000000c0: eebc 4502 f450 cd81 1622 4c81 babf a409
000000d0: 1f19 2a03 9293 f807 d36e 1783 c428 2e83
000000e0: 5db3 0f83 86e5 360a 9c54 0803 aba3 2d8e
000000f0: 326c 6d94 97e2 3885 4dad 0783 c645 3803
00000100: f73f 4183 48ab 3d03 0406 db01 b22a 0b83
00000110: 3f6b 1b03 bde0 2883 1954 5c82 145c a182
00000120: e6f7 4303 1c1f 2583 2b9c c581 d8e0 3e01
00000130: f40e 0382 91c4 3202 77c1 0183 0aa2 f002
00000140: 709b 1a03 3a05 a901 b8cc 5483 2727 5b83
00000150: da8d e482 aa09 c882 cbd9 3c83 e411 6582
00000160: 8d12 3303 d8a9 1683 9b87 5083 f25c 2a03
00000170: c475 a782 667d c481 29ea 0983 bc78 4d83
00000180: 4281 1283 ed0d 4603 2c82 7280 0623 3e82
00000190: 1139 0482 dce8 6c83 1cfd 3c03 c565 0503
000001a0: 470d 4f83 5315 0f83 386f 5582 6a90 1f83
000001b0: c307 5a03 90e3 b482 d43f aa81 03db 4e83
000001c0: eef3 6482 bb32 1903 7455 0381 1d7b 5283
000001d0: 1b9d 3903 d035 0182 8caa 1103 7362 3383
000001e0: 70cf ed02 3463 8d82 727e fc82 c6b3 7282
000001f0: 17f7 cc82 eed5 ee01 26fd 4a83 f6cf 4983
00000200: d967 3703 2182 c002 d683 de82 c826 0303
00000210: a8ad f182 1f1d 6c83 097f 5103 8b82 0703
00000220: de95 1d03 efa5 2583 8bba ff82 f91a df82
00000230: 543a 0883 cc06 0883 acfc b982 19a4 5283
00000240: 01e5 3c03 8261 2083 06c1 1903 ca6f 5a03
00000250: a25e 5103 0a92 ff82 217b e382 b37c 3103
00000260: 31ad 3683 6692 2b03 7438 0e83 25a6 2503
00000270: 62ea 4b03 ac63 fb82 79b7 2283 1952 5502
00000280: 8ac7 5a83 264c 0083 80e0 2803 4293 1203
00000290: 2479 6f02 a73e 1703 f0b4 3b03 4299 2703
000002a0: b46c 0d03 9c3e 5d83 cbb2 5e82 6805 0703
000002b0: 3460 8b81 b22d c882 909f 0803 0384 3503
000002c0: 6a46 3983 ee90 0703 c4d9 ac01 5ad0 b982
000002d0: 54a4 0f81 ce82 fe02 25d1 3f03 b0dc 9882
000002e0: fca3 1e83 3c69 2083 dd94 1703 aa06 d882
000002f0: b2c2 3f03 7c89 3d83 5bb7 2d83 1800 3a03
00000300: 6c30 0303 08f1 4383 fde5 2c03 1a50 4083
00000310: a445 4501 ad03 1b83 8484 6b83 64d5 9102
00000320: 4446 0603 b734 6b83 940c 0a03 0a6f 4183
00000330: 14a8 f701 0db1 5d83 538c 4502 acd3 6503
00000340: 3941 ca02 38ff dc02 1fde 4183 1291 e202
00000350: e238 5583 ee9a 0c83 9721 3983 fb0c 2d03
00000360: 62fb 1983 30b9 1e03 6644 3883 e240 0703
00000370: 00e6 0700 de92 3c83 5b7b 2483 3f90 2f03
00000380: 4485 5203 6a0f 4483 aeb3 7e82 0f0d 3e03
00000390: 5457 4203 6af5 5803 859d 0583 c22b 3d83
000003a0: feeb 3f03 408a 6c03 ab94 4d03 3cd0 4303
000003b0: 8661 8282 e9d4 8782 736a 5883 2f6b 4503
000003c0: 00f6 2401 a662 2703 1012 5083 6f20 0a03
000003d0: df0a ea82 dca9 3983 d4db 2081 d5fe cb82
000003e0: 4229 2503 0047 dc01 c873 0e02 3411 1b03
000003f0: 4604 3283 75d0 3f83 71b2 1183 8830 6583

net_model.4.bias f4 [32]
-0.0002444444 -0.00054036174 -0.000439895 -0.0005869499 -0.00038216755 -0.00061872916 -0.00053251203 -0.00035664855
-0.00056694535 -0.000341297 -0.00025516012 -0.00026595523 -0.0003131068 -0.0002997064 -0.00045811027 -0.00029972233
-0.0005612621 -0.00059506414 -0.00026944038 -2.5726969e-08 -0.00033838017 -0.00035743916 -0.00020120654 -0.00016118547
-0.0002697941 -0.00024348807 -0.00048908097 -0.0003731858 -0.000513257 -0.00027445945 -0.00031239816 -0.00035502587
00000000: c628 80b9 10a7 0dba b5a1 e6b9 8add 19ba
00000010: a95d c8b9 3632 22ba 4798 0bba 8ffc bab9
00000020: 0f9f 14ba 1cf0 b2b9 03c7 85b9 e86f 8bb9
00000030: 7c28 a4b9 e921 9db9 852e f0b9 0d24 9db9
00000040: a921 13ba 14fe 1bba ad43 8db9 34fe dcb2
00000050: 9e68 b1b9 ac66 bbb9 f8fa 52b9 e503 29b9
00000060: 2773 8db9 d550 7fb9 ab35 00ba 26a8 c3b9
00000070: 188c 06ba 53e5 8fb9 5fc9 a3b9 c422 bab9

net_model.6.weight f4 [1, 32]
0.00040628837 -0.000277184 -5.142426e-37 -4.9383937e-37 0.00016601695 -0.00033184752 -6.665772e-37 0.00047973255
-1.8939535e-38 0.0003256966 0.00040673494 -0.0002760294 4.9329773e-37 0.00046597788 -0.0003113919 0.00012974988
-5.7104666e-37 -0.0003250693 0.00044947676 -6.9100884e-37 0.00033253108 0.00029223392 -0.00023463948 -1.8587946e-37
-0.00025775417 0.0004200806 -6.049025e-37 0.00046650667 -1.0152292e-37 0.00039861977 0.00038018412 0.00047628547
00000000: 1a03 d539 0253 91b9 d9fc 2e83 7a0b 2883
00000010: d614 2e39 d2fb adb9 10d3 6283 9d84 fb39
00000020: b83b ce80 42c2 aa39 0a3f d539 0ab8 90b9
00000030: 4bdc 2703 7e4e f439 5042 a3b9 780d 0839
00000040: 2e51 4283 106e aab9 c0a7 eb39 5c23 6b83
00000050: 9157 ae39 f936 9939 8e09 76b9 8a01 7d82
00000060: 2e23 87b9 443e dc39 71d6 4d83 7795 f439
00000070: 932f 0a82 d7fd d039 7353 c739 f4b5 f939
