src/t1dsim_ai/models/IndividualModel/T1DEXI-01-0233/individual_model.pt (torch, 50089 bytes, 7 tensors)

net_model.0.weight f4 [128, 10]
0	0xbb6bc450	-0.0035975166
1	0x3cb5e5f0	0.02220437
2	0xbb3fac87	-0.0029247121
3	0xbc62b194	-0.013836283
4	0x3cf6f8f9	0.030148016
5	0x3a8070f2	0.0009799285
6	0xbc3596d0	-0.01108332
7	0x3c730bf0	0.014834389
8	0xbd5116e0	-0.051047206
9	0xbd01cd7b	-0.031690102
10	0x3c1a0389	0.009400257
11	0x3bb004ff	0.0053716893
12	0xbcca7bbc	-0.024717204
13	0x3ce9bb40	0.02853167
14	0x3d06792f	0.032830413
15	0xbb2bc63d	-0.0026210689
16	0x3d8b7f63	0.068114065
17	0xbcc60f7f	-0.024177311
18	0xbd75a2b5	-0.059969623
19	0xbda2a9c7	-0.07942539
20	0xbb5c42ed	-0.0033609227
21	0x3cadd392	0.021219049
22	0xbb73a41d	-0.0037176677
23	0xbc6d2934	-0.014475156
24	0x3ceec0fa	0.029144753
25	0xb91f2865	-0.0001517847
26	0xbc7b64c0	-0.015343845
27	0x3c5b4376	0.013382783
28	0xbd4d7f7e	-0.050170414
29	0xbcb188bf	-0.02167165
30	0x3baa2767	0.0051926854
31	0x3d00563c	0.03133224
32	0x3c3f3912	0.0116713215
33	0x3c742b85	0.014902954
34	0x3c3617c1	0.011114062
35	0xbb4fc339	-0.0031702055
36	0xbd1b8e2b	-0.03797738
37	0x3d113015	0.035446245
38	0xbdf0a650	-0.117504716
39	0x3d69a2aa	0.057039894
40	0x3a8c4b81	0.0010703654
41	0x3c84d60a	0.016215343
42	0xbbfde837	-0.0077486294
43	0xbc9b5c2c	-0.01896485
44	0x3bd36819	0.0064516184
45	0xbb89586d	-0.0041914494
46	0x3d0178da	0.031609394
47	0x3c14f1f7	0.009090892
48	0x3c9d8565	0.019228647
49	0xbc61ad3b	-0.0137742115
50	0xbaedb830	-0.0018136557
51	0x3ca825b6	0.020525794
52	0xbb2f565a	-0.002675435
53	0xbd11a0bd	-0.035553683
54	0x3c69c72e	0.01426868
55	0xb9d34381	-0.0004029535
56	0x3c3306e4	0.010926936
57	0x3c86e77d	0.016467804
58	0x3c8fd62d	0.017558182
59	0xbc269729	-0.010167875
60	0x3a4dc5ef	0.0007849624
61	0x3c8659de	0.016400274
62	0xbbe2fd66	-0.00692718
63	0xbc95cc91	-0.018286021
64	0x3bcf5ab5	0.006327952
65	0xbb8f3568	-0.00437038
66	0x3d041ce9	0.032254133
67	0x3c1c4209	0.009537228
68	0x3ca573f9	0.020196902
69	0xbc64b158	-0.013958298
70	0x3b4d7b7f	0.0031354127
71	0x3cb9741c	0.022638373
72	0xba107096	-0.00055099407
73	0x39bc6e36	0.00035940268
74	0x3b7ec0e8	0.0038872305
75	0xbc83234c	-0.016008042
76	0x3cd7fdc2	0.026366118
77	0x3c20175b	0.009771193
78	0x3ca7558f	0.02042654
79	0xbc51199e	-0.012762455
80	0xbc00e61a	-0.0078673605
81	0x3caa425e	0.0207836
82	0x39572824	0.00020518951
83	0xbc7def43	-0.015498939
84	0x3d196740	0.037451982
85	0xbc95f3c3	-0.018304711
86	0xbd23ec5f	-0.040020343
87	0x3c9cc1fd	0.01913547
88	0xbd506e34	-0.050886348
89	0x3c42939e	0.011876015
90	0x3c1fd13a	0.009754473
91	0x3c839099	0.01606016
92	0xbcce8ff7	-0.025215132
93	0xbc9a6423	-0.018846577
94	0x3ca52241	0.020157935
95	0x3b9996a7	0.0046871486
96	0xbd0f52a7	-0.034990933
97	0xba114f1b	-0.00055430987
98	0xbd5c3edb	-0.05377088
99	0xbbd7b927	-0.006583351
100	0x3b11cd37	0.0022247562
101	0x3cb1605c	0.021652393
102	0xbad79556	-0.0016447704
103	0xbb6a8358	-0.0035783853
104	0x3c08e49b	0.008355285
105	0xbc423085	-0.011852388
106	0x3cf07b17	0.029355569
107	0x3c207dd4	0.009795625
108	0x3c9b3543	0.018946296
109	0xbc612a76	-0.013743034
110	0xba60a9a7	-0.0008570202
111	0x3ad021cb	0.0015879212
112	0xbcb05bff	-0.021528242
113	0xbca11138	-0.01966153
114	0x3cba4982	0.02274013
115	0x3c3a690d	0.011377585
116	0xbca6614a	-0.020310063
117	0xbbb77a26	-0.005599278
118	0xbcf15ebf	-0.029464124
119	0xbbdac8ca	-0.006676768
120	0xbadd515e	-0.0016885211
121	0x3cabb3c1	0.020959737
122	0xbb18b98b	-0.0023303952
123	0xbd16152e	-0.036641292
124	0x3c77c1b2	0.015121864
125	0xb96f1382	-0.00022800083
126	0x3c055abf	0.008139311
127	0x3c8baf07	0.017051233
128	0x3c8e9147	0.017403258
129	0xbc22fc17	-0.009947798
130	0x3a6a39a5	0.00089349813
131	0x3c88616c	0.016648017
132	0xbbe9e926	-0.007138389
133	0xbc9cedca	-0.019156355
134	0x3bcacc7f	0.0061889286
135	0xbb89d3ce	-0.0042061573
136	0x3cff538b	0.031167766
137	0x3c1659d6	0.009176692
138	0x3ca443ea	0.020051915
139	0xbc627f35	-0.013824274
140	0x3a4f40d0	0.0007906081
141	0x3c873f62	0.016509715
142	0xbbe61049	-0.0070209843
143	0xbc9c84fb	-0.019106379
144	0x3bd0cc2c	0.0063719954
145	0xbb8a302e	-0.0042171692
146	0x3d0135d6	0.031545483
147	0x3c1b74b9	0.009488278
148	0x3ca4d214	0.020119704
149	0xbc639f20	-0.013892919
150	0x3ab19982	0.0013549777
151	0x3c7adf50	0.015312031
152	0xbc38d7da	-0.011281932
153	0xbce0d8aa	-0.027447063
154	0x3c2f59a6	0.010702526
155	0xbb0e5950	-0.0021720715
156	0x3cc6693e	0.024220105
157	0x3c1df30a	0.009640465
158	0x3c4f5547	0.012654609
159	0xbc55627b	-0.013023968
160	0xb9afecf2	-0.0003355514
161	0x3b2b1371	0.0026104117
162	0xbca39813	-0.019969976
163	0xbc8fc934	-0.017551996
164	0x3ca50e55	0.020148436
165	0x3c4c45d0	0.0124678165
166	0xbc9293a7	-0.017892672
167	0xbb952241	-0.0045512025
168	0xbce8a10d	-0.028397107
169	0xbc0ab5da	-0.008466208
170	0x3c11caf7	0.008898488
171	0x3c8cd43a	0.017191041
172	0xbcb430b6	-0.021995883
173	0xbd014bda	-0.03156648
174	0x3c12d72f	0.008962437
175	0xba35ae8b	-0.0006930611
176	0x3c10ee1d	0.008845833
177	0x3b76a828	0.003763685
178	0x3b664ffe	0.0035142894
179	0xbbd012a6	-0.0063498793
180	0xbb8671df	-0.00410293
181	0x3cb5ae55	0.022177855
182	0xbb5604ff	-0.0032656786
183	0xbc807afc	-0.015683644
184	0x3cf8ba16	0.03036217
185	0xba3baee2	-0.00071595435
186	0xbc76ebac	-0.015070837
187	0x3c66ca5e	0.014086334
188	0xbd4f2c02	-0.05057908
189	0xbcc94139	-0.024567233
190	0xbb5f5865	-0.0034079787
191	0x3cae0758	0.021243736
192	0xbb6ec971	-0.0036435986
193	0xbc6f47d8	-0.014604531
194	0x3cef45f5	0.029208163
195	0xb9242539	-0.00015654125
196	0xbc7cf37e	-0.015438912
197	0x3c5b8c0e	0.013400091
198	0xbd4d35b2	-0.050100036
199	0xbcb105ac	-0.02160915
200	0x3c8f1883	0.017467743
201	0x3c2f5560	0.010701507
202	0x3bc2b4c0	0.0059419572
203	0x3cb95924	0.022625513
204	0x3d18423c	0.03717254
205	0xbc0ecb4f	-0.008715465
206	0x3d213cf7	0.03936478
207	0x3cf62a42	0.030049447
208	0xbc8f7d30	-0.017515749
209	0xbc398ea4	-0.011325512
210	0xbb60a279	-0.0034276529
211	0x3cb5d022	0.022193972
212	0xbb3eb6d4	-0.0029100673
213	0xbc5cab6c	-0.013468605
214	0x3cf65a5c	0.030072384
215	0x3a8be711	0.0010673722
216	0xbc2e2e36	-0.010631135
217	0x3c743096	0.014904162
218	0xbd523a77	-0.051325288
219	0xbd044d3a	-0.03230021
220	0xbac9c1cc	-0.0015392839
221	0x3cbb2c55	0.022848288
222	0x39ec4f70	0.00045072613
223	0xbcd1d5b6	-0.0256146
224	0x3c281b97	0.010260484
225	0xbcc247b8	-0.023715839
226	0xbc132d83	-0.008983019
227	0x3c05ee1d	0.008174446
228	0x3c865767	0.016399099
229	0xbc4dfeeb	-0.012572984
230	0x3c295e40	0.010337412
231	0x3c67eb98	0.014155291
232	0xbcdef38b	-0.02721574
233	0xbc8d4d30	-0.01724872
234	0x3ca770ce	0.020439532
235	0x3b8876ed	0.0041645677
236	0xbd095dbf	-0.03353667
237	0xbaa7533c	-0.0012765895
238	0xbd55d474	-0.052204564
239	0xbc1f4e70	-0.009723291
240	0xbb5943bb	-0.0033151943
241	0x3cbcbd5d	0.023039514
242	0xbaae7955	-0.0013311306
243	0xbc1d6117	-0.009605668
244	0x3cfe4400	0.031038284
245	0x3a81718d	0.000987576
246	0x3939fac6	0.00017736395
247	0x3c96a1e8	0.01838775
248	0xbd637fa7	-0.05554166
249	0xbd2abd84	-0.041684642
250	0x3bf5656c	0.007488897
251	0xbc9044db	-0.017610958
252	0xbb85afba	-0.004079786
253	0x3c19e0a3	0.0093919365
254	0x3d000e51	0.031263653
255	0x3bcebbfd	0.006309031

net_model.0.bias f4 [128]
0	0xbd0d3bba	-0.034480788
1	0xbced6ce3	-0.028982585
2	0xbd03317b	-0.03202961
3	0xbce5bf25	-0.028045246
4	0x3bf5c110	0.0074998215
5	0x3b9ca7c3	0.004780741
6	0x3beb7ba9	0.0071863723
7	0x3c5c9f12	0.01346566
8	0xbcfc739f	-0.030816851
9	0xbcdf9ade	-0.027295526
10	0x3c503caa	0.012709776
11	0xbcb96bc3	-0.022634393
12	0x3ba1088c	0.004914349
13	0x3bec3eac	0.0072096195
14	0x3bf4c50e	0.00746978
15	0x3c38a176	0.011268964
16	0xbcb04dc8	-0.021521464
17	0x3c07d2ce	0.008290006
18	0xbd056586	-0.032567523
19	0xbd02fc74	-0.03197904
20	0xbca6ff2a	-0.020385344
21	0xbd0f00ae	-0.034912758
22	0x3c15d5c1	0.009145201
23	0xbcdac823	-0.02670676
24	0xbd29b33c	-0.041430697
25	0xbc87b6e0	-0.016566694
26	0xbccad8ab	-0.024761518
27	0x3c232168	0.009956695
28	0x3c32e261	0.010918231
29	0xbce43350	-0.027856499
30	0xbc8bb3a1	-0.017053427
31	0xbcdd9a7e	-0.027051207
32	0xbcc042d1	-0.02346936
33	0xbd2b2d59	-0.041791294
34	0x3c5d3add	0.013502804
35	0x3c49224e	0.012276245
36	0x3bf28974	0.0074016396
37	0xbd0d9754	-0.034568146
38	0x3c319c94	0.010840554
39	0x3bfc1b7f	0.0076937075
40	0xbc9bf674	-0.019038416
41	0xbd059c69	-0.032619867
42	0xbd0819e6	-0.033227824
43	0x3c588d89	0.013217338
44	0xbd0e2e94	-0.03471239
45	0x3c5d3267	0.013500786
46	0x3c4fa842	0.012674393
47	0x3c07ac94	0.008280892
48	0x3beed7cd	0.007288909
49	0xbcc56d52	-0.02409998
50	0x3bca9448	0.0061822273
51	0xbd199183	-0.037492286
52	0x3c63b5d4	0.013898332
53	0xbd1a5b75	-0.037684876
54	0x3c17c3f1	0.009263025
55	0xbcd1c9b6	-0.025608879
56	0xbcc0a2ad	-0.02351507
57	0x3c730c00	0.014834404
58	0x3c011329	0.007878103
59	0xbd0feedc	-0.035139903
60	0x3c07934c	0.008274864
61	0x3c60cb48	0.013720341
62	0xbd2f5dd9	-0.04281411
63	0xbd1068eb	-0.035256308
64	0xbc4035b0	-0.01173155
65	0x3c45252e	0.01203279
66	0x3c4d3d07	0.012526757
67	0x3bfc0362	0.007690833
68	0x3c3f4ad8	0.011675559
69	0x3c047c0f	0.0080862185
70	0xbc84cf5f	-0.016212163
71	0x3c2d567c	0.0105797015
72	0xbcdd998d	-0.027050758
73	0x3bf00b8a	0.0073255943
74	0xbce7a3d9	-0.02827637
75	0xbca695b9	-0.020335065
76	0xbd0d7933	-0.034539413
77	0x3c2aa7a8	0.010415949
78	0xbcbf1c14	-0.023328818
79	0xbc8a8b9c	-0.016912274
80	0xbc8b5204	-0.017006882
81	0x3c430891	0.011903898
82	0x3c5a0340	0.013306439
83	0x3c5b7832	0.013395356
84	0xbc843b8e	-0.01614168
85	0xbccd42b2	-0.025056217
86	0xbccb141a	-0.024789859
87	0xbc7dc3cb	-0.015488575
88	0x3c4c15a5	0.012456332
89	0x3c82b3fe	0.015954968
90	0x3beae7b5	0.007168735
91	0x3c0ebc79	0.008711928
92	0x3c4a1520	0.012334138
93	0xbcd86387	-0.026414646
94	0x3bde3375	0.0067810365
95	0xbcf84198	-0.030304715
96	0xbc86d8e7	-0.016460849
97	0x3c45307d	0.012035486
98	0x3c477999	0.012174987
99	0x3c22271b	0.009897019
100	0x3c384b41	0.011248411
101	0x3c5a6c94	0.013331551
102	0xbd1130d4	-0.035446957
103	0x3b9d8a88	0.004807774
104	0xbce3564f	-0.027751116
105	0x3c43a6a5	0.011941587
106	0xbd11b737	-0.035575118
107	0xbd097c1c	-0.033565626
108	0x3c13e3d7	0.009026489
109	0x3c608ec3	0.013705912
110	0xbccaa7c0	-0.024738193
111	0x3bbf0704	0.0058296937
112	0xbd4792e7	-0.04872408
113	0x3c3f708e	0.01168455
114	0x3c37d843	0.011220994
115	0x3c3ecbde	0.011645285
116	0x3c50de3e	0.012748299
117	0xbd06d57c	-0.03291844
118	0xbce063a4	-0.027391262
119	0x3c05ca1d	0.008165863
120	0xbc88e434	-0.016710378
121	0x3be7dd5d	0.007075949
122	0x3c48a596	0.01224651
123	0xbcda15eb	-0.02662178
124	0x3c507c75	0.012724985
125	0x3c2eb607	0.010663516
126	0x3c3fceb3	0.011706996
127	0xbcd860d6	-0.026413362

net_model.2.weight f4 [64, 128]
0	0x3d6662f7	0.056246724
1	0x3da94dc1	0.082667835
2	0x3d575fd7	0.052581634
3	0x3de7ac31	0.1131214
4	0x3ca23615	0.019801179
5	0x3cb11192	0.021614823
6	0x3ca4f7cf	0.020137696
7	0x3cb9f678	0.022700533
8	0x3d895e1f	0.06707405
9	0x3d666b0e	0.05625444
10	0x3cb4a100	0.022049427
11	0x3d1688a9	0.036751423
12	0x3cb5fee6	0.022216272
13	0x3ca276e5	0.019832084
14	0x3ca4dc54	0.020124592
15	0x3ca072fa	0.019586075
16	0x3d043094	0.03227289
17	0x3c422fe4	0.011852238
18	0x3d625b97	0.055263128
19	0x3d58308c	0.052780673
20	0xbd5d6e9c	-0.054060563
21	0x3d66d82a	0.056358494
22	0x3cd1b51a	0.025599051
23	0x3d5ab58f	0.053395804
24	0x3d86c1da	0.06579943
25	0xbd7545bc	-0.059880957
26	0x3d1fcd81	0.039014343
27	0x3ca76cc7	0.020437611
28	0x3ca51d8d	0.020155692
29	0x3d2ea3b1	0.042636577
30	0xbd68dd5e	-0.056851737
31	0x3da34e56	0.07973926
32	0x3d0c84e2	0.034306414
33	0x3d748995	0.05970152
34	0x3cbab566	0.022791576
35	0x3caff98c	0.021481298
36	0x3ca78af6	0.020452004
37	0x3d851f79	0.065001436
38	0x3ca72035	0.0204011
39	0x3c9cddb8	0.019148692
40	0xbd6767cc	-0.056495473
41	0x3d504a98	0.05085239
42	0x3d5f2e41	0.05448747
43	0x3cb7f8f3	0.022457575
44	0xbd856ce2	-0.065149084
45	0x3cbe127f	0.023202179
46	0x3cb20de8	0.021735147
47	0x3cc6bb05	0.0242591
48	0x3ca712d7	0.020394726
49	0x3d318b1b	0.043345552
50	0x3cb46fda	0.022025991
51	0x3d674513	0.05646236
52	0x3cba7db6	0.022765022
53	0x3d5f8e52	0.054579087
54	0x3ca49806	0.020092022
55	0x3d1f9b85	0.038966674
56	0x3d183b00	0.03716564
57	0x3ccd1352	0.025033627
58	0x3cbf197c	0.023327582
59	0x3d65d4bc	0.056111082
60	0x3ca0069d	0.019534403
61	0x3cb97a15	0.022641221
62	0xbd8b38b2	-0.06797923
63	0x3d87d990	0.06633294
64	0x3cde03d8	0.027101442
65	0x3cab7d5d	0.020933801
66	0x3cb2b146	0.021813046
67	0x3ca36c56	0.01994912
68	0x3ca31743	0.019908553
69	0x3ca6774d	0.020320559
70	0xbd7d1fbd	-0.061797846
71	0x3ca42927	0.020039154
72	0x3d2a92ad	0.041643787
73	0x3ca0621f	0.019578038
74	0x3da1cf2b	0.07900842
75	0xbd6567c3	-0.056007158
76	0x3d8289ca	0.063739374
77	0x3ca21862	0.019787017
78	0x3d37f1bb	0.044908267
79	0xbd6b51c5	-0.05745103
80	0xbd5ab285	-0.053392906
81	0x3c9b43cb	0.018953225
82	0x3cb06831	0.021534057
83	0x3cb8352b	0.02248629
84	0xbd79fce6	-0.0610322
85	0x3d1f4d10	0.038891852
86	0x3d386761	0.045020465
87	0xbd5c7849	-0.05382565
88	0x3cb14438	0.021638975
89	0x3cddf4eb	0.027094325
90	0x3cb77cb6	0.022398334
91	0x3ca3c6ad	0.019992197
92	0x3cacc7eb	0.021091422
93	0x3d24ae8c	0.040205523
94	0x3cbdca31	0.023167701
95	0x3d8f9241	0.070103176
96	0xbd725c70	-0.059170187
97	0x3cad7116	0.021172088
98	0x3cadda7e	0.02122235
99	0x3cb4c902	0.022068504
100	0x3ca0cbf7	0.019628508
101	0x3cba559d	0.022745902
102	0x3d5f6af6	0.054545365
103	0x3cb98471	0.02264616
104	0x3d2e6097	0.042572584
105	0x3cadacee	0.021200623
106	0xbd86c418	-0.06580371
107	0x3d7c1454	0.061542824
108	0x3cd7d604	0.026347168
109	0x3cb97b45	0.022641787
110	0x3d180c47	0.037121084
111	0x3cadef99	0.021232413
112	0xbd909779	-0.07060141
113	0x3c978c71	0.018499585
114	0x3ca0b562	0.01961774
115	0x3ca38f57	0.01996581
116	0x3cb47fff	0.02203369
117	0x3d5a9f56	0.05337461
118	0x3db1dad5	0.08684317
119	0x3cbd21ab	0.023087343
120	0xbd7a6a25	-0.061136384
121	0x3cc12cf8	0.023581013
122	0x3ca39f8b	0.019973537
123	0x3d491780	0.049094677
124	0x3cb043f0	0.02151677
125	0x3c693699	0.0142342085
126	0x3ca2e9c1	0.019886853
127	0x3d24ab65	0.040202517
128	0xa424feea	-3.5777752e-17
129	0xac07d65f	-1.9303654e-12
130	0xa359280d	-1.1772075e-17
131	0x30b3600f	1.3051266e-09
132	0xb3c8673e	-9.3320054e-08
133	0xb4c1a05a	-3.6065722e-07
134	0xb3dcb4d8	-1.02774436e-07
135	0xb4dc6dec	-4.1058172e-07
136	0xa26e62b8	-3.2307276e-18
137	0xa16e05be	-8.0645136e-19
138	0xb4f3f98c	-4.5443846e-07
139	0x98e2d45b	-5.8634055e-24
140	0xb4c5d484	-3.6848735e-07
141	0xb3d2ec93	-9.8219196e-08
142	0xb3f2e3bf	-1.131043e-07
143	0xb43f23da	-1.7801304e-07
144	0x9b1bf0c4	-1.2899095e-22
145	0xae7b45cd	-5.7132788e-11
146	0xa340e626	-1.0457077e-17
147	0xa328b20c	-9.145001e-18
148	0x8226cc0d	-1.2254314e-37
149	0xa468d558	-5.048769e-17
150	0xb578c162	-9.266861e-07
151	0xa1a259ee	-1.1001351e-18
152	0xa613e0d7	-5.1305585e-16
153	0x82da2629	-3.2054124e-37
154	0xa18a6711	-9.378525e-19
155	0xb3cf677f	-9.6580145e-08
156	0xb49e324f	-2.9466398e-07
157	0xa0c21a4c	-3.288228e-19
158	0x028a6aac	2.0338504e-37
159	0xa03d2c2d	-1.6023539e-19
160	0x9c79a978	-8.260622e-22
161	0xa7134cce	-2.0441984e-15
162	0xb4e851cd	-4.3272885e-07
163	0xb4d18cbf	-3.903169e-07
164	0xb3f62f41	-1.1463863e-07
165	0xa3285d82	-9.127099e-18
166	0xb4b7a351	-3.4205235e-07
167	0xb3d191b6	-9.7588256e-08
168	0x828e1f5e	-2.0883029e-37
169	0xa381457b	-1.4015634e-17
170	0xa39c9934	-1.6978438e-17
171	0xb4ee6cce	-4.441012e-07
172	0x8308817e	-4.0115458e-37
173	0xb572f005	-9.05013e-07
174	0xb4eabf58	-4.3725117e-07
175	0xb56a4eef	-8.7286656e-07
176	0xb3f820ac	-1.1554343e-07
177	0xa1861fe0	-9.08863e-19
178	0xb485bf7c	-2.4912504e-07
179	0xa5962200	-2.6043891e-16
180	0xb3520050	-4.889472e-08
181	0xa6934b54	-1.0220592e-15
182	0xb4a59114	-3.0839203e-07
183	0x9c44340d	-6.4918234e-22
184	0x9952b649	-1.0893558e-23
185	0xb50829bf	-5.0724697e-07
186	0xb4ed1616	-4.416076e-07
187	0xa4752c61	-5.3163497e-17
188	0xb4921388	-2.720883e-07
189	0xb4fe7f59	-4.7403844e-07
190	0x06fcbe9a	9.507193e-35
191	0xa9123705	-3.2466234e-14
192	0x9f21ef9c	-3.4291276e-20
193	0xb4cbbd66	-3.7949502e-07
194	0xb4d30b9b	-3.9310257e-07
195	0xb3e988a4	-1.0874763e-07
196	0xb45ad0cf	-2.0378796e-07
197	0xb3f9cc94	-1.16321786e-07
198	0x8342e4c1	-5.7274073e-37
199	0xb4a31705	-3.0377865e-07
200	0x9edb2d32	-2.320622e-20
201	0xb3c4a03f	-9.15611e-08
202	0xab225e2e	-5.768466e-13
203	0x025e1e0a	1.6318605e-37
204	0xa834302c	-1.0002453e-14
205	0xb487499f	-2.5199276e-07
206	0xa2123a09	-1.9817413e-18
207	0x0253cd72	1.5560792e-37
208	0x0314ed66	4.376581e-37
209	0xb1914852	-4.2282773e-09
210	0xb2c90091	-2.3399737e-08
211	0xb4dcb8ae	-4.1112565e-07
212	0x82c5c62a	-2.906029e-37
213	0x9ac3336e	-8.07332e-23
214	0xa29230d4	-3.962508e-18
215	0x0297a1b4	2.228027e-37
216	0xb4e8455d	-4.3263836e-07
217	0xb5359396	-6.764252e-07
218	0xb4a8bfc3	-3.1431964e-07
219	0xb4103c7b	-1.3433048e-07
220	0xb4d3f7b8	-3.9482052e-07
221	0x9d79873d	-3.3024792e-21
222	0xb4768bfc	-2.2961461e-07
223	0xa9b533d8	-8.047008e-14
224	0x81c9e446	-7.4163295e-38
225	0xb4cacef0	-3.7776e-07
226	0xb4c5a753	-3.6815854e-07
227	0xb54ca2f5	-7.6233056e-07
228	0xb43c3a86	-1.7530155e-07
229	0xb4e7f664	-4.3206376e-07
230	0xa4a69c41	-7.225573e-17
231	0xb4840bc0	-2.4595465e-07
232	0xa0b52fb9	-3.0694173e-19
233	0xb3cd8305	-9.569889e-08
234	0x051093dc	6.798005e-36
235	0xa31a5acc	-8.367584e-18
236	0xb5818161	-9.648903e-07
237	0xb4eed9e3	-4.4489488e-07
238	0x9c30d6ec	-5.8511295e-22
239	0xb4ea65f4	-4.3660077e-07
240	0x88a8fadc	-1.0170109e-33
241	0xb143ac70	-2.8474254e-09
242	0xb453e05d	-1.9732529e-07
243	0xb45f5f1b	-2.0803093e-07
244	0xb4e84c64	-4.326895e-07
245	0xa39b9950	-1.6870064e-17
246	0xa022e086	-1.3796222e-19
247	0xb5146622	-5.528292e-07
248	0x0165b090	4.2187335e-38
249	0xb4ccacfc	-3.8123824e-07
250	0xb1ec11e8	-6.8705397e-09
251	0xa197635b	-1.0258457e-18
252	0xb4de87ec	-4.1449618e-07
253	0xaf96dffe	-2.7443997e-10
254	0xb457530a	-2.0053645e-07
255	0x9d7aa729	-3.3173644e-21

net_model.2.bias f4 [64]
0	0x3c20aa27	0.0098061925
1	0xbafab574	-0.0019127564
2	0xbad78cb4	-0.0016445131
3	0x3c098b00	0.008394957
4	0x3c209f16	0.009803554
5	0xba024d4a	-0.00049706234
6	0x3c1eea46	0.00969941
7	0x3c1f2777	0.009713999
8	0xba563321	-0.0008171071
9	0xa22b0b27	-2.3180725e-18
10	0xab8d3ce5	-1.0035554e-12
11	0xbb28965d	-0.002572439
12	0xbd539812	-0.051658697
13	0xa47e9d80	-5.5210878e-17
14	0x99febb5a	-2.6338655e-23
15	0x3c219ea9	0.009864488
16	0x3c1fde29	0.009757557
17	0x3c1f1125	0.009708677
18	0xa5553415	-1.8492451e-16
19	0x3c1f0e60	0.009708017
20	0xb4caeadd	-3.7796318e-07
21	0xb902ac32	-0.00012461914
22	0xa907a278	-3.011694e-14
23	0x3cacb101	0.021080496
24	0xb08cbbb1	-1.0239686e-09
25	0x3c1f2434	0.009713221
26	0x90c83778	-7.8971554e-29
27	0xaeb2e6cc	-8.1355006e-11
28	0xa49bf8d5	-6.764207e-17
29	0xb9a8decf	-0.00032209462
30	0xb6da41b8	-6.504557e-06
31	0x3c20bb4b	0.009810279
32	0xb0beb9bb	-1.3877107e-09
33	0xaf0069aa	-1.1679072e-10
34	0xbad6b9f3	-0.0016382321
35	0x93bf1fc1	-4.824649e-27
36	0x3c20d5c0	0.009816587
37	0x3c176785	0.00924099
38	0xa348d64a	-1.0887399e-17
39	0x3c1ee0c1	0.00969714
40	0xbb4cb723	-0.0031237088
41	0x3c1ed751	0.00969489
42	0x3c1e4cb2	0.00966184
43	0xb1e054ab	-6.5288837e-09
44	0xbb4b20cc	-0.003099489
45	0x3c1ee8e1	0.009699077
46	0xbab4440d	-0.0013753191
47	0x3c1f5fc9	0.009727427
48	0xbb142726	-0.0022606342
49	0xa6dbffb3	-1.5265485e-15
50	0xbcb46ea6	-0.022025418
51	0x3c20427f	0.009781479
52	0xb74bbea2	-1.2144128e-05
53	0x3c1e660d	0.0096678855
54	0x3c1f4e39	0.00972324
55	0x3c1f3ff5	0.009719838
56	0x3c1f3f8a	0.009719739
57	0xb7de853a	-2.65265e-05
58	0x3c1ed4be	0.009694276
59	0xb3e7f484	-1.0801253e-07
60	0xb923fc2a	-0.0001563883
61	0xa7b856f2	-5.1164525e-15
62	0xbb0c80f5	-0.002143917
63	0xb20b1a85	-8.096895e-09

net_model.4.weight f4 [32, 64]
0	0x833411e1	-5.291777e-37
1	0x83539e6f	-6.21892e-37
2	0x83607e14	-6.5972414e-37
3	0x82612feb	-1.6544141e-37
4	0x0346ef8e	5.8461966e-37
5	0x833bd206	-5.5195456e-37
6	0x8290ef28	-2.1296167e-37
7	0x032d718d	5.097048e-37
8	0x03594a3b	6.385578e-37
9	0x833857e8	-5.417365e-37
10	0x034bd55f	5.9901276e-37
11	0x8241de0f	-1.4243128e-37
12	0x032705a1	4.908335e-37
13	0x034738a2	5.8545855e-37
14	0x83667f5a	-6.7737118e-37
15	0x834a00aa	-5.9363227e-37
16	0x0330802c	5.1868886e-37
17	0x82d4175f	-3.1164015e-37
18	0x019a90e2	5.677856e-38
19	0x8165ce80	-4.2208814e-38
20	0x834625c3	-5.823032e-37
21	0x8353b560	-6.2215535e-37
22	0x8356bc7e	-6.3105326e-37
23	0x031ca699	4.6035524e-37
24	0x0322207b	4.7644807e-37
25	0x8357a3d1	-6.3370873e-37
26	0x0317960d	4.454716e-37
27	0x02f735e4	3.632432e-37
28	0x031aae80	4.545685e-37
29	0x83423a94	-5.707872e-37
30	0x0318801e	4.4815857e-37
31	0x032614f7	4.880708e-37
32	0x82ca0c57	-2.9688315e-37
33	0x831fed48	-4.6998286e-37
34	0x035cb462	6.485926e-37
35	0x830925e4	-4.030418e-37
36	0x8349cbbd	-5.930247e-37
37	0x83558abc	-6.2754333e-37
38	0x8352cb8c	-6.1947114e-37
39	0x031dd3f7	4.6381477e-37
40	0x035a6497	6.4179914e-37
41	0x0367cc2e	6.8119186e-37
42	0x02729a43	1.7823623e-37
43	0x83356d92	-5.33169e-37
44	0x03197b2f	4.5104067e-37
45	0x8310a7b6	-4.251032e-37
46	0x031ff190	4.70032e-37
47	0x82accf66	-2.539217e-37
48	0x826acc40	-1.7250222e-37
49	0x830d5543	-4.153405e-37
50	0x029b7ba0	2.284616e-37
51	0x0369ce62	6.870946e-37
52	0x030e3478	4.179028e-37
53	0x03469e5d	5.8368762e-37
54	0x82e93588	-3.4266998e-37
55	0x83433136	-5.736184e-37
56	0x82be34b9	-2.7948252e-37
57	0x031be428	4.5812317e-37
58	0x026b3bd6	1.7282245e-37
59	0x03003115	3.7672163e-37
60	0x83475187	-5.8574433e-37
61	0x83476259	-5.859374e-37
62	0x8313c4fb	-4.342554e-37
63	0x033a2e9f	5.4714006e-37
64	0x3d449b3a	0.047999598
65	0x38577537	5.136916e-05
66	0xbad05523	-0.0015894513
67	0x3d43b94d	0.04778414
68	0x3d442ef2	0.047896333
69	0x3abd3d23	0.0014437776
70	0x3d459d63	0.0482458
71	0x3d457dfa	0.048215844
72	0x81ace7c7	-6.3515406e-38
73	0x22d09246	5.6533386e-18
74	0xa8755e4a	-1.3620678e-14
75	0x3b0f418c	0.0021859137
76	0xbdb84d9b	-0.08999177
77	0x02ae8d88	2.5648237e-37
78	0x8365d413	-6.75405e-37
79	0x3d444677	0.047918763
80	0x3d45a45b	0.048252445
81	0x3d44e146	0.0480664
82	0x836a1fe6	-6.8803037e-37
83	0x3d4580cc	0.048218533
84	0xb25353c0	-1.2300859e-08
85	0xb11eec71	-2.3126427e-09
86	0x226fadfc	3.2482646e-18
87	0xbd8ee1a8	-0.06976634
88	0x824f1338	-1.5213474e-37
89	0x3d45d716	0.048300825
90	0x9247aa69	-6.3003375e-28
91	0xb4330283	-1.6671588e-07
92	0x015a7742	4.012584e-38
93	0xbaa0e06f	-0.0012273918
94	0xb7a05d04	-1.91168e-05
95	0x3d441de2	0.04788006
96	0x0328219e	4.9409353e-37
97	0x0283e3b2	1.937941e-37
98	0x3a61eb83	0.0008618163
99	0x92951c48	-9.410194e-28
100	0x3d457f2d	0.048216987
101	0x3d44263c	0.047888026
102	0x02392579	1.3602408e-37
103	0x3d452e20	0.04813969
104	0xbb39ec95	-0.0028369774
105	0x3d4529a0	0.0481354
106	0x3d4572aa	0.048205055
107	0x8291b324	-2.1408657e-37
108	0x3aac916e	0.00131659
109	0x3d458999	0.048226926
110	0xb9680153	-0.00022125737
111	0x3d45bf84	0.048278347
112	0x3ae9fb9b	0.0017851474
113	0x032cabd1	5.0743493e-37
114	0xbd25c6d8	-0.040472835
115	0x3d457cf2	0.04821486
116	0xa77661e1	-3.4192418e-15
117	0x3d464d5e	0.048413627
118	0x3d4490fd	0.047989834
119	0x3d45e441	0.048313383
120	0x3d44fd0a	0.04809288
121	0x3a872762	0.001031142
122	0x3d45a3c4	0.048251882
123	0xb88d0143	-6.723639e-05
124	0x3984bc76	0.00025317416
125	0x827c28ff	-1.8525801e-37
126	0xbd57237c	-0.052524075
127	0x02c0fc56	2.8356698e-37
128	0x3d4483c4	0.047977224
129	0x3856486f	5.1089035e-05
130	0xbad04ef4	-0.001589267
131	0x3d43bca4	0.047787324
132	0x3d455a78	0.04818198
133	0x3abd37ef	0.0014436225
134	0x3d4530c6	0.048142217
135	0x3d44ecbb	0.048077326
136	0x007867bc	1.1057472e-38
137	0x22ce0174	5.583795e-18
138	0xa85c6d91	-1.2236212e-14
139	0x3b0f3c95	0.0021856178
140	0xbdb853d0	-0.09000361
141	0x03611fad	6.615792e-37
142	0x834b26ab	-5.9700727e-37
143	0x3d449be2	0.048000224
144	0x3d4520eb	0.048127096
145	0x3d45a310	0.04825121
146	0x03248d0c	4.8357182e-37
147	0x3d44f4ea	0.04808513
148	0xb252809a	-1.2252849e-08
149	0xb129ddd2	-2.4718827e-09
150	0x226ec524	3.235938e-18
151	0xbd8e6404	-0.0695267
152	0x827ea674	-1.8708743e-37
153	0x3d453dde	0.048154704
154	0x92476ea0	-6.2929684e-28
155	0xb431519e	-1.6514102e-07
156	0x83218fe2	-4.7478817e-37
157	0xbaa0c012	-0.0012264273
158	0xb79f16f6	-1.8964969e-05
159	0x3d44bdf1	0.048032705
160	0x03053b3b	3.915318e-37
161	0x02c09f6e	2.8303373e-37
162	0x3a614665	0.00085935585
163	0x929426b6	-9.349656e-28
164	0x3d448d8e	0.04798656
165	0x3d442681	0.047888283
166	0x80223280	-3.140523e-39
167	0x3d45392d	0.04815023
168	0xbb39e8cf	-0.0028367525
169	0x3d458588	0.04822305
170	0x3d45bb0a	0.048274077
171	0x828ec761	-2.0979463e-37
172	0x3aac89e5	0.0013163654
173	0x3d45aaa6	0.048258446
174	0xb966f123	-0.0002202434
175	0x3d44f096	0.048081003
176	0x3ae9d26b	0.0017839199
177	0x035f0f96	6.55517e-37
178	0xbd25c5cb	-0.040471833
179	0x3d452205	0.048128147
180	0xa79bd424	-4.3251146e-15
181	0x3d4537ff	0.048149105
182	0x3d44fa47	0.048090246
183	0x3d458176	0.048219167
184	0x3d452534	0.048131183
185	0x3a86e9c3	0.0010293055
186	0x3d4595a2	0.048238404
187	0xb88b4708	-6.641267e-05
188	0x3984c872	0.00025326345
189	0x023eed06	1.4027018e-37
190	0xbd57446e	-0.052555494
191	0x02d8ae57	3.1838414e-37
192	0x3d4311f7	0.047624554
193	0x3857f515	5.1488245e-05
194	0xbad109fa	-0.0015948408
195	0x3d43de55	0.047819454
196	0x3d433cce	0.04766541
197	0x3abd0cb9	0.0014423347
198	0x3d44043b	0.047855597
199	0x3d43bd2f	0.04778784
200	0x801c8e4c	-2.62244e-39
201	0x23248dfd	8.920525e-18
202	0xa8caf459	-2.2532474e-14
203	0x3b0f49ac	0.002186398
204	0xbdb8551d	-0.09000609
205	0x01fe3ca7	9.3391896e-38
206	0x832e8315	-5.128448e-37
207	0x3d427580	0.047475338
208	0x3d43d7a5	0.047813077
209	0x3d432b3b	0.04764865
210	0x0367f190	6.81621e-37
211	0x3d43a5e4	0.047765628
212	0xb24ec5b2	-1.2035729e-08
213	0xb10e09f1	-2.066937e-09
214	0x22416914	2.6212005e-18
215	0xbd8df091	-0.0693065
216	0x80e9e788	-2.1480728e-38
217	0x3d439702	0.047751434
218	0x924828c4	-6.315912e-28
219	0xb434c90a	-1.6836944e-07
220	0x82cee5f7	-3.0400973e-37
221	0xbaa1f79f	-0.0012357122
222	0xb7a22927	-1.9331068e-05
223	0x3d426411	0.047458712
224	0x02d6a97e	3.1541758e-37
225	0x03075369	3.9768685e-37
226	0x3a621d1f	0.0008625555
227	0x929623ce	-9.475157e-28
228	0x3d42cde1	0.047559623
229	0x3d4459fb	0.047937375
230	0x0205136e	9.776873e-38
231	0x3d442781	0.047889236
232	0xbb39eed6	-0.0028371117
233	0x3d437fb1	0.047729198
234	0x3d437082	0.047714718
235	0x82868814	-1.9767635e-37
236	0x3aaca09d	0.0013170425
237	0x3d43ef4e	0.04783564
238	0xb968783e	-0.00022170038
239	0x3d434a16	0.047678076
240	0x3aea1e17	0.0017861751
241	0x03389ddc	5.4253954e-37
242	0xbd25cbea	-0.04047767
243	0x3d43375a	0.04766021
244	0xa744a3d2	-2.7289271e-15
245	0x3d443e77	0.047911134
246	0x3d43abff	0.04777145
247	0x3d43e199	0.04782257
248	0x3d439d4b	0.04775743
249	0x3a875b97	0.0010326979
250	0x3d43da66	0.047815703
251	0xb88a6789	-6.599638e-05
252	0x3984a1ac	0.00025297457
253	0x030a3f95	4.0627544e-37
254	0xbd573379	-0.052539323
255	0x02a2653f	2.3861873e-37

net_model.4.bias f4 [32]
0	0xba183851	-0.00058067316
1	0x3a186b57	0.0005814335
2	0x3a165f39	0.0005736235
3	0x3a18ef77	0.0005834023
4	0xb9aaa814	-0.00032550155
5	0x3a174ce9	0.00057716534
6	0x3a183a72	0.0005807049
7	0xba19e0d4	-0.0005869989
8	0x3a19e9f4	0.00058713485
9	0x3a157ccd	0.00057024957
10	0xba0ec395	-0.0005446014
11	0xb908fb4b	-0.00013063585
12	0xba1841de	-0.0005808155
13	0xba18781e	-0.00058162387
14	0xb9d69d9a	-0.00040934683
15	0xb87e9be5	-6.0703507e-05
16	0x3a181e73	0.0005802877
17	0xb99c4d49	-0.0002981222
18	0xba123e29	-0.00055787206
19	0xb9763acc	-0.00023482292
20	0xba04b87e	-0.0005062892
21	0xb9a0a319	-0.00030639095
22	0x3a1c92e7	0.0005972818
23	0xb84ef0cd	-4.933849e-05
24	0xb9c54684	-0.00037627306
25	0xba1735aa	-0.00057681894
26	0xb9b4a35a	-0.00034453982
27	0xba1989a7	-0.00058569986
28	0xb3ab990f	-7.990649e-08
29	0xba12eb9f	-0.0005604568
30	0xba129d29	-0.00055928767
31	0xba1a07c0	-0.00058757886

net_model.6.weight f4 [1, 32]
0	0x035a461b	6.414492e-37
1	0xbd3b7f7e	-0.045775883
2	0xbd3b47b0	-0.045722663
3	0xbd3bfd33	-0.045895766
4	0x01845556	4.8611593e-38
5	0xbd3acff9	-0.045608494
6	0xbd3bbf5e	-0.0458368
7	0x034c7867	6.0088427e-37
8	0xbd3bc1c3	-0.045839082
9	0xbd39e3a7	-0.04538312
10	0x03402483	5.646564e-37
11	0xba190f96	-0.00058388093
12	0x03248686	4.8349694e-37
13	0x034fbfac	6.105186e-37
14	0xba0abcfe	-0.0005292444
15	0x029643a2	2.2079338e-37
16	0xbd3afe2e	-0.04565256
17	0xba0f2b57	-0.0005461475
18	0x033e239f	5.5876873e-37
19	0x834e2691	-6.058223e-37
20	0x01199d18	2.821437e-38
21	0x02aed38d	2.5688426e-37
22	0xbd3b8170	-0.045777738
23	0x0336b331	5.3690695e-37
24	0xba0eb06a	-0.0005443158
25	0x03542bca	6.235147e-37
26	0x8354d255	-6.254265e-37
27	0x0352163d	6.173898e-37
28	0x8306b359	-3.958494e-37
29	0x02e9eb2e	3.437126e-37
30	0x03200cb9	4.703438e-37
31	0x0323c734	4.813007e-37
