src/t1dsim_ai/models/IndividualModel/T1DEXI-01-0435/individual_model.pt (torch, 50089 bytes, 7 tensors)

net_model.0.weight f4 [128, 10]
-0.026314972 0.020811042 -0.04421249 0.0040334584 -9.801748e-05 0.0064000175 -0.0061311596 0.0011123557
-0.0037048864 -0.006561221 -0.029803611 0.02041312 -0.042875644 0.004282267 0.0035341582 0.0059941886
-0.0063866386 0.0024330777 -0.0046777856 -0.0080907745 -0.020677932 0.02276451 -0.04629738 0.0072685154
0.0023931426 0.005174109 -0.0021448927 -0.0014621939 -0.0048541757 -0.0052026375 -0.02074824 0.02252914
-0.046290282 0.00717336 0.0020284466 0.005024051 -0.0021271422 -0.0012294494 -0.0048172474 -0.0052661714
-0.028695602 0.020421918 -0.04340108 0.0047842874 0.0022043532 0.0064582285 -0.006248504 0.0019265375
-0.004368706 -0.0075437636 -0.027140316 0.020375788 -0.044550743 0.004321616 -0.00028331656 0.006005698
-0.005836287 0.0015944964 -0.0032228949 -0.0062627946 -0.05304316 0.030867795 -0.042011075 -0.024390649
0.047276206 -0.0055750553 -0.0054637194 -0.009191202 0.04586337 0.012815635 -0.027697012 0.060508363
-0.033024535 -0.037076667 0.048590735 -0.010684986 0.011277952 0.015595565 0.054386865 0.026193941
-0.024190089 0.020849 -0.046299256 0.002236421 -0.0026027102 0.0056009563 -0.005263554 0.0018693006
-0.002761567 -0.0038134712 -0.033187322 0.019481225 -0.04360762 0.0011683847 0.0039690994 0.0032002332
-0.0056799534 0.002814922 -0.0053967275 -0.009053823 -0.02326377 0.021184899 -0.0467998 0.0023661926
-0.00412879 0.005107566 -0.004355868 0.0023337638 -0.0021601499 -0.0034190125 -0.045379385 0.039735306
-0.037333295 -0.02803275 0.047342744 -0.0076440293 0.0031661533 0.0015862954 0.047361642 0.013237123
-0.020891014 0.022626065 -0.046143126 0.007076394 0.0022304787 0.0050845593 -0.0023120015 -0.0013593734
-0.0048895665 -0.0052969493 -0.020962311 0.022573682 -0.04614773 0.0070450315 0.0020909144 0.005088071
-0.0025315783 -0.0013428427 -0.0049324166 -0.0053225057 -0.021080779 0.022376088 -0.04614324 0.0069121434
0.0013936507 0.005062957 -0.0025942107 -0.00087878667 -0.004674912 -0.0051480606 -0.023836967 0.020715805
-0.046803933 0.0021915175 -0.005151393 0.0053288746 -0.0046519935 0.0024346795 -0.0017397924 -0.0027653207
-0.025935648 0.020806713 -0.044623584 0.0034378697 -0.00084621133 0.0061529255 -0.005814989 0.0012637276
-0.0033667109 -0.006155042 -0.027960302 0.020043936 -0.04454706 0.0046968195 5.7101406e-05 0.0058425125
-0.0057759774 0.0016181939 -0.0032463165 -0.006306469 -0.053105526 0.03529561 -0.039812986 -0.032933936
0.047493797 -0.0051104235 -0.008623691 0.0021738468 0.037409574 0.009213905 -0.03673668 0.022831237
-0.037183188 0.009483818 0.009782544 0.0057891924 -0.007855051 0.0016012839 -0.009500061 -0.011096991
-0.02794988 0.019939633 -0.044458296 0.0047371257 1.0364813e-05 0.0056368513 -0.005920217 0.001547086
-0.0031970204 -0.0063866614 -0.035540454 0.02281718 -0.037919693 0.009060428 0.0087435935 0.006400795
-0.0075038928 0.0016305997 -0.008655413 -0.010578987 -0.03477403 0.02029759 -0.042101696 0.0016683424
0.005923034 0.0039584357 -0.005658557 0.0034656622 -0.0064693657 -0.009950605 -0.020927569 0.022300363
-0.046314217 0.0071672103 0.0014298072 0.0049377494 -0.0022494488 -0.00088033505 -0.004446547 -0.0050930167
-0.05488322 0.032517523 -0.040890787 -0.027377315 0.048239153 -0.005522916 -0.006965959 -0.0044630948
0.039868638 0.009593233 -0.021632502 0.022243125 -0.046069358 0.0058363257 0.0011332207 0.0051950556
00000000: 7f92 d7bc eb7b aa3c 2818 35bd 1a2b 843b
00000010: bc8e cdb8 3db7 d13b e5e7 c8bb 77cc 913a
00000020: aecd 72bb 83ff d6bb b426 f4bc 6a39 a73c
00000030: 5f9e 2fbd 4252 8c3b 569d 673b e66a c43b
00000040: 0247 d1bb 4574 1f3b 1c48 99bb 2b8f 04bc
00000050: c464 a9bc a37c ba3c 52a2 3dbd ba2c ee3b
00000060: 45d6 1c3b 928b a93b 5491 0cbb 16a7 bfba
00000070: c70f 9fbb e37a aabb 37f8 a9bc 088f b83c
00000080: e19a 3dbd 810e eb3b b0ef 043b cba0 a43b
00000090: 8667 0bbb 7a25 a1ba 00da 9dbb d98f acbb
000000a0: 0a13 ebbc de4b a73c 55c5 31bd 83c5 9c3b
000000b0: e976 103b 8c9f d33b 40c0 ccbb df83 fc3a
000000c0: 5d27 8fbb ad31 f7bb 5e55 debc 20eb a63c
000000d0: d77a 36bd 589c 8d3b 1b8a 94b9 72cb c43b
000000e0: 533e bfbb 6cfe d03a 3437 53bb 2138 cdbb
000000f0: c943 59bd 75de fc3c ce13 2cbd e6ce c7bc
00000100: b2a4 413d f4ae b6bb 0009 b3bb b296 16bc
00000110: 3bdb 3b3d abf8 513c d8e4 e2bc 9ed7 773d
00000120: bc44 07bd b4dd 17bd 1407 473d 1410 2fbc
00000130: 29c7 383c 8a84 7f3c c3c4 5e3d ad94 d63c
00000140: 4b2a c6bc 86cb aa3c 4aa4 3dbd eb90 123b
00000150: 3b92 2abb 3a88 b73b e479 acbb 5203 f53a
00000160: 68fb 34bb 6eeb 79bb 6eef 07bd 1797 9f3c
00000170: e79d 32bd 7c24 993a 380f 823b 01bb 513b
00000180: e71e babb 8e7a 383b 08d7 b0bb 7c56 14bc
00000190: a993 bebc f48b ad3c 26b1 3fbd 2012 1b3b
000001a0: cd4a 87bb 5e5d a73b abbb 8ebb 0ff2 183b
000001b0: 4d91 0dbb 8311 60bb bcdf 39bd 7dc1 223d
000001c0: ccea 18bd f0a4 e5bc 77ea 413d c47a fabb
000001d0: 3d7f 4f3b 3eeb cf3a 48fe 413d 85e0 583c
000001e0: a223 abbc 4c5a b93c 9300 3dbd 18e1 e73b
000001f0: 392d 123b 609c a63b f384 17bb 012d b2ba
00000200: a838 a0bb 0892 adbb 27b9 abbc 71ec b83c
00000210: 6705 3dbd 02da e63b b907 093b d5b9 a63b
00000220: d6e8 25bb 5302 b0ba 1ca0 a1bb 6a68 aebb
00000230: 99b1 acbc 0f4e b73c b200 3dbd 437f e23b
00000240: 28ab b63a 29e7 a53b a203 2abb 605e 66ba
00000250: 0130 99bb 10b1 a8bb be45 c3bc 31b4 a93c
00000260: 7bb5 3fbd 909f 0f3b 04cd a8bb d79d ae3b
00000270: c06f 98bb 258f 1f3b bf09 e4ba 623a 35bb
00000280: ff76 d4bc d772 aa3c 38c7 36bd e24d 613b
00000290: 48d4 5dba 7b9e c93b aa8b bebb a9a3 a53a
000002a0: 09a4 5cbb 3cb0 c9bb 010d e5bc 2e33 a43c
000002b0: fa76 36bd c7e7 993b 2b80 6f38 8c72 bf3b
000002c0: 6944 bdbb 9419 d43a 27c0 54bb 7fa6 cebb
000002d0: 2e85 59bd 2192 103d f112 23bd bce5 06bd
000002e0: db88 423d 5775 a7bb 624a 0dbc 1977 0e3b
000002f0: c83a 193d ebf5 163c 3379 16bd 9308 bb3c
00000300: 664d 18bd 0462 1b3c f746 203c 44b3 bd3b
00000310: 79b2 00bc 2ce2 d13a 25a6 1bbc 27d0 35bc
00000320: 26f7 e4bc 7158 a33c e719 36bd e439 9b3b
00000330: 88e4 2d37 56b5 b83b 61fe c1bb 98c7 ca3a
00000340: 1a85 51bb 3347 d1bb de92 11bd 18eb ba3c
00000350: ae51 1bbd 3072 143c 4a41 0f3c c3bd d13b
00000360: 37e3 f5bb d9b9 d53a 6fcf 0dbc 7d53 2dbc
00000370: 376f 0ebd 2247 a63c d472 2cbd 48ac da3a
00000380: 0316 c23b c4b5 813b 6b6b b9bb 2a20 633b
00000390: f9fc d3bb dd07 23bc 4b70 abbc 40af b63c
000003a0: fab3 3dbd ebda ea3b 5e68 bb3a d8cc a13b
000003b0: 7d6b 13bb 49c6 66ba 57b4 91bb 52e3 a6bb
000003c0: 3acd 60bd 1831 053d 197d 27bd 6446 e0bc
000003d0: 6b96 453d 94f9 b4bb b342 e4bb 273f 92bb
000003e0: 4c4d 233d ef2c 1d3c a536 b1bc 3737 b63c
000003f0: 39b3 3cbd a63e bf3b 9488 943a 493b aa3b

net_model.0.bias f4 [128]
0.0032306437 0.0015757934 0.007222987 0.0069921752 0.0022126327 0.0027939554 0.003624248 -0.0075598145
0.0037540514 -0.00022260383 0.003731076 -0.00040464354 0.006967434 0.006826136 0.006611489 0.0035726517
0.0031804722 0.0025577366 -0.0035269603 -0.0010821029 0.0025451432 -0.00045042837 -0.0010430756 0.006809042
0.0008827812 0.0061452882 0.0027608618 0.0068854005 0.0069289017 0.0020276688 0.0072222413 0.002724753
0.0030552016 0.0019726213 0.0040321974 0.0032640574 0.002908573 0.0022220053 0.0068822694 -0.003198069
0.021329414 -0.0038167886 0.0071387207 0.006361563 0.0017198515 0.0030482418 0.0013410046 0.0027675207
0.007814124 0.0060635 0.0036530106 0.0024650039 0.0022847322 0.0016505942 0.003404161 0.0067261644
-0.0009576024 0.0015034789 -0.0032323203 0.0077320267 0.0060308613 0.0022413493 0.023679683 0.0037810178
-0.014439562 0.006397725 0.00029652478 0.0030985624 0.0030544112 0.0038224258 0.0030689295 0.0030686974
0.0026620217 0.0016424414 0.006281576 0.001783866 0.022044206 0.006594673 0.0069789803 0.0038506954
0.0022305872 0.0016917593 -0.0023876221 0.008017277 0.0019500236 0.0030670816 0.00022205405 -0.0015015256
0.0025391253 0.008472499 -0.000438859 -0.0025968335 0.003683843 0.007939221 0.007787818 0.0066245683
0.02498075 0.0023947356 0.007079541 0.0020804992 0.0014815092 -0.006181826 -0.0039415197 0.0016971728
0.0056181843 0.0030609597 0.021453619 0.007028399 0.0025839237 0.0005422934 0.0026686795 0.007375627
0.02374334 0.002874887 0.0035364141 0.002849162 0.0028794925 0.0027591772 0.0071852393 -0.003999833
-0.0028660954 0.0059392056 0.0021404955 0.0016616457 0.004859642 0.006829104 0.007057228 0.0070909974
00000000: 35b9 533b da8a ce3a ceae ec3b 9e1e e53b
00000010: d101 113b cb1a 373b cb84 6d3b 52b8 f7bb
00000020: 8806 763b c36a 69b9 1185 743b 5626 d4b9
00000030: 134f e43b c7ad df3b 31a5 d83b 2623 6a3b
00000040: 786f 503b b39f 273b 9324 67bb 59d5 8dba
00000050: 6bcc 263b 7927 ecb9 cfb7 88ba 621e df3b
00000060: 726a 673a 6a5e c93b 93ef 343b ed9e e13b
00000070: d70b e33b a3e2 043b 8da8 ec3b c591 323b
00000080: c739 483b 1847 013b 8620 843b cce9 553b
00000090: c29d 3e3b 109f 113b a984 e13b b296 51bb
000000a0: 06bb ae3c 1623 7abb eeeb e93b a974 d03b
000000b0: a46c e13a 03c5 473b a6c4 af3a 4b5f 353b
000000c0: d006 003c 53b0 c63b 5967 6f3b e78b 213b
000000d0: 72bb 153b c058 d83a 5818 5f3b 2867 dc3b
000000e0: 9c07 7bba 6110 c53a 56d5 53bb f15c fd3b
000000f0: 889e c53b 9ae3 123b e5fb c13c f4ca 773b
00000100: ea93 6cbc 02a4 d13b e276 9b39 4011 4b3b
00000110: 842c 483b aa81 7a3b 1820 493b 331c 493b
00000120: 5075 2e3b 3047 d73a aed5 cd3b 9cd0 e93a
00000130: 0d96 b43c 2018 d83b eeaf e43b f35b 7c3b
00000140: 0b2f 123b 06be dd3a a779 1cbb e65a 033c
00000150: ef97 ff3a 1701 493b 2ed7 6839 d7ce c4ba
00000160: 7467 263b 3dd0 0a3c a816 e6b9 a32f 2abb
00000170: a16c 713b 8213 023c f430 ff3b e812 d93b
00000180: 6ea4 cc3c fff0 1c3b 7ffb e73b fc58 083b
00000190: 332f c23a ea90 cabb dd27 81bb ab73 de3a
000001a0: bf18 b83b 629a 483b 80bf af3c 7c4e e63b
000001b0: 0c57 293b b228 0e3a 03e5 2e3b 3eaf f13b
000001c0: 6581 c23c 9a68 3c3b 2fc3 673b 02b9 3a3b
000001d0: deb5 3c3b 50d3 343b 2872 eb3b 0811 83bb
000001e0: 1ad5 3bbb ab9d c23b 8e47 0c3b 94cb d93a
000001f0: a23d 9f3b adc6 df3b 5240 e73b 995b e83b

net_model.2.weight f4 [64, 128]
0.020300115 0.02171453 0.019877534 0.019870799 0.021333488 0.020903606 0.06660628 0.07878077
0.02050771 0.024016183 0.020762095 0.06719573 0.019886723 0.019940035 0.019847652 0.02088124
0.020333339 0.021224998 0.064194836 0.024971213 0.021114672 0.024185557 0.024317285 0.019981109
0.06511129 0.019880163 0.02069604 0.020045253 0.019984849 0.02148159 0.019865964 0.020855641
0.02099256 0.021503594 0.02040631 0.020611 0.02069747 0.021476619 0.020098845 0.063443325
-0.06317789 0.0286077 0.019837558 0.019948168 0.021860842 0.021499073 0.021881644 0.02091639
0.019991454 0.019941606 0.020462103 0.021001345 0.067141235 0.022198128 0.06472737 0.019841589
0.06400841 0.021855632 0.02735106 0.019812314 0.019892678 0.021493077 -0.06479745 0.020259172
0.08262675 0.020199625 0.023231734 0.020510385 0.020674765 0.020363662 0.020429397 0.020621324
0.021040145 0.02209631 0.019855782 0.021820994 -0.062434956 0.019894894 0.01981366 0.020472234
0.021302795 0.021714639 0.064248905 0.020298846 0.021634385 0.020486474 0.023020074 0.02469408
0.02116417 0.020186204 0.023729773 0.025409464 0.02064546 0.01999457 0.02003103 0.01988692
-0.06374882 0.021308566 0.019926123 0.021514168 0.021741185 0.06478437 0.08741674 0.021778679
0.019835532 0.02052289 -0.065042056 0.020049175 0.021021394 0.023056868 0.02145915 0.019990891
-0.06616384 0.02065457 0.02076167 0.02088444 0.021277899 0.020819647 0.019924795 0.06399263
0.064550795 0.019913718 0.021512175 0.022268109 0.020103315 0.019763399 0.020022923 0.020008182
-4.7478446e-19 -5.3540925e-19 -2.9970033e-19 -3.1328326e-19 -5.261187e-19 -4.9921617e-19 -1.0747822e-18 -1.0292745e-18
-4.885117e-19 -5.1126643e-19 -4.9148673e-19 -1.0685571e-18 -3.0544825e-19 -3.075812e-19 -3.360792e-19 -4.94291e-19
-4.676898e-19 -5.173138e-19 -8.66581e-19 -4.8581424e-19 -5.1322556e-19 -4.9635283e-19 -5.398215e-19 -3.3904807e-19
-9.973123e-19 -3.455028e-19 -5.069549e-19 -3.0324346e-19 -3.1638425e-19 -5.244698e-19 -3.1750265e-19 -4.9071766e-19
-5.151055e-19 -5.1418524e-19 -4.954636e-19 -4.4487055e-19 -4.8030666e-19 -5.175725e-19 -3.5109162e-19 -7.1912373e-19
-2.1115468e-18 -5.327337e-19 -3.2581636e-19 -2.931716e-19 -5.40106e-19 -5.134555e-19 -5.156862e-19 -5.1292477e-19
-3.2326704e-19 -3.8585613e-19 -4.972481e-19 -5.3131475e-19 -1.0905026e-18 -5.5031897e-19 -1.0166171e-18 -3.2956618e-19
-9.356648e-19 -5.088333e-19 -4.816715e-19 -3.2643222e-19 -3.4824454e-19 -5.125217e-19 -2.3367786e-18 -4.864617e-19
-3.3593263e-19 -3.9942923e-19 -5.501889e-19 -4.586726e-19 -4.584966e-19 -4.8059173e-19 -4.657893e-19 -4.520236e-19
-5.2357395e-19 -5.4537186e-19 -3.5026025e-19 -5.1384015e-19 -2.1634816e-18 -3.135173e-19 -3.4594834e-19 -5.0796117e-19
-5.1639397e-19 -5.146334e-19 -9.107938e-19 -3.1163378e-19 -5.0610896e-19 -4.7622365e-19 -5.517652e-19 -5.1305635e-19
-5.0026115e-19 -2.8485934e-19 -5.2921527e-19 -5.009671e-19 -4.8440317e-19 -3.062146e-19 -3.1504386e-19 -3.067617e-19
-2.4270282e-18 -5.0384083e-19 -2.9081365e-19 -5.046217e-19 -5.194713e-19 -6.3675226e-19 -1.2511223e-18 -5.2202014e-19
-4.064522e-19 -4.721259e-19 -2.1377881e-18 -3.1955424e-19 -5.112911e-19 -5.4482303e-19 -5.0783885e-19 -3.2967314e-19
-2.3523648e-18 -4.694677e-19 -5.0436516e-19 -4.7358267e-19 -5.0825585e-19 -5.1143885e-19 -3.2085708e-19 -8.3581436e-19
-7.6423827e-19 -3.9345438e-19 -5.22183e-19 -5.4600683e-19 -4.446673e-19 -3.1171234e-19 -3.042528e-19 -3.317708e-19
00000000: 6d4c a63c ace2 b13c 36d6 a23c 16c8 a23c
00000010: 91c3 ae3c 0a3e ab3c e068 883d d057 a13d
00000020: c9ff a73c 96bd c43c 4515 aa3c ea9d 893d
00000030: 7be9 a23c 4959 a33c 8b97 a23c 220f ab3c
00000040: 1a92 a63c 0ce0 ad3c 9578 833d 6e90 cc3c
00000050: adf8 ac3c ca20 c63c 0b35 c73c 6caf a33c
00000060: 1159 853d b9db a23c be8a a93c f135 a43c
00000070: 44b7 a33c 29fa af3c f2bd a23c 73d9 aa3c
00000080: 97f8 ab3c 4e28 b03c 222b a73c 66d8 a83c
00000090: be8d a93c bcef af3c 55a6 a43c 93ee 813d
000000a0: 6963 81bd b25a ea3c 6082 a23c 576a a33c
000000b0: 8215 b33c d31e b03c 2241 b33c d958 ab3c
000000c0: 1ec5 a33c 945c a33c 24a0 a73c 030b ac3c
000000d0: 5881 893d d9d8 b53c c98f 843d d48a a23c
000000e0: d716 833d 950a b33c 550f e03c 6f4d a23c
000000f0: f8f5 a23c 4012 b03c 87b4 84bd 90f6 a53c
00000100: 3738 a93d af79 a53c 7a50 be3c 6505 a83c
00000110: 205e a93c b2d1 a63c 8d5b a73c 0dee a83c
00000120: 625c ac3c 5203 b53c 98a8 a23c f1c1 b23c
00000130: ccbb 7fbd 9efa a23c 4250 a23c 63b5 a73c
00000140: 3383 ae3c e6e2 b13c ee94 833d c449 a63c
00000150: 983a b13c 40d3 a73c 9894 bc3c 3d4b ca3c
00000160: 7b60 ad3c 8a5d a53c f164 c23c 8227 d03c
00000170: ab20 a93c a7cb a33c 1d18 a43c e5e9 a23c
00000180: be8e 82bd 4d8f ae3c 1c3c a33c 7b3e b03c
00000190: 921a b23c abad 843d 8c07 b33d 3369 b23c
000001a0: 207e a23c 9f1f a83c c534 85bd 2b3e a43c
000001b0: 0f35 ac3c c2e1 bc3c 19cb af3c f0c3 a33c
000001c0: e880 87bd c633 a93c 6114 aa3c d815 ab3c
000001d0: fd4e ae3c f78d aa3c 5339 a33c 910e 833d
000001e0: 3533 843d 1822 a33c 4d3a b03c 9c6b b63c
000001f0: b5af a43c dae6 a13c 1d07 a43c 33e8 a33c
00000200: b321 0ca1 6106 1ea1 6fe9 b0a0 07ee b8a0
00000210: 6848 1ba1 b557 13a1 209c 9ea1 e4e4 97a1
00000220: e72e 10a1 33e6 16a1 b00f 11a1 f2b0 9da1
00000230: 094e b4a0 5b90 b5a0 da62 c6a0 92e3 11a1
00000240: a409 0aa1 20af 18a1 02c5 7fa1 1663 0fa1
00000250: 3a7a 17a1 5c7f 12a1 c253 1fa1 7f23 c8a0
00000260: 652d 93a1 e8f2 cba0 6ea0 15a1 db00 b3a0
00000270: a3c2 baa0 d1cb 1aa1 a56b bba0 94d5 10a1
00000280: 4508 18a1 bdc2 17a1 2c3c 12a1 784d 03a1
00000290: f2c2 0da1 acc2 18a1 773f cfa0 743f 54a1
000002a0: fecd 1ba2 383c 1da1 fa53 c0a0 d70e ada0
000002b0: 4169 1fa1 9a8b 17a1 2634 18a1 8063 17a1
000002c0: bcd2 bea0 eec4 e3a0 01c3 12a1 02d1 1ca1
000002d0: 06ee a0a1 ed6c 22a1 b506 96a1 a28a c2a0
000002e0: 6b14 8aa1 5b2e 16a1 122a 0ea1 0bb1 c0a0
000002f0: 3a91 cda0 0b45 17a1 806c 2ca2 0294 0fa1
00000300: b44c c6a0 0ac8 eba0 1963 22a1 5260 07a1
00000310: 0653 07a1 7cd8 0da1 0b7a 09a1 f069 05a1
00000320: 2188 1aa1 22f7 20a1 d5c1 cea0 aaa8 17a1
00000330: 03a3 1fa2 6511 b9a0 3c36 cca0 76ec 15a1
00000340: a069 18a1 9ae4 17a1 d168 86a1 c4f4 b7a0
00000350: 8360 15a1 718e 0ca1 33da 22a1 716d 17a1
00000360: aaa6 13a1 ba26 a8a0 6032 1ca1 01dc 13a1
00000370: 78f8 0ea1 d8c1 b4a0 15f8 b9a0 8414 b5a0
00000380: 4415 33a2 23b5 14a1 84aa aba0 23f0 14a1
00000390: 2452 19a1 a4ef 3ba1 10a2 b8a1 ba12 1aa1
000003a0: 52ed efa0 d358 0ba1 adbd 1da2 aca1 bca0
000003b0: 10e8 16a1 aacd 20a1 38e3 15a1 cc9a c2a0
000003c0: ea92 2da2 fa8f 0aa1 c1dc 14a1 e5c6 0ba1
000003d0: ba02 16a1 3af3 16a1 8d66 bda0 59b0 76a1
000003e0: 3690 61a1 2541 e8a0 081f 1aa1 1c27 21a1
000003f0: 1c3e 03a1 a300 b8a0 6299 b3a0 c9d7 c3a0

net_model.2.bias f4 [64]
0.0047443686 -2.3999279e-17 0.004659622 0.004677396 -2.6764158e-21 -2.9814907e-31 0.004730182 0.004656135
-0.0014838977 -0.00078804436 0.043085054 0.0047455705 -0.0018108533 0.0047195405 0.004663483 0.004722544
0.004682556 0.0047385655 0.04267784 0.0021102582 0.004764795 0.0027830459 0.004768797 0.0047373683
0.004681087 -0.0018763196 -0.0007407379 0.04516568 -0.0077594942 -0.003431897 -0.032402962 0.0047384803
0.0047404896 0.0047394745 0.0047422936 0.004734242 0.02959847 0.0046877726 -0.0016639153 0.036802717
0.0047385963 -0.0023121664 0.0046616565 0.0047654267 0.0015756254 0.0022608845 0.0047195554 0.0070848526
0.0047276807 0.004750911 0.0009636411 0.004732484 -0.0017783722 0.004746881 0.0047203694 0.00016335964
0.012679757 0.004738398 -0.0043773437 0.0047478243 0.0047597294 0.004731303 -0.002020166 -0.006317402
00000000: a676 9b3b b25a dda3 beaf 983b d744 993b
00000010: 6939 4a9d 8382 c18c a4ff 9a3b 7e92 983b
00000020: 587f c2ba c394 4eba f479 303d bb80 9b3b
00000030: 275a edba 60a6 9a3b 21d0 983b 92bf 9a3b
00000040: 2070 993b f845 9b3b f5ce 2e3d 424c 0a3b
00000050: ff21 9c3b c363 363b 9243 9c3b ed3b 9b3b
00000060: ce63 993b d7ee f5ba 142e 42ba a6ff 383d
00000070: 5b43 febb ade9 60bb f8b8 04bd 4145 9b3b
00000080: 1c56 9b3b 984d 9b3b 3e65 9b3b b321 9b3b
00000090: 7e78 f23c e39b 993b bc17 daba 72be 163d
000000a0: 3a46 9b3b b787 17bb cfc0 983b 4c27 9c3b
000000b0: 3785 ce3a 592b 143b 80a6 9a3b 0d28 e83b
000000c0: a9ea 9a3b 88ad 9b3b dc9c 7c3a f412 9b3b
000000d0: 4518 e9ba b98b 9b3b 54ad 9a3b 854b 2b39
000000e0: c1be 4f3c 9044 9b3b d26f 8fbb a393 9b3b
000000f0: 81f7 9b3b 0c09 9b3b c364 04bb 3502 cfbb

net_model.4.weight f4 [32, 64]
0.038060203 -8.583198e-18 0.03828441 0.0379603 -5.188746e-37 -6.1082636e-37 0.038029954 0.038018506
-0.0023152076 -1.5644836e-06 -0.060154624 0.037986573 0.0013222182 0.037932366 0.038110424 0.038094927
0.037928935 0.038048875 -0.05947364 -0.0019830454 0.038037505 0.038118042 0.038034182 0.037939
0.038023904 -0.001891446 4.9875907e-05 -0.06302894 0.002011226 -2.9426556e-05 0.098220564 0.03788534
0.038017984 0.038085014 0.03792186 0.038155034 -0.059157345 0.0380136 0.00047458833 -0.057067342
0.037914153 0.0012837069 0.037997663 0.03801941 0.038408406 0.038261365 0.03795433 0.053851917
0.038030136 0.038125433 0.038778637 0.037928294 0.00010652756 0.037895508 0.03804728 -0.0047921124
-0.04213162 0.037785545 -0.0016977959 0.03793912 0.03803375 0.038096514 0.00011763989 0.003087932
2.0289887e-37 6.752043e-37 5.3341883e-38 -4.7545604e-37 5.7378733e-37 -4.9409147e-37 -3.995774e-37 -1.4259734e-37
5.7013884e-37 -5.1109503e-37 5.777312e-37 5.867074e-37 -6.4944184e-37 9.1705265e-38 -4.97827e-37 -5.6818254e-37
-4.349792e-37 6.095437e-37 -3.3888921e-37 -6.6505975e-37 4.9220324e-37 -9.725905e-38 -5.4577616e-37 -1.5655657e-37
5.891489e-37 -4.624098e-37 4.2363468e-37 3.432258e-37 -1.9250953e-37 -6.7656887e-37 -4.226413e-37 5.581765e-37
-5.2791527e-37 5.0234433e-37 6.296112e-37 -1.3275927e-37 -5.285675e-37 -6.4535485e-37 5.3702116e-37 3.388468e-37
6.72109e-37 -6.7002223e-37 6.222102e-37 -5.438256e-37 -1.406937e-37 -2.1328135e-37 -1.385475e-38 -5.3561425e-37
4.178654e-37 4.500072e-37 6.373544e-37 -4.1829625e-37 4.9580886e-37 -4.604035e-37 4.4864922e-37 -4.9916014e-37
2.734856e-37 5.548563e-37 -3.7087344e-37 -5.02785e-37 -6.0611176e-37 5.4705235e-37 -5.807449e-37 -6.1568893e-37
5.2398603e-37 7.9102906e-38 -3.4298255e-37 4.21507e-37 -4.179056e-37 -6.8777433e-37 5.10381e-37 5.6396824e-37
4.1179826e-37 -3.5317564e-37 -4.7348812e-37 -4.1974118e-37 -4.783504e-37 -3.3121355e-37 -2.8621375e-37 -6.964044e-37
5.4555944e-37 -4.5323696e-37 5.138084e-37 5.2930003e-37 6.8444107e-37 -4.205836e-37 -1.6407843e-37 5.050875e-37
-5.0392724e-37 -4.084618e-37 -3.4578544e-37 4.7735947e-37 5.029902e-37 -4.7923013e-37 -5.6622893e-37 6.907583e-38
-5.3812574e-37 -3.6357278e-37 4.5660304e-37 3.9385935e-37 1.4433971e-37 4.0519597e-37 4.711493e-37 4.633816e-37
4.672294e-37 -6.8230164e-37 -2.366543e-37 4.4729084e-37 7.469255e-38 -2.7058656e-37 3.769053e-37 5.424608e-37
-5.693924e-37 3.5136633e-37 1.7539524e-37 -3.9287584e-37 -4.4357441e-38 3.6008084e-37 5.7640172e-37 -1.7782954e-37
-3.7018337e-37 -5.1386776e-37 4.619312e-37 -3.593383e-37 6.468627e-37 -4.4970712e-37 -5.9779787e-37 5.1193765e-37
5.1042326e-37 -3.349655e-37 4.781794e-37 -4.0832716e-37 -1.6403684e-37 -5.413804e-37 -5.418236e-37 3.2150917e-37
3.764519e-37 -5.966216e-37 4.1592897e-37 -6.0979303e-37 1.994509e-37 -5.2765905e-37 1.9918446e-37 5.5455627e-37
2.7261923e-37 2.7638828e-37 -4.898516e-37 2.220939e-37 -6.953313e-37 -3.997993e-37 -5.6745028e-37 5.950623e-37
-3.2014201e-37 4.2864586e-37 -6.730701e-37 4.836838e-37 -3.2515474e-37 -6.8295933e-37 -3.7720825e-37 3.9165705e-37
6.242804e-37 -6.303469e-37 -2.173983e-37 4.4480262e-37 5.8389403e-37 6.491587e-37 -4.678366e-37 -4.6713735e-37
6.3754834e-37 6.6207303e-37 5.805841e-37 6.6473043e-37 -1.0347074e-37 -1.4163002e-37 -6.5701464e-37 5.3767046e-37
7.9736046e-38 4.484705e-37 -5.7199533e-37 4.6122176e-37 -3.812184e-37 -4.5283523e-37 -1.2234346e-37 -3.0290266e-37
5.101493e-37 6.0046065e-38 -2.4848004e-38 5.4124433e-37 -5.838429e-37 -5.2444844e-37 -5.4246425e-37 -6.049813e-37
00000000: 04e5 1b3d 0255 1ea3 1dd0 1c3d 427c 1b3d
00000010: 5a90 3083 7bda 4f83 4cc5 1b3d 4bb9 1b3d
00000020: bdba 17bb 3ffb d1b5 b264 76bd cf97 1b3d
00000030: 484e ad3a f85e 1b3d ad19 1c3d 6d09 1c3d
00000040: 5f5b 1b3d 23d9 1b3d a29a 73bd fbf5 01bb
00000050: 37cd 1b3d aa21 1c3d bbc9 1b3d ed65 1b3d
00000060: f4be 1b3d 65ea f7ba d931 5138 5115 81bd
00000070: c6ce 033b 0cd9 f6b7 dd27 c93d a92d 1b3d
00000080: bfb8 1b3d 08ff 1b3d f453 1b3d 7448 1c3d
00000090: f94e 72bd 26b4 1b3d 2bd2 f839 72bf 69bd
000000a0: df4b 1b3d 0e42 a83a 70a3 1b3d 3eba 1b3d
000000b0: 2252 1d3d f3b7 1c3d 0076 1b3d d493 5c3d
000000c0: 7dc5 1b3d 6a29 1c3d 59d6 1e3d b35a 1b3d
000000d0: 8c67 df38 5238 1b3d 77d7 1b3d 2707 9dbb
000000e0: 3592 2cbd 04c5 1a3d 9488 deba 0d66 1b3d
000000f0: 47c9 1b3d 170b 1c3d 6fb5 f638 e75e 4a3b
00000100: f815 8a02 97c2 6503 de35 9101 10ca 2183
00000110: ed3f 4303 7021 2883 1af8 0783 ec17 4282
00000120: 1902 4203 a8ea 2d83 7c97 4403 6ca5 4703
00000130: 5dfe 5c83 3ea5 f901 d966 2983 ae57 4183
00000140: 0804 1483 bf6a 4f03 d4a2 e682 e04e 6283
00000150: f37c 2703 d561 0482 cfb7 3983 0118 5582
00000160: 1c7a 4803 9359 1d83 c927 1003 5e96 e902
00000170: e403 8382 7639 6683 40d1 0f83 08f0 3d03
00000180: e8a3 3383 5df0 2a03 df3e 5603 dbb3 3482
00000190: b9dc 3383 569a 5b83 24bd 3603 709b e602
000001a0: f4b4 6403 2bff 6383 27ba 5303 e40d 3983
000001b0: 9980 3f82 da26 9182 68dd 9680 9542 3683
000001c0: 3631 0e03 2821 1903 66e1 5803 be56 0e83
000001d0: 0bb7 2803 cdaa 1c83 dcaa 1803 fbda 2983
000001e0: e91f ba02 cdce 3c03 4467 fc82 c016 2b83
000001f0: c83f 4e83 fb26 3a03 049e 4583 1282 5183
00000200: 9f4d 3203 ae56 d701 fd6b e982 706e 0f03
00000210: b634 0e83 9809 6a83 75ac 2d03 90e8 3f03
00000220: b020 0c03 e05b f082 a21e 2183 9dd4 0e83
00000230: 32c6 2283 8a69 e182 78c9 c282 61f9 6c83
00000240: eea4 3903 823a 1a83 06d7 2e03 891c 3403
00000250: 3ae7 6803 001e 0f83 fd54 5f82 54df 2b03
00000260: 417a 2b83 0bfe 0a83 5254 eb82 e06f 2203
00000270: a028 2b03 d512 2383 7fad 4083 d40a bc01
00000280: 5d1d 3783 506f f782 bc5f 1b03 fd05 0603
00000290: 0c77 4402 8ce1 0903 e452 2003 3bae 1d03
000002a0: 6cfd 1e03 db2c 6883 fe0e a182 8734 1803
000002b0: 1c55 cb01 d426 b882 1541 0003 0097 3803
000002c0: 13c1 4183 a620 ef02 52bc 6e02 50b0 0583
000002d0: 4081 7181 ee0e f502 ac23 4403 8d0c 7282
000002e0: 0aef fb82 32dc 2e83 e22f 1d03 908d f482
000002f0: b01d 5c03 0407 1983 8a6b 4b83 0f34 2e03
00000300: 23b0 2d03 39f7 e382 4db7 2203 50f2 0a83
00000310: 7f46 5f82 e238 3883 7e5f 3883 ccce da02
00000320: 9619 0003 1205 4b83 8688 0d03 7780 4f83
00000330: 3fbd 8702 968d 3383 d48e 8702 aab4 3c03
00000340: f888 b902 a119 bc02 18b0 2683 3726 9702
00000350: e69b 6c83 6e0b 0883 e417 4183 3d7d 4a03
00000360: 9be0 d982 52dc 1103 ad08 6583 cd96 2403
00000370: f249 dd82 2666 6883 795b 0083 2446 0503
00000380: 7e6e 5403 f67e 5683 20f4 9382 c65b 1703
00000390: 58b0 4603 b3e5 5c03 5132 1f83 67f5 1e83
000003a0: 4bf2 5803 b24a 6103 0290 4503 3032 6203
000003b0: 4ad6 0c82 dcc6 4082 0c92 5f83 b4f5 3603
000003c0: ea0f d901 4a9b 1803 d2a3 4283 15f2 1c03
000003d0: ceb8 0183 8317 1a83 7986 2682 1625 ce82
000003e0: 4698 2d03 0076 a301 1049 0781 082d 3803
000003f0: e4ab 4683 e775 3283 4d97 3883 4edd 4d83

net_model.4.bias f4 [32]
0.0019361228 -0.0005672091 -0.00050660345 -0.0005907196 0.0018214453 -0.00037087678 -0.00053748745 0.001934896
-0.0005819283 0.0022012847 0.0016135075 -0.00053024874 0.0017525468 0.0019330465 -0.0004158188 0.0016149324
-0.00057915563 -0.0002447479 0.001912866 -0.003523737 0.0024976372 0.0018776555 -0.00058191485 -2.7249162e-05
-0.00043081032 0.0019274867 -0.00041044204 0.0019352388 -0.00047182894 0.0017581587 0.001886356 0.00193639
00000000: 80c5 fd3a c2b0 14ba 95cd 04ba 85da 1aba
00000010: 90bd ee3a 3d72 c2b9 2ce6 0cba 569c fd3a
00000020: 8c8c 18ba 6e43 103b 547c d33a 6400 0bba
00000030: b6b5 e53a 475e fd3a 4102 dab9 24ac d33a
00000040: 7ad2 17ba 8251 80b9 22b9 fa3a 7fee 66bb
00000050: 66af 233b aa1b f63a a58b 18ba 2195 e4b7
00000060: 62de e1b9 b9a3 fc3a 9930 d7b9 d7a7 fd3a
00000070: cf5f f7b9 0472 e63a 9b3f f73a 77ce fd3a

net_model.6.weight f4 [1, 32]
-0.03647932 -4.811776e-37 -4.6628083e-37 -4.816412e-37 -0.036496423 -5.252353e-37 -6.288397e-37 -0.036513753
2.6289756e-37 -0.03647722 -0.03646187 -6.4830883e-37 -0.03655037 -0.036489572 -0.0005613437 -0.036530297
-4.161856e-37 -0.0005829653 -0.03652635 -0.037087798 -0.03648391 -0.03646735 -5.610806e-37 6.0409636e-37
-5.5576264e-37 -0.036464185 -5.474181e-37 -0.036519755 5.302097e-37 -0.03647959 -0.036491822 -0.036524054
00000000: 576b 15bd 7bbc 2383 caaa 1e83 dee4 2383
00000010: 467d 15bd 73ba 3283 aafb 5583 728f 15bd
00000020: 37eb b202 2369 15bd 0b59 15bd aa9b 5c83
00000030: d7b5 15bd 1776 15bd 2327 13ba cba0 15bd
00000040: e19e 0d83 24d2 18ba a79c 15bd 60e9 17bd
00000050: 2770 15bd ca5e 15bd 03ed 3e83 3790 4d03
00000060: c11d 3d83 785b 15bd d846 3a83 bd95 15bd
00000070: c76b 3403 9f6b 15bd 7378 15bd 3f9a 15bd
