src/t1dsim_ai/models/IndividualModel/T1DEXI-01-1062/individual_model.pt (torch, 50089 bytes, 7 tensors)

net_model.0.weight f4 [128, 10]
00000000: 7b6a 2abd 0fd7 4f3b be8f 563d aaba 9f3a
00000010: f9cd a03c aeb4 76bb 0030 953c 1357 ba3b
00000020: 9497 0cbd eeb4 5f3d 0597 30bd 1689 243b
00000030: 1560 5b3d 679e a33a ebb7 a03c b742 cbbb
00000040: 5e36 993c bcf3 75ba d81d 0abd 2887 5a3d
00000050: 1c0e 2ebd a64f 343b d718 5a3d 1e63 a03a
00000060: 488d a23c 3e0d acbb 79c3 973c 2c03 443a
00000070: a491 0bbd 67cf 5b3d 4ddb 4e3d b651 c13c
00000080: 930b 29bd 0c51 9abb 7aa5 713d 6ee7 70bc
00000090: e653 b03c c35d 093b 6b03 f73c 2eb0 8ebc
000000a0: 494d 3abd 2ccb 4d3a 0bdd 5f3d 1c2c d63a
000000b0: 9e90 a53c 93d5 08bc 640b 913c 277a fabb
000000c0: d247 08bd 4897 543d cf60 643d e874 da3c
000000d0: e04d 39bd 78f6 03bc a1e9 813d 9449 80bc
000000e0: f21c bd3c 00d2 133b 3c77 093d b5d1 7ebc
000000f0: c779 33bd 9642 0d3b bfcf 5d3d 3870 b43a
00000100: d5be a23c 7e52 dbbb bc6a 983c b6cb 32bb
00000110: 2c63 0abd 8d13 593d 0ed5 603d 4ccb d73c
00000120: e02d 36bd fab5 f6bb e263 803d 12d5 80bc
00000130: a464 bb3c a192 123b 6052 073d 988c 81bc
00000140: 3212 653d b82a db3c f1cc 39bd 149e 05bc
00000150: ac38 823d 1d6b 80bc 9062 bd3c 2db4 133b
00000160: 5fea 093d 2606 7ebc 9812 633d 264e d93c
00000170: 6251 38bd 77ed 00bc d65d 813d 007a 80bc
00000180: bd8d bc3c 1042 143b ffb1 083d 4d27 80bc
00000190: 8371 2cbd bd64 3e3b 88a5 583d 6c5f 9e3a
000001a0: 17e4 a13c a487 9dbb db7f 983c a792 1c3b
000001b0: 6e37 0bbd 0875 5c3d 57af 613d f424 d83c
000001c0: 2346 37bd 7f51 fbbb d9ca 803d ee6d 80bc
000001d0: acd1 bb3c 252f 123b 33d4 073d 22f7 80bc
000001e0: ef39 4b3d 11ef bb3c 7c7d 26bd 9633 85bb
000001f0: 259f 6e3d 8aba 6bbc c45e ad3c 4874 053b
00000200: 2bf4 f03c b4ac 91bc 8281 623d 95cc d83c
00000210: 86e9 37bd 3844 ffbb 4921 813d a454 80bc
00000220: 024b bc3c 45df 133b 3951 083d 217a 80bc
00000230: 657e 613d d5f7 d73c 3523 37bd d76e fabb
00000240: 62b6 803d f263 80bc 3bbb bb3c dde5 113b
00000250: 83ae 073d 0116 81bc 6477 35bd 5abf ea3a
00000260: 5477 5e3d f15b bc3a c871 a33c 8178 e2bb
00000270: 2eb5 973c a772 81bb 4ef8 09bd 1214 583d
00000280: 092e 5a3d 6b14 d13c ff10 31bd dbb6 d4bb
00000290: a22d 7b3d 61d3 7dbc 685d b73c 54c3 093b
000002a0: d4ec 023d a0fe 85bc 9d2e 36bd 70c5 d23a
000002b0: ff6b 5e3d ccbc b93a a155 a33c 79d4 eabb
000002c0: 05a7 963c 4e30 99bb f773 09bd 842d 573d
000002d0: c019 613d ed07 d83c 8562 36bd 3c1b f8bb
000002e0: 2581 803d 7dd0 80bc f083 bb3c 9ab9 123b
000002f0: 8f81 073d e45f 81bc 11eb 603d 8be1 d73c
00000300: d63c 36bd bf30 f7bb e96c 803d 9edc 80bc
00000310: 846e bb3c 11c2 123b bc61 073d 1b7f 81bc
00000320: 8aba 633d fbd6 d93c fcd1 38bd 626c 02bc
00000330: 00a1 813d 165b 80bc 21cf bc3c d304 143b
00000340: e509 093d e894 7fbc 524f 613d f331 d83c
00000350: 878d 36bd 550e f9bb 0597 803d 6bac 80bc
00000360: 939e bb3c 9594 123b 0aa0 073d ed3f 81bc
00000370: 1f96 5c3d e3bf d33c 37f0 32bd 547c e1bb
00000380: 4b37 7d3d c547 80bc d0f7 b83c 1ad1 0e3b
00000390: 7282 043d 9a58 84bc 4b06 633d 1d45 d93c
000003a0: 704b 38bd 88d8 00bc bc59 813d dd7d 80bc
000003b0: cb8b bc3c 206c 143b 68a4 083d b92c 80bc
000003c0: e5a5 603d 82a6 d73c d403 36bd d0ad f5bb
000003d0: 464f 803d 33b5 80bc 0b2e bb3c eb0f 123b
000003e0: 332d 073d 11aa 81bc 2609 613d 97fa d73c
000003f0: b155 36bd 5bbc f7bb d37a 803d a9db 80bc
-0.041605454 0.0031713878 0.052383177 0.0012186368 0.019629465 -0.0037644315 0.018211365 0.0056866496
-0.034324244 0.054615907 -0.043112773 0.0025106124 0.053558428 0.0012483121 0.019618949 -0.0062030214
0.018702682 -0.00093823276 -0.033719867 0.05335155 -0.042493924 0.0027513294 0.053246345 0.001223657
0.019842759 -0.005250602 0.018525826 0.0007477279 -0.03407444 0.05366459 0.05050211 0.023598533
-0.041270804 -0.0047093686 0.0589957 -0.014703615 0.02152438 0.0020960427 0.030152997 -0.017417993
-0.04548386 0.00078504044 0.054654162 0.001634005 0.02021056 -0.008351701 0.017705627 -0.007643956
-0.03327162 0.051902086 0.055756386 0.026667073 -0.045240283 -0.008054368 0.06343389 -0.015660085
0.023085091 0.002255559 0.033560976 -0.015552928 -0.043817308 0.002155458 0.0541532 0.0013766354
0.019866386 -0.0066931834 0.018605582 -0.0027282066 -0.033785984 0.05299716 0.054890685 0.026342057
-0.044477344 -0.0075290175 0.06269051 -0.0157266 0.022875138 0.002236523 0.033037543 -0.01581411
0.055925556 0.026753768 -0.045361463 -0.008155365 0.063584656 -0.015676076 0.023118287 0.0022537813
0.03367078 -0.015504396 0.055437654 0.026526522 -0.044999488 -0.007869116 0.06316726 -0.015683174
0.023016805 0.0022622384 0.033372875 -0.01564374 -0.04210044 0.0029051744 0.052892238 0.0012082881
0.019762082 -0.0048074294 0.018615654 0.0023891123 -0.03398841 0.053822547 0.055098858 0.026384808
-0.044744622 -0.007669627 0.0628869 -0.015677419 0.022927128 0.0022305932 0.033161353 -0.015742842
0.049615797 0.022941144 -0.040647015 -0.0040649874 0.05825724 -0.014387736 0.021163352 0.0020363498
0.029413303 -0.017782547 0.05529929 0.02646474 -0.04490044 -0.0077901147 0.06305177 -0.01566536
0.022984985 0.00225635 0.033280585 -0.015683236 0.05505218 0.026363293 -0.04471131 -0.0076426077
0.06284787 -0.015672658 0.022916427 0.0022262253 0.03312541 -0.015757563 -0.044303313 0.001790981
0.05431302 0.0014370662 0.019951716 -0.006911338 0.01851901 -0.003950435 -0.033684067 0.052753516
0.05326656 0.025522431 -0.0432291 -0.0064915246 0.061322816 -0.015492291 0.022383407 0.0021020966
0.03196414 -0.016356766 -0.044478048 0.001608057 0.05430221 0.0014170646 0.019938292 -0.007166442
0.018390188 -0.004674948 -0.03355786 0.05253364 0.054956198 0.026370967 -0.04452755 -0.007571606
0.06274632 -0.015724415 0.022890061 0.002238846 0.03308254 -0.015792795 0.054911677 0.026352664
-0.04449161 -0.007543653 0.06270773 -0.015730198 0.022879846 0.0022393505 0.03305219 -0.015807679
0.05559782 0.026591768 -0.04512213 -0.007960411 0.063295364 -0.015668433 0.023047986 0.0022585883
0.0334567 -0.015599467 0.055007286 0.026391005 -0.044568565 -0.0076005855 0.06278805 -0.015707215
0.022902763 0.0022366394 0.03311161 -0.015777553 0.053854104 0.025848335 -0.043686118 -0.006881276
0.06182031 -0.015659222 0.022579104 0.0021792115 0.032350965 -0.01615553 0.055425923 0.026522214
-0.044993818 -0.007864125 0.063159436 -0.015685016 0.023015877 0.0022647455 0.033359915 -0.015646325
0.05484571 0.026324514 -0.044437245 -0.0074975267 0.0626512 -0.015711403 0.022849103 0.002228732
0.03300209 -0.015828164 0.054940365 0.026364608 -0.044515315 -0.0075602955 0.06273427 -0.015729742

net_model.0.bias f4 [128]
00000000: d02b 233c 09e2 413c ac2d 343c 9836 823c
00000010: 7646 4a3c 8f79 983c 6015 473c 7731 943c
00000020: b6f4 983c 3f5b 973c 1c0d 313c 15fb 953c
00000030: 4607 7d3c f6e4 963c 4cd5 953c 923c 493c
00000040: 69c5 8d3c 42ff 483c fe6f 943c 2743 943c
00000050: 54ec 973c 5ea7 943c 5f10 903c 5455 973c
00000060: 02f0 933c 7d5e 943c a968 873c d3aa 963c
00000070: 8099 483c 4ae6 483c ff0b 343c 8f7b 923c
00000080: 70cf 473c 7fea 293c 49b9 493c 229d 3a3c
00000090: d6bc 4a3c 3a26 963c c55d 4a3c 6afb 963c
000000a0: 1a1f 293c 7732 3d3c 5cf8 923c a326 3c3c
000000b0: 9e56 223c bac2 4a3c ac1a 4b3c 2809 963c
000000c0: 325f 943c 9949 813c 7eea 8e3c 20f6 3c3c
000000d0: 4921 983c 4cda 953c d353 493c f783 983c
000000e0: 260d 983c e108 973c b6d2 723c a919 173c
000000f0: d3bf 903c 5bdd 1f3c 5adc 973c fe82 323c
00000100: 4d45 433c f7d8 203c 3d8b 923c 3064 293c
00000110: 5a16 493c a84d 843c 1795 483c e25b 493c
00000120: 38fa 8f3c 4a69 973c 64d5 453c 4d4c 943c
00000130: bac4 873c e561 793c 03f3 8a3c 8f46 973c
00000140: dd41 8c3c bd31 973c 19f8 963c 9e00 8e3c
00000150: d6d2 973c 9973 823c 8383 923c 5c88 913c
00000160: 12c0 4b3c f415 403c 8963 923c 86c6 483c
00000170: 5b7c 493c 9260 923c a935 473c f2f9 7b3c
00000180: 61ed 973c 8b8c 1f3c f4d0 933c c835 493c
00000190: 3605 8b3c 90d4 953c 0946 3d3c 5774 973c
000001a0: 6f06 473c 45af 983c 75c5 983c 3420 343c
000001b0: 4744 973c 85ea 483c 8c40 4b3c 628e 483c
000001c0: 0930 963c 34b0 493c 82b7 473c d226 983c
000001d0: 6eda 4b3c 9457 483c 46bd 473c 273b 973c
000001e0: 2339 963c 48a7 973c 4b02 973c 1ce7 213c
000001f0: 2302 363c aab2 963c d674 313c e7c9 983c
0.009959176 0.011833676 0.010997217 0.015895173 0.012345901 0.018612651 0.012151092 0.018089993
0.018671375 0.018476127 0.010806348 0.018308202 0.015443629 0.018419724 0.018290184 0.0122825075
0.017306047 0.012267889 0.018119808 0.018098427 0.018545307 0.018146213 0.017585931 0.018473305
0.01805878 0.018111462 0.016529398 0.018392002 0.0122436285 0.012261936 0.010989188 0.017881183
0.012195453 0.01037085 0.012312242 0.011390002 0.012374124 0.018328775 0.012351458 0.01843043
0.010322357 0.011547676 0.017940693 0.011483821 0.009908346 0.012375528 0.012396496 0.018314913
0.018111799 0.015782164 0.017445799 0.01153329 0.01857056 0.018292569 0.012288052 0.018617613
0.018560957 0.018436851 0.014820745 0.009222426 0.017669594 0.009757365 0.018537689 0.010895489
0.011918378 0.009817353 0.01788866 0.010338828 0.012273395 0.01615031 0.012242577 0.012289973
0.017575368 0.018482823 0.012074802 0.01810279 0.016573299 0.015221094 0.01696158 0.018466262
0.01712125 0.018456334 0.018428849 0.017334279 0.018533152 0.015924262 0.017884975 0.017765217
0.01243593 0.011723984 0.017869728 0.012254363 0.012297715 0.017868314 0.01215879 0.015379416
0.018545808 0.009738098 0.018043973 0.012280889 0.016970258 0.018289834 0.011552342 0.018488092
0.01214753 0.018638263 0.018648842 0.010994006 0.018465174 0.012262945 0.012405526 0.012240978
0.018333452 0.0123100765 0.012189748 0.018573198 0.012442214 0.0122279115 0.012191122 0.018460823
0.018337792 0.018512383 0.01843371 0.009881761 0.011108908 0.01839574 0.0108310785 0.018650962

net_model.2.weight f4 [64, 128]
00000000: 398e 2982 8022 5881 b470 6d81 44eb 5784
00000010: d238 0303 f291 1005 38b0 6f02 4da5 f584
00000020: f473 4705 7736 0704 0d43 5382 de13 8684
00000030: 5eb0 fb03 c897 2c83 cac5 9c84 7895 9c02
00000040: 88e0 4304 171b ab02 586b dc84 f5dc ed84
00000050: 62f9 b404 ba7f cc84 3b28 8284 d7d4 0404
00000060: 7a55 0385 e88a ea84 c0d6 9b82 158f e283
00000070: 40d4 a902 d637 1703 d8ec f980 7661 1185
00000080: e71b 8f02 106e 7382 eca8 4903 80df 8381
00000090: e989 f202 8c0e 5884 4c54 2d03 f6d8 8582
000000a0: 24ea 0283 a479 4b01 dc78 1385 d855 6200
000000b0: b253 6482 0d68 2a03 cd89 1a03 23c9 8184
000000c0: d036 ea84 e702 1f84 1065 2c81 34b6 5a01
000000d0: a508 d804 6081 9884 503d 9602 5ad0 1305
000000e0: 5860 c204 48e9 4402 91a4 d283 9e79 f481
000000f0: 7b0c bd84 77dd 1282 7658 a304 2c60 3681
00000100: b853 4101 a450 e281 af28 1185 275e be82
00000110: 2172 2303 f697 8184 f96b 7302 81d9 3303
00000120: 2370 5984 4332 1704 7c51 3501 299d eb84
00000130: 7e77 c302 5cfe 4f04 4a84 b604 212e bb03
00000140: 131e ad04 1197 9d03 16b4 be82 7718 3204
00000150: a0fe 9f04 aab1 6e84 afe8 0e85 1dd2 ff84
00000160: dec9 0103 a461 bd81 5b15 0f85 0abf c602
00000170: b6a3 1c03 9609 1085 8077 6302 b98d 2104
00000180: 8ec7 b304 c430 f781 3f90 0585 0298 ca02
00000190: aa9f b404 5b6c 9d84 1049 ba80 5ea6 3804
000001a0: 6255 9f02 4cec 2005 a4dd 2b05 3818 5981
000001b0: 2c3a c803 2f43 2703 aa08 1803 7eb5 b302
000001c0: 3f05 5784 6ced 1c03 22e2 b702 de67 e604
000001d0: 8786 5002 0c3d e102 f27d 8e02 7651 ae03
000001e0: 5e21 5c84 5f30 8004 0027 e700 f174 6582
000001f0: 963f 9c81 54d9 cf83 6b8c 2c82 f0bc 3705
00000200: ed35 6789 db90 1609 ca4d bd09 a7fd 8388
00000210: e781 c90a d0f4 9388 92fe 268a fa52 9d88
00000220: 7e27 9488 81be 9488 bc2d 1409 b057 9888
00000230: 26e4 7f88 ed77 9588 abcd 9888 5e28 c389
00000240: 7f02 9c88 44d7 6189 dad4 9c88 3c21 9d88
00000250: cbd7 9388 14ab 9c88 2bf8 9e88 2a88 9488
00000260: 00f7 9d88 e607 9d88 4c05 9f88 6ec9 9688
00000270: 622b 138a a18c c80a 991a bd09 62a5 9e88
00000280: 8cc8 088a 6a3e bf08 b6fd a60a 1983 a909
00000290: 4fca c60a 7085 9788 2a5a c90a 1301 9688
000002a0: 5ecc 7489 480f 9709 d042 9e88 3a47 a709
000002b0: eec5 7889 4d33 c70a 4016 c10a 36ec 9788
000002c0: 7ed5 9c88 d260 8388 320a 9e88 fdcc 8c09
000002d0: 3698 9388 2672 9888 2dea b389 cbbc 9488
000002e0: eea7 9488 a7b8 9588 6154 8888 7f47 8689
000002f0: a90f 9f88 3f74 8789 eba5 9488 32ec ab09
00000300: 2ad6 3e08 8846 8089 c643 9e88 6a99 7a89
00000310: a8ac 570a 040a 9488 d186 168a 41ee c90a
00000320: 04d4 9e88 1886 9488 3088 6389 7040 9d88
00000330: 4ae9 9e88 b74c 9288 d26d 9c88 e2c6 9488
00000340: 389c 9b88 0e10 9588 d3e1 9588 663f 9c88
00000350: 4455 9488 7be0 8488 d971 9e88 23f8 9e88
00000360: 6684 b40a 8dab 5209 629d 9e88 8048 9784
00000370: 17d3 ca0a 99bc 9e88 5215 268a ed48 8388
00000380: f996 9388 e3a4 8089 9135 9e88 f0a7 1889
00000390: 266d 9c88 76f8 9888 935e 8009 8c0f 9488
000003a0: b937 268a bfd8 9488 577b 9388 dfb3 be09
000003b0: c0b6 9488 5689 1f0a d395 c10a da73 0d89
000003c0: 2a93 9788 682c c90a db07 198a 3e73 9388
000003d0: cb96 1e8a 163d 6309 0c6e 1d8a bdc9 9488
000003e0: 063c 9788 65c2 9488 7ec5 9588 5bf9 6e89
000003f0: 318a bf09 bade 9688 4e14 8009 92f5 9388
-1.2456975e-37 -3.9697687e-38 -4.3610886e-38 -2.5381157e-36 3.8562667e-37 6.7976534e-36 1.7609519e-37 -5.7751028e-36
9.378232e-36 1.5894183e-36 -1.5521074e-37 -3.1521494e-36 1.4792946e-36 -5.0720493e-37 -3.6857064e-36 2.300793e-37
2.302524e-36 2.514174e-37 -5.182033e-36 -5.592135e-36 4.254682e-36 -4.8077468e-36 -3.05998e-36 1.5614257e-36
-6.17529e-36 -5.51407e-36 -2.2898464e-37 -1.3315936e-36 2.4954144e-37 4.443901e-37 -2.2952002e-38 -6.835768e-36
2.1027977e-37 -1.7884407e-37 5.9262504e-37 -4.8442507e-38 3.563786e-37 -2.5397358e-36 5.09369e-37 -1.9667123e-37
-3.8472347e-37 3.7372484e-38 -6.934105e-36 9.030674e-39 -1.6774814e-37 5.0077954e-37 4.541472e-37 -3.051247e-36
-5.5063473e-36 -1.8691693e-36 -3.166392e-38 4.0171e-38 5.0789295e-36 -3.585384e-36 2.207571e-37 6.950175e-36
4.569766e-36 1.4466754e-37 -1.2380473e-36 -8.9805956e-38 -4.4445148e-36 -1.0789943e-37 3.8402354e-36 -3.349712e-38
3.5508567e-38 -8.3135e-38 -6.8253396e-36 -2.7972032e-37 4.803241e-37 -3.046731e-36 1.7883807e-37 5.2853054e-37
-2.5559718e-36 1.7773044e-36 3.3302912e-38 -5.5392563e-36 2.872126e-37 2.444953e-36 4.2909483e-36 1.1001463e-36
4.0699723e-36 9.262314e-37 -2.8021355e-37 2.0935033e-36 3.7614556e-36 -2.8058345e-36 -6.719545e-36 -6.014317e-36
3.8141425e-37 -6.956774e-38 -6.72775e-36 2.9203136e-37 4.603221e-37 -6.772608e-36 1.6711621e-37 1.8990535e-36
4.226596e-36 -9.0803445e-38 -6.280124e-36 2.976848e-37 4.2464425e-36 -3.701003e-36 -1.7107612e-38 2.1705488e-36
2.3411958e-37 7.566565e-36 8.08109e-36 -3.9873981e-38 1.1768299e-36 4.915401e-37 4.467873e-37 2.6405858e-37
-2.5275537e-36 4.6116827e-37 2.7019227e-37 5.4168127e-36 1.5320034e-37 3.3095818e-37 2.0937314e-37 1.0245503e-36
-2.5876197e-36 3.0137077e-36 2.122799e-38 -1.6857823e-37 -5.739659e-38 -1.2216263e-36 -1.2676862e-37 8.639321e-36
-2.783097e-33 1.8123704e-33 4.5573247e-33 -7.943909e-34 1.940446e-32 -8.904796e-34 -8.0404886e-33 -9.4686015e-34
-8.916711e-34 -8.952213e-34 1.7836356e-33 -9.1687825e-34 -7.700446e-34 -8.995806e-34 -9.19652e-34 -4.6982504e-33
-9.389495e-34 -2.7184607e-33 -9.43895e-34 -9.456907e-34 -8.897973e-34 -9.429129e-34 -9.567623e-34 -8.939438e-34
-9.507163e-34 -9.450951e-34 -9.57071e-34 -9.0751525e-34 -7.085952e-33 1.9312198e-32 4.5525107e-33 -9.54816e-34
-6.5858805e-33 1.1510068e-33 1.6080654e-32 4.0808554e-33 1.9142806e-32 -9.119353e-34 1.9389512e-32 -9.028049e-34
-2.9466525e-33 3.6366298e-33 -9.524987e-34 4.027077e-33 -2.994498e-33 1.91823e-32 1.8593593e-32 -9.143515e-34
-9.4391e-34 -7.907038e-34 -9.511676e-34 3.3896544e-33 -8.883025e-34 -9.175003e-34 -4.33129e-33 -8.951811e-34
-8.946906e-34 -9.011023e-34 -8.20504e-34 -3.232656e-33 -9.573146e-34 -3.2609385e-33 -8.946433e-34 4.138887e-33
5.7427794e-34 -3.0881206e-33 -9.525213e-34 -3.016479e-33 1.03843465e-32 -8.909781e-34 -7.2475934e-33 1.9445217e-32
-9.559124e-34 -8.938951e-34 -2.7388166e-33 -9.464243e-34 -9.564125e-34 -8.805091e-34 -9.414727e-34 -8.954183e-34
-9.36545e-34 -8.971386e-34 -9.020702e-34 -9.403813e-34 -8.927472e-34 -7.997236e-34 -9.536045e-34 -9.567616e-34
1.7383172e-32 2.5358493e-33 -9.54628e-34 -3.556651e-36 1.9531296e-32 -9.553618e-34 -7.996619e-33 -7.9014205e-34
-8.882734e-34 -3.0969938e-33 -9.5218725e-34 -1.8375298e-33 -9.414569e-34 -9.20658e-34 3.0903816e-33 -8.911081e-34
-8.0030895e-33 -8.958383e-34 -8.876238e-34 4.5909986e-33 -8.95039e-34 7.6814015e-33 1.8641582e-32 -1.702673e-33
-9.12258e-34 1.93723e-32 -7.3681595e-33 -8.874334e-34 -7.635784e-33 2.7352854e-33 -7.5799725e-33 -8.954854e-34
-9.102093e-34 -8.953128e-34 -9.0140415e-34 -2.8765454e-33 4.6111532e-33 -9.080159e-34 3.0833974e-33 -8.904974e-34

net_model.2.bias f4 [64]
00000000: ccb9 02b4 0866 8bb6 562b a9b8 ea9b 173d
00000010: 5b45 90ba caf9 2a3c d2cd 4ebb 2ae0 583c
00000020: 99f5 acb3 6a41 9eb9 1ecc a0ba d035 e2ba
00000030: d590 713c 206d 0ebb a5eb 39bb 3f4e b8ba
00000040: 5aeb 1ab8 9a33 c13b 0001 91b9 fefa abba
00000050: 6a97 2fbb 746a d7b7 ceb5 ae97 b902 daba
00000060: 237e 06a6 7eed 86ba c36b 8b3b 79d0 92ba
00000070: a55a 893c ea68 b63b 81d7 393c c442 05a9
00000080: c6d4 cda6 fdee 6cbb 4911 34bb c453 8aab
00000090: 99fe 15ab 4098 3ab6 78ca 1d3c d8fc a7b6
000000a0: 676b ffba a8d0 47bb e9c9 983b 071b 503c
000000b0: af15 183c 0dbb e5b6 4ab7 2a3c 75ea e4a2
000000c0: db1f 6b3c d94d bc3c 655e d4b9 5758 6cab
000000d0: a948 0fa6 2dab dab1 043b 85b9 3db9 059e
000000e0: 73c1 483c 32dd b6ba b109 c13b 0734 2bbb
000000f0: dbbe 2fbb 5db4 0fbb 01c8 ba3b 011f 683c
-1.2174786e-07 -4.154401e-06 -8.06662e-05 0.037013926 -0.0011006998 0.010435531 -0.0031555784 0.013237039
-8.054048e-08 -0.00030184846 -0.0012267863 -0.0017258469 0.014744003 -0.0021732524 -0.0028369215 -0.0014061405
-3.693565e-05 0.005896044 -0.000276573 -0.0013121066 -0.002679313 -2.5679568e-05 -1.129038e-24 -0.0016632891
-4.6661536e-16 -0.0010294167 0.0042547896 -0.0011201046 0.016766855 0.005566706 0.011342884 -2.9589842e-14
-1.4282405e-15 -0.003615319 -0.0027476123 -9.828739e-13 -5.328876e-13 -2.780478e-06 0.009630792 -5.0064227e-06
-0.0019486964 -0.003048936 0.0046627414 0.012701756 0.0092825135 -6.8465074e-06 0.010419676 -6.2047765e-18
0.014350857 0.02298634 -0.0004050612 -8.396664e-13 -4.9711564e-16 -6.3640955e-09 -0.00025411707 -7.079268e-21
0.012253153 -0.0013951419 0.005891048 -0.002612354 -0.002681664 -0.0021927573 0.005700112 0.014167548

net_model.4.weight f4 [32, 64]
00000000: 22ee a381 eaae d701 3c44 8f01 2943 3883
00000010: 945e 5e03 4861 de82 e41b da81 0b2e 3303
00000020: a989 3c03 f8ec 4983 9aab e702 c74f 5c83
00000030: 048d 48b3 16e0 4483 4654 4183 8507 0383
00000040: ca47 36ab 604f fc82 5a01 9302 3970 2503
00000050: 24ff 9502 068d 2ea6 6e45 5603 a1ab 1803
00000060: 4704 1603 b6aa 6a82 c4ec f002 319c 0603
00000070: 6a73 0e03 62ce 1a83 55df 3303 4596 c682
00000080: e1ea 6b82 6c52 9701 2979 5d02 3393 3d83
00000090: ec39 3083 908d 0b96 ccf9 6c83 435e 0003
000000a0: 53b6 0f02 ef6a 3b82 43c7 6083 4c5c 5783
000000b0: ef00 0b83 94cc c29f 92b6 1603 6d98 b002
000000c0: 565f 4683 716d 1783 7d14 3b03 f655 8880
000000d0: 3258 c001 3eab cc82 2885 2a82 6651 0083
000000e0: fabc 0183 dd02 5303 aa2c f402 0491 4c82
000000f0: 7b31 4783 e88d 0d83 6677 0283 3ebc 0b03
00000100: 7067 4b00 e4a8 5a03 c0f0 1e80 71a4 2d83
00000110: cdb3 4003 5c70 1283 a62e 3c82 11d7 1282
00000120: 8ce6 5403 c0e2 0a83 4a8d 3703 6770 3303
00000130: 6c27 6083 80d7 7c02 861c 0783 d0e3 c602
00000140: 46aa 0083 310d 3d03 cbed 2483 8450 5b83
00000150: 1fed 2203 139f 1982 180e 4800 f00c 0d80
00000160: c3b3 2a03 a43a 3383 0f8c 0c03 e8db 1403
00000170: d67e 9782 4bb4 dc82 f71a 1f83 0926 0703
00000180: 771d 4e83 b51b 3703 308f 4703 3a97 9381
00000190: 366d 3c83 56b2 5b83 bccd 3103 9fa7 dd02
000001a0: ca84 4403 4092 4383 a232 3e03 c08c 0883
000001b0: 17f0 8082 83eb 0f82 ce72 2482 edea 5383
000001c0: 4c38 3503 c922 4503 7064 3603 2f4b 4283
000001d0: 9897 5c03 0695 5683 175b 3303 cdcc 2b83
000001e0: 6b6a d602 2d52 5303 b609 f782 9c33 1c83
000001f0: d4f4 4283 9062 2c03 6ceb 5b83 5a7e 4483
00000200: dfdf 3303 9c89 5b02 ecf1 0583 4cd8 1d03
00000210: 818b 4f83 d657 4583 7946 4903 803d 3703
00000220: 310b 2d03 0a73 1783 6ed5 1b83 5def 2b83
00000230: 0cc3 f582 561f ef82 f614 dc82 e22e 6e83
00000240: 0135 4003 098c 3083 c087 2103 9992 3003
00000250: b488 2d03 b123 0583 1c7f 0b01 b83c 0e03
00000260: 3ceb 4783 80ce 5780 5441 0083 ac72 1603
00000270: 283a 3103 6616 fe82 04ba 3883 be03 0c02
00000280: 2baf 4083 cc7a 0283 7fe1 2903 c8dc 0c03
00000290: ecf8 6a02 70c4 3c03 eca1 4003 e61b 1303
000002a0: 790b 3003 719a 4a83 1047 3c82 6624 fc02
000002b0: 080f ea81 121c ac82 2e19 0003 409b 6203
000002c0: fbc0 5a83 6018 0203 de29 8302 0290 b582
000002d0: 308c b180 3c68 1503 ac55 5b03 6c5c 8a82
000002e0: b6d1 0d83 0e39 1d83 1b6b 1a03 e8a9 c482
000002f0: 9255 6803 3d24 5683 1b89 3183 28a2 1703
00000300: 4d01 1c03 db12 5683 1df6 2203 c815 3383
00000310: 8adb 6602 fa5f 1683 c308 5283 4a38 d702
00000320: b2a8 0203 617f 0c83 de4b 0c03 cf85 4f83
00000330: 0359 1383 6711 4883 05c7 9302 5fb2 5b03
00000340: 1e9f a702 6442 3403 41b6 4083 1784 ca02
00000350: 3413 3a83 75de 0983 6ceb 4e83 2d31 2403
00000360: 9f0c b282 6046 3203 09f4 5083 f76b 4203
00000370: 0642 1683 4e82 4b83 0e30 1283 e228 1e03
00000380: 76ee 4a03 6bb4 2583 3edd 7882 9c8f 3603
00000390: 508c 5b03 6075 5803 f2ef 9582 bcb1 2883
000003a0: 7e35 5a03 0829 4303 13fa 5303 95f5 6903
000003b0: 6044 9982 583e 8982 d5fd 4383 a890 6403
000003c0: 08cb 8402 1b13 4003 32b6 4983 ce5d 0c03
000003d0: 5e63 e682 3453 5583 60e5 3f80 7ebf e682
000003e0: 2c46 2403 85f9 3482 9a06 0102 0a55 3803
000003f0: b28e 3983 e82b 3d83 6048 3083 84c0 5783
-6.021845e-38 7.9229516e-38 5.2627815e-38 -5.4149836e-37 6.5348507e-37 -3.2675805e-37 -8.0120574e-38 5.2656227e-37
5.540626e-37 -5.934062e-37 3.4040894e-37 -6.474377e-37 -4.669438e-08 -5.785646e-37 -5.6814344e-37 -3.850607e-37
-6.4759016e-13 -3.707363e-37 2.1600484e-37 4.8617967e-37 2.2040026e-37 -6.05595e-16 6.296865e-37 4.4865806e-37
4.408595e-37 -1.7240597e-37 3.5400727e-37 3.955836e-37 4.186254e-37 -4.549345e-37 5.2859745e-37 -2.9179736e-37
-1.733248e-37 5.558691e-38 1.6271287e-37 -5.5711084e-37 -5.1788242e-37 -1.1273e-25 -6.964092e-37 3.7724026e-37
1.0558305e-37 -1.3769279e-37 -6.6056425e-37 -6.3288773e-37 -4.08495e-37 -8.250064e-20 4.429062e-37 2.5948364e-37
-5.829641e-37 -4.4500544e-37 5.497788e-37 -1.2520464e-38 7.0656215e-38 -3.0073394e-37 -1.2527841e-37 -3.770926e-37
-3.8126627e-37 6.2010614e-37 3.5878214e-37 -1.502917e-37 -5.8537645e-37 -4.1599076e-37 -3.834063e-37 4.106452e-37
6.924769e-39 6.425832e-37 -2.84143e-39 -5.10289e-37 5.663013e-37 -4.3034526e-37 -1.3825446e-37 -1.0788107e-37
6.2565855e-37 -4.081485e-37 5.394106e-37 5.2732404e-37 -6.5872938e-37 1.8575881e-37 -3.9705678e-37 2.9224243e-37
-3.7811284e-37 5.555725e-37 -4.846824e-37 -6.4450743e-37 4.7879723e-37 -1.1286317e-37 6.617212e-39 -1.198503e-39
5.0164866e-37 -5.267069e-37 4.130308e-37 4.374573e-37 -2.2260256e-37 -3.2429578e-37 -4.6756855e-37 3.9716597e-37
-6.0571783e-37 5.3810673e-37 5.8645215e-37 -5.421627e-38 -5.5373602e-37 -6.4563035e-37 5.2251797e-37 3.2569241e-37
5.7751658e-37 -5.7473236e-37 5.5894105e-37 -4.012838e-37 -1.8945714e-37 -1.0573569e-37 -1.2081764e-37 -6.227701e-37
5.3255745e-37 5.793303e-37 5.360029e-37 -5.7097783e-37 6.482621e-37 -6.306002e-37 5.270794e-37 -5.0487483e-37
3.1505555e-37 6.210166e-37 -3.6298962e-37 -4.5903524e-37 -5.7292525e-37 5.06594e-37 -6.4628567e-37 -5.7744268e-37
5.2860364e-37 1.6129071e-37 -3.93629e-37 4.638645e-37 -6.0991975e-37 -5.7993927e-37 5.914949e-37 5.3849465e-37
5.085298e-37 -4.450697e-37 -4.579541e-37 -5.052716e-37 -3.6111466e-37 -3.513588e-37 -3.2338126e-37 -6.9995733e-37
5.6484574e-37 -5.1882504e-37 4.746948e-37 5.1890037e-37 5.099706e-37 -3.912616e-37 2.5621464e-38 4.179975e-37
-5.875088e-37 -8.063766e-39 -3.769081e-37 4.4212675e-37 5.2082385e-37 -3.7334802e-37 -5.4286276e-37 1.028665e-37
-5.662481e-37 -3.834453e-37 4.9923493e-37 4.1395747e-37 1.7263042e-37 5.5473734e-37 5.6609606e-37 4.3231443e-37
5.173492e-37 -5.9539755e-37 -1.3832453e-37 3.7048964e-37 -8.5979593e-38 -2.528924e-37 3.7644724e-37 6.659365e-37
-6.4285973e-37 3.8231548e-37 1.927275e-37 -2.6678216e-37 -1.6305173e-38 4.390682e-37 6.445666e-37 -2.0330325e-37
-4.167691e-37 -4.620365e-37 4.5379484e-37 -2.8897133e-37 6.8276902e-37 -6.2930547e-37 -5.2173014e-37 4.456106e-37
4.5845773e-37 -6.2910593e-37 4.7890045e-37 -5.2628376e-37 1.6960736e-37 -4.4191214e-37 -6.172351e-37 3.162372e-37
3.839722e-37 -4.1288526e-37 4.1229394e-37 -6.0985437e-37 -4.33016e-37 -5.8794694e-37 2.171394e-37 6.4563076e-37
2.4629773e-37 5.297346e-37 -5.6632946e-37 2.9757048e-37 -5.468253e-37 -4.051605e-37 -6.080821e-37 4.825172e-37
-2.6161993e-37 5.2390285e-37 -6.1405845e-37 5.7135414e-37 -4.415683e-37 -5.980592e-37 -4.296071e-37 4.647896e-37
5.9636204e-37 -4.869625e-37 -1.8283656e-37 5.364985e-37 6.4519387e-37 6.3611435e-37 -2.2031304e-37 -4.957479e-37
6.412585e-37 5.735245e-37 6.22944e-37 6.875446e-37 -2.2520575e-37 -2.0166124e-37 -5.7596734e-37 6.7169235e-37
1.951219e-37 5.644566e-37 -5.927774e-37 4.1249985e-37 -3.3852497e-37 -6.2690587e-37 -5.86792e-39 -3.3905374e-37
4.827582e-37 -1.329592e-37 9.479318e-38 5.417036e-37 -5.453042e-37 -5.559251e-37 -5.1804834e-37 -6.340382e-37

net_model.4.bias f4 [32]
00000000: 041c 54b9 63ff d5b9 dfec d4b9 8126 17ba
00000010: e100 edb9 7069 c7b9 5b3a 11ba 586c 4c3b
00000020: 4271 12ba 9f05 94b9 a128 5bb9 cbad afb9
00000030: bacf 99b7 49ea a8b7 70bb 6bb6 fc8d e5b9
00000040: ba3f 13ba 02fa 27b9 8102 0db9 08e2 ecb9
00000050: afd9 cfb9 6dd7 17ba 240c 11ba 03a7 1cb9
00000060: b3d5 03ba ecd9 8cb9 9b86 bcb9 28ab 4c3b
00000070: c7dc 81b9 59bf 0bb9 182c 3fb8 e24f 4d3b
-0.00020228332 -0.00040816804 -0.00040612274 -0.00057659304 -0.00045204817 -0.00038034795 -0.00055400067 0.0031192508
-0.0005586335 -0.00028232948 -0.00020900603 -0.00033508087 -1.8335752e-05 -2.0136258e-05 -3.5126832e-06 -0.0004378407
-0.0005617101 -0.00016019496 -0.0001344774 -0.00045181834 -0.00039644304 -0.0005792294 -0.000553312 -0.00014939536
-0.0005029097 -0.00026865245 -0.00035958443 0.0031229947 -0.0002476929 -0.00013327356 -4.5579014e-05 0.0031328131

net_model.6.weight f4 [1, 32]
00000000: fd58 3539 4e96 3983 a8ad 9f81 be12 5583
00000010: bd75 84b8 fad7 8082 e0a6 6883 019b 4dbd
00000020: b304 4483 ae82 f702 e0be 3239 3a47 4b83
00000030: 7359 0a03 2ae2 4737 87c4 6c39 1eef 9839
00000040: 0442 5483 7ebe 5539 04e2 e038 ad02 ddb9
00000050: 9cb8 68b9 9d74 0639 7318 5c83 0097 c601
00000060: ac09 4f83 c00e 9eb8 382a 4483 1744 4fbd
00000070: 4168 ab39 80aa d338 4cd7 6535 be79 4fbd
0.00017294656 -5.4539155e-37 -5.865656e-38 -6.261659e-37 -6.316181e-05 -1.8931874e-37 -6.8370235e-37 -0.05019665
-5.7604618e-37 3.6368395e-37 0.0001704651 -5.9738102e-37 4.065724e-37 1.1913982e-05 0.00022579926 0.00029169855
-6.2376983e-37 0.00020384227 0.00010723251 -0.00042154398 -0.00022194016 0.00012822678 -6.4680256e-37 7.295039e-38
-6.0842935e-37 -7.5367745e-05 -5.764769e-37 -0.050602045 0.00032693337 0.00010093022 8.5622446e-07 -0.05065321
