src/t1dsim_ai/models/IndividualModel/T1DEXI-01-0720/individual_model.pt (torch, 50089 bytes, 7 tensors)

net_model.0.weight f4 [128, 10]
0	0x3c812f3e	0.015769597
1	0x3c4110d8	0.011783801
2	0xbcc049aa	-0.023472626
3	0xbc6580f1	-0.014007793
4	0x3ca2c46f	0.019869057
5	0xba44ede9	-0.0007512258
6	0x3ab53432	0.001382476
7	0x3c4eff06	0.0126340445
8	0xbba9792b	-0.005171915
9	0x3c8d0196	0.01721267
10	0x3c7e9fd8	0.015541039
11	0x3c3f83dc	0.011689153
12	0xbcbe93d5	-0.023263851
13	0xbc62c2cf	-0.013840391
14	0x3ca2e2a9	0.01988347
15	0xba1dea29	-0.0006023967
16	0x3a9c07da	0.0011904195
17	0x3c4c496d	0.012468678
18	0xbb9e3836	-0.004828478
19	0x3c8bf979	0.017086731
20	0x3c81395f	0.015774427
21	0x3c44cf52	0.01201232
22	0xbcc1932c	-0.023629747
23	0xbc66150e	-0.014043106
24	0x3ca3a703	0.019977098
25	0xba552177	-0.0008130292
26	0x3aae1302	0.0013280811
27	0x3c4f3c74	0.0126486905
28	0xbba9ba48	-0.005179677
29	0x3c8d2730	0.0172306
30	0x3c812e45	0.015769133
31	0x3c4163b5	0.011803557
32	0xbcc12d3a	-0.023581136
33	0xbc63f3a7	-0.013913072
34	0x3ca2d866	0.019878577
35	0xba4b74ad	-0.00077612215
36	0x3ab6af79	0.0013937793
37	0x3c4e6a9a	0.012598658
38	0xbba831d9	-0.0051328954
39	0x3c8c4118	0.017120883
40	0x3c8101aa	0.015747864
41	0x3c412d32	0.011790561
42	0xbcc23535	-0.023707012
43	0xbc65ff19	-0.014037871
44	0x3ca2170c	0.01978638
45	0xba4dd11e	-0.000785129
46	0x3ac162af	0.0014754141
47	0x3c502a41	0.012705387
48	0xbbac0358	-0.005249422
49	0x3c8d9812	0.017284427
50	0x3c810c5d	0.015752966
51	0x3c43672c	0.011926454
52	0xbcc0d868	-0.02354069
53	0xbc66eaf5	-0.014094104
54	0x3ca295b5	0.019846777
55	0xba471528	-0.00075944
56	0x3ab5f3a2	0.0013881812
57	0x3c500253	0.012695867
58	0xbba794fc	-0.005114196
59	0x3c8ccc80	0.017187357
60	0x3c6375b5	0.013883044
61	0x3c24ea6d	0.010065657
62	0xbcaa65c7	-0.020800484
63	0xbc3d60cd	-0.011558724
64	0x3c9ec710	0.01938203
65	0x3a86a4ef	0.0010272543
66	0x3a496464	0.0007682501
67	0x3c1b3c2a	0.009474793
68	0xbb0c3910	-0.0021396317
69	0x3c6efb48	0.014586277
70	0x3c74e485	0.014947061
71	0x3c3866e0	0.011254996
72	0xbcb76f27	-0.022391869
73	0xbc55c57a	-0.01304757
74	0x3ca0e3a4	0.019639798
75	0x37aa7438	2.0319698e-05
76	0x3a691b5a	0.00088923203
77	0x3c3bab22	0.011454375
78	0xbb7508a8	-0.0037389193
79	0x3c84eeb2	0.0162271
80	0x3c7fec65	0.015620326
81	0x3c4163ea	0.0118036065
82	0xbcbff9c7	-0.023434533
83	0xbc6285fc	-0.01382589
84	0x3ca2e56c	0.019884787
85	0xba32442e	-0.00068003207
86	0x3aa40e7a	0.0012516521
87	0x3c4c67c3	0.012475911
88	0xbba00053	-0.004882851
89	0x3c8b639e	0.017015275
90	0x398233d6	0.00024834153
91	0xbbe03d9e	-0.006843283
92	0x3b1a5ed8	0.0023555066
93	0x3ba61165	0.0050679916
94	0x3b8c734e	0.0042862063
95	0x3ae237f8	0.0017259112
96	0x3b42a718	0.0029701646
97	0x38aa36b3	8.11642e-05
98	0xbb686afc	-0.0035464158
99	0xbb66981c	-0.003518588
100	0x3c803ac5	0.015653023
101	0x3c431eee	0.01190923
102	0xbcbfaa84	-0.023396738
103	0xbc631921	-0.013860972
104	0x3ca2e8d8	0.01988642
105	0xba3a4a65	-0.00071064226
106	0x3ab2f430	0.0013653096
107	0x3c4d680e	0.012537016
108	0xbb9e7672	-0.004835897
109	0x3c8c6a0c	0.01714041
110	0x3bfafbc4	0.0076594073
111	0x3b689acb	0.0035492654
112	0xbb1a19b3	-0.0023513853
113	0x3b8a879e	0.0042275926
114	0xbdabf998	-0.083972156
115	0xbd096a30	-0.033548534
116	0x3d93cb86	0.072165534
117	0x3dc212b4	0.094762236
118	0xbd0d41e0	-0.03448665
119	0x3aa18b78	0.001232489
120	0x3c80911c	0.015694194
121	0x3c427428	0.011868514
122	0xbcc05f72	-0.023483012
123	0xbc64bd65	-0.013961171
124	0x3ca396e0	0.019969404
125	0xba42cbfe	-0.000743091
126	0x3aad5288	0.0013223449
127	0x3c4da166	0.012550687
128	0xbba6379f	-0.0050725485
129	0x3c8c76d9	0.017146515
130	0x3c80ef19	0.01573901
131	0x3c421bf4	0.011847485
132	0xbcc0f57c	-0.023554556
133	0xbc655d4c	-0.0139992945
134	0x3ca34e10	0.019934684
135	0xba47dd84	-0.0007624256
136	0x3aadd7ec	0.0013263202
137	0x3c4e1471	0.012578116
138	0xbba73ea3	-0.0051039024
139	0x3c8cb0b5	0.017174104
140	0x3c8192ce	0.015817072
141	0x3c41ff89	0.0118407095
142	0xbcc0a381	-0.023515465
143	0xbc63cff8	-0.013904564
144	0x3ca22b93	0.019796168
145	0xba4d0fdf	-0.00078224944
146	0x3ab6674e	0.0013916285
147	0x3c4ed21d	0.012623337
148	0xbba67b88	-0.005080644
149	0x3c8d0e0e	0.017218616
150	0x3c7edbfa	0.015555376
151	0x3c3fe8fb	0.011713262
152	0xbcbee19b	-0.023300936
153	0xbc630d06	-0.0138580855
154	0x3ca1e99a	0.01976471
155	0xba1e748b	-0.0006044588
156	0x3a9f9445	0.0012174925
157	0x3c496d7c	0.0122941695
158	0xbb9d3275	-0.0047972747
159	0x3c8b21a9	0.016983824
160	0x3c809795	0.01569728
161	0x3c41e062	0.011833282
162	0xbcbf1b03	-0.02332831
163	0xbc64e8e9	-0.013971546
164	0x3ca32cb1	0.019918771
165	0xba35ed52	-0.00069399655
166	0x3aaadfa3	0.001303662
167	0x3c4d3de2	0.012526961
168	0xbba2dddb	-0.004970295
169	0x3c8badf9	0.01705073
170	0x3c80184c	0.015636586
171	0x3c42d11b	0.011890675
172	0xbcc0e8eb	-0.023548564
173	0xbc64fb39	-0.013975912
174	0x3ca202c3	0.019776708
175	0xba3ee054	-0.00072813523
176	0x3ab4b7da	0.0013787702
177	0x3c4d873e	0.012544451
178	0xbba45de1	-0.005016074
179	0x3c8c7d93	0.017149722
180	0x3c7b84a2	0.015351446
181	0x3c3d9e39	0.011573368
182	0xbcbc76d9	-0.02300589
183	0xbc5dc082	-0.013534667
184	0x3ca2e3b7	0.019883974
185	0xb9d44675	-0.00040488286
186	0x3a84579f	0.0010096914
187	0x3c479d9d	0.012183574
188	0xbb91c1c0	-0.0044481456
189	0x3c89012d	0.016724193
190	0x389a3d94	7.354762e-05
191	0xbcb76b9d	-0.022390181
192	0xbc013bbb	-0.007887776
193	0x3c2328b2	0.009958433
194	0xbd46a27d	-0.048494805
195	0xbd99f4ab	-0.0751737
196	0x3d3166b2	0.04331083
197	0x3d75a2be	0.059969656
198	0xbc5b52d5	-0.013386448
199	0xba7157f9	-0.00092065294
200	0x3c801693	0.015635764
201	0x3c41bf68	0.01182542
202	0xbcbf7f05	-0.023375997
203	0xbc634641	-0.01387173
204	0x3ca2e36e	0.019883838
205	0xba2fcc71	-0.00067061844
206	0x3a984d01	0.0011619629
207	0x3c4b5750	0.012410954
208	0xbb9fe946	-0.0048801033
209	0x3c8b5d9f	0.017012415
210	0x3c8079d8	0.0156831
211	0x3c41790f	0.011808648
212	0xbcc088f7	-0.02350281
213	0xbc63b364	-0.0138977505
214	0x3ca2cb49	0.019872325
215	0xba34a315	-0.0006890756
216	0x3ab5f959	0.0013883515
217	0x3c4ed72b	0.012624542
218	0xbba47214	-0.005018482
219	0x3c8bab07	0.017049326
220	0x3c7cf477	0.015439144
221	0x3c3e8422	0.011628183
222	0xbcbdc3dd	-0.023164684
223	0xbc600241	-0.013672412
224	0x3ca1f191	0.019768508
225	0xba07470d	-0.00051604287
226	0x3a9b56f0	0.0011851471
227	0x3c4b6043	0.012413087
228	0xbb96ccad	-0.004602036
229	0x3c8b63eb	0.017015418
230	0x3c8160c6	0.015793215
231	0x3c41cc4e	0.011828495
232	0xbcc06513	-0.023485696
233	0xbc63871e	-0.013887195
234	0x3ca24d8e	0.019812372
235	0xba469d0e	-0.00075765036
236	0x3aacae3f	0.0013174488
237	0x3c4d04ad	0.012513322
238	0xbba410f8	-0.0050069056
239	0x3c8c4b5c	0.017125778
240	0xba0b89fe	-0.00053229916
241	0xbbf37735	-0.007429982
242	0x3b19539f	0.002339579
243	0x3bb22bb5	0.005437339
244	0x3b6b9e00	0.003595233
245	0x3b26cd0b	0.0025451805
246	0x3b584cef	0.003300484
247	0xb80dcf69	-3.3810185e-05
248	0xbb76ef47	-0.0037679242
249	0xbb7521fb	-0.0037404287
250	0x3c812d39	0.015768634
251	0x3c423f3e	0.011855898
252	0xbcc13e16	-0.023589175
253	0xbc655d7d	-0.01399934
254	0x3ca2be95	0.019866267
255	0xba4e1a41	-0.00078621885

net_model.0.bias f4 [128]
0	0x3ac85db5	0.0015286716
1	0x3aae3205	0.0013290053
2	0x3acd5a2a	0.001566713
3	0x3ac0a2ce	0.0014696957
4	0x3acb1d6b	0.0015496438
5	0x3acd7534	0.0015675188
6	0xbaa19ca9	-0.0012330014
7	0x39bc6036	0.00035929837
8	0x3aafd152	0.0013413823
9	0x3ca5d9e6	0.020245504
10	0x3ab436b4	0.0013749213
11	0x3c833a33	0.016018962
12	0x3abfac37	0.0014623468
13	0x3ac05676	0.0014674205
14	0x3ac48f91	0.0014996399
15	0x3a9e3eb3	0.0012073129
16	0x3aba67bc	0.0014221589
17	0x3aba9cc7	0.0014237397
18	0x3a83dc93	0.0010060243
19	0x3cd20b66	0.0256402
20	0x3aae5c18	0.0013302593
21	0x3abb19ab	0.0014274617
22	0x3a9f6c2d	0.0012162976
23	0x3ab862e9	0.0014067563
24	0x3ca77c6a	0.020445067
25	0x3aca8d15	0.0015453423
26	0x3ab91e32	0.0014123379
27	0x3ac2b6bc	0.0014855484
28	0x3ac902d3	0.0015335925
29	0x3aac1a62	0.0013130421
30	0x3acc2522	0.0015575031
31	0x3ac53835	0.0015046658
32	0x3aa309f5	0.001243888
33	0x3abe7fa9	0.0014533895
34	0x3abfffb5	0.001464835
35	0x3acbdba3	0.0015553128
36	0x3ac9fe97	0.0015410957
37	0xba7368ac	-0.00092853117
38	0x39a9f3ac	0.00032415742
39	0x3beb79d6	0.007186155
40	0xbaabe0e5	-0.0013113288
41	0x3cac66d0	0.021045119
42	0x3ab4fb7e	0.0013807861
43	0x3ac0c43f	0.0014706923
44	0x3c024aa9	0.007952371
45	0x3aaeb0c8	0.0013327831
46	0x3ab3041a	0.0013657839
47	0x3a3de60e	0.00072440587
48	0x3aa499dc	0.0012558061
49	0x3abd965e	0.0014464369
50	0x3abbbdc6	0.0014323525
51	0x3ace6a46	0.0015748225
52	0xba9ecb03	-0.0012114946
53	0x3be16417	0.0068783867
54	0xba55818d	-0.000814461
55	0x3aba8401	0.0014230014
56	0x3c0ca54f	0.0085843345
57	0x3a89da56	0.001051734
58	0x3aa7ccc0	0.0012802109
59	0x3abe8404	0.0014535193
60	0x3ab5097d	0.0013812032
61	0x3ac46f1b	0.0014986725
62	0x3c005439	0.00783258
63	0x3abbfea9	0.0014342862
64	0x3bf059a2	0.007334904
65	0x3ca74633	0.020419216
66	0x3ab146d5	0.0013525138
67	0x3ac8bc10	0.0015314836
68	0x3ac3db48	0.001494267
69	0x3abf3583	0.0014588091
70	0x3aad6b12	0.0013230762
71	0x3ab3dfdd	0.0013723333
72	0x3ac87073	0.0015292302
73	0x3aa6d067	0.0012726904
74	0x3abc590d	0.0014369801
75	0x3aade3d1	0.0013266747
76	0x3c9c5140	0.019081712
77	0x3ac98c7c	0.0015376951
78	0x3aab080f	0.0013048666
79	0x3c0ea4b8	0.008706264
80	0x3bffc1e8	0.007805098
81	0x3bf849b8	0.0075771473
82	0x3bfa314d	0.0076352716
83	0x3a840d12	0.0010074696
84	0x3aae325e	0.0013290157
85	0x3aaccd20	0.0013183691
86	0x3caccb94	0.021093167
87	0x3bfa5b5c	0.0076402854
88	0x3ac4c6d0	0.0015012864
89	0x3ab8db83	0.0014103506
90	0xb77aa043	-1.4938475e-05
91	0x3a94e815	0.001136067
92	0x3abd7fc7	0.0014457636
93	0x3ac4351a	0.0014969439
94	0x3ac2a5a6	0.0014850392
95	0x3ac643c6	0.0015126399
96	0x3c1ebed0	0.009689048
97	0x3ab058bb	0.0013454178
98	0x3abf1b78	0.001458033
99	0x3aa3888d	0.0012476608
100	0x3aab96b5	0.0013091179
101	0xb9f976b2	-0.00047581416
102	0x3caa7117	0.020805879
103	0x3a9c7e02	0.0011939409
104	0x3ac5b593	0.001508402
105	0x3ac7fe97	0.0015258369
106	0x3c1e39ba	0.009657318
107	0x3ac941ca	0.001535469
108	0x3ab05772	0.0013453795
109	0x3ac9a8e7	0.001538542
110	0x3bf172f9	0.007368442
111	0x3ac8b863	0.0015313741
112	0x3bec529c	0.0072119962
113	0x3aa61d90	0.0012673605
114	0x3c079139	0.00827437
115	0x3ab5aa57	0.0013859969
116	0x3aae1e72	0.001328422
117	0x3aa9b594	0.0012947791
118	0x3acf4c1a	0.0015815527
119	0x3c0af296	0.008480689
120	0x3bea3eca	0.0071485983
121	0x3ab89679	0.001408293
122	0x3ab4f9ce	0.0013807358
123	0x3ac04916	0.0014670219
124	0x3abe41b0	0.0014515426
125	0x3abf9f64	0.0014619646
126	0x3acd5a0a	0.0015667093
127	0x3abcebe6	0.0014413565

net_model.2.weight f4 [64, 128]
0	0x3c69008e	0.014221324
1	0x3c64aced	0.013957244
2	0x3c6939da	0.014234984
3	0x3c68795d	0.0141890915
4	0x3c6b98ce	0.014379693
5	0x3c6994fb	0.014256711
6	0x3c3f8394	0.0116890855
7	0x3c56ea2f	0.013117357
8	0x3c668500	0.014069796
9	0xbc4a559a	-0.012349511
10	0x3c6794a9	0.014134564
11	0xbdd16e81	-0.10226155
12	0x3c684124	0.014175687
13	0x3c695865	0.014242266
14	0x3c6851be	0.014179645
15	0x3c64a197	0.013954542
16	0x3c674505	0.014115577
17	0x3c682d32	0.014170932
18	0x3c5fd8d1	0.013662533
19	0xbdac8528	-0.08423835
20	0x3c64881c	0.013948467
21	0x3c68f8be	0.014219461
22	0x3c63dacf	0.0139071485
23	0x3c6863f3	0.014183986
24	0xbc4cb832	-0.012495087
25	0x3c697d5d	0.01425108
26	0x3c67649a	0.014123106
27	0x3c6b3536	0.014355948
28	0x3c6a52fa	0.01430201
29	0x3c65185a	0.013982857
30	0x3c68beb2	0.014205622
31	0x3c6aa79f	0.014322191
32	0x3c652788	0.013986476
33	0x3c66cc67	0.014086819
34	0x3c682633	0.014169264
35	0x3c6a795b	0.01431116
36	0x3c6b71c6	0.014370387
37	0x3c423f54	0.011855919
38	0x3c55dee2	0.013053628
39	0xbd389159	-0.04506049
40	0x3c3dfb6c	0.011595588
41	0xbc4b11fc	-0.0123944245
42	0x3c670629	0.01410059
43	0x3c6790f0	0.014133677
44	0xbd1f5064	-0.038895026
45	0x3c671d21	0.014106066
46	0x3c6697b0	0.014074251
47	0x3c5c871b	0.013459946
48	0x3c643b62	0.013930174
49	0x3c69080d	0.014223111
50	0x3c67ce30	0.01414828
51	0x3c69cb56	0.0142696705
52	0x3c3f017c	0.011658069
53	0xbd487e5d	-0.048948634
54	0x3c43db15	0.011954089
55	0x3c67180b	0.014104853
56	0xbd0ff4a6	-0.035145424
57	0x3c618da6	0.013766682
58	0x3c654f62	0.013995977
59	0x3c674e73	0.014117825
60	0x3c66a01d	0.01407626
61	0x3c67fe69	0.014159777
62	0xbd234e15	-0.039869387
63	0x3c66bfba	0.014083797
64	0xbd371644	-0.04469897
65	0xbc4d701a	-0.012538934
66	0x3c67b356	0.014141878
67	0x3c69bcee	0.014266236
68	0x3c69a0a9	0.014259496
69	0x3c6998d0	0.014257625
70	0x3c65b2f5	0.014019717
71	0x3c67a726	0.014138972
72	0x3c6a87de	0.01431462
73	0x3c63b2d6	0.013897618
74	0x3c67b2ec	0.014141779
75	0x3c66afad	0.01407997
76	0xbc800152	-0.01562563
77	0x3c68c1ae	0.014206333
78	0x3c65393d	0.013990697
79	0x3de2c46b	0.1107262
80	0xbd1fd5a0	-0.039022088
81	0xbd29f6bb	-0.041495066
82	0xbd258fa2	-0.040420182
83	0x3c60b89f	0.013715892
84	0x3c664cb3	0.014056372
85	0x3c65c098	0.014022969
86	0xbc4b4209	-0.012405881
87	0xbd28b3f4	-0.04118724
88	0x3c6925c9	0.0142302
89	0x3c66de9a	0.014091158
90	0x3c50a62a	0.012734929
91	0x3c635a25	0.013876473
92	0x3c6a9c67	0.014319516
93	0x3c6a8c18	0.0143156275
94	0x3c69abbc	0.014262136
95	0x3c693261	0.014233203
96	0xbcef2cfd	-0.029196257
97	0x3c674629	0.014115849
98	0x3c686be4	0.014185879
99	0x3c648827	0.013948477
100	0x3c64d516	0.013966819
101	0x3c497f29	0.012298384
102	0xbc4c0678	-0.012452714
103	0x3c64a489	0.013955244
104	0x3c692343	0.014229598
105	0x3c6b9325	0.014378344
106	0xbcea3b5d	-0.02859276
107	0x3c6a0ef4	0.014285792
108	0x3c668d78	0.014071815
109	0x3c687d4a	0.0141900275
110	0xbd34ec61	-0.04417074
111	0x3c69b368	0.014263965
112	0xbd395c00	-0.045253754
113	0x3c6648da	0.014055455
114	0xbd172f17	-0.036910143
115	0x3c66f09c	0.014095452
116	0x3c66d334	0.014088441
117	0x3c6545c5	0.013993685
118	0x3c686f88	0.014186747
119	0xbd177b48	-0.036982805
120	0xbd3b3349	-0.045703206
121	0x3c6785d1	0.014131025
122	0x3c6764d2	0.0141231585
123	0x3c68cf06	0.0142095145
124	0x3c665845	0.014059131
125	0x3c66c122	0.014084132
126	0x3c6a9ae3	0.014319154
127	0x3c6888c7	0.0141927665
128	0x3c092908	0.008371599
129	0x3c087191	0.008327858
130	0x3c0939a2	0.008375557
131	0x3c09bb30	0.008406445
132	0x3c0a1cc0	0.008429706
133	0x3c091171	0.008365975
134	0x3c06f42d	0.008236927
135	0x3c0711de	0.008244006
136	0x3c090e2e	0.008365197
137	0xbbae3b59	-0.0053171334
138	0x3c09356c	0.008374553
139	0xbdd5f031	-0.104462035
140	0x3c092bc1	0.008372248
141	0x3c096377	0.008385531
142	0x3c095f05	0.008384471
143	0x3c08bcea	0.008345822
144	0x3c089b8f	0.008337869
145	0x3c096750	0.008386448
146	0x3c07cd6a	0.008288721
147	0xbdad339d	-0.0845711
148	0x3c087beb	0.008330326
149	0x3c097dac	0.008391779
150	0x3c086c17	0.008326552
151	0x3c093898	0.008375309
152	0xbba4fd74	-0.005035097
153	0x3c0986e1	0.008393974
154	0x3c08f53d	0.008359251
155	0x3c09d4c2	0.008412542
156	0x3c09d478	0.008412473
157	0x3c08804a	0.008331368
158	0x3c0a0726	0.008424556
159	0x3c09c8dd	0.008409706
160	0x3c0899de	0.008337466
161	0x3c08fa1a	0.00836041
162	0x3c08ee5d	0.0083576115
163	0x3c09741d	0.0083895
164	0x3c0a1756	0.008428415
165	0x3c05fb70	0.008177623
166	0x3c06d533	0.008229542
167	0xbd1cd430	-0.038288295
168	0x3c06e684	0.00823367
169	0xbb88943e	-0.0041680625
170	0x3c08d46e	0.008351428
171	0x3c097712	0.008390205
172	0xbd02bc7c	-0.031918034
173	0x3c08eabf	0.008356749
174	0x3c08e97e	0.00835645
175	0x3c078f78	0.008273952
176	0x3c08766f	0.008329018
177	0x3c09dc3d	0.008414325
178	0x3c094d72	0.008380281
179	0x3c0a230c	0.008431207
180	0x3c071270	0.008244142
181	0xbd2c9ce9	-0.04214183
182	0x3c05fc1f	0.008177786
183	0x3c089cc4	0.008338157
184	0xbce6a46a	-0.02815457
185	0x3c0837a7	0.00831405
186	0x3c08a088	0.008339055
187	0x3c0907d2	0.008363681
188	0x3c08eedc	0.00835773
189	0x3c08f7d6	0.00835987
190	0xbd0715df	-0.032979842
191	0x3c090d51	0.008364991
192	0xbd1b5f58	-0.037932724
193	0xbbaab34b	-0.0052093617
194	0x3c09499c	0.008379366
195	0x3c09d43b	0.008412416
196	0x3c097867	0.008390523
197	0x3c098e53	0.008395749
198	0x3c093740	0.008374989
199	0x3c09921b	0.008396651
200	0x3c095f31	0.008384512
201	0x3c085cfd	0.008322951
202	0x3c0985e0	0.008393735
203	0x3c08ffe1	0.008361788
204	0xbbefc8f7	-0.007317658
205	0x3c0a0ecd	0.00842638
206	0x3c08d6af	0.008351966
207	0x3dea5711	0.11442388
208	0xbd035b81	-0.032069687
209	0xbd0df4dc	-0.034657344
210	0xbd0928e2	-0.033486255
211	0x3c07f73f	0.008298694
212	0x3c08bd3a	0.008345896
213	0x3c08dc02	0.008353235
214	0xbb8485e6	-0.0040442823
215	0xbd0c269e	-0.034216516
216	0x3c0949c6	0.008379405
217	0x3c092059	0.008369529
218	0x3c05e8e1	0.008173198
219	0x3c087daa	0.008330742
220	0x3c0993e7	0.008397079
221	0x3c09de68	0.008414842
222	0x3c0a6109	0.008445987
223	0x3c09546d	0.008381945
224	0xbcb2b01b	-0.02181249
225	0x3c090937	0.008364013
226	0x3c095454	0.008381922
227	0x3c0895ae	0.008336468
228	0x3c08971b	0.008336808
229	0x3c05ef31	0.008174703
230	0xbb9704da	-0.0046087326
231	0x3c084cea	0.008319119
232	0x3c09a506	0.008401161
233	0x3c0a292e	0.00843267
234	0xbcadf64f	-0.021235613
235	0x3c098df9	0.008395665
236	0x3c08e817	0.008356116
237	0x3c0937f4	0.008375157
238	0xbd1904ea	-0.037358202
239	0x3c0a090d	0.008425009
240	0xbd1d328e	-0.03837829
241	0x3c094ce2	0.008380147
242	0xbcf568a7	-0.029957129
243	0x3c0902e7	0.008362508
244	0x3c095253	0.008381444
245	0x3c08ad98	0.008342169
246	0x3c097019	0.008388543
247	0xbcf489a1	-0.029850783
248	0xbd1f84d3	-0.03894503
249	0x3c0978b2	0.008390592
250	0x3c0957a6	0.008382713
251	0x3c098c58	0.008395277
252	0x3c0906da	0.00836345
253	0x3c08fb96	0.008360764
254	0x3c09d1f8	0.008411877
255	0x3c09774a	0.008390257

net_model.2.bias f4 [64]
0	0x39854138	0.0002541633
1	0xbad8058d	-0.0016481146
2	0x3c94191f	0.018078385
3	0x39581a3a	0.00020609135
4	0x97ec1406	-1.5256197e-24
5	0xbaba9a6e	-0.0014236697
6	0x39863512	0.00025598012
7	0xb5db6e7e	-1.6348929e-06
8	0xbb27f221	-0.0025626498
9	0xba0ca357	-0.00053649157
10	0xba96c0f0	-0.0011501592
11	0x39845759	0.0002524208
12	0xbb28b69a	-0.0025743605
13	0x39837353	0.0002507219
14	0xb5102aac	-5.3706276e-07
15	0x3984cfaa	0.00025331724
16	0x3966e321	0.00022019121
17	0x395f6740	0.00021305401
18	0x3966dc5f	0.00022016604
19	0xac0b808d	-1.9824448e-12
20	0x398a11f0	0.00026334776
21	0xbb266f07	-0.0025395767
22	0x398c9f66	0.00026821642
23	0x39795e7d	0.0002378169
24	0x3954f7b0	0.00020310166
25	0xb6d81091	-6.43923e-06
26	0xb974d7e3	-0.00023350077
27	0x3c819430	0.015817732
28	0xb9a9fe15	-0.00032423498
29	0x3bab5584	0.0052287
30	0xbac579af	-0.0015066172
31	0x39811d5c	0.00024626672
32	0x398844d0	0.0002599121
33	0x3983b8a5	0.00025123838
34	0x397e993f	0.00024280416
35	0x3973a3bb	0.0002323528
36	0x3c963aad	0.018338526
37	0xbb08fbca	-0.002090203
38	0xb83eee24	-4.5521316e-05
39	0xb004629e	-4.8161464e-10
40	0x397ed98d	0.00024304372
41	0xa1994634	-1.0386266e-18
42	0x393c877e	0.00017979552
43	0x3986131e	0.00025572715
44	0x945df44a	-1.1205826e-26
45	0xb188b5a9	-3.9787733e-09
46	0x398213c0	0.00024810247
47	0xb6854eac	-3.9728675e-06
48	0x3969f0bb	0.0002231029
49	0x39857a0f	0.00025458678
50	0xbac226d5	-0.0014812598
51	0x39464c17	0.00018911097
52	0xb502a2df	-4.866578e-07
53	0x3984aa11	0.0002530371
54	0x39788e83	0.00023704213
55	0xbb0cf674	-0.0021509202
56	0x9e689de8	-1.2314632e-20
57	0x3974c7e0	0.00023344113
58	0x3c08f94a	0.008360216
59	0x39879f8d	0.0002586808
60	0x398af3d1	0.00026503069
61	0x398489df	0.00025279724
62	0xb5c5c68f	-1.4735432e-06
63	0xab62f379	-8.0629215e-13

net_model.4.weight f4 [32, 64]
0	0x3ce4ba4c	0.027920865
1	0x3d02c318	0.031924337
2	0xbd1de1f3	-0.03854556
3	0x3ce4541a	0.027872134
4	0x02f0fe5c	3.5410826e-37
5	0x3893bae4	7.044317e-05
6	0x3ce46bf7	0.027883513
7	0xb2c4a3a4	-2.2891818e-08
8	0x399cf330	0.00029935827
9	0xb74224c2	-1.1571859e-05
10	0xb9c2b726	-0.0003713902
11	0x3ce4344c	0.027856968
12	0x3cf799f9	0.030224787
13	0x3ce3b735	0.02779732
14	0x3481ccb7	2.4177072e-07
15	0x3ce4e65e	0.027941879
16	0x3ce3d1c3	0.027809983
17	0x3ce49058	0.02790086
18	0x3ce45c05	0.02787591
19	0x87e1cf88	-3.3976213e-34
20	0x3ce4a519	0.027910756
21	0xbae11c46	-0.0017174564
22	0x3ce49b01	0.027905943
23	0x3ce3d52c	0.02781161
24	0x3ce4a203	0.027909284
25	0x2b867052	9.552448e-13
26	0x3af3716a	0.0018573229
27	0xbd1bcb90	-0.03803593
28	0x35f363d7	1.8133968e-06
29	0xbd20f946	-0.039300226
30	0x3a281ea3	0.00064132566
31	0x3ce3544b	0.027750155
32	0x3ce45659	0.027873205
33	0x3ce5040d	0.027956033
34	0x3ce3ac24	0.027792044
35	0x3ce5a94c	0.028034829
36	0xbd1e4634	-0.03864117
37	0x3d0f2264	0.034944907
38	0xb92846ad	-0.00016048057
39	0x2dbf5068	2.1749894e-11
40	0x3ce391ed	0.027779544
41	0x82a6c2c2	-2.4503293e-37
42	0x3ce47f2a	0.027892668
43	0x3ce4a370	0.027909964
44	0x0f9546f8	1.471987e-29
45	0x01ca7f0a	7.4385373e-38
46	0x3ce3d9c1	0.027813794
47	0x37393647	1.1039497e-05
48	0x3ce4790d	0.027889753
49	0x3ce56574	0.028002478
50	0x3ce78157	0.028259916
51	0x3ce3e3bf	0.027818559
52	0x0218c422	1.1223484e-37
53	0x3ce37afe	0.027768608
54	0x3ce4aa63	0.027913278
55	0x3d09f2ea	0.033678927
56	0x9cf86d1d	-1.6439468e-21
57	0x3ce2b8c5	0.027675996
58	0xbd1cdcdf	-0.038296577
59	0x3ce3cfb9	0.02780901
60	0x3ce49c4a	0.027906556
61	0x3ce51228	0.02796276
62	0x034678be	5.8325576e-37
63	0x82210c60	-1.1831963e-37
64	0x0202ca59	9.608963e-38
65	0x033ba802	5.5147224e-37
66	0x007ebdc0	1.1639342e-38
67	0x8321ca10	-4.7545604e-37
68	0x0332662a	5.2426777e-37
69	0x832194e3	-4.748456e-37
70	0x82b093b6	-2.5945658e-37
71	0x8236347d	-1.3386312e-37
72	0x03569ee5	6.307135e-37
73	0x831b35d2	-4.561219e-37
74	0x032e5ded	5.1241826e-37
75	0x032b01c1	5.0254397e-37
76	0x83438ef9	-5.7469474e-37
77	0x028781dc	1.9911003e-37
78	0x83077f24	-3.9818885e-37
79	0x02a86464	2.4743003e-37
80	0x83279b88	-4.925543e-37
81	0x03377791	5.391612e-37
82	0x832a138c	-4.998095e-37
83	0x8361394f	-6.6187344e-37
84	0x0339bdd5	5.458453e-37
85	0x824f4682	-1.5228193e-37
86	0x0289db3a	2.025617e-37
87	0x826438e7	-1.6767125e-37
88	0x03337983	5.274286e-37
89	0x82fb9a2c	-3.6969626e-37
90	0x03151f7c	4.3823307e-37
91	0x02f58fb5	3.6081998e-37
92	0x8249d7f4	-1.4829123e-37
93	0x8246a0ba	-1.4592869e-37
94	0x831d8816	-4.6294372e-37
95	0x0307d4e7	3.9917334e-37
96	0x83488f9f	-5.8939586e-37
97	0x0342f0ee	5.728805e-37
98	0x03559648	6.276759e-37
99	0x828174fd	-1.9021994e-37
100	0x83345cb9	-5.3003686e-37
101	0x834235d4	-5.7073268e-37
102	0x031eb322	4.663766e-37
103	0x030531d6	3.9142396e-37
104	0x03529d07	6.189371e-37
105	0x832d1a96	-5.087065e-37
106	0x03511764	6.144643e-37
107	0x8308ae40	-4.0166837e-37
108	0x82840b97	-1.940231e-37
109	0x8264f736	-1.682174e-37
110	0x820b9158	-1.0253819e-37
111	0x831f91ef	-4.6893424e-37
112	0x031e5fee	4.654215e-37
113	0x03384f78	5.4163966e-37
114	0x032f5808	5.1528933e-37
115	0x82efff94	-3.5264588e-37
116	0x03599d75	6.395132e-37
117	0x83348c8f	-5.30586e-37
118	0x031a1a67	4.528684e-37
119	0x8348a582	-5.896471e-37
120	0x02fe2823	3.7344983e-37
121	0x03337567	5.2738143e-37
122	0x82df1560	-3.2779174e-37
123	0x832eb132	-5.1337415e-37
124	0x836cae40	-6.9554196e-37
125	0x032013fd	4.704272e-37
126	0x834ee4e2	-6.0800704e-37
127	0x836cf9cf	-6.9640933e-37
128	0x034f9b3e	6.101004e-37
129	0x02c4a72e	2.8895568e-37
130	0x82f37818	-3.5774571e-37
131	0x03128ec8	4.306945e-37
132	0x8339431d	-5.4443656e-37
133	0x8368c9fa	-6.841053e-37
134	0x033c462b	5.5328783e-37
135	0x031f80cf	4.6873765e-37
136	0x031f473a	4.6807665e-37
137	0x831b6400	-4.56652e-37
138	0x8332612f	-5.242106e-37
139	0x832b7684	-5.0388433e-37
140	0x8319898d	-4.512056e-37
141	0x83165c36	-4.418689e-37
142	0x82c958f1	-2.9585345e-37
143	0x834cffe8	-6.024398e-37
144	0x0320ae0f	4.7219583e-37
145	0x833758a3	-5.3880617e-37
146	0x031d5df1	4.6245993e-37
147	0x0366a251	6.7777255e-37
148	0x0341bae9	5.6932165e-37
149	0x831d67f6	-4.6257495e-37
150	0x032f68b5	5.1548076e-37
151	0x03160e6c	4.4097594e-37
152	0x8348190d	-5.8803474e-37
153	0x0325de92	4.874464e-37
154	0x82d8fff4	-3.1885257e-37
155	0x030c506a	4.1234613e-37
156	0x0315242c	4.382869e-37
157	0x83173e86	-4.4446685e-37
158	0x832fdfce	-5.1684793e-37
159	0x020d2990	1.0370972e-37
160	0x834fbd5d	-6.104921e-37
161	0x83068d1f	-3.954106e-37
162	0x03225f36	4.771682e-37
163	0x03116fd2	4.2740034e-37
164	0x028c7d30	2.0643005e-37
165	0x03120c6c	4.2919803e-37
166	0x031f075a	4.673434e-37
167	0x03186b77	4.479215e-37
168	0x03299fd9	4.9848132e-37
169	0x834ce740	-6.0215674e-37
170	0x82aac4f8	-2.509231e-37
171	0x0310b5d9	4.2526548e-37
172	0x8197c612	-5.5752857e-38
173	0x82484147	-1.4712413e-37
174	0x03039eb4	3.8679622e-37
175	0x0359a8f9	6.396454e-37
176	0x834dd70c	-6.0490947e-37
177	0x03019d3f	3.8090202e-37
178	0x0239b607	1.3643893e-37
179	0x82cbaeaa	-2.9928421e-37
180	0x010f45e0	2.6315085e-38
181	0x02e071c2	3.2979136e-37
182	0x03596966	6.389156e-37
183	0x823cd515	-1.387321e-37
184	0x83095f1a	-4.0369853e-37
185	0x833d0b6d	-5.5555224e-37
186	0x034b3cf1	5.9726296e-37
187	0x82fb5cd3	-3.6934414e-37
188	0x03625763	6.6515746e-37
189	0x835fb730	-6.57441e-37
190	0x8339749e	-5.4500484e-37
191	0x02eec2f3	3.5082852e-37
192	0x030a466d	4.06354e-37
193	0x832e956a	-5.1305523e-37
194	0x033195f1	5.218775e-37
195	0x8328d568	-4.961574e-37
196	0x831ff95d	-4.7012155e-37
197	0x832fe417	-5.168971e-37
198	0x832d1f88	-5.0876327e-37
199	0x02bbe062	2.760597e-37
200	0x030ff14f	4.230093e-37
201	0x82d64934	-3.148649e-37
202	0x02fd18ee	3.7189318e-37
203	0x83685597	-6.8276925e-37
204	0x834ad136	-5.9602627e-37
205	0x8339ba06	-5.458016e-37
206	0x0253443b	1.5521413e-37
207	0x031688b6	4.4237975e-37
208	0x029f255e	2.3384398e-37
209	0x0319a446	4.5151236e-37
210	0x8354e817	-6.2567627e-37
211	0x018fb4ca	5.2789323e-38
212	0x835bd27e	-6.459995e-37
213	0x83239504	-4.8072456e-37
214	0x835b0df7	-6.4374347e-37
215	0x02f64135	3.6183878e-37
216	0x82db0e4a	-3.218736e-37
217	0x031944d8	4.5041688e-37
218	0x8349aa81	-5.926432e-37
219	0x032e2ae8	5.118326e-37
220	0x8315936e	-4.3956406e-37
221	0x833dfb52	-5.583061e-37
222	0x83175543	-4.4472787e-37
223	0x0308a691	4.0158017e-37
224	0x035d1530	6.4970385e-37
225	0x835ca27d	-6.4838717e-37
226	0x82e09a02	-3.3002238e-37
227	0x03586e8c	6.3603597e-37
228	0x035d31d8	6.500328e-37
229	0x033900e6	5.4367645e-37
230	0x831b650d	-4.5666407e-37
231	0x8355ce76	-6.283208e-37
232	0x034f830a	6.098226e-37
233	0x036535ce	6.7358816e-37
234	0x032db9c8	5.1053397e-37
235	0x0348e1de	5.9034e-37
236	0x8249a3fc	-1.4814209e-37
237	0x829a36c4	-2.26597e-37
238	0x8358e989	-6.374478e-37
239	0x03586d90	6.3602467e-37
240	0x0210e98e	1.0646476e-37
241	0x03473bf0	5.854965e-37
242	0x834ff13c	-6.1108756e-37
243	0x02f466b7	3.5911533e-37
244	0x8308dcc6	-4.0220243e-37
245	0x8334c69e	-5.3125247e-37
246	0x00a47fb8	1.5106838e-38
247	0x830554d7	-3.918258e-37
248	0x032b21a2	5.029099e-37
249	0x8024c458	-3.376513e-39
250	0x828e3ecc	-2.0901068e-37
251	0x0327798a	4.921641e-37
252	0x834f25cd	-6.0875226e-37
253	0x835b9d58	-6.4538937e-37
254	0x830316a7	-3.8523444e-37
255	0x8358056c	-6.348292e-37

net_model.4.bias f4 [32]
0	0xbb46824e	-0.003029007
1	0xb9f9d4fb	-0.00047651664
2	0xb9b7240f	-0.00034931346
3	0xba14ae91	-0.00056717644
4	0xbb48137e	-0.0030529196
5	0xb9749a8a	-0.00023327224
6	0xba077185	-0.0005166757
7	0xbb460983	-0.0030218072
8	0xba0e770b	-0.0005434609
9	0xbb480434	-0.0030520083
10	0xbb468ce4	-0.003029638
11	0xb9a9740e	-0.0003232066
12	0xada9319c	-1.9235107e-11
13	0xbb46a764	-0.0030312175
14	0xb9d67295	-0.0004090263
15	0xbb47edb4	-0.0030506672
16	0xba0cc973	-0.00053705944
17	0xb1da4c10	-6.3532823e-09
18	0xbb47cba0	-0.003048636
19	0xb9c75b89	-0.00038024437
20	0xbb485607	-0.0030568854
21	0xbb47e25d	-0.0030499913
22	0xba0dea04	-0.0005413594
23	0xaa358210	-1.6121154e-13
24	0xb83136fe	-4.2251304e-05
25	0xbb47b37e	-0.0030471976
26	0xb944957a	-0.00018747701
27	0xbb45e44a	-0.0030195885
28	0xb9e990ea	-0.00044549193
29	0xbb47f995	-0.0030513753
30	0xbb47900d	-0.0030450851
31	0xbb46654b	-0.0030272778

net_model.6.weight f4 [1, 32]
0	0xbce04b83	-0.027379757
1	0x832131fe	-4.7371036e-37
2	0x8142623c	-3.5702652e-38
3	0x835fbcf8	-6.5750736e-37
4	0xbce0a7cd	-0.027423764
5	0x8280e4f3	-1.893932e-37
6	0x836b732a	-6.9192495e-37
7	0xbce08ec3	-0.027411824
8	0x8328236a	-4.9411416e-37
9	0xbce0e589	-0.0274532
10	0xbce043d2	-0.02737609
11	0x833cc630	-5.5475743e-37
12	0x0328c5fd	4.959804e-37
13	0xbce051fa	-0.02738284
14	0xba0b4262	-0.0005312321
15	0xbce0e1fc	-0.027451508
16	0x833f6757	-5.6248484e-37
17	0x8334bb9c	-5.311261e-37
18	0xbce0f866	-0.027462196
19	0xba0d0912	-0.0005380075
20	0xbce06207	-0.027390493
21	0xbce06d38	-0.02739583
22	0x834c3e45	-6.0021694e-37
23	0x0342ff98	5.7304883e-37
24	0x832526d4	-4.8533714e-37
25	0xbce03d75	-0.027373055
26	0x8348c4f3	-5.9000804e-37
27	0xbce08d8e	-0.027411249
28	0x01f66818	9.0515495e-38
29	0xbce0544c	-0.027383946
30	0xbce09155	-0.02741305
31	0xbce0ec7f	-0.02745652
