src/t1dsim_ai/models/IndividualModel/T1DEXI-01-0392/individual_model.pt (torch, 50089 bytes, 7 tensors)

net_model.0.weight f4 [128, 10]
0	0xbc47dd67	-0.0121987825
1	0x3cf28058	0.029602215
2	0xbcec1a03	-0.028820997
3	0xbc96b785	-0.018398056
4	0x3be347c2	0.0069360444
5	0xb9de3d41	-0.00042388777
6	0xbbc8dca2	-0.006129817
7	0xbc859666	-0.016307067
8	0xbcc68d05	-0.024237165
9	0x3c6fb0e2	0.0146295745
10	0xbd2e042a	-0.04248444
11	0x3c3a71dc	0.011379685
12	0xbc93f786	-0.018062364
13	0xbcb8321f	-0.022484837
14	0x3c912ecc	0.01772251
15	0xba8b56b2	-0.0010630696
16	0xbce49227	-0.027901722
17	0xbc5548fd	-0.01301789
18	0xbca2a532	-0.019854162
19	0x3bec554e	0.0072123175
20	0xbc602902	-0.013681652
21	0x3d288939	0.04114649
22	0xbccf786a	-0.025325973
23	0xbc607353	-0.01369937
24	0xb98ed00a	-0.00027239352
25	0x3bf1a7b7	0.0073747295
26	0xbbc3a81b	-0.0059709675
27	0xbad26da6	-0.0016054406
28	0xbd10aced	-0.035321165
29	0x3c61e82e	0.013788266
30	0xbc537c72	-0.012908088
31	0x3ce0ad84	0.027426489
32	0xbcec4b7e	-0.028844591
33	0xbc9cb250	-0.019127995
34	0x3be63fe0	0.0070266575
35	0x3aa7dbbe	0.0012806577
36	0xbb7a9a2d	-0.0038238869
37	0xbc9c6e17	-0.019095464
38	0xbcc92359	-0.024552988
39	0x3c228d5c	0.009921398
40	0xbc80ca07	-0.015721334
41	0x3cc91287	0.024544967
42	0xbce75cf4	-0.028242566
43	0xbc613057	-0.013744435
44	0x3c0183a5	0.007904922
45	0xbabb33ad	-0.0014282368
46	0x3b441738	0.0029921066
47	0xbcd6569d	-0.026164347
48	0xbcb5ef5f	-0.022208868
49	0x3c673070	0.0141106695
50	0xbc836481	-0.016039135
51	0x3cc8fcfd	0.024534697
52	0xbce50fe0	-0.027961671
53	0xbc5e1935	-0.0135558145
54	0x3c043825	0.0080700265
55	0xbaf08f75	-0.00183533
56	0x3b68b835	0.0035510187
57	0xbcd86dbf	-0.026419519
58	0xbcb290e8	-0.021797612
59	0x3c6f7cb6	0.014617136
60	0x3baa14a4	0.005190449
61	0x3d1cb118	0.038254827
62	0x3d08e1b5	0.033418376
63	0xbcca85b4	-0.024721958
64	0x3c1bae1a	0.009501958
65	0xbd799817	-0.06093606
66	0xbc5e24ab	-0.013558547
67	0x3b07ea6a	0.0020739087
68	0xbd3884e0	-0.045048594
69	0x3d37f981	0.04491568
70	0x3cdc9f6e	0.02693149
71	0xbc32b219	-0.01090672
72	0x3c917fe2	0.017761175
73	0x3cc2a564	0.023760505
74	0x3c34ef9b	0.0110434545
75	0x3c25400d	0.010086072
76	0x3b8832ad	0.0041564316
77	0xbae333aa	-0.0017334123
78	0xbc010268	-0.007874109
79	0x3c8f615d	0.017502481
80	0xbc8d9324	-0.017282076
81	0x3cf1e2c4	0.029527076
82	0xbccc1502	-0.024912361
83	0xbc84a06f	-0.016189782
84	0x3c6123c7	0.01374144
85	0xbb675d6f	-0.0035303493
86	0xbc20fcb8	-0.009825878
87	0xbcda50a7	-0.026649786
88	0xbbc0ad08	-0.005880002
89	0x3c307991	0.010771171
90	0xbc9b01c7	-0.018921746
91	0x3ccc02a0	0.024903595
92	0xbcc99ece	-0.024611857
93	0xbc9d7d93	-0.019224918
94	0x3bdf9fdd	0.006824477
95	0xbaa66691	-0.0012695362
96	0x3b32d8e7	0.0027289928
97	0xbcd34333	-0.025788879
98	0xbc724cba	-0.014788801
99	0x3c8f5779	0.017497765
100	0xbc8c8283	-0.017152077
101	0x3cf09d47	0.02937187
102	0xbcca015e	-0.024658855
103	0xbc81c341	-0.015840175
104	0x3c5341e7	0.01289413
105	0xbb635c15	-0.0034692336
106	0xbc082f64	-0.00831208
107	0xbcd7ada7	-0.026327921
108	0xbbf99c31	-0.0076174964
109	0x3c49fcb9	0.01232832
110	0xbc9584ce	-0.018251803
111	0x3ce8cbbe	0.028417464
112	0xbcca5fa5	-0.02470381
113	0xbc8163a2	-0.015794579
114	0x3c5082df	0.012726515
115	0xbb91d073	-0.004449898
116	0xbba89c9f	-0.005145624
117	0xbce137a7	-0.027492357
118	0xbbfdda98	-0.0077470057
119	0x3c3e0d03	0.011599782
120	0xbc4ec096	-0.012619158
121	0x3cd77d3f	0.02630484
122	0xbcf2b027	-0.029625012
123	0xbc9e2e53	-0.019309198
124	0x3c020eed	0.007938129
125	0x3a47c1bf	0.0007620118
126	0xbb1dbd29	-0.0024069047
127	0xbc963862	-0.018337432
128	0xbcd04cc5	-0.025427232
129	0x3c30a63b	0.01078182
130	0xbc5436c4	-0.01295251
131	0x3d26583a	0.040611483
132	0xbcd2d600	-0.025736809
133	0xbc63ea4a	-0.013910839
134	0x3a43ebad	0.0007473778
135	0x3bfaec2b	0.007657548
136	0xbba516eb	-0.0050381324
137	0xbb04cfd4	-0.0020265477
138	0xbd0de1fb	-0.03463934
139	0x3c552086	0.0130082425
140	0xbc874199	-0.016510772
141	0x3cf9e0d5	0.030502716
142	0xbccbcaf3	-0.024877047
143	0xbc81a46f	-0.015825478
144	0x3c63969e	0.01389089
145	0xbb248894	-0.002510582
146	0xbc3cb234	-0.011517096
147	0xbcd16472	-0.025560591
148	0xbbb9644e	-0.005657709
149	0x3c42c179	0.011886948
150	0xbcb1cb2e	-0.021703329
151	0x3c39ab0e	0.0113322865
152	0xbcebf368	-0.028802589
153	0xbce7c791	-0.028293403
154	0x3b437ba0	0.0029828325
155	0x3b8494b2	0.004046046
156	0x3b97c713	0.004631886
157	0xbcf02559	-0.029314684
158	0x3a55dc63	0.00081581454
159	0x3c873fde	0.016509946
160	0xbc982dba	-0.018576492
161	0x3cd39bb4	0.025831081
162	0xbcc51cdf	-0.024061618
163	0xbc8e6017	-0.017379804
164	0x3bfc11cf	0.0076925526
165	0xba6ef151	-0.00091149384
166	0xbb0d453b	-0.0021556157
167	0xbcd6f10b	-0.026237985
168	0xbc59b2b7	-0.013287238
169	0x3c962fd1	0.018333348
170	0xbcc749aa	-0.024327118
171	0xbcb9b08b	-0.02266719
172	0xbd056fd1	-0.03257734
173	0xbd218edf	-0.039442893
174	0x3c379ef3	0.01120733
175	0xbc3c217e	-0.011482595
176	0x3ab8fdfc	0.0014113779
177	0xbc92858d	-0.017885948
178	0x3d1e6edf	0.038679954
179	0xbcbf231f	-0.023332177
180	0xbd3b7ea4	-0.04577507
181	0x3c824c26	0.015905451
182	0xbc68bd01	-0.014205218
183	0xbb516be6	-0.0031955182
184	0x3cce8817	0.025211377
185	0x3c0fe5e9	0.008782842
186	0xbcb370c8	-0.021904364
187	0xbcd9bdd3	-0.026579773
188	0xbc65ec7d	-0.014033434
189	0x3c24cc66	0.010058498
190	0xbd08c547	-0.033391263
191	0x3d001503	0.03127004
192	0xbc3fb224	-0.011700187
193	0xbc4e21cd	-0.012581301
194	0x3c9893fc	0.018625252
195	0x3a714c8e	0.0009204828
196	0x3b856d6b	0.0040718815
197	0xbcb31f56	-0.021865528
198	0xbc0ef74f	-0.008725955
199	0x3c1b0616	0.0094619
200	0xbc8c3778	-0.017116293
201	0x3cf3a5d3	0.029742157
202	0xbccc7f71	-0.024963113
203	0xbc83afef	-0.016075103
204	0x3c607a49	0.01370103
205	0xbb5c7f52	-0.0033645225
206	0xbc26f02a	-0.0101890955
207	0xbcd8f503	-0.026484018
208	0xbbc34743	-0.005959423
209	0x3c367401	0.011136056
210	0xbc97022c	-0.018433653
211	0x3cd043bf	0.025422929
212	0xbcce1f92	-0.025161538
213	0xbc79bddb	-0.015243019
214	0x3c167a6f	0.009184464
215	0xbb51e8af	-0.003202956
216	0x3b9f9b4e	0.0048708087
217	0xbcd9188e	-0.026500966
218	0xbc8cfcc3	-0.01721037
219	0x3c869805	0.01642991
220	0xbc9243dc	-0.017854623
221	0x3d25a415	0.040439684
222	0xbcfb4b90	-0.03067568
223	0xbc2a9fb7	-0.010414056
224	0x391a9f39	0.000147459
225	0xbb9017df	-0.004397377
226	0xbd8ca718	-0.06867808
227	0x3c87bfb5	0.016570905
228	0x3b5d0b86	0.0033728792
229	0x3cd73765	0.026271531
230	0xbc95a26f	-0.018265931
231	0x3cd3f4d0	0.025873572
232	0xbccc8885	-0.024967441
233	0xbc92460a	-0.017855663
234	0x3bf4a615	0.0074660876
235	0xba0d3165	-0.00053860835
236	0x3a891d98	0.001046109
237	0xbcc4758c	-0.023981832
238	0xbc8379f8	-0.01604937
239	0x3ca8a837	0.020588024
240	0xbd0ad937	-0.03389856
241	0x3cfcf89b	0.030880263
242	0xbc3d566f	-0.011556252
243	0xbc514723	-0.012773308
244	0x3c9f4826	0.019443583
245	0x3a7458b4	0.0009321079
246	0x3b652070	0.0034961961
247	0xbcb36709	-0.021899717
248	0xbbf79e53	-0.0075567155
249	0x3c17be25	0.009261643
250	0xbc806c31	-0.01567659
251	0x3d018a7a	0.031626202
252	0xbcbf7e67	-0.023375703
253	0xbc861743	-0.016368514
254	0x3c40cc82	0.011767508
255	0xb929260a	-0.00016131267

net_model.0.bias f4 [128]
0	0xbc29d7d7	-0.010366402
1	0xbca0cc10	-0.019628555
2	0xbc41a686	-0.011819487
3	0xbc15c229	-0.00914053
4	0xbc1c2f55	-0.009532769
5	0xbc20fde5	-0.009826158
6	0x3bb17727	0.0054158154
7	0x3c9721f1	0.018448802
8	0xbc699cdc	-0.01425859
9	0xbc1c8dbd	-0.009555277
10	0xbc6ca725	-0.014444147
11	0xbc5d9a35	-0.013525535
12	0xbbfef083	-0.007780136
13	0xbc2c8dc5	-0.010531847
14	0xbc79856e	-0.015229566
15	0xbba35575	-0.0049845525
16	0xbc30948b	-0.010777603
17	0x3b360c37	0.0027778277
18	0xbc66cad4	-0.014086444
19	0xbccb4252	-0.024811897
20	0xbc6cd74d	-0.014455629
21	0xbc28b87f	-0.010297894
22	0xbc983fab	-0.018585047
23	0xbc26346e	-0.010144336
24	0xbcc9ae54	-0.024619259
25	0xbc869ed9	-0.016433166
26	0xbc31e332	-0.01085739
27	0xbc02d41b	-0.00798514
28	0xbc253542	-0.010083498
29	0xbc1b7740	-0.009488881
30	0xbc3c5017	-0.011493704
31	0xbc40fb56	-0.011778673
32	0xbc3b6e9b	-0.011439945
33	0xbc72f8e3	-0.014829847
34	0xbc9ceef8	-0.019156918
35	0xbc729870	-0.014806852
36	0xbc425076	-0.011860004
37	0xbcae4a60	-0.0212757
38	0xbb8b9d23	-0.0042606755
39	0xbc9af8c6	-0.018917453
40	0x3c9754a5	0.018472979
41	0xbbd0229d	-0.0063517825
42	0x3d8c8945	0.068621196
43	0xbc3c81e6	-0.01150558
44	0xbcd117fc	-0.025524132
45	0xbca68ea1	-0.020331683
46	0xbc9c25e6	-0.01906104
47	0xbb41795b	-0.0029521796
48	0xbc28f870	-0.010313138
49	0xbc25a77f	-0.010110735
50	0xbb8a7d43	-0.004226358
51	0xbc26458f	-0.01014842
52	0xbc9f4277	-0.019440873
53	0xbc5cbde2	-0.013473006
54	0xbc782a5f	-0.015146821
55	0xbcc9ff1b	-0.024657777
56	0x3ca0fc87	0.019651664
57	0xbc6ccfbe	-0.0144538265
58	0xbc9b0935	-0.018925289
59	0xbc2629dc	-0.010141816
60	0xbc670da2	-0.014102371
61	0xbc873336	-0.016503911
62	0xbc5258e7	-0.012838579
63	0xbc25fb46	-0.010130709
64	0xbc708842	-0.014680924
65	0xbbedb175	-0.0072538205
66	0xbca23916	-0.019802611
67	0xbc0ebdd8	-0.008712254
68	0xbc0b46e0	-0.008500785
69	0xbc0dadc8	-0.00864739
70	0xbc0de218	-0.008659862
71	0xbc36cd93	-0.011157411
72	0xbbcd86af	-0.006272159
73	0xbc5d4613	-0.0135054765
74	0xbc9b3247	-0.018944873
75	0xbc8d0276	-0.017213088
76	0x3c864f40	0.016395211
77	0xbc4689ba	-0.0121177975
78	0xbc18e3ec	-0.009331685
79	0xbca1d09b	-0.019752791
80	0xbc9a198e	-0.018811014
81	0xbc762cf7	-0.015025369
82	0xbca15abc	-0.019696586
83	0xbc9bcf5b	-0.019019773
84	0xbc6750b3	-0.014118361
85	0xbc36d6c9	-0.011159607
86	0xbc20e3a1	-0.009819896
87	0xbc84fdf9	-0.016234385
88	0xbca47027	-0.02007301
89	0xbc1e40d0	-0.009659007
90	0x3c942126	0.018082213
91	0xbc301746	-0.010747736
92	0xbc138908	-0.009004839
93	0xbb912613	-0.0044295876
94	0xbbf8d741	-0.0075940196
95	0xbc230e1a	-0.009952093
96	0xbcc5015a	-0.024048496
97	0xbc866e4e	-0.01641002
98	0xbc04be7c	-0.008102056
99	0xbc182761	-0.009286732
100	0xbc039e9a	-0.008033419
101	0xbc132140	-0.008980095
102	0xbc29ad7a	-0.010356301
103	0xbc23c989	-0.00999678
104	0xbc1de62e	-0.009637399
105	0xbc328c06	-0.010897642
106	0xbb73b15a	-0.0037184567
107	0xbc2f448e	-0.010697497
108	0xb8986669	-7.267e-05
109	0xbca2d617	-0.019877477
110	0xbc161a8a	-0.009161601
111	0xbc06ace4	-0.008219931
112	0xbca2c14d	-0.019867564
113	0xbb126519	-0.002233809
114	0xbc740647	-0.014894075
115	0xbc7e87b4	-0.015535284
116	0xbc20d40b	-0.00981618
117	0xbc1b123c	-0.009464797
118	0xbc39f7b5	-0.011350562
119	0xbc71c399	-0.014756107
120	0xbca03118	-0.01955466
121	0xbbfdea34	-0.0077488665
122	0xbcc9b197	-0.024620814
123	0xbc587be7	-0.013213134
124	0xbc4d3dd6	-0.01252695
125	0xbc2e3484	-0.010632638
126	0xbc246816	-0.010034582
127	0xbc42a0e6	-0.0118791815

net_model.2.weight f4 [64, 128]
0	0x3ca3bb5d	0.019986803
1	0x3d43ada5	0.047773022
2	0x3cfa8510	0.030581027
3	0x3c9bc476	0.019014578
4	0x3cb2ffc6	0.021850478
5	0x3cb4e807	0.022083296
6	0xbd9c0f7d	-0.07620142
7	0xbcb9b318	-0.022668406
8	0x3cd4f373	0.025994992
9	0x3ca13783	0.01967979
10	0x3ccb48df	0.024815021
11	0x3cc88a19	0.024479913
12	0x3c9ad0a6	0.01889832
13	0x3ce79b44	0.028272279
14	0x3cda37c2	0.026637916
15	0x3ccc5575	0.024943093
16	0x3ca34b03	0.01993323
17	0x3d6decc6	0.058087133
18	0x3d417211	0.047227923
19	0x3d19ba6d	0.037531305
20	0x3cd53fb9	0.026031362
21	0x3cad155b	0.021128347
22	0x3da7603a	0.08172651
23	0x3ca456ab	0.020060858
24	0x3d1b703e	0.03794884
25	0x3ccb6ccc	0.024832152
26	0x3cfad80d	0.0306206
27	0x3c9b09f2	0.01892564
28	0x3ca42f4b	0.020042082
29	0x3cb068f4	0.02153442
30	0x3cab7477	0.020929558
31	0x3cab327c	0.020898096
32	0x3ca4e3e3	0.020128196
33	0x3d3cc530	0.04608649
34	0x3cea2983	0.028584247
35	0x3cbf3dec	0.023344956
36	0x3caaeff0	0.020866364
37	0x3d1669fd	0.036722172
38	0x3ceff544	0.029291756
39	0x3d014ffc	0.03157042
40	0xbcd3a4b3	-0.02583537
41	0x3d040b41	0.032237295
42	0xbe269c68	-0.16270602
43	0x3ca9b88a	0.020717878
44	0x3d1b998d	0.037988234
45	0x3d4f6053	0.05062897
46	0x3cf7575e	0.030193027
47	0x3da329dc	0.079669684
48	0x3dcc4e46	0.09975867
49	0x3cd238a9	0.025661783
50	0x3cb82140	0.022476792
51	0x3ca5d0fe	0.020241257
52	0x3d1af57e	0.037831776
53	0x3ce68fe5	0.028144786
54	0x3cc7c260	0.024384677
55	0x3d18bd54	0.037289932
56	0xbcc818be	-0.02442586
57	0x3d3ef4b8	0.0466201
58	0x3d43b426	0.047779225
59	0x3ca318cd	0.019909287
60	0x3cbe5b04	0.023236759
61	0x3d2bcf38	0.041945666
62	0x3dd3ee4b	0.10348185
63	0x3ca0a5b7	0.019610269
64	0x3cbb45bf	0.022860406
65	0x3c967848	0.018367901
66	0x3d4c9197	0.049943533
67	0x3ca4eff8	0.020133957
68	0x3cac76ff	0.021052836
69	0x3c99ca79	0.018773304
70	0x3cbbb67b	0.022914162
71	0x3cd90e37	0.026496036
72	0x3d1b24df	0.03787696
73	0x3cdfb4f9	0.027307974
74	0x3d9fae32	0.07796897
75	0x3da2b301	0.079442985
76	0xbcaa221e	-0.020768221
77	0x3caac9e4	0.020848222
78	0x3c9bf1ab	0.019036135
79	0x3d2045a2	0.039128907
80	0x3d3f1748	0.046653062
81	0x3d3a4772	0.04547829
82	0x3d1f658e	0.03891521
83	0x3cff885c	0.03119295
84	0x3d419648	0.04726246
85	0x3cab2e9c	0.020896249
86	0x3ca41df9	0.020033823
87	0x3d2b7441	0.041858915
88	0x3d4610fe	0.04835605
89	0x3cac7b41	0.021054866
90	0xbccb249c	-0.02479773
91	0x3ca61a0b	0.02027609
92	0x3caeb32e	0.021325674
93	0x3cb7835a	0.0224015
94	0x3cbd799e	0.02312928
95	0x3cb4b508	0.022058979
96	0x3d16414d	0.03668337
97	0x3ccc34c9	0.024927514
98	0x3c9c6128	0.019089296
99	0x3cafb746	0.021449696
100	0x3dea92fc	0.11453816
101	0x3ca922f7	0.020646555
102	0x3ca2307f	0.019798515
103	0x3cb68f25	0.022285054
104	0x3ca4ca07	0.020115865
105	0x3ca5e6b5	0.020251611
106	0x3d9a6b5c	0.075400084
107	0x3ca3edec	0.02001091
108	0x15a8ed84	6.8229393e-26
109	0x3d4ebc5c	0.050472602
110	0x3cb1964d	0.021678114
111	0x3cb73201	0.02236271
112	0x3d380239	0.044923995
113	0x3cd13f02	0.02554274
114	0x3cbdb3ba	0.02315699
115	0x3d387463	0.04503287
116	0x3cb45390	0.022012502
117	0x3c9c3310	0.019067317
118	0x3ca70319	0.02038722
119	0x3ce7b06e	0.02828237
120	0x3d50678a	0.050879993
121	0x3c9a9eab	0.018874487
122	0x3d195833	0.03743763
123	0x3caa7a48	0.020810261
124	0x3ca837bd	0.02053439
125	0x3ce5396d	0.027981484
126	0x3cb6afea	0.02230068
127	0x3cf8ea47	0.03038515
128	0x142637ea	8.391885e-27
129	0x89ef967b	-5.767867e-33
130	0x13f9f001	6.30931e-27
131	0x949cc35d	-1.5829032e-26
132	0x140773cf	6.8385974e-27
133	0x13f73956	6.2408104e-27
134	0x8351bf2b	-6.163903e-37
135	0xa91d4ab6	-3.4925804e-14
136	0x11db7d0a	3.462917e-28
137	0x140fce94	7.260395e-27
138	0x135debca	2.8010375e-27
139	0x13478713	2.5183928e-27
140	0x948a7d72	-1.3983918e-26
141	0x9580da70	-5.204342e-26
142	0x1191ff9c	2.3034498e-28
143	0x13f15301	6.09188e-27
144	0x1424ff38	8.330217e-27
145	0x82811493	-1.8966655e-37
146	0x0585e3bd	1.2590918e-35
147	0x88406fb6	-5.7909214e-34
148	0x1232cc81	5.6418967e-28
149	0x141e157d	7.981199e-27
150	0x82ece9a3	-3.4811184e-37
151	0x14276cb3	8.4527825e-27
152	0x89c77527	-4.8017677e-33
153	0x128322c2	8.275831e-28
154	0x95169938	-3.0413127e-26
155	0x95dce169	-8.9212927e-26
156	0x1419248e	7.731735e-27
157	0x14132f64	7.4309495e-27
158	0x13cc3546	5.154937e-27
159	0x138f9fce	3.6255855e-27
160	0x1425d4f3	8.372368e-27
161	0x07136e25	1.1091419e-34
162	0x8f85b6e4	-1.318526e-29
163	0x118a8805	2.185639e-28
164	0x13843598	3.3374332e-27
165	0x8810cf76	-4.3577293e-34
166	0x1382c40c	3.300993e-27
167	0x8f419b18	-9.545505e-30
168	0xa7a3821a	-4.5382645e-15
169	0x935786b8	-2.7203237e-27
170	0xa321f4b4	-8.779645e-18
171	0x141e18cb	7.981851e-27
172	0x88a4730f	-9.897441e-34
173	0x8996d7f0	-3.6314253e-33
174	0x0fa65671	1.640216e-29
175	0x82f582a4	-3.6074499e-37
176	0x8317ae8e	-4.457529e-37
177	0x9588e8c4	-5.52972e-26
178	0x1282edd2	8.262781e-28
179	0x13ef3897	6.0387884e-27
180	0x0c493eb7	1.5503349e-31
181	0x12031912	4.1367213e-28
182	0x11f844cd	3.9169903e-28
183	0x87de8c1f	-3.3485203e-34
184	0xad6b037b	-1.3358976e-11
185	0x0422093c	1.9047249e-36
186	0x8996e3d6	-3.6325442e-33
187	0x14266a17	8.401781e-27
188	0x138a752d	3.495164e-27
189	0x076e8540	1.7944289e-34
190	0x01aca653	6.3421485e-38
191	0x13883cbb	3.439111e-27
192	0x12856505	8.418383e-28
193	0x95aa70aa	-6.8840206e-26
194	0x89695716	-2.8087302e-33
195	0x1423a972	8.262814e-27
196	0x14267cbd	8.4054585e-27
197	0x9482c90b	-1.3205943e-26
198	0x14107c22	7.294623e-27
199	0x121845e4	4.804889e-28
200	0x941238b6	-7.3823006e-27
201	0x11063ceb	1.0589508e-28
202	0x03304bc4	5.1808726e-37
203	0x02816954	1.9015302e-37
204	0xaa0d2667	-1.2536639e-13
205	0x13bd49c2	4.778304e-27
206	0x95226846	-3.2797897e-26
207	0x8bf92710	-9.5970086e-32
208	0x89e6d18d	-5.5567547e-33
209	0x0760e2b9	1.6918515e-34
210	0x0c71ff10	1.864272e-31
211	0x8fb2ad91	-1.761901e-29
212	0x8386c147	-7.9201865e-37
213	0x141212ef	7.37485e-27
214	0x14000b29	6.4645495e-27
215	0x070ed44d	1.0745282e-34
216	0x89d45960	-5.112119e-33
217	0x1421d4a7	8.170361e-27
218	0xa7428c0c	-2.6998828e-15
219	0x140b99ed	7.048063e-27
220	0x1407d505	6.857769e-27
221	0x96663fae	-1.8599346e-25
222	0x94d6159f	-2.1617006e-26
223	0x141bf65c	7.874086e-27
224	0x06e6f01d	8.68692e-35
225	0x12b2b0c8	1.1276959e-27
226	0x1369c29a	2.950468e-27
227	0x1426a194	8.412724e-27
228	0x82aefdb4	-2.571262e-37
229	0x1403f697	6.662441e-27
230	0x1425fa5a	8.379744e-27
231	0x13630a5b	2.8656534e-27
232	0x1427123c	8.4349415e-27
233	0x13687e70	2.9344855e-27
234	0x834a8928	-5.9519912e-37
235	0x13f02178	6.061752e-27
236	0x8347fe30	-5.8772637e-37
237	0x896f8d7a	-2.88351e-33
238	0x13bc1595	4.7479154e-27
239	0x141536fd	7.533422e-27
240	0x0a9b590f	1.4959457e-32
241	0x95161019	-3.0304958e-26
242	0x11ca3361	3.1901645e-28
243	0x075366da	1.5904101e-34
244	0x1408ce47	6.906926e-27
245	0x140ca463	7.100613e-27
246	0x13b9cfcf	4.690548e-27
247	0x8fe88bce	-2.2930817e-29
248	0x88c99fec	-1.2134845e-33
249	0x94eb1613	-2.3737643e-26
250	0x88cdc102	-1.2383365e-33
251	0x12388957	5.8229447e-28
252	0x1337771e	2.3156577e-27
253	0x1396c1cd	3.8056426e-27
254	0x14279018	8.459763e-27
255	0x13ccdefa	5.171671e-27

net_model.2.bias f4 [64]
0	0x3c1aa61f	0.00943902
1	0xba169081	-0.00057435787
2	0x3c1aa7d4	0.009439427
3	0xaf118120	-1.3233548e-10
4	0x3c1a3e01	0.009414197
5	0xb69c9d54	-4.6674777e-06
6	0xb757933a	-1.28492775e-05
7	0xbc847f23	-0.016173905
8	0x3c1a8348	0.009430714
9	0xbb7b2eac	-0.003832738
10	0xba563b39	-0.0008172277
11	0xa7008fbb	-1.7841485e-15
12	0xb5424788	-7.2374723e-07
13	0xbce760ac	-0.028244339
14	0x3c1a9c48	0.009436674
15	0x3c1a0ff8	0.009403221
16	0xbc94e816	-0.018177073
17	0x3c1a503f	0.009418546
18	0x3c1aaf56	0.009441217
19	0x3c19ee4d	0.009395194
20	0xb98c5e8b	-0.0002677332
21	0x9b2efbfb	-1.4474362e-22
22	0xadf65fa8	-2.8009442e-11
23	0x3c1aa3ab	0.009438436
24	0xad81406c	-1.4694211e-11
25	0x3c1a85d9	0.009431326
26	0xb0e255d6	-1.646806e-09
27	0x3c1a625b	0.009422864
28	0xbab9bb80	-0.0014170259
29	0x3c1abad3	0.009443956
30	0xa7cbdf4f	-5.658593e-15
31	0xbb0bf0aa	-0.0021353164
32	0xba76fe3d	-0.000942204
33	0xb5fe7834	-1.8959458e-06
34	0xb932527c	-0.0001700613
35	0x3c1aa3a3	0.009438428
36	0x3c19a923	0.009378704
37	0x3d2122ef	0.039339956
38	0x3c1abba5	0.009444152
39	0xb3daad69	-1.0182959e-07
40	0x3b94f060	0.0045452565
41	0xbacd5257	-0.0015664798
42	0x3c1918b2	0.009344267
43	0x3c1abc0b	0.009444247
44	0xba8a1686	-0.0010535277
45	0xbab4d1c2	-0.0013795423
46	0xba3b425e	-0.00071433734
47	0xafadec73	-3.1636524e-10
48	0xba0af4f3	-0.00053007825
49	0x92fd448b	-1.5983442e-27
50	0xbcee3dd6	-0.02908222
51	0xba928baa	-0.0011180539
52	0x3c1a9275	0.009434332
53	0xbb6c608b	-0.0036068286
54	0x3c1985b7	0.009370259
55	0xbc89fba3	-0.016843623
56	0x3c19e422	0.00939277
57	0x3c1a8b17	0.009432576
58	0x3c1a6719	0.009423994
59	0x3c1a0acf	0.009401991
60	0xbaeb7662	-0.0017964358
61	0xb0a89d79	-1.2268365e-09
62	0x3c1a943c	0.009434756
63	0xbcef8994	-0.029240407

net_model.4.weight f4 [32, 64]
0	0x3d5411f5	0.051774938
1	0x11c962f8	3.1773203e-28
2	0x3d55046e	0.052006178
3	0x02a3382c	2.3982938e-37
4	0x3d539e86	0.05166485
5	0x9fe5cea8	-9.7327157e-20
6	0xa91e4ee7	-3.5151484e-14
7	0x3d523c9b	0.05132733
8	0x3d53a272	0.05166859
9	0xbb7fc79a	-0.0039028884
10	0xba47fdc1	-0.000762906
11	0x85cc739d	-1.9226537e-35
12	0xb426b22f	-1.5524778e-07
13	0x3d823cd7	0.063592605
14	0x3d5447f5	0.051826436
15	0x3d545e0c	0.051847503
16	0x3d58eaaa	0.052958168
17	0x3d542830	0.05179614
18	0x3d53c55b	0.051701885
19	0x3d54102a	0.051773228
20	0x2c4a1a64	2.8720576e-12
21	0x833d54a2	-5.563926e-37
22	0x01bdfb2c	6.978805e-38
23	0x3d53a594	0.05167158
24	0x02312c62	1.3016643e-37
25	0x3d53eb8e	0.051738314
26	0x0314bba3	4.3708687e-37
27	0x3d53db87	0.05172303
28	0xba41c5a8	-0.0007391819
29	0x3d53e567	0.051732447
30	0x2ab3843d	3.1888546e-13
31	0x3aeb2f02	0.0017943087
32	0xb8ecbf6d	-0.00011289013
33	0x02efbb88	3.5225531e-37
34	0x83543f5e	-6.2373943e-37
35	0x3d547535	0.05186959
36	0x3d53e22d	0.05172937
37	0x3d87a45f	0.06623148
38	0x3d541155	0.05177434
39	0x881fb0b7	-4.805505e-34
40	0x3cd01b09	0.025403516
41	0xba381cf2	-0.0007023356
42	0x3d543c25	0.05181517
43	0x3d53ef5e	0.05174195
44	0x3886ce84	6.4280845e-05
45	0x3a581a45	0.00082436606
46	0x37fa388c	2.9828654e-05
47	0x82f8485f	-3.6481864e-37
48	0xb45228b7	-1.9572586e-07
49	0x0243e2ad	1.439139e-37
50	0x3d8186b4	0.06324521
51	0xb608f5b8	-2.0408606e-06
52	0x3d53c0bb	0.051697474
53	0xbb4d8944	-0.0031362334
54	0x3d541e04	0.051786438
55	0x3d541f06	0.0517874
56	0x3d53f2c5	0.051745195
57	0x3d5311c7	0.051530626
58	0x3d53e314	0.05173023
59	0x3d53c360	0.051699996
60	0xb9394742	-0.0001766952
61	0x8227e28a	-1.2334236e-37
62	0x3d547ca3	0.051876675
63	0x3d928b65	0.07155494
64	0x01e8be06	8.549601e-38
65	0x034b420a	5.9732147e-37
66	0x008372d8	1.2071648e-38
67	0x832681f0	-4.8932176e-37
68	0x033f3b53	5.6197956e-37
69	0x83388ab1	-5.423195e-37
70	0x828edc36	-2.099142e-37
71	0x82864cf6	-1.9733704e-37
72	0x034cbf98	6.017015e-37
73	0x832bf9c1	-5.0539087e-37
74	0x033355a9	5.2701705e-37
75	0x0320f87c	4.730502e-37
76	0x8344dfa9	-5.7855972e-37
77	0x022ea633	1.2831198e-37
78	0x8312bc24	-4.312152e-37
79	0x02e533dc	3.3678292e-37
80	0x831b6136	-4.5662e-37
81	0x032990ea	4.983099e-37
82	0x83521770	-6.174036e-37
83	0x8351e1d4	-6.167882e-37
84	0x031a812e	4.5404824e-37
85	0x82b83ea9	-2.7072335e-37
86	0x031037f2	4.238202e-37
87	0x821bbaa5	-1.1441166e-37
88	0x033b52e6	5.5049524e-37
89	0x831ace48	-4.549333e-37
90	0x03059493	3.925574e-37
91	0x02d6e03c	3.1573178e-37
92	0x8277bc38	-1.820071e-37
93	0x821fa183	-1.1727827e-37
94	0x832282c2	-4.7757624e-37
95	0x032a7e8d	5.0103783e-37
96	0x83355d7e	-5.3298443e-37
97	0x033cfc7d	5.5538077e-37
98	0x0367e590	6.8148324e-37
99	0x82502c09	-1.5294064e-37
100	0x83345cb9	-5.3003686e-37
101	0x83584f56	-6.356777e-37
102	0x033088cd	5.187879e-37
103	0x02db46de	3.2219834e-37
104	0x03607929	6.596677e-37
105	0x832b3c5d	-5.0321677e-37
106	0x03539015	6.2172725e-37
107	0x83262972	-4.8830592e-37
108	0x82434d9c	-1.434861e-37
109	0x82ee5f7e	-3.5025767e-37
110	0x8181f536	-4.7738976e-38
111	0x832e4eee	-5.122461e-37
112	0x030753db	3.9769196e-37
113	0x0320c714	4.7248305e-37
114	0x032166ec	4.7431796e-37
115	0x8317b355	-4.4580775e-37
116	0x03624674	6.6496307e-37
117	0x8348926f	-5.8942815e-37
118	0x02fa1ce6	3.6750785e-37
119	0x832e1805	-5.1161577e-37
120	0x02d3c212	3.1115054e-37
121	0x035d822b	6.509549e-37
122	0x82cb72f8	-2.9894158e-37
123	0x831746f8	-4.445638e-37
124	0x835cac9a	-6.4850326e-37
125	0x03421d40	5.7045053e-37
126	0x8341830c	-5.6868037e-37
127	0x83488bba	-5.8935116e-37
128	0x3d531db8	0.051542014
129	0x1214fbf4	4.701112e-28
130	0x3d538b01	0.051646236
131	0x029d64d3	2.3126947e-37
132	0x3d54186e	0.05178111
133	0xa01b989b	-1.3179504e-19
134	0xa92fdb6a	-3.9048117e-14
135	0x3d52865f	0.051397678
136	0x3d533eb0	0.051573455
137	0xbb851329	-0.004061122
138	0xba48b2a4	-0.0007656014
139	0x84d7fb82	-5.077723e-36
140	0xb4292583	-1.5752998e-07
141	0x3d8245b0	0.06360948
142	0x3d5387ff	0.051643368
143	0x3d53ddb7	0.051725116
144	0x3d592437	0.053013053
145	0x3d53d962	0.051720984
146	0x3d532c98	0.0515562
147	0x3d534503	0.051579487
148	0x2aea0149	4.1567642e-13
149	0x83264aa2	-4.886869e-37
150	0x8044c7c0	-6.31647e-39
151	0x3d52c19e	0.05145418
152	0x025e3b80	1.632706e-37
153	0x3d536050	0.051605523
154	0x03188dcd	4.4831565e-37
155	0x3d5361d4	0.051606968
156	0xba439cec	-0.0007462043
157	0x3d5377fd	0.0516281
158	0x2ab3904c	3.1896913e-13
159	0x3aeb323e	0.001794405
160	0xb8b7c09e	-8.761998e-05
161	0x03369241	5.3652884e-37
162	0x836347d2	-6.679175e-37
163	0x3d52e318	0.051486105
164	0x3d538ff5	0.05165096
165	0x3d882d3c	0.06649253
166	0x3d52e1b8	0.051484793
167	0x05f31798	2.2860277e-35
168	0x3cd0a906	0.025471222
169	0xba32b573	-0.0006817199
170	0x3d53cad5	0.051707108
171	0x3d53498c	0.05158381
172	0x388815ce	6.489047e-05
173	0xbba0adf4	-0.0049035493
174	0x37f8b281	2.9647026e-05
175	0x030b5743	4.09486e-37
176	0xb446f42b	-1.8529015e-07
177	0x02906ef6	2.1222587e-37
178	0x3d819120	0.063265085
179	0xb60ca689	-2.0958562e-06
180	0x3d539be9	0.05166236
181	0xbb4d8705	-0.0031360995
182	0x3d52e379	0.051486466
183	0x3d54619e	0.051850908
184	0x3d53543a	0.051593997
185	0x3d53f0b0	0.05174321
186	0x3d53927e	0.051653378
187	0x3d538109	0.05163673
188	0xb93b1e4a	-0.00017844993
189	0x822e0bbc	-1.2786869e-37
190	0x3d540b02	0.05176831
191	0x3d928ecb	0.07156142
192	0x03280eee	4.93879e-37
193	0x835a38b8	-6.412955e-37
194	0x0343b588	5.7513737e-37
195	0x834474e7	-5.773342e-37
196	0x83324e10	-5.239911e-37
197	0x834c8515	-6.0102983e-37
198	0x835854ba	-6.3573956e-37
199	0x02909e52	2.124977e-37
200	0x03103ce7	4.238771e-37
201	0x8302d61c	-3.844935e-37
202	0x0306a1e4	3.95649e-37
203	0x83664cf4	-6.7679263e-37
204	0x831a0914	-4.5266954e-37
205	0x83346fe6	-5.30257e-37
206	0x024bba8d	1.4967622e-37
207	0x0344df76	5.7855744e-37
208	0x02ba2e80	2.7356933e-37
209	0x030f7c43	4.216657e-37
210	0x835bfa6a	-6.4645777e-37
211	0x01ddf75e	8.1537533e-38
212	0x8344629a	-5.771241e-37
213	0x830585cf	-3.923879e-37
214	0x8320f54c	-4.730136e-37
215	0x03448325	5.774977e-37
216	0x82c38cf8	-2.8733587e-37
217	0x033ac5ba	5.4887466e-37
218	0x832f57c6	-5.1528637e-37
219	0x03054d91	3.917423e-37
220	0x832118d7	-4.7342162e-37
221	0x833d5134	-5.5635325e-37
222	0x8317eb20	-4.464482e-37
223	0x02e441da	3.3539386e-37
224	0x036a15b5	6.879134e-37
225	0x83384b86	-5.4159437e-37
226	0x82ae333e	-2.5596414e-37
227	0x035ce737	6.491761e-37
228	0x034d2f88	6.029865e-37
229	0x031a7d21	4.5400173e-37
230	0x82396a6c	-1.3622195e-37
231	0x835f011e	-6.5535093e-37
232	0x0365b990	6.7510067e-37
233	0x0350e62d	6.1389935e-37
234	0x033e4504	5.5915208e-37
235	0x034bed78	5.992894e-37
236	0x826d9d44	-1.7457143e-37
237	0x82b56296	-2.6652145e-37
238	0x833fda16	-5.6380206e-37
239	0x034d1c3a	6.027649e-37
240	0x021fa0de	1.1727642e-37
241	0x033aef58	5.493524e-37
242	0x835b945c	-6.4528624e-37
243	0x03201c72	4.7052428e-37
244	0x83126d93	-4.303133e-37
245	0x833b6e09	-5.5080675e-37
246	0x021a20ff	1.1323603e-37
247	0x82deead8	-3.2754762e-37
248	0x032441b4	4.827069e-37
249	0x808126f0	-1.1860747e-38
250	0x832e19bd	-5.116355e-37
251	0x031e892f	4.6589506e-37
252	0x833a2e36	-5.4713535e-37
253	0x834266a4	-5.71293e-37
254	0x8335b596	-5.339957e-37
255	0x83417c5d	-5.6860364e-37

net_model.4.bias f4 [32]
0	0xbb73bed7	-0.0037192607
1	0xb9c7f73a	-0.00038140436
2	0xbb74addd	-0.0037335076
3	0xb9c2f9a5	-0.00037188563
4	0xbb738874	-0.003716019
5	0xbb73adc1	-0.0037182423
6	0xbb724edc	-0.0036973273
7	0xba131ea6	-0.0005612172
8	0xbb73452f	-0.0037120094
9	0xb6a67983	-4.9613313e-06
10	0xbb73c73d	-0.0037197613
11	0xb9edbb42	-0.0004534368
12	0xbb74b342	-0.0037338291
13	0xba0d7a64	-0.0005396961
14	0xbb76ebd9	-0.0037677197
15	0xb731ad74	-1.0590407e-05
16	0xbb742dd5	-0.0037258763
17	0xbb751017	-0.0037393623
18	0xba14190c	-0.0005649484
19	0xa7b3b30e	-4.987661e-15
20	0xb9c8c9f7	-0.00038297448
21	0xbb7402b5	-0.0037233059
22	0xbb721f34	-0.0036944868
23	0xbb744a13	-0.0037275597
24	0xbb1f7245	-0.0024329585
25	0xbb73e733	-0.0037216663
26	0xbb749262	-0.0037318696
27	0xba1187b0	-0.000555153
28	0xbb76d588	-0.0037663896
29	0xb9ff28b1	-0.00048667708
30	0xba0c9083	-0.000536211
31	0xba178775	-0.00057803775

net_model.6.weight f4 [1, 32]
0	0xbd4775e5	-0.048696417
1	0x832cdfac	-5.080302e-37
2	0xbd483118	-0.048874944
3	0x831ae83b	-4.552312e-37
4	0xbd477a4b	-0.048700612
5	0xbd482c93	-0.048870634
6	0xbd48adcb	-0.048993867
7	0x033a69ba	5.4781855e-37
8	0xbd494fec	-0.049148485
9	0x030c4f8a	4.123361e-37
10	0xbd477e70	-0.048704565
11	0x8323d8dc	-4.8150337e-37
12	0xbd47b2bd	-0.048754442
13	0x034406c4	5.760699e-37
14	0xbd4a5139	-0.049393866
15	0x0114ccf4	2.7330354e-38
16	0xbd493f77	-0.04913279
17	0xbd48a606	-0.048986457
18	0x034f4a1e	6.0916915e-37
19	0x836670d4	-6.7720446e-37
20	0x813fc384	-3.5221435e-38
21	0xbd475ae2	-0.048670657
22	0xbd49203a	-0.049103
23	0xbd4811bd	-0.04884504
24	0xbb474acc	-0.0030409573
25	0xbd47a81d	-0.04874431
26	0xbd47f67a	-0.048819043
27	0x033fa756	5.6321947e-37
28	0xbd4a3191	-0.049363676
29	0x0263ee73	1.6745758e-37
30	0x035bc42b	6.4583505e-37
31	0x03490987	5.907953e-37
