src/t1dsim_ai/models/IndividualModel/T1DEXI-01-0245/individual_model.pt (torch, 50089 bytes, 7 tensors)

net_model.0.weight f4 [128, 10]
-0.014508516 0.048823502 -0.02540753 -0.014839681 0.0123835895 0.007021138 -0.018274562 -0.031722028
-0.018367004 -0.024538895 -0.014568409 0.021815887 -0.052110635 0.0056019668 0.00832248 -0.0007600357
0.00743475 -0.0013562544 0.013536632 -0.012080526 -0.020788802 0.056068342 -0.016659712 -0.0015085803
0.010712477 0.0065039066 -0.028344058 -0.019649088 -0.016400864 -0.024219165 -0.0115491925 0.027119013
-0.04860737 0.0060870517 0.009325628 0.0018434038 0.004093356 0.0012092473 0.008587405 -0.0097792735
-0.01456141 0.0332573 -0.042099774 -0.013327567 0.009891405 0.0052621663 -0.0009093942 -0.0020053913
-0.007375858 -0.014441037 -0.012964034 0.038910326 -0.035165146 -0.01894437 0.008425962 0.008734641
-0.008796401 -0.019230723 -0.013625529 -0.019629885 -0.053018074 0.044433113 -0.024855461 -0.01102722
0.021315793 0.0016270871 -0.04324618 -0.006320827 -0.037330486 -0.0271216 -0.013672262 0.024219211
-0.05004062 0.0063413735 0.008198758 0.0005995133 0.0029410704 0.0011622807 0.011486704 -0.010705155
-0.010278293 0.033027317 -0.044595163 -0.0022522202 0.010275695 0.0037746618 0.000181122 0.0020595943
0.0005000637 -0.010461659 -0.014669837 0.022147872 -0.051600743 0.006954658 0.00884546 -0.0015423964
0.010215476 -0.0011472941 0.014911411 -0.013400589 -0.014033426 0.022888908 -0.051281467 0.004769195
0.008349104 -0.00031351473 0.0043600155 -0.00017202133 0.012268234 -0.010770414 -0.041388012 0.041346926
-0.022683395 -0.00887208 0.017283002 0.00073368824 -0.036260333 -0.0039848574 -0.029896926 -0.038099926
-0.020909427 0.05512935 -0.016926164 -0.001178272 0.010476333 0.005861816 -0.028694086 -0.018466637
-0.016512541 -0.023900839 -0.01160604 0.04769975 -0.027371867 -0.00447735 0.013490921 0.0055834455
-0.015007174 -0.018560965 -0.0073599415 -0.018391008 -0.015778711 0.0341061 -0.038198374 -0.017290063
0.009009507 0.008233175 -0.005473702 -0.009852638 -0.012880049 -0.0177813 -0.014331008 0.023347907
-0.05123636 0.0012635695 0.009036128 0.00031568497 0.004223284 -0.00066233566 0.00983758 -0.00960567
-0.013877455 0.036656 -0.036901016 -0.018796623 0.008046581 0.009102783 -0.0065863803 -0.014555574
-0.013353145 -0.018900096 -0.013042665 0.025557086 -0.049723208 0.0046660043 0.008978829 0.001153562
0.0037391253 0.0004331784 0.009414307 -0.009952995 -0.029112354 0.024268607 -0.043115746 0.006596331
0.02114734 -0.0018949211 -0.006108036 0.032912195 0.019839257 -0.014504814 -0.025767267 0.03477662
-0.031573452 -0.011922663 0.016445786 -0.0011941256 -0.02055864 0.00063772994 -0.0065334598 -0.02060548
-0.01368963 0.048462026 -0.028453743 -0.00745682 0.011344825 0.007909846 -0.023268862 -0.022038326
-0.014893651 -0.02375293 -0.0115471715 0.02777334 -0.047463648 0.00662242 0.009065511 0.0020241307
0.003585774 0.0021062589 0.008804654 -0.0104133235 -0.028395217 0.020592293 -0.046166513 -0.0019285803
0.019337425 -0.008569629 -0.003450067 0.019001607 0.015577796 -0.0136499 -0.01146474 0.02696357
-0.048754346 0.00635697 0.009122481 0.0018384276 0.004132451 0.0012332317 0.008825792 -0.009706775
-0.04588908 0.04245336 -0.023710499 -0.009458376 0.018017953 0.0007718923 -0.03582632 -0.0041893194
-0.03032403 -0.037605874 -0.015889516 0.0334978 -0.03920228 -0.016337762 0.009446525 0.0073287757
00000000: 20b5 6dbc 27fb 473d 7423 d0bc 2222 73bc
00000010: 8ae4 4a3c 9311 e63b 89b4 95bc f5ee 01bd
00000020: 6676 96bc cb05 c9bc 56b0 6ebc 3bb7 b23c
00000030: f671 55bd b490 b73b 035b 083c 223d 47ba
00000040: 349f f33b 59c4 b1ba c0c8 5d3c 66ed 45bc
00000050: 474d aabc eba7 653d f379 88bc 8ebb c5ba
00000060: 6383 2f3c b91e d53b cc31 e8bc 20f7 a0bc
00000070: 1b5b 86bc 4567 c6bc d338 3dbc b128 de3c
00000080: 8618 47bd e475 c73b 85ca 183c 5e9e f13a
00000090: 8f21 863b 9b7f 9e3a 30b2 0c3c 3f39 20bc
000000a0: fb92 6ebc ce38 083d d070 2cbd de5b 5abc
000000b0: 8f0f 223c 406e ac3b 6964 6eba e26c 03bb
000000c0: 2eb1 f1bb 199a 6cbc 1a67 54bc 6f60 1f3d
000000d0: 5409 10bd 3931 9bbc 0c0d 0a3c bd1b 0f3c
000000e0: c81e 10bc c089 9dbc 9c3d 5fbc dace a0bc
000000f0: 7b29 59bd 7fff 353d ae9d cbbc 83ab 34bc
00000100: 759e ae3c fc43 d53a e822 31bd f11e cfbb
00000110: dae7 18bd 1e2e debc a001 60bc 5e67 c63c
00000120: 65f7 4cbd 4ccb cf3b 1554 063c a828 1d3a
00000130: f9be 403b ab57 983a bb32 3c3c ad64 2fbc
00000140: 4966 28bc a747 073d 6ba9 36bd fc99 13bb
00000150: 635b 283c 5160 773b 91eb 3d39 42fa 063b
00000160: b516 033a 6167 2bbc c259 70bc 746f b53c
00000170: 4d5b 53bd e6e3 e33b 8cec 103c 3c2a caba
00000180: d05e 273c cd60 96ba fe4e 743c 258e 5bbc
00000190: 74ec 65bc 8581 bb3c 840c 52bd e846 9c3b
000001a0: aeca 083c 3c5f a4b9 76de 8e3b a060 34b9
000001b0: b400 493c 6476 30bc 7a86 29bd 655b 293d
000001c0: 87d2 b9bc 335c 11bc 1595 8d3c fc54 403a
000001d0: b785 14bd 6893 82bb 66ea f4bc ab0e 1cbd
000001e0: 3f4a abbc 50cf 613d bda8 8abc 3f70 9aba
000001f0: eda4 2b3c 7a14 c03b dc0f ebbc 5847 97bc
00000200: 4f45 87bc b1cb c3bc 4327 3ebc d060 433d
00000210: f73a e0bc bcb6 92bb 0609 5d3c 56f5 b63b
00000220: a6e0 75bc 2a0d 98bc aa2b f1bb bda8 96bc
00000230: 5b42 81bc d7b2 0b3d e675 1cbd e4a3 8dbc
00000240: 9c9c 133c 70e4 063c be5c b3bb f56c 21bc
00000250: d706 53bc 17aa 91bc 9bcc 6abc 1c44 bf3c
00000260: 38dd 51bd 5b9e a53a 450c 143c 8582 a539
00000270: 7963 8a3b 98a0 2dba cd2d 213c 1a61 1dbc
00000280: 445e 63bc 9a24 163d 8525 17bd 60fb 99bc
00000290: cfd5 033c d723 153c 90d2 d7bb 817a 6ebc
000002a0: 26c7 5abc 60d4 9abc e7b0 55bc 185d d13c
000002b0: 90aa 4bbd 48e5 983b f01b 133c 1e33 973a
000002c0: 1d0c 753b 381c e339 773e 1a3c e311 23bc
000002d0: 087d eebc f5ce c63c 239a 30bd 0926 d83b
000002e0: 303d ad3c 005f f8ba eb25 c8bb f0ce 063d
000002f0: f085 a23c 99a5 6dbc e015 d3bc ee71 0e3d
00000300: 2a53 01bd 4657 43bc 50b9 863c 3584 9cba
00000310: 986a a8bc 552d 273a a216 d6bb d3cc a8bc
00000320: 784a 60bc 1e80 463d d317 e9bc 5758 f4bb
00000330: a5df 393c 4c98 013c 579e bebc b889 b4bc
00000340: 8004 74bc 8195 c2bc 5930 3dbc ea84 e33c
00000350: 3e69 42bd e300 d93b 8287 143c 47a7 043b
00000360: 4eff 6a3b 2909 0a3b 6541 103c a59c 2abc
00000370: 169d e8bc 2bb1 a83c 1919 3dbd 6bc8 fcba
00000380: 8569 9e3c a167 0cbc 851a 62bb 42a9 9b3c
00000390: 033a 7f3c d5a3 5fbc 9bd6 3bbc b4e2 dc3c
000003a0: a3b2 47bd 214e d03b 7576 153c 65f7 f03a
000003b0: 8369 873b 64a4 a13a 0e9a 103c 2a09 1fbc
000003c0: 30f6 3bbd 93e3 2d3d 853c c2bc 4ef7 1abc
000003d0: 639a 933c d158 4a3a 9fbe 12bd 8f46 89bb
000003e0: 1a6a f8bc 9e08 1abd bb2a 82bc fd34 093d
000003f0: 9292 20bd c5d6 85bc 99c5 1a3c 3a26 f03b

net_model.0.bias f4 [128]
-0.0028499311 0.0105228955 -0.004529517 0.009642225 0.0036301583 -0.0004845024 0.008555253 0.010063464
0.0072528003 0.010920262 0.010401698 0.008259359 -0.0036716845 0.00019015196 0.001932728 0.009079538
0.00022399558 0.00945355 0.009965697 0.0014328999 0.0026587415 0.01011826 0.0063212505 0.009733995
0.008566507 0.0018358185 -0.005155841 0.009424387 0.009437207 0.008389664 0.0098724505 0.0011477063
0.010584823 0.0009524544 0.010700375 0.0020589298 0.009244617 0.00864692 0.009972691 0.024930174
0.024797108 0.0027179187 -0.0023698227 0.0069269906 0.009689796 0.010792558 0.00952833 0.0013268458
0.009825191 0.0096853115 0.010534758 -0.0038170088 0.0094475085 -0.003399774 0.008368531 0.009619076
0.008222902 0.00821607 0.010892331 -0.0042725108 -0.0025892004 0.011086159 0.008114297 0.001137065
0.0085169645 0.008205797 0.010245279 0.0015281155 0.009392875 0.0061276457 0.010416762 0.010012014
-0.004793656 0.0033959483 2.9834637e-06 0.010846048 0.009250936 0.009695794 0.0059994794 0.011097208
0.0009316477 0.0092143 0.0009085791 0.010941123 0.010924657 0.0005616568 -0.0038050055 0.025624543
0.010558649 0.010390635 0.006300161 0.010918765 0.009986294 -0.0056240815 0.009351978 -0.0010088023
0.02469914 0.009833466 -0.001656316 0.008593573 0.009455638 0.006618965 0.009708357 -0.00021076259
0.009451136 0.004825583 0.008599949 0.009964161 0.0017441973 0.010482927 0.008486567 0.009886381
0.025658093 0.008723412 0.009580581 0.010080416 0.010803261 -0.004476884 0.009940764 0.009142076
0.008330301 0.009634266 0.010382757 -0.0026387733 0.010170133 -0.0010064176 0.010173649 -0.00011405975
00000000: e9c5 3abb 3968 2c3c 586c 94bb 6cfa 1d3c
00000010: f3e7 6d3b d004 feb9 552b 0c3c 3ae1 243c
00000020: e6a8 ed3b e6ea 323c e26b 2a3c 4352 073c
00000030: a5a0 70bb 8763 4739 9753 fd3a 58c2 143c
00000040: 5be0 6a39 10e3 1a3c 2a47 233c 24d0 bb3a
00000050: 483e 2e3b 0fc7 253c 7e22 cf3b 567b 1f3c
00000060: 895a 0c3c d99f f03a 54f2 a8bb be68 1a3c
00000070: 849e 1a3c cd74 093c 0fc0 213c a26e 963a
00000080: f76b 2d3c 22ae 793a a050 2f3c 1cef 063b
00000090: bc76 173c d0ab 0d3c 7f64 233c 5d3a cc3c
000000a0: 4e23 cb3c 1c1f 323b 074f 1bbb cffb e23b
000000b0: f3c1 1e3c 45d3 303c b61c 1c3c 8fe9 ad3a
000000c0: d7f9 203c 24af 1e3c fa99 2c3c c826 7abb
000000d0: b9c9 1a3c bece 5ebb 2a1c 093c 5499 1d3c
000000e0: 5ab9 063c b29c 063c bf75 323c 6b00 8cbb
000000f0: 93af 29bb b9a2 353c d4f1 043c 9209 953a
00000100: bd8a 0b3c 9b71 063c d1db 273c 0c4b c83a
00000110: 93e4 193c 6bca c83b 11ab 2a3c 6e09 243c
00000120: 1a14 9dbb 8f8e 5e3b 8437 4836 9fb3 313c
00000130: 3d91 173c 1cdb 1e3c 4897 c43b 10d1 353c
00000140: d239 743a 93f7 163c b62d 6e3a 6542 333c
00000150: 55fd 323c 263c 133a 665d 79bb 90ea d13c
00000160: 2ffe 2c3c 7b3d 2a3c 9571 ce3b 9fe4 323c
00000170: 8e9d 233c 374a b8bb 0a39 193c ca39 84ba
00000180: da55 ca3c 8c1c 213c be18 d9ba 0fcc 0c3c
00000190: d2eb 1a3c e7e3 d83b cd0f 1f3c 2700 5db9
000001a0: f0d8 1a3c ed1f 9e3b cde6 0c3c b840 233c
000001b0: 8d9d e43a 95c0 2b3c 3e0b 0b3c 7dfa 213c
000001c0: ec30 d23c a4ec 0e3c dff7 1c3c 5428 253c
000001d0: 2900 313c d3b2 92bb 96de 223c a5c8 153c
000001e0: d17b 083c 0ad9 1d3c 701c 2a3c 45ef 2cbb
000001f0: a1a0 263c c5e9 83ba 60af 263c 5d33 efb8

net_model.2.weight f4 [64, 128]
0.03978335 0.026378965 0.038482975 0.023838358 0.023497611 0.028537143 0.07025313 0.024918204
0.02211224 0.027234763 0.025464883 0.053369544 0.037665963 0.028257603 0.025905274 0.024662279
0.027276523 0.024370627 0.038463797 0.028529666 0.035207637 0.023838958 0.03290384 0.024029303
0.056389652 0.025481429 0.04610707 0.024092825 0.024548924 0.058048077 0.0236376 0.028790176
0.02646831 0.026988046 0.026390731 0.025721436 0.024222946 0.053279676 0.025984557 -0.05429656
-0.054331306 0.03508518 0.031190455 0.022142887 0.02523748 0.027560871 0.049781132 0.03423198
0.024095591 0.02405486 0.026823472 0.038447645 0.024385313 0.04254293 0.06016515 0.023443526
0.05807093 0.03635276 0.026784115 0.038186196 0.02953516 0.02637306 0.05455764 0.028575862
0.05441099 0.052642554 0.025879512 0.028041774 0.02365765 0.022376847 0.026761323 0.02587455
0.046458695 0.027901864 0.027699538 0.027156234 0.06657109 0.023896586 0.022172194 0.026393948
0.03448945 0.05161889 0.0270585 0.02728285 0.027124306 0.026879027 0.036929645 -0.055337947
0.026263831 0.025660168 0.041180488 0.026909677 0.025527032 0.037539434 0.02445755 0.027631896
-0.054502387 0.024783997 0.027669514 0.055668235 0.023588391 0.034112368 0.024474828 0.0291894
0.02400868 0.02437126 0.05644537 0.02454698 0.027765015 0.026074253 0.05177098 0.025676198
-0.054999866 0.024710832 0.024420602 0.024071071 0.027108788 0.0402313 0.024619307 0.07005695
0.059434302 0.023745691 0.026151076 0.039694402 0.024989987 0.0372031 0.023827922 0.02782173
1.4018662e-37 2.0953053e-37 1.4963321e-37 1.8062002e-37 1.5613347e-37 1.6676595e-37 1.105872e-37 1.7492048e-37
1.7408573e-37 2.3529909e-37 1.293664e-37 1.5948882e-37 1.3893856e-37 1.4890552e-37 1.6626917e-37 2.0635777e-37
1.7685518e-37 1.5363827e-37 2.1423046e-37 1.4018312e-37 1.729814e-37 1.3371354e-37 2.5029103e-37 1.6463871e-37
1.9545654e-37 1.6108634e-37 1.1970721e-37 1.497537e-37 1.5961406e-37 1.7215656e-37 1.9131412e-37 1.5104001e-37
2.0579909e-37 1.5006484e-37 2.1399245e-37 1.8260179e-37 1.806304e-37 1.8702643e-37 1.9252854e-37 -2.9273188e-37
-3.030186e-37 1.3891397e-37 1.5801602e-37 1.5240737e-37 2.2022919e-37 2.2730848e-37 1.874901e-37 1.2274674e-37
1.3927189e-37 1.8768271e-37 2.1927361e-37 1.3594001e-37 1.7264187e-37 8.2946253e-38 1.3341151e-37 1.637772e-37
1.739832e-37 2.310834e-37 2.1854987e-37 1.461805e-37 1.1358551e-37 2.6489644e-37 1.7390938e-37 1.5302855e-37
1.6547754e-37 -1.7010575e-38 1.8048984e-37 1.4178665e-37 1.8580128e-37 1.7342915e-37 2.0067208e-37 1.8779034e-37
1.5970016e-37 1.4715421e-37 1.8172751e-37 1.9808948e-37 2.494327e-37 1.6761908e-37 9.98101e-38 1.7931921e-37
1.563717e-37 1.069084e-37 9.952221e-38 2.0594462e-37 2.4088332e-37 1.3931193e-37 1.3704502e-37 -3.9775447e-37
2.0090654e-37 2.0703792e-37 1.6804734e-37 1.6966404e-37 1.8559456e-37 1.321629e-37 1.685433e-37 1.568724e-37
-6.848165e-37 1.1481409e-37 1.2598094e-37 2.062598e-37 1.32052e-37 2.1663195e-37 1.6530248e-37 1.4287931e-37
1.6102411e-37 1.585856e-37 1.9770413e-37 1.8065346e-37 1.4818302e-37 2.2645328e-37 7.0988295e-38 1.9501133e-37
-3.844698e-37 1.6619398e-37 1.5464077e-37 1.7607125e-37 2.5531122e-37 1.3984129e-37 1.7858018e-37 1.4611989e-37
1.2296526e-37 1.8008777e-37 1.7527874e-37 1.5545992e-37 1.9026512e-37 1.7708413e-37 1.7850933e-37 1.5834675e-37
00000000: def3 223d b318 d83c 53a0 1d3d a948 c33c
00000010: 107e c03c bac6 e93c dfe0 8f3d 4321 cc3c
00000020: ba24 b53c 701b df3c bb9b d03c 069a 5a3d
00000030: a047 1a3d 7d7c e73c 4c37 d43c 8c08 ca3c
00000040: 0473 df3c e9a4 c73c 378c 1d3d 0cb7 e93c
00000050: e235 103d eb49 c33c 2dc6 063d 1ad9 c43c
00000060: d6f8 663d 6ebe d03c c4da 3c3d 515e c53c
00000070: d31a c93c d2c3 6d3d a4a3 c13c 60d9 eb3c
00000080: 12d4 d83c 0916 dd3c 6031 d83c c3b5 d23c
00000090: 336f c63c ca3b 5a3d 91dd d43c 1266 5ebd
000000a0: 818a 5ebd 7ab5 0f3d 2083 ff3c 0065 b53c
000000b0: d5be ce3c 56c7 e13c 4de7 4b3d d536 0c3d
000000c0: 1e64 c53c b30e c53c e6bc db3c 477b 1d3d
000000d0: b5c3 c73c 7f41 2e3d bb6f 763d a30c c03c
000000e0: c9db 6d3d a2e6 143d 5c6a db3c 2169 1c3d
000000f0: b8f3 f13c 510c d83c d577 5f3d ed17 ea3c
00000100: 0fde 5e3d b89f 573d 4501 d43c ddb7 e53c
00000110: b0cd c13c a64f b73c 903a db3c ddf6 d33c
00000120: 794b 3e3d 7392 e43c 24ea e23c c076 de3c
00000130: 6c56 883d c6c2 c33c 76a2 b53c 1f38 d83c
00000140: cf44 0d3d 546e 533d caa9 dd3c 4980 df3c
00000150: cb33 de3c 6831 dc3c 8a43 173d 0baa 62bd
00000160: 3f27 d73c 4635 d23c dfac 283d af71 dc3c
00000170: 111e d13c f3c2 193d 335b c83c 495c e23c
00000180: e53d 5fbd cf07 cb3c 2dab e23c 6004 643d
00000190: 713c c13c 69b9 0b3d 6f7f c83c 9c1e ef3c
000001a0: daad c43c 3da6 c73c 4333 673d c016 c93c
000001b0: 7573 e33c ac99 d53c cf0d 543d e456 d23c
000001c0: 8a47 61bd 5f6e ca3c b70d c83c b230 c53c
000001d0: 4013 de3c 93c9 243d 6eae c93c 057a 8f3d
000001e0: 6271 733d 5386 c23c c83a d63c 9996 223d
000001f0: cdb7 cc3c 4762 183d c632 c33c 66ea e33c
00000200: e8cf 3e02 5e99 8e02 90ab 4b02 e4d8 7502
00000210: 9384 5402 74fd 6202 0486 1602 e416 6e02
00000220: 06f4 6c02 e222 a002 9c15 3002 be15 5902
00000230: 061d 3d02 00ae 4a02 5a50 6202 9870 8c02
00000240: 09b9 7002 201f 5102 36cc 9102 b0ce 3e02
00000250: 3973 6b02 5e00 3602 d956 aa02 3818 6002
00000260: 5505 8502 6642 5b02 e0ef 2202 8cd5 4b02
00000270: 6241 5902 ce53 6a02 9f33 8202 c395 4d02
00000280: 420f 8c02 f741 4c02 bea2 9102 708b 7802
00000290: 82dc 7502 3391 7e02 3407 8302 1639 c782
000002a0: 4939 ce82 7414 3d02 8c14 5702 3872 4f02
000002b0: 56e1 9502 b9b2 9a02 c432 7f02 ff12 2702
000002c0: 2c91 3d02 e175 7f02 da3a 9502 2e08 3902
000002d0: e9fc 6a02 1acd e101 2097 3502 06ec 5e02
000002e0: 4cd0 6c02 6844 9d02 c2bc 9402 78f8 4602
000002f0: c69a 1a02 7847 b402 93b6 6c02 ab4a 5002
00000300: 823c 6102 903a b980 88ab 7502 70fd 4002
00000310: 4ce6 7c02 3d0f 6c02 0292 8802 629b 7f02
00000320: 625f 5902 c24b 4802 cc5a 7702 0ed0 8602
00000330: 4ec1 a902 ba26 6402 beda 0702 a013 7402
00000340: 96d7 5402 2484 1102 6e76 0702 9d28 8c02
00000350: cbef a302 1f9f 3d02 3889 3a02 4d59 0783
00000360: dbba 8802 18e7 8c02 f4bb 6402 4aef 6602
00000370: 449e 7c02 0de4 3302 c568 6502 0e86 5502
00000380: ee07 6983 df46 1c02 f379 2b02 865f 8c02
00000390: 68bd 3302 9c6e 9302 82ff 6002 2c7a 4202
000003a0: b72c 5b02 04db 5702 eb8c 8602 8be4 7502
000003b0: 3fb2 4902 ba1d 9a02 9f3f c101 c4b7 8402
000003c0: 0bd4 0283 2636 6202 727c 5202 e0a7 6f02
000003d0: 7dc1 ad02 9457 3e02 1c12 7302 5ae3 4602
000003e0: 245f 2702 6e1f 7502 ba93 6e02 e099 5302
000003f0: dc7c 8102 d008 7102 6cf9 7202 ca87 5702

net_model.2.bias f4 [64]
0.005601339 -0.0004478306 0.0055477847 0.0050523425 -6.415328e-06 -3.0164074e-12 -1.0174665e-10 0.0055516856
-0.0030360324 -0.002239793 -0.0025333501 0.0055981628 -0.006203804 -0.0012703215 -0.0015213236 0.005576661
0.005192317 0.005604086 0.0025432527 0.045266174 0.005598355 0.0050812108 0.005585073 0.005602568
0.0055623134 0.0055612405 -3.0483267e-05 0.0055492916 -0.00022255431 0.0017090151 -0.0010461025 -0.0006278149
0.005606198 0.005598363 0.00560266 0.005605241 0.00558356 0.0038907141 -0.011944912 0.049113486
0.0056029856 -0.00017463397 0.005559289 0.005598238 0.0039445483 -0.0012408581 0.005562603 0.0055404026
0.005604969 0.0056033153 -9.641639e-25 0.005600294 0.002952985 0.005604223 0.040251896 -0.004172668
-0.0017374753 0.0056014983 0.0055597816 0.005599315 0.0056009535 -1.353174e-11 0.0037769459 -1.4596098e-19
00000000: 708b b73b ceca eab9 31ca b53b 1f8e a53b
00000010: 3f43 d7b6 c442 54ac 46be dfae eaea b53b
00000020: 2cf8 46bb 7ec9 12bb 9006 26bb cb70 b73b
00000030: 4849 cbbb eb80 a6ba 2667 c7ba 6cbc b63b
00000040: 5024 aa3b 7ba2 b73b b3ac 263b 0669 393d
00000050: 6872 b73b 4980 a63b fd02 b73b bf95 b73b
00000060: 1144 b63b 113b b63b 51b6 ffb7 d5d6 b53b
00000070: 785d 69b9 0801 e03a 601d 89ba f293 24ba
00000080: 33b4 b73b 7972 b73b 8596 b73b 2bac b73b
00000090: 4cf6 b63b 5afb 7e3b 98b4 43bc 392b 493d
000000a0: 4099 b73b f31d 37b9 b22a b63b 6d71 b73b
000000b0: 4541 813b 4aa4 a2ba 7f46 b63b 448c b53b
000000c0: e3a9 b73b 049c b73b 7832 9597 ac82 b73b
000000d0: de86 413b a1a3 b73b 2cdf 243d e0ba 88bb
000000e0: ffbb e3ba c68c b73b d42e b63b 757a b73b
000000f0: 3488 b73b 8a0d 6ead a386 773b 0052 2ca0

net_model.4.weight f4 [32, 64]
0.034627993 6.4135213e-09 0.034846455 0.033890232 -3.2925868e-37 9.108899e-31 -9.729902e-38 0.034574386
0.00044733 0.02840918 0.0011143304 0.03455818 0.05027795 0.00026669577 0.0005989368 0.03467184
0.03395568 0.0346155 0.031217875 -0.061810024 0.0346125 0.033892386 0.034622725 0.034507327
0.03458698 0.034579586 5.9723605e-37 0.03454303 -3.670432e-30 0.035943136 -0.000334996 -9.676232e-10
0.03459381 0.03464811 0.034491397 0.03472017 0.034603562 0.03456933 0.03638812 -0.064112
0.03447534 3.3404422e-07 0.034564774 0.034598187 0.03443272 1.089227e-05 0.034521114 0.03456572
0.03459135 0.034696925 6.925164e-23 0.034499455 0.050839864 0.03446415 -0.06347 -0.0015012873
-0.0008688133 0.034355097 0.034552198 0.034505945 0.03460302 -2.4717284e-11 0.034719173 2.1604865e-21
1.4779105e-37 6.4071913e-37 -3.1565829e-38 -5.0472515e-37 5.643808e-37 -6.1560835e-37 -5.867894e-37 -9.666523e-38
5.099746e-37 -6.8218945e-37 4.7548425e-37 5.3779046e-37 -6.3229744e-37 1.2772066e-37 -4.153269e-37 -4.0886338e-37
-3.7811284e-37 5.6013684e-37 -2.8503299e-37 -6.216625e-37 5.8205835e-37 -1.8992401e-37 -5.697416e-37 -1.912733e-37
6.206388e-37 -3.990646e-37 4.4162596e-37 4.1551423e-37 -8.9647767e-38 -6.378439e-37 -4.198434e-37 5.6808483e-37
-5.836012e-37 4.9441213e-37 6.7793914e-37 -1.9935787e-37 -5.298538e-37 -6.6006557e-37 5.123175e-37 4.3116398e-37
6.1193336e-37 -5.9954284e-37 5.530469e-37 -4.3511945e-37 -2.530449e-37 -1.7671977e-37 -1.5955849e-37 -6.5639277e-37
4.086946e-37 5.5631867e-37 6.3769645e-37 -5.1996056e-37 5.680094e-37 -4.8029915e-37 4.223523e-37 -5.18576e-37
3.414644e-37 5.7777276e-37 -3.3147045e-37 -5.2170414e-37 -6.4914207e-37 6.129141e-37 -5.3440694e-37 -6.2458155e-37
5.2514936e-37 9.608491e-38 -3.5655746e-37 3.719191e-37 -3.2679912e-37 -6.8518567e-37 6.148286e-37 4.827871e-37
3.591966e-37 -4.6384665e-37 -5.162583e-37 -5.524331e-37 -5.4089614e-37 -2.770216e-37 -2.2511207e-37 -6.0221853e-37
6.277062e-37 -4.629056e-37 5.4055987e-37 6.431495e-37 6.0910346e-37 -4.9862405e-37 -2.3489383e-37 5.4952334e-37
-4.970785e-37 -3.269912e-37 -3.3048008e-37 4.297117e-37 4.1959266e-37 -3.5156762e-37 -6.021268e-37 7.194591e-39
-5.7573426e-37 -3.3866967e-37 4.5579342e-37 4.372749e-37 2.2814915e-37 4.1900645e-37 5.698198e-37 5.3554883e-37
4.3202502e-37 -6.0428034e-37 -1.2080398e-37 4.267019e-37 -4.3125655e-38 -1.5360697e-37 4.418918e-37 4.6717273e-37
-5.548133e-37 3.5566377e-37 1.1736181e-37 -3.3766132e-37 2.8799127e-38 3.344442e-37 4.3588333e-37 -2.8422342e-37
-4.3701342e-37 -4.957578e-37 2.1884168e-37 -2.9280986e-37 6.7327907e-37 -5.256551e-37 -3.5033488e-37 5.458127e-37
4.472952e-37 -5.705101e-37 5.7658073e-37 -5.2031405e-37 -5.3393014e-38 -5.405776e-37 -4.9638852e-37 3.0990942e-37
3.8530905e-37 -3.957605e-37 4.853108e-37 -5.803555e-37 -3.4419224e-37 -6.230789e-37 2.5833543e-37 6.9534833e-37
1.8985334e-37 6.169096e-37 -5.750146e-37 3.3748554e-37 -5.5227827e-37 -4.5364906e-37 -6.9231606e-37 4.425392e-37
-5.730168e-37 3.66873e-37 -6.1520195e-37 4.262867e-37 -4.783628e-37 -6.0775202e-37 -4.180992e-37 4.2564685e-37
5.693502e-37 -4.5121815e-37 -3.0150262e-37 5.10912e-37 6.514993e-37 5.358195e-37 -2.103062e-37 -6.2810327e-37
6.1511344e-37 6.7571634e-37 6.022252e-37 6.594795e-37 -2.2502028e-37 -1.3105212e-37 -5.6459297e-37 5.6578253e-37
6.2423237e-37 4.217997e-37 -6.611165e-37 4.5164477e-37 -3.9580117e-37 -4.787499e-37 6.590419e-39 -5.942615e-37
6.133862e-37 6.733693e-38 1.7723781e-37 4.266885e-37 -5.638852e-37 -5.5298367e-37 -4.988878e-37 -6.822857e-37
00000000: 15d6 0d3d ee5d dc31 28bb 0e3d 7cd0 0a3d
00000010: f414 e082 e3cc 930d c36f 0482 df9d 0d3d
00000020: 9e87 ea39 5eba e83c b90e 923a e18c 0d3d
00000030: 40f0 4d3d 4dd3 8b39 f801 1d3a 0f04 0e3d
00000040: 1c15 0b3d fcc8 0d3d a1bc ff3c 822c 7dbd
00000050: d6c5 0d3d bed2 0a3d 8fd0 0d3d 8e57 0d3d
00000060: 14ab 0d3d 53a3 0d3d 993a 4b03 fe7c 0d3d
00000070: f2e3 948e 1c39 133d 67a2 afb9 37fd 84b0
00000080: 3db2 0d3d 2deb 0d3d da46 0d3d bd36 0e3d
00000090: 77bc 0d3d 9298 0d3d b60b 153d 274d 83bd
000000a0: 0436 0d3d b056 b334 cb93 0d3d d4b6 0d3d
000000b0: 5309 0d3d f2bd 3637 0366 0d3d c994 0d3d
000000c0: a9af 0d3d 5d1e 0e3d b070 a71a 4d4f 0d3d
000000d0: 763d 503d 482a 0d3d 8ffc 81bd d8c6 c4ba
000000e0: 13c1 63ba eeb7 0c3d 9b86 0d3d 1b56 0d3d
000000f0: e5bb 0d3d 606a d9ad b135 0e3d e33d 231d
00000100: aa29 4902 8206 5a03 58dc 2b81 c3bf 2b83
00000110: 800c 4003 0d7b 5183 91ac 4783 eb92 0382
00000120: 0e89 2d03 1523 6883 85cc 2103 2800 3703
00000130: e028 5783 28d8 2d02 1354 0d83 0621 0b83
00000140: 46aa 0083 cd9a 3e03 c0fb c182 718a 5383
00000150: 6f10 4603 6e41 8182 7edf 4183 822c 8282
00000160: 4431 5303 6ecb 0783 0c47 1603 6564 0d03
00000170: 600b f481 0a0c 5983 85dd 0e83 2b4f 4103
00000180: d696 4683 5f3d 2803 d4b0 6603 0aad 8782
00000190: c74c 3483 d29b 6083 2655 2e03 aeb7 1203
000001a0: ea3a 5003 8c03 4c83 2e31 3c03 4010 1483
000001b0: a436 ac82 da89 7082 052e 5982 e05b 5f83
000001c0: 5212 0b03 314e 3d03 32ff 5803 f4ee 3083
000001d0: 9948 4103 f56f 2383 13b8 0f03 5776 3083
000001e0: 7d63 e802 1b9b 4403 4c96 e182 d786 3183
000001f0: 40e4 5c83 5990 5003 69d9 3583 ba88 5483
00000200: f6b2 3203 b4c8 0202 12a9 f282 721d fd02
00000210: 7068 de82 1728 6983 2037 5103 b048 2403
00000220: e074 f402 bed6 1d83 71ac 2f83 b6fb 3b83
00000230: b30e 3883 f887 bc82 0e34 9982 a2ec 4c83
00000240: ec98 5503 c484 1d83 68f1 3703 39da 5a03
00000250: 6544 4f03 48ac 2983 47dc 9f82 3cfe 3a03
00000260: a525 2983 e789 de82 c0e9 e082 2b39 1203
00000270: adc7 0e03 b843 ef82 a4e4 4c83 9857 4e00
00000280: 87e9 4383 947c e682 3519 1b03 04cc 1403
00000290: 3045 9b02 9c94 0e03 4ee6 4103 e23c 3603
000002a0: b002 1303 3ea0 4d83 0b6e 2482 fa32 1103
000002b0: 64cc 6a81 3814 5182 345e 1603 7cf8 1e03
000002c0: 0ecb 3c83 5e0d f202 9fbe 1f02 e6cc e582
000002d0: 20cc 1c01 669c e302 cb52 1403 b46e c182
000002e0: 3db5 1483 98b2 2883 99ef 9402 ac46 c782
000002f0: e11a 6503 04df 3283 f26c ee82 feba 3903
00000300: e834 1803 7022 4283 4433 4403 bf0d 3183
00000310: 8059 9181 f3f2 3783 8ae9 2883 d6e9 d202
00000320: 271d 0303 9aab 0683 8824 2503 187c 4583
00000330: bf3e ea82 d405 5483 61d0 af02 629d 6c03
00000340: 1e35 8102 68ec 5103 d6aa 4383 46ae e502
00000350: 39ee 3b83 685e 1a83 3c95 6b83 9a96 1603
00000360: cefc 4283 4bae f902 a657 5183 cf0e 1103
00000370: 47c7 2283 abce 4e83 9445 0e83 12d7 1003
00000380: 66bd 4103 a58a 1983 2a31 cd82 b6da 2d03
00000390: 98b1 5d03 7654 3603 8220 8f82 83bb 5583
000003a0: f04f 5103 32ef 6503 37ed 4c03 c468 6003
000003b0: 1024 9982 0061 3282 fc1e 4083 9c86 4003
000003c0: 4f6a 5403 f087 0f03 5ff7 6083 cfaf 1903
000003d0: 25af 0683 00e9 2283 68c3 4700 7a37 4a83
000003e0: 79b9 5003 fe4e b701 5d3e 7102 d031 1103
000003f0: 54e1 3f83 ac2b 3c83 42c3 2983 782b 6883

net_model.4.bias f4 [32]
-0.002070632 -0.00054302206 -0.00046121844 -0.0005859112 -0.0020753844 -0.00040906825 -0.0005541087 -0.002071394
-0.0005719032 -0.0020758407 -0.002063554 -0.0005456285 -0.002073403 -0.002073073 -0.0004314127 -0.0020794715
-0.00050593156 -0.00025373223 -0.002069934 -0.00036744963 -0.002076891 -0.0020754673 -0.00053150306 -1.328947e-07
-0.00045795066 -0.0020704116 -0.000121571284 -0.0020689974 -0.0019087279 -0.0020714256 -0.0020733404 -0.0020717154
00000000: 71b3 07bb 9859 0eba b1cf f1b9 d697 19ba
00000010: 2c03 08bb 3678 d6b9 9b41 11ba 39c0 07bb
00000020: c6eb 15ba d40a 08bb b13c 07bb 8208 0fba
00000030: eee1 07bb 65dc 07bb 3c2f e2b9 be47 08bb
00000040: 7ea0 04ba 5d07 85b9 bba7 07bb 41a6 c0b9
00000050: 731c 08bb 9004 08bb 9154 0bba d1b1 0eb4
00000060: 1919 f0b9 beaf 07bb 16f4 feb8 0498 07bb
00000070: 482e faba c1c0 07bb e1e0 07bb 9ec5 07bb

net_model.6.weight f4 [1, 32]
-0.032041896 -2.2520102e-37 -1.6354095e-37 -5.728455e-37 -0.032013766 -3.0395119e-37 -5.984413e-37 -0.03205992
-1.5764685e-37 -0.032011725 -0.03201847 -6.2757472e-37 -0.032094978 -0.03204195 -0.0005868614 -0.032016724
-6.5262285e-37 -0.0006024616 -0.032061476 -5.830988e-37 -0.03200856 -0.0320019 -5.556816e-37 6.445428e-37
-6.250787e-37 -0.03201963 -5.155785e-37 -0.032071695 -0.032343436 -0.03204123 -0.03204388 -0.032103997
00000000: 5d3e 03bd 8d43 9982 b499 5e82 e2ed 4283
00000010: de20 03bd c4db ce82 97a3 4b83 4351 03bd
00000020: e993 5682 ba1e 03bd cd25 03bd 788d 5583
00000030: 0676 03bd 6b3e 03bd 9ad7 19ba f823 03bd
00000040: 7813 5e83 83ee 1dba e552 03bd 126b 4683
00000050: 681b 03bd 6d14 03bd b216 3d83 9953 5b03
00000060: 09b4 5483 0427 03bd 3971 2f83 9c5d 03bd
00000070: 8d7a 04bd aa3d 03bd 7240 03bd 7b7f 03bd
