src/t1dsim_ai/models/IndividualModel/T1DEXI-01-0433/individual_model.pt (torch, 50089 bytes, 7 tensors)

net_model.0.weight f4 [128, 10]
0.015296256 0.0072767874 -0.007976511 -0.0067413747 0.017171906 0.0036870255 0.0020577856 -0.0064148754
0.012657606 0.0179111 0.008976437 0.018832788 -0.015318394 0.0054959403 0.00046092938 0.0020456929
-0.061765503 -0.001645555 -0.0070125945 -0.068100706 0.015249026 0.007465983 -0.00812396 -0.006764127
0.017282095 0.0036598023 0.0019559553 -0.0063770665 0.012766419 0.017943325 0.015233596 0.007288648
-0.00803848 -0.006629573 0.017124549 0.0036748897 0.0021138235 -0.006461181 0.012760509 0.017789077
0.015317075 0.007332446 -0.008249744 -0.006717781 0.017159427 0.0036608141 0.0020209777 -0.0064221816
0.012637545 0.017984629 0.015289571 0.007481321 -0.008010908 -0.0067818635 0.017138282 0.0036600218
0.0019585027 -0.0063654194 0.012741314 0.0179027 0.006276475 0.009124438 -0.011342372 0.0033243059
-0.0036223398 0.013814983 0.014780257 -0.02028216 -0.011562537 -0.022674518 0.006172498 0.008529868
-0.011861898 0.0038296825 -0.0032510385 0.014230108 0.014033857 -0.021412155 -0.010778953 -0.021377157
0.013437539 0.0067136707 -0.0057029165 -0.004976749 0.014941275 0.005014435 -0.0002739423 -0.0071789203
0.013628182 0.015758377 0.015144076 0.007271034 -0.007895081 -0.006536905 0.017157875 0.0037242284
0.002197292 -0.0063918107 0.012946742 0.017808558 0.0027404209 -0.0151875345 -0.010564627 -0.052803405
-0.05479907 0.025343167 0.03289406 -0.018856479 0.042145878 0.0149502 -0.001251923 -0.024318809
-0.007555611 -0.05368385 -0.055546157 0.028840786 0.035190113 -0.014292708 0.042919606 0.012882346
0.015142865 0.007362997 -0.007958438 -0.006747996 0.017191518 0.0036803416 0.0020823388 -0.006481214
0.01274735 0.01784009 0.015237401 0.007354536 -0.0080642 -0.006704162 0.01721486 0.0036743672
0.0019899176 -0.0064747464 0.012745389 0.01791268 0.0068457494 0.009844556 -0.011670271 0.0026948096
-0.004445767 0.013106006 0.014800326 -0.01853716 -0.012205834 -0.024863778 0.01526389 0.0074592712
-0.008020288 -0.0067637586 0.01705497 0.0036393465 0.0020926956 -0.006555821 0.012725582 0.01785003
0.014946557 0.0073784534 -0.0075239376 -0.006649335 0.016768819 0.0037809804 0.0018368287 -0.006669372
0.012745686 0.017511077 0.015014406 0.007362124 -0.007907067 -0.0066088466 0.016895214 0.0037330254
0.0021233351 -0.0064467248 0.012802245 0.017700106 0.01507077 0.0071938233 -0.007816613 -0.0064884205
0.017063534 0.0037408727 0.002124762 -0.0064048707 0.012905604 0.017616646 0.0074437554 0.012189573
-0.011438416 0.0017085983 -0.006114927 0.00895119 0.015096509 -0.013290007 -0.013962021 -0.035634123
0.015033588 0.007328096 -0.00786087 -0.0066323527 0.016966771 0.0037240735 0.0020240918 -0.0065114987
0.01277384 0.017695507 0.012917347 0.02502751 -0.007045681 0.012935031 0.00774618 0.011802446
-0.10272936 -0.00876069 -0.003741441 -0.05072136 0.014782008 0.0073866253 -0.0074375654 -0.0064279847
0.01651423 0.0038580229 0.00159159 -0.0067192838 0.01294 0.017408302 0.0074510886 0.01083802
-0.012068437 0.0022276924 -0.005007756 0.011937389 0.014348748 -0.017027313 -0.012343477 -0.029490026
0.012550563 0.024426185 -0.0073108645 0.012279419 0.007539536 0.010740523 -0.09800317 -0.008086598
-0.0037264943 -0.052274797 0.015297895 0.0073575503 -0.008115979 -0.0067379745 0.01720085 0.0036596446
00000000: 269d 7a3c 1e72 ee3b e9af 02bc c0e6 dcbb
00000010: 19ac 8c3c 06a2 713b eadb 063b e033 d2bb
00000020: d961 4f3c 4dba 923c e811 133c 3847 9a3c
00000030: 00fa 7abc 4a17 b43b e5a8 f139 0811 063b
00000040: d3fd 7cbd aaaf d7ba e8c9 e5bb 6278 8bbd
00000050: 0dd7 793c 34a5 f43b 5c1a 05bc 9ca5 ddbb
00000060: 2e93 8d3c 4bd9 6f3b 7c2f 003b b6f6 d0bb
00000070: 3e2a 513c e1fd 923c 5596 793c 9cd5 ee3b
00000080: d4b3 03bc e43c d9bb c848 8c3c 6bd6 703b
00000090: 1388 0a3b 51b8 d3bb 7411 513c 66ba 913c
000000a0: 78f4 7a3c 0445 f03b ef29 07bc d520 dcbb
000000b0: ed91 8c3c 45ea 6f3b 6172 043b 2a71 d2bb
000000c0: b50d 4f3c 8054 933c 1c81 7a3c df25 f53b
000000d0: 2f40 03bc 653a debb 9565 8c3c fadc 6f3b
000000e0: 395a 003b 0295 d0bb f2c0 503c afa8 923c
000000f0: e3aa cd3b ab7e 153c 5bd5 39bc 99dc 593b
00000100: c764 6dbb 3d58 623c e428 723c c626 a6bc
00000110: cc70 3dbc e9bf b9bc ab42 ca3b dcc0 0b3c
00000120: 6858 42bc 69fb 7a3b 600f 55bb 6625 693c
00000130: 43ee 653c 8b68 afbc 359a 30bc 261f afbc
00000140: 2029 5c3c 5afe db3b 88df babb ff13 a3bb
00000150: 40cc 743c 2150 a43b ea9f 8fb9 263d ebbb
00000160: bd48 5f3c b617 813c dc1e 783c db41 ee3b
00000170: 5f5a 01bc 8933 d6bb ac8e 8c3c 2f12 743b
00000180: 7100 103b 6572 d1bb 921e 543c 41e3 913c
00000190: a298 333b 23d5 78bc 4217 2dbc 6248 58bd
000001a0: fd74 60bd 799c cf3c ecbb 063d e778 9abc
000001b0: 28a1 2c3d aff1 743c 9117 a4ba 3d38 c7bc
000001c0: 0f95 f7bb 99e3 5bbd 5e84 63bd 8343 ec3c
000001d0: 8223 103d f62b 6abc 78cc 2f3d 7a10 533c
000001e0: c719 783c 4c45 f13b 1c64 02bc 4b1e ddbb
000001f0: 3ad5 8c3c e331 713b d977 083b 5d60 d4bb
00000200: 43da 503c 6125 923c 4ba6 793c 52fe f03b
00000210: b51f 04bc 96ae dbbb 2e06 8d3c a7cd 703b
00000220: 4769 023b 1c2a d4bb 09d2 503c 9dbd 923c
00000230: 4f52 e03b 104b 213c aa34 3fbc 679b 303b
00000240: ccad 91bb 93ba 563c 117d 723c 3edb 97bc
00000250: fafa 47bc 1faf cbbc 6515 7a3c e76c f43b
00000260: 8767 03bc 85a2 ddbb ddb6 8b3c 1a82 6e3b
00000270: 9b25 093b 36d2 d6bb f67e 503c 3a3a 923c
00000280: 67e2 743c f4c6 f13b 5d8b f6bb aae2 d9bb
00000290: c35e 893c 53ca 773b bec1 f03a bf8a dabb
000002a0: 48d3 503c 6473 8f3c fcfe 753c f93d f13b
000002b0: a58c 01bc 068f d8bb d567 8a3c c6a5 743b
000002c0: a727 0b3b 0c3f d3bb 82c0 513c d0ff 903c
000002d0: 64eb 763c 2aba eb3b 4011 00bc d19c d4bb
000002e0: d3c8 8b3c 6e29 753b 973f 0b3b f3df d1bb
000002f0: 0772 533c c950 903c bfea f33b c6b6 473c
00000300: 3268 3bbc 0cf3 df3a ba5f c8bb 03a8 123c
00000310: 5957 773c 54be 59bc f6c0 64bc 16f5 11bd
00000320: 704f 763c 8620 f03b e1ca 00bc 3554 d9bb
00000330: e6fd 8a3c 960f 743b a0a6 043b 695e d5bb
00000340: 5e49 513c 2bf6 903c 48a3 533c 7e06 cd3c
00000350: 75df e6bb 74ed 533c abd3 fd3b 0c5f 413c
00000360: c563 d2bd ff88 0fbc f732 75bb 33c1 4fbd
00000370: 3c30 723c 810b f23b d2b6 f3bb d8a1 d2bb
00000380: da48 873c e2d6 7c3b e69c d03a 702d dcbb
00000390: 4b02 543c db9b 8e3c 4328 f43b f391 313c
000003a0: b2ba 45bc 7afe 113b 1a18 a4bb 0a95 433c
000003b0: 0317 6b3c dd7c 8bbc 4c3c 4abc 1195 f1bc
000003c0: e0a0 4d3c 6c19 c83c fa8f efbb 9e2f 493c
000003d0: 360e f73b 05f9 2f3c e3b5 c8bd a67d 04bc
000003e0: 3338 74bb 191e 56bd 06a4 7a3c 9b17 f13b
000003f0: e2f8 04bc 3aca dcbb cce8 8c3c a6d6 6f3b

net_model.0.bias f4 [128]
0.024779957 -0.021731706 0.024774775 0.024730967 0.024808858 0.024841387 -0.0037132136 -0.0026471368
0.023114722 0.02463633 0.033632684 0.034556486 0.024749408 0.024760066 -0.0049533467 0.024806632
0.024594724 0.024651114 0.024612837 -0.008672604 0.024656044 -0.021593405 0.024431314 -0.006215757
-0.02140126 0.024812503 0.0246546 0.024749659 0.024735918 -0.0069874474 0.024811352 0.024709146
-0.0056615886 0.024697961 0.024651032 0.024786664 0.024837129 0.024707485 0.024688672 -0.0053070593
0.03339764 -0.021496717 -0.0032350232 0.024802588 -0.021328278 0.024592163 0.024707321 -0.007837601
-0.0035662884 0.024708305 0.024786457 0.024764633 0.02442528 -0.002596398 0.03400381 -0.021404982
-0.021504484 -0.021340298 0.02473196 -0.004357826 -0.0037855152 -0.022452526 -0.005294309 0.0245347
-0.004444047 0.024580808 0.024764573 0.024732338 0.024781577 0.024751505 0.02470754 -0.021405986
0.024585553 -0.0052806945 0.024572581 0.024625884 -0.02130562 0.02480052 -0.004427096 -0.006217106
-0.006195678 -0.021834327 -0.022299143 0.024720913 0.024715833 0.024319623 -0.02141691 0.032887414
0.024753885 0.02474204 -0.021107137 -0.021400282 0.024787223 0.02481366 0.024807414 0.024756024
-0.021661675 0.030571552 0.024785617 0.024668774 0.0242455 -0.021389473 -0.021327546 0.024759967
0.024785139 0.024596306 -0.021249669 0.024760569 -0.007603868 0.024832614 -0.0032990845 0.024823237
-0.0031829104 0.024743946 0.033253346 -0.021806564 0.024661303 0.024579115 0.024832614 -0.019091949
-0.0068584424 0.02466027 0.024707936 0.024416434 0.024690228 0.024789352 -0.021780731 0.024759844
00000000: 56ff ca3c b106 b2bc 78f4 ca3c 9998 ca3c
00000010: f23b cb3c 2a80 cb3c 6359 73bb 967b 2dbb
00000020: 165b bd3c 21d2 c93c 6dc2 093d 1a8b 0d3d
00000030: 45bf ca3c 9fd5 ca3c af4f a2bb 4737 cb3c
00000040: e07a c93c 22f1 c93c dca0 c93c 8a17 0ebc
00000050: 79fb c93c a7e4 b0bc 2e24 c83c 8dad cbbb
00000060: b251 afbc 9743 cb3c 72f8 c93c ccbf ca3c
00000070: fba2 ca3c f5f6 e4bb 2d41 cb3c d66a ca3c
00000080: d984 b9bb 6153 ca3c f6f0 c93c 670d cb3c
00000090: 3c77 cb3c 5a67 ca3c e63f ca3c d7e6 adbb
000000a0: f7cb 083d e219 b0bc af02 54bb cc2e cb3c
000000b0: a4b8 aebc 8175 c93c 0267 ca3c 4869 00bc
000000c0: 64b8 69bb 1269 ca3c f80c cb3c 33df ca3c
000000d0: 8617 c83c 5428 2abb 9447 0b3d 8059 afbc
000000e0: 2c2a b0bc d9d1 aebc ae9a ca3c 18cc 8ebb
000000f0: 6816 78bb 5cee b7bc e27b adbb fffc c83c
00000100: 5e9f 91bb b15d c93c 13df ca3c 799b ca3c
00000110: bc02 cb3c abc3 ca3c 7867 ca3c 9b5b afbc
00000120: a467 c93c ad09 adbb 704c c93c 39bc c93c
00000130: 2089 aebc 762a cb3c 2c11 91bb ddb8 cbbb
00000140: 1d05 cbbb e7dd b2bc b1ac b6bc 8383 ca3c
00000150: dc78 ca3c f239 c73c 8472 afbc f4b4 063d
00000160: a9c8 ca3c d2af ca3c e0e8 acbc a54f afbc
00000170: 930e cb3c 0446 cb3c eb38 cb3c 25cd ca3c
00000180: d373 b1bc 3171 fa3c 350b cb3c 2b16 ca3c
00000190: 809e c63c fa38 afbc 1bb7 aebc 6ad5 ca3c
000001a0: 340a cb3c 317e c93c c913 aebc add6 ca3c
000001b0: de29 f9bb c46d cb3c 7435 58bb 1a5a cb3c
000001c0: 6098 50bb d1b3 ca3c a934 083d aea3 b2bc
000001d0: 8006 ca3c 245a c93c c46d cb3c b866 9cbc
000001e0: c9bc e0bb 5604 ca3c 4c68 ca3c f904 c83c
000001f0: 2943 ca3c 0a13 cb3c 816d b2bc 28d5 ca3c

net_model.2.weight f4 [64, 128]
0.017948829 -0.028481912 0.017995087 0.017898804 0.018020136 0.018019427 -0.017997546 -0.018183874
0.01677323 0.0179883 -0.05912312 -0.060275864 0.018000288 0.018035505 -0.01786988 0.017852128
0.017875932 0.017803213 0.017966105 -0.017567704 0.017768944 -0.03523068 0.017739762 -0.017748376
-0.035184536 0.017952578 0.017931169 0.01809517 0.018002843 -0.017591191 0.017938111 0.01803498
-0.017736822 0.017801346 0.017809184 0.017970009 0.01794479 0.017848665 0.018046798 -0.017910829
-0.057928577 -0.029830215 -0.017924244 0.018026529 -0.035192 0.017855966 0.017959137 -0.017597338
-0.018023567 0.018049028 0.018000787 0.017902516 0.017694885 -0.018054074 -0.07253029 -0.03511104
-0.03527714 -0.03539579 0.017957164 -0.01788669 -0.018008016 -0.033850357 -0.017658439 0.01782884
-0.017837746 0.017939212 0.018009823 0.017888593 0.017976565 0.018001277 0.017982865 -0.035030525
0.017895125 -0.01787202 0.017816715 0.017824862 -0.03513787 0.017889172 -0.017739099 -0.017708182
-0.01768208 -0.03489011 -0.028353846 0.018017057 0.017973034 0.017744957 -0.035065085 -0.061082374
0.017978972 0.017918002 -0.035255216 -0.035159104 0.018134525 0.01806081 0.017957246 0.017968498
-0.035148162 -0.06858475 0.018023364 0.01798051 0.017569903 -0.035220023 -0.028915819 0.018048858
0.017945258 0.018069526 -0.03524064 0.01804006 -0.017694835 0.017980553 -0.01808583 0.017983163
-0.018126091 0.018064462 -0.07181792 -0.03486058 0.017891956 0.017866317 0.017881518 -0.031463876
-0.0175894 0.017843071 0.01785607 0.017735288 0.017833471 0.017886057 -0.034932747 0.01803416
-5.2060873e-06 -2.264826e-06 -5.3355957e-06 -5.1642924e-06 -5.3314707e-06 -5.3131744e-06 -2.355936e-06 -2.4432493e-06
-2.8948634e-06 -5.047864e-06 -1.8624703e-06 -2.6652547e-06 -5.1097086e-06 -5.255714e-06 -2.285778e-06 -5.271125e-06
-4.7143412e-06 -4.8745333e-06 -4.8790844e-06 -2.4463557e-06 -4.8941347e-06 -2.3256657e-06 -4.5304328e-06 -2.4148242e-06
-1.9565327e-06 -5.314559e-06 -5.0791596e-06 -5.439121e-06 -5.149815e-06 -2.4131537e-06 -5.0525455e-06 -4.916486e-06
-2.2861477e-06 -4.940989e-06 -4.9549135e-06 -5.3156086e-06 -5.2398905e-06 -5.0239487e-06 -4.929663e-06 -2.269237e-06
-1.6384561e-06 -2.4794035e-06 -2.3008688e-06 -5.211324e-06 -2.0729112e-06 -4.6930377e-06 -4.8952165e-06 -2.1996343e-06
-2.3040755e-06 -5.0187464e-06 -5.1602656e-06 -5.1820402e-06 -4.8104303e-06 -2.2953705e-06 -1.5366568e-06 -1.9488514e-06
-1.8765944e-06 -2.0954712e-06 -4.853185e-06 -2.2776862e-06 -2.2172705e-06 -1.465458e-06 -2.380749e-06 -4.971949e-06
-2.2935737e-06 -4.9196065e-06 -5.0283343e-06 -4.9008795e-06 -5.2339246e-06 -5.2040327e-06 -4.8745806e-06 -2.2703277e-06
-4.9349255e-06 -2.2382508e-06 -5.0268445e-06 -4.8204124e-06 -2.2112563e-06 -5.3835065e-06 -2.4162957e-06 -2.301644e-06
-2.3804073e-06 -1.6861135e-06 -2.261761e-06 -5.044382e-06 -4.880937e-06 -4.72077e-06 -2.2707645e-06 -3.137617e-06
-5.0592616e-06 -5.191579e-06 -2.0725115e-06 -2.050863e-06 -5.358689e-06 -5.239969e-06 -5.4459156e-06 -5.2296805e-06
-1.6786328e-06 -1.3338312e-06 -5.2266223e-06 -4.8662387e-06 -4.6031114e-06 -1.9479974e-06 -2.4935057e-06 -5.2012983e-06
-5.316811e-06 -5.081904e-06 -1.9962997e-06 -5.194257e-06 -2.263608e-06 -5.132549e-06 -2.2782413e-06 -5.3215613e-06
-2.185737e-06 -5.1611487e-06 -1.4801409e-06 -1.640594e-06 -4.9001533e-06 -5.0367457e-06 -5.3085323e-06 -2.2354861e-06
-2.3062616e-06 -4.981364e-06 -5.0332005e-06 -4.4987596e-06 -4.8267266e-06 -5.3025933e-06 -1.8028637e-06 -5.338879e-06
00000000: 6c09 933c e652 e9bc 6f6a 933c 83a0 923c
00000010: f79e 933c 7a9d 933c 976f 93bc 59f6 94bc
00000020: 0368 893c 335c 933c 162b 72bd d3e3 76bd
00000030: 5775 933c 32bf 933c db63 92bc a03e 923c
00000040: 8c70 923c 0bd8 913c a72d 933c 25ea 8fbc
00000050: 2d90 913c 0c4e 10bd fa52 913c 0b65 91bc
00000060: a91d 10bd 4911 933c 63e4 923c 523c 943c
00000070: b37a 933c 671b 90bc f2f2 923c 18be 933c
00000080: d04c 91bc 21d4 913c 91e4 913c d735 933c
00000090: f400 933c 5d37 923c e1d6 933c bbb9 92bc
000000a0: 8446 6dbd 7f5e f4bc ddd5 92bc 5fac 933c
000000b0: 7d25 10bd ad46 923c 0a1f 933c 4b28 90bc
000000c0: 29a6 93bc 8edb 933c 6376 933c 4ca8 923c
000000d0: ddf4 903c 23e6 93bc c38a 94bd 98d0 0fbd
000000e0: c37e 10bd 2dfb 10bd e71a 933c 1c87 92bc
000000f0: 8c85 93bc aca6 0abd 6ea8 90bc ca0d 923c
00000100: 7720 92bc 41f5 923c 5689 933c 198b 923c
00000110: 9743 933c 6a77 933c cd50 933c 2b7c 0fbd
00000120: cc98 923c 5868 92bc 5cf4 913c 7205 923c
00000130: baec 0fbd 508c 923c 9651 91bc c010 91bc
00000140: 02da 90bc efe8 0ebd 5346 e8bc 8298 933c
00000150: 2f3c 933c df5d 913c 68a0 0fbd 8331 7abd
00000160: a348 933c c6c8 923c c667 10bd fe02 10bd
00000170: db8e 943c 44f4 933c 131b 933c ac32 933c
00000180: 85f7 0fbd 2976 8cbd bca5 933c dd4b 933c
00000190: c2ee 8f3c df42 10bd dee0 ecbc 33db 933c
000001a0: ef01 933c 8b06 943c 7d58 10bd bfc8 933c
000001b0: c2f4 90bc f44b 933c bc28 94bc 6d51 933c
000001c0: 2b7d 94bc ecfb 933c 4615 93bd f8c9 0ebd
000001d0: 2792 923c 625c 923c 437c 923c 44e0 00bd
000001e0: a517 90bc a22b 923c e546 923c 9849 913c
000001f0: 8017 923c c885 923c a415 0fbd 60bc 933c
00000200: f3af aeb6 6afd 17b6 6b08 b3b6 ef48 adb6
00000210: fce4 b2b6 d247 b2b6 ac1a 1eb6 b4f6 23b6
00000220: 6045 42b6 d260 a9b6 fef9 f9b5 badc 32b6
00000230: 1074 abb6 3d5a b0b6 5e65 19b6 9ede b0b6
00000240: e22f 9eb6 ec8f a3b6 04b7 a3b6 122c 24b6
00000250: 4c38 a4b6 a212 1cb6 1f04 98b6 5d0e 22b6
00000260: fa4c 03b6 b753 b2b6 a66d aab6 b281 b6b6
00000270: 93cc acb6 aaf1 21b6 0989 a9b6 4bf8 a4b6
00000280: b86b 19b6 c6ca a5b6 6242 a6b6 bb5c b2b6
00000290: 51d2 afb6 6493 a8b6 7c69 a5b6 3249 18b6
000002a0: ece8 dbb5 d463 26b6 a068 1ab6 efdc aeb6
000002b0: 581c 0bb6 e378 9db6 9741 a4b6 6e9d 13b6
000002c0: b79f 1ab6 b466 a8b6 5826 adb6 63e1 adb6
000002d0: 4869 a1b6 2a0a 1ab6 203f ceb5 03c9 02b6
000002e0: 4bdf fbb5 ec9f 0cb6 8bd8 a2b6 5ada 18b6
000002f0: 6bcc 14b6 c1b0 c4b5 f5c4 1fb6 b7d4 a6b6
00000300: 4ceb 19b6 1913 a5b6 10b9 a8b6 3c72 a4b6
00000310: 129f afb6 4d9e aeb6 5490 a3b6 ef5b 18b6
00000320: b096 a5b6 db34 16b6 44ac a8b6 07bf a1b6
00000330: 1865 14b6 f8a3 b4b6 a527 22b6 f175 1ab6
00000340: 16bf 1fb6 6b4e e2b5 c2c8 17b6 e942 a9b6
00000350: eec6 a3b6 1b67 9eb6 7063 18b6 da8f 52b6
00000360: bac2 a9b6 5333 aeb6 7a15 0bb6 8fa1 09b6
00000370: cace b3b6 fed2 afb6 0fbc b6b6 9d7a afb6
00000380: 624d e1b5 1706 b3b5 5860 afb6 ac48 a3b6
00000390: 6d74 9ab6 57ba 02b6 1a56 27b6 d086 aeb6
000003a0: 0f67 b2b6 3985 aab6 2bf8 05b6 544a aeb6
000003b0: 7de8 17b6 4338 acb6 e3e3 18b6 dd8f b2b6
000003c0: adae 12b6 ee2d adb6 41a9 c6b5 6132 dcb5
000003d0: ff6b a4b6 5101 a9b6 f21f b2b6 5c05 16b6
000003e0: 46c5 1ab6 9725 a7b6 dde2 a8b6 0df4 96b6
000003f0: 44f5 a1b6 eeec b1b6 edf9 f1b5 9f24 b3b6

net_model.2.bias f4 [64]
0.02421708 -0.0011120975 -7.992909e-15 0.024085263 -1.1716234e-18 -0.00031769503 0.024363915 0.031894576
-3.1218763e-15 -0.0017426708 -0.0020965303 0.024186365 -1.6690157e-09 0.024155932 0.00876543 0.024124043
0.025666583 0.024122743 0.024147736 -0.0019857388 0.024153743 0.007833115 0.024162374 0.024188511
0.024201825 0.02414796 -3.8616166e-10 0.024002526 -0.0012656922 -0.00083769823 0.023987597 0.024166182
0.02417087 0.024122545 0.024169734 0.024102286 -0.002584435 0.024096746 -0.0014488522 0.02899007
0.024153626 -6.0406626e-16 0.0240204 0.024172135 0.024154222 -0.0049846056 0.024136072 0.024002502
-0.0012768119 0.024144923 -0.0009895106 0.02416023 0.01963934 0.024176484 0.02411579 -0.00058055914
-0.0004879237 0.024230566 0.024075104 0.024154335 0.024158819 0.024201177 -0.0071894913 -3.5015092e-14
00000000: e662 c63c cdc3 91ba c9fc 0fa8 754e c53c
00000010: aee6 aca1 4e90 a6b9 d596 c73c e3a3 023d
00000020: 74f4 60a7 546a e4ba f165 09bb 7c22 c63c
00000030: 4563 e5b0 a9e2 c53c e19c 0f3c c99f c53c
00000040: ba42 d23c 0f9d c53c 79d1 c53c 2b23 02bb
00000050: 12de c53c 7756 003c 2cf0 c53c fc26 c63c
00000060: e842 c63c f1d1 c53c 6c4b d4af f2a0 c43c
00000070: 95e5 a5ba fa98 5bba a381 c43c 28f8 c53c
00000080: fd01 c63c a59c c53c 9bff c53c 2872 c53c
00000090: a05f 29bb 8a66 c53c 6ae7 bdba 957c ed3c
000000a0: d3dd c53c 391c 2ea6 6ec6 c43c a404 c63c
000000b0: 13df c53c e755 a3bb 03b9 c53c e5a0 c43c
000000c0: b35a a7ba 93cb c53c 77b2 81ba adeb c53c
000000d0: aee2 a03c c30d c63c 7a8e c53c aa30 18ba
000000e0: 03d0 ffb9 2e7f c63c 2739 c53c 50df c53c
000000f0: b7e8 c53c 8c41 c63c d395 ebbb a7b1 1da9

net_model.4.weight f4 [32, 64]
0.030362662 -0.0008589544 -4.5104625e-38 0.030310417 -5.494373e-07 3.5654093e-08 0.030340694 0.03270438
4.063022e-14 -0.0018767946 -0.0018008095 0.030315723 0.00028168902 0.030265788 0.0030650028 0.03043648
0.030191027 0.030359967 0.030309757 -0.0024955173 0.03035911 -0.040559925 0.030370595 0.030270053
0.03035283 0.030349588 -1.4495184e-37 0.030323124 -0.0015032109 3.5664584e-06 0.030238329 0.030193018
0.030334668 0.030408544 0.030255007 0.030497478 -0.0022570486 0.030387513 0.00016459814 0.029860502
0.030220022 1.6603806e-37 0.030365864 0.030360837 0.0302138 -0.033050906 0.030264819 0.030371131
0.00077135046 0.0304501 -0.00052614254 0.030250717 0.027279802 0.030213179 0.030390678 -0.00074576604
-0.00034712467 0.03009491 0.03035544 0.03026206 0.030357875 0.030412305 -0.032306574 1.7403244e-37
1.3637272e-37 5.979106e-37 3.0575974e-38 -5.6227794e-37 6.4761504e-37 -4.354781e-37 -4.4973712e-37 -1.3952701e-37
5.635193e-37 -3.8664206e-37 5.0436225e-37 6.486072e-37 -6.746703e-37 1.6246595e-37 -4.5064754e-37 -5.763359e-37
-3.698677e-37 4.7553572e-37 -4.686319e-37 -6.8839883e-37 6.139122e-37 -2.3383806e-37 -1.8637651e-37 -1.6002633e-37
5.1297228e-37 -6.1498384e-37 4.5883763e-37 4.42385e-37 -1.0824262e-37 -1.170538e-37 -4.1960217e-37 5.603111e-37
-5.1516045e-37 5.283326e-37 6.8467954e-37 -8.443394e-38 -5.0636353e-37 -6.7828935e-37 5.613999e-37 4.022104e-37
5.7809714e-37 -6.8304897e-37 6.80941e-37 -5.289417e-37 -1.5801402e-37 -2.3371674e-37 -1.0065279e-37 -4.5365076e-37
4.775436e-37 4.4458236e-37 6.330063e-37 -5.9386235e-37 4.5786335e-37 -6.4100737e-37 4.3787003e-37 -5.5999604e-37
4.314872e-37 6.2777943e-37 -4.859606e-37 -4.9542896e-37 -5.707547e-37 5.2563284e-37 -6.1512276e-37 -6.3333287e-37
5.150709e-37 -1.3887289e-37 -4.1020674e-37 3.5135548e-37 -3.937599e-37 -6.5347897e-37 5.6220027e-37 5.2226416e-37
4.6198797e-37 -4.5044486e-37 -5.1945874e-37 -4.244133e-37 -6.1530675e-37 -3.871231e-37 -3.4361847e-37 -6.295741e-37
5.6484574e-37 -4.8516796e-37 5.283837e-37 6.790665e-37 5.9808154e-37 -4.7943313e-37 -6.883794e-37 5.5275193e-37
-4.5717804e-37 -5.8796726e-37 -3.217041e-37 3.8411905e-37 5.0073286e-37 -4.555115e-37 -5.667156e-37 9.086154e-38
-6.3376716e-37 -3.5018242e-37 5.9245787e-37 5.8118766e-37 2.4063877e-37 4.227821e-37 5.6943846e-37 4.4115037e-37
4.6368285e-37 -5.474741e-37 -1.4281913e-37 3.1489679e-37 -7.8176917e-38 -2.2582357e-37 4.5134626e-37 4.695446e-37
-6.329191e-37 4.325408e-37 1.5230122e-37 -3.3468245e-37 -9.803796e-38 4.104229e-37 6.6461084e-37 -2.0979496e-37
-4.11619e-37 -5.359104e-37 -1.0419498e-37 -2.7777422e-37 5.214642e-37 -6.0035536e-37 -5.441064e-37 4.4413242e-37
5.334236e-37 -3.921179e-37 5.229347e-37 -4.0881836e-37 9.877227e-38 -6.070834e-37 -5.4802864e-37 1.8992693e-37
4.0721953e-37 -5.876723e-37 4.094153e-37 -3.2623744e-37 -5.283644e-37 -5.554159e-37 2.0540098e-37 6.8351806e-37
2.1342063e-37 3.2376445e-37 -5.876502e-37 2.2365598e-37 -5.8698837e-37 -3.988366e-37 -6.706995e-37 5.109279e-37
-2.9948954e-37 2.9706433e-37 -6.2272466e-37 5.4602e-37 -2.9014768e-37 -5.1644906e-37 -3.9238644e-37 5.5467357e-37
5.6627453e-37 -5.2557688e-37 -2.281353e-37 5.563771e-37 6.2577496e-37 5.589064e-37 -2.697527e-37 -5.621187e-37
6.1052085e-37 6.8970467e-37 6.2678542e-37 5.981691e-37 -1.3314488e-37 -1.1036395e-37 -6.9613176e-37 5.7066743e-37
1.8411085e-37 3.8010304e-37 -6.217777e-37 4.0271605e-37 -3.374961e-37 -5.1456644e-37 8.165385e-38 -5.4168943e-37
5.3949013e-37 -1.909703e-38 2.440427e-37 5.3155147e-37 -6.0352687e-37 -5.070392e-37 -3.9897312e-37 -6.188872e-37
00000000: 1ebb f83c 742b 61ba ac92 7581 8d4d f83c
00000010: 0b7d 13b5 1722 1933 0c8d f83c 07f5 053d
00000020: 74fb 3629 c7fe f5ba 2409 ecba ae58 f83c
00000030: a9af 9339 f5ef f73c 37de 483b ed55 f93c
00000040: 2c53 f73c 77b5 f83c 2b4c f83c d58b 23bb
00000050: abb3 f83c 2a22 26bd c1cb f83c e7f8 f73c
00000060: 80a6 f83c b39f f83c 584c 4582 3368 f83c
00000070: 6307 c5ba 4a57 6f36 5fb6 f73c 5957 f73c
00000080: 6980 f83c 571b f93c 59d9 f73c d9d5 f93c
00000090: feea 13bb 3cef f83c fa97 2c39 039e f43c
000000a0: fb8f f73c d2ff 6102 d5c1 f83c 4ab7 f83c
000000b0: ee82 f73c 6360 07bd eded f73c e1cc f83c
000000c0: 7434 4a3a 7d72 f93c d4ec 09ba 5ad0 f73c
000000d0: e479 df3c a181 f73c dff5 f83c 837f 43ba
000000e0: 49fe b5b9 9a89 f63c f9ab f83c 24e8 f73c
000000f0: 14b1 f83c 3a23 f93c e653 04bd 74e1 6c02
00000100: f59e 3902 5c75 4b03 b078 2601 5155 3f83
00000110: 3a5f 5c03 7e2f 1483 a109 1983 11ea 3d82
00000120: 74c1 3f03 4691 0383 26a0 2b03 a8b5 5c03
00000130: 1294 6583 1f23 5d02 f058 1983 f01d 4483
00000140: 0bb8 fb82 01d1 2103 9977 1f83 ff3f 6a83
00000150: 4ce7 5003 5624 9f82 bcae 7d82 0ad1 5982
00000160: 308e 2e03 a644 5183 6522 1c03 2b89 1603
00000170: 0c55 1382 4c53 1f82 81c8 0e83 fba9 3e03
00000180: ce4c 2f83 43c8 3303 00fc 6803 ded9 e581
00000190: 7c4e 2c83 56cf 6683 d408 3f03 78dd 0803
000001a0: 5db7 4403 f56d 6883 54b6 6703 52fd 3383
000001b0: da13 5782 330f 9f82 6100 0982 8e5e 1a83
000001c0: ea7f 2203 9648 1703 a066 5703 b514 4a83
000001d0: 86cd 1b03 9e1f 5a83 dcff 1403 898e 3e83
000001e0: d6d3 1203 4d9f 5503 245d 2583 f395 2883
000001f0: bf37 4283 14dd 3203 c050 5183 1383 5783
00000200: 0145 2f03 2406 3d82 0c96 0b83 c21e ef02
00000210: 53fd 0583 0c5e 5e83 8d4e 3f03 a0b7 3103
00000220: d434 1d03 4847 1983 3dc3 3083 9d6b 1083
00000230: c760 5183 2ebb 0383 c8da e982 a43b 5683
00000240: 0135 4003 1718 2583 b6cc 3303 0913 6703
00000250: 4084 4b03 8424 2383 4e3e 6a83 7c17 3c03
00000260: d391 1b83 2c13 4883 c2f0 da82 7db5 0203
00000270: fc63 2a03 a600 1b83 e4d7 4083 4059 f701
00000280: e8a8 5783 6252 ee82 5c9a 4903 96c4 4503
00000290: 30c5 a302 84dd 0f03 16c5 4103 9e1d 1603
000002a0: 79c8 1d03 b84b 3a83 3465 4282 c24e d602
000002b0: 5cd1 d481 04b0 9982 ce95 1903 1ac7 1f03
000002c0: 085f 5783 9e2f 1303 3b4d 4f02 e8c5 e382
000002d0: 3e71 0582 e1a8 0b03 c527 6203 70c7 8e82
000002e0: 1211 0c83 615c 3683 a7d2 0d82 180b bd82
000002f0: f071 3103 544a 4c83 5a26 3983 6421 1703
00000300: c083 3503 496e 0583 0af2 3103 1a1d 0b83
00000310: 1d71 0602 6c94 4e83 077c 3a83 f041 8102
00000320: d391 0a03 7af9 4783 1a51 0b03 9406 de82
00000330: 08cb 3383 8cff 3c83 e6c9 8b02 d296 6803
00000340: 1e3f 9102 b957 dc02 8df7 4783 5e36 9802
00000350: e6bd 4783 91b7 0783 2b3a 6483 19dc 2d03
00000360: 70d2 cb82 e82b ca02 f8e6 5383 0dcd 3903
00000370: db76 c582 0fbd 2f83 ae85 0583 e2be 3c03
00000380: 78b1 4003 34d8 3283 c642 9b82 4853 3d03
00000390: b0f0 5403 9d2f 3e03 8c95 b782 7247 3f83
000003a0: debf 4f03 c0b1 6a03 b648 5503 e18b 4b03
000003b0: 383a 3582 3938 1682 a1e1 6c83 2530 4203
000003c0: 4599 7a02 a557 0103 7a94 5383 8409 0903
000003d0: 1db0 e582 0f19 2f83 6e48 de01 ce53 3883
000003e0: 3894 3703 c0f2 cf80 3c16 a602 aae0 3403
000003f0: 9b5e 4d83 5889 2c83 76c3 0783 ae98 5283

net_model.4.bias f4 [32]
0.014156363 -0.0005624244 -0.0005049171 -0.00058990676 0.01417182 -0.0004620218 -0.0005802453 0.014147687
-0.0005815897 0.014165621 0.014169317 -0.0004189909 0.014156733 0.014152711 -4.82943e-29 0.014162104
-0.0005674327 -0.00035368392 0.014161464 -0.00035505832 0.014170582 0.014173558 -0.0005785195 -1.069858e-07
-0.0004960565 0.014168233 -0.00029965286 0.014148537 -0.00020556156 0.01415626 0.014153398 0.0141517855
00000000: 17f0 673c aa6f 13ba 6a5c 04ba f9a3 1aba
00000010: ec30 683c 843b f2b9 9a1b 18ba b3cb 673c
00000020: d375 18ba ec16 683c 6c26 683c 02ac dbb9
00000030: a4f1 673c c6e0 673c 96e1 7490 2b08 683c
00000040: c4bf 14ba a76e b9b9 7c05 683c 1f27 bab9
00000050: bb2b 683c 3638 683c c9a7 17ba 11c0 e5b3
00000060: ca09 02ba e021 683c ba1a 9db9 44cf 673c
00000070: 038c 57b9 a8ef 673c a7e3 673c e4dc 673c

net_model.6.weight f4 [1, 32]
-0.02771547 -3.199215e-37 -6.7158836e-37 -8.3035846e-38 -0.027683532 -1.0846056e-37 -5.111023e-37 -0.027733767
2.25773e-37 -0.027693233 -0.027698554 -0.00046594863 -0.027768059 -0.02769686 -7.006101e-37 -0.027694818
-6.8840475e-37 0.00014605107 -0.027712677 -0.00049397815 -0.027671093 -0.027662175 -6.325169e-37 5.378108e-37
-6.326394e-37 -0.027698312 -5.3469496e-37 -0.027742213 4.1253756e-37 -0.027694207 -0.027687209 -0.027728578
00000000: 8e0b e3bc 30ba d982 9987 6483 8a0b e281
00000010: 93c8 e2bc fda0 1382 4aeb 2d83 ed31 e3bc
00000020: 34a7 9902 ebdc e2bc 14e8 e2bc 914a f4b9
00000030: d779 e3bc 86e4 e2bc bf67 6e83 3ee0 e2bc
00000040: 8340 6a83 4925 1939 b205 e3bc 507e 01ba
00000050: 7dae e2bc c99b e2bc fe3b 5783 ee01 3703
00000060: aa46 5783 92e7 e2bc 80f2 3583 a343 e3bc
00000070: 1761 0c03 f6de e2bc 49d0 e2bc 0b27 e3bc
