src/t1dsim_ai/models/IndividualModel/T1DEXI-01-0388/individual_model.pt (torch, 50089 bytes, 7 tensors)

net_model.0.weight f4 [128, 10]
00000000: 71ae 71ba e286 9abc 364e babc 4bf0 443c
00000010: ab38 013c 8635 c2ba 0ce1 d6bb d9bb 893b
00000020: c7ef 9f3c 4ea6 4e3c 5e87 fd3b d8e4 a9ba
00000030: b553 e6bc a29d ce39 f444 823c a820 32bc
00000040: 0299 85bc 5a4c 293c 76db b33c 9ccf 4c3c
00000050: 1baf 6cba 20e2 8ebc 920f adbc 1766 323c
00000060: 637f ef3b ed04 eb3a 03cb f9bb 48b1 0236
00000070: 764d ab3c d6b9 4e3c 29a9 28bb 7e48 afbc
00000080: 552c adbc 461f 513c da07 fb3b 0c9f bd3a
00000090: 7b43 c6bb 1334 e53a ce37 9e3c 0b71 4b3c
000000a0: 903b ef3a 0e0d 5cbc 03d7 e8bc 5b28 4c3b
000000b0: 7c5e 3f3c 0928 dbbb ef4e 15bc 200f 1e3c
000000c0: 8be3 a63c 41f4 4c3c 245a edb8 8dbf 8ebc
000000d0: 1aa2 c1bc 44e2 303c d229 053c 3ce6 18bb
000000e0: c56b f1bb ed26 a03b 3e4d 9e3c 16d2 4e3c
000000f0: 754a 63bc d2db 87bc 2df2 243c 563a c8bb
00000100: bad9 b7b9 fcb9 65bd 4b25 f1bc 657d 473d
00000110: 29ec 2a3b 0467 02bc b8d2 013c 5736 54b7
00000120: 7c11 ddbc 5b8d 4a3b fd4c 5c3c be70 2dbc
00000130: 5dd8 88bc 28a9 323c 4da6 be3c 0f13 4f3c
00000140: 42ab ef3a e5b1 6dbc 6d73 d7bc 4510 df3b
00000150: 0f9a 1c3c 4ea4 8ebb 694d 0bbc 3643 c43b
00000160: ccd8 a63c efa8 4d3c cbc3 213b ba40 4cbc
00000170: 8e80 e9bc 9527 ca3a b4f5 5a3c 9037 f8bb
00000180: d94a 29bc 626b 213c 821d a63c a86a 4c3c
00000190: 9361 083b aaf9 58bc b21d e2bc 40ae 823b
000001a0: fca7 383c 5f35 cbbb 4533 16bc 7d6e 0e3c
000001b0: 7d90 aa3c b54f 4c3c 7339 43bc f0d0 86bc
000001c0: fdbd ee3b 5aee 5dbb d72a 98ba 52ab 6ebd
000001d0: bc3c febc d7fa 483d 671d 0f3b ad04 16bc
000001e0: 75b2 a9ba 5ee5 9abc d57b b7bc 8995 3e3c
000001f0: 20c7 053c 0ff5 53b9 b11b e4bb 496d 4e3b
00000200: 92c1 a13c 1a5f 4e3c ccf1 0abb 5253 a3bc
00000210: e1eb acbc 1dc4 453c 47f6 fa3b 5b00 d33a
00000220: 0822 dcbb 3197 603a 3bde a23c d442 4d3c
00000230: eb90 18bb 6c11 a9bc 4b73 a6bc a3d8 4b3c
00000240: 6830 e83b c852 ee3a 386b c6bb e59c a939
00000250: 9599 a33c 6c7c 4b3c 9c29 893b eeef 21bc
00000260: 70a2 e6bc 9c7e 2c3b 1c7f 503c 36f3 18bc
00000270: c6b8 44bc 39cf 053c 8156 a63c 18af 4e3c
00000280: 4870 073c 3616 2c3a ba83 dbbc 2e87 3a3b
00000290: 2aa6 5f3c 3526 2fbc 0971 8bbc 1ab7 303c
000002a0: 7181 be3c 3af0 4e3c 4bea cb3a c34d 6cbc
000002b0: 49db debc cb9b a63b 77ad 223c ceec 98bb
000002c0: 2a1a 0bbc 0c4e fa3b 5a2c a63c 3ad1 4d3c
000002d0: ca44 9f3b ca26 0abc 0be8 eabc f4d9 5a3a
000002e0: afae 773c e5d1 17bc 785a 58bc 0bd3 2a3c
000002f0: fbba a53c 5b2f 4d3c 0af4 0a3b 4bf6 59bc
00000300: 4926 debc c534 9d3b 562f 2e3c 56a1 afbb
00000310: 2398 1cbc de1b e43b 51e9 a73c 18bb 4f3c
00000320: b6df 493b 1bf6 3abc d0e5 ddbc 0caf a33b
00000330: 421c 353c 3f73 d6bb 60e5 32bc 59b6 d13b
00000340: a3e5 a93c a2d7 513c 1361 043b 4c26 5bbc
00000350: 7179 eabc 8038 073b 2acc 513c 30e0 dcbb
00000360: d113 1ebc ad8e 2d3c 1d0f a63c 9ef5 4c3c
00000370: 832f 31bc e2dc 81bb 928f 493c 4445 b2bb
00000380: 9391 b33b 259d ebbc 3274 03ba e9a1 e03c
00000390: 1c3e 243d d130 11bc 9a3f 1cbb fb5b aabc
000003a0: d446 a9bc 4744 4f3c 7998 f33b be28 e23a
000003b0: befb cbbb beeb 2e3a 03be a13c d7ba 4c3c
000003c0: 58f3 123c b794 3d3b cd23 c9bc d012 033c
000003d0: d7f1 fd3b 666d debb dbc2 90bc 2b66 af3c
000003e0: d4df df3c 8709 483c 053d 0bba ea14 92bc
000003f0: 1874 bcbc 7518 3d3c ad5a 083c ea0c ebba
-0.0009219414 -0.018863145 -0.022742372 0.012020181 0.007887046 -0.0014816977 -0.0065575894 0.0042033014
0.019523514 0.012612892 0.0077370843 -0.0012961878 -0.028116086 0.00039408827 0.01590202 -0.010872044
-0.016308311 0.010333145 0.021955233 0.01250067 -0.00090287783 -0.01744181 -0.021125589 0.010888598
0.007308887 0.0017930545 -0.007623078 1.94747e-06 0.02091096 0.012617549 -0.0025735593 -0.021396872
-0.021139303 0.012763804 0.007660848 0.0014466955 -0.006050525 0.0017486833 0.01931372 0.012417088
0.0018252004 -0.013430847 -0.028422838 0.0031151983 0.011680242 -0.006688122 -0.0091130575 0.009647161
0.020372173 0.012509407 -0.00011317831 -0.017425323 -0.023636866 0.010796133 0.0081276465 -0.002333059
-0.0073675835 0.004887453 0.019323941 0.012623331 -0.013872732 -0.01658431 0.010067505 -0.00611047
-0.000350667 -0.05608557 -0.029436728 0.04870357 0.0026080704 -0.007959131 0.007923774 -1.2648837e-05
-0.026985876 0.0030907008 0.01344609 -0.010585962 -0.016704733 0.010904588 0.023272658 0.012638821
0.0018285292 -0.014507745 -0.026300156 0.0068073594 0.009558215 -0.0043530827 -0.008502343 0.0059894575
0.020367049 0.012552484 0.0024683352 -0.012466604 -0.028503682 0.0015423173 0.013364244 -0.007574983
-0.0103327865 0.009852262 0.020277742 0.012476601 0.0020810112 -0.013243118 -0.02760205 0.0039880574
0.011270519 -0.0062014307 -0.009167497 0.008693335 0.02082085 0.0124701755 -0.011915552 -0.016457051
0.007285832 -0.0033863992 -0.0011609447 -0.058268853 -0.03103482 0.049067345 0.0021837594 -0.009156388
-0.0012946861 -0.018908199 -0.022397915 0.011632332 0.008165151 -0.0002021382 -0.006961309 0.0031498244
0.019745622 0.012595916 -0.002120125 -0.019937191 -0.02110857 0.012070683 0.007658753 0.0016098128
-0.006717924 0.0008567451 0.019881358 0.01252814 -0.0023279737 -0.02063819 -0.020318648 0.012441787
0.0070858486 0.001818263 -0.006055262 0.00032351087 0.019970695 0.012419801 0.0041858684 -0.009883864
-0.028153628 0.0026320582 0.012725618 -0.00933533 -0.012006944 0.0081670815 0.02030492 0.012614988
0.008266516 0.0006564589 -0.02679621 0.002846192 0.013650456 -0.010690262 -0.017021673 0.010785842
0.023255082 0.012630517 0.0015557496 -0.014422837 -0.027204173 0.00508449 0.009929053 -0.004666901
-0.008490125 0.0076386984 0.02028482 0.0125620905 0.004860495 -0.0084321 -0.0286751 0.00083485176
0.015117331 -0.009266351 -0.013205163 0.010426293 0.02023076 0.012523497 0.0021202588 -0.01330335
-0.027117865 0.0047975504 0.010631403 -0.005359809 -0.009557757 0.00696133 0.020496996 0.012678884
0.0030803508 -0.011411215 -0.027087122 0.0049952324 0.0110541005 -0.0065445 -0.010918945 0.0063999114
0.020739382 0.0128077585 0.0020199462 -0.01337583 -0.02862236 0.0020633042 0.012805024 -0.0067405924
-0.009648279 0.010593099 0.020270878 0.012509732 -0.01081455 -0.003963099 0.012302296 -0.005440386
0.0054800003 -0.028761456 -0.0005014568 0.027420955 0.040098295 -0.008861736 -0.002384162 -0.020795813
-0.020663656 0.012650556 0.0074339476 0.0017254574 -0.0062250784 0.00066727016 0.019743925 0.012495718
0.0089691505 0.0028927752 -0.024553204 0.008000091 0.007749777 -0.0067879437 -0.01767104 0.021411022
0.02732841 0.012209303 -0.0005311522 -0.017832238 -0.023004577 0.011541476 0.0083224 -0.0017932926

net_model.0.bias f4 [128]
00000000: 73fd 553c e97a c23b 22ab 783c dd5c 6c3c
00000010: 884f 193c db61 523c 192c 68ba 4478 b33b
00000020: eaf4 373c 1809 113c c3c8 1b3c 29b7 14bb
00000030: a1fd 5c3c 2d71 713c 1f0e 7b3c afc5 103c
00000040: 3c52 b43b 54af 2a3c 8bdb fa3b f390 273c
00000050: 3754 213c 7668 103c cfb6 3fba be01 743c
00000060: baa3 ff3a 2195 533c 9db2 533c 90f0 793c
00000070: 7c47 e73b 6781 503b d1db 793c 77f0 673c
00000080: 8bad bcba 9f68 393c 5f7b ed3b 88fb 603c
00000090: f850 5c3c 15f0 183c 092f 4b3c 49c8 243c
000000a0: 9f7a 353c d1fb 4ebb a6d4 323c e23e 1c3c
000000b0: 71f7 18ba 0e74 8a3c 49bf 63ba 3107 0c3c
000000c0: 7eac 103c 8a11 663c 1dab 063c b4fc 6f3c
000000d0: d884 afbb c125 023c 5944 93ba f592 583c
000000e0: 2cbc 5c3c 56d7 6f38 8222 1a3a 24d8 6d3c
000000f0: 9543 513c f3ee 313c 7edb 333c a4d5 b13b
00000100: 36bb 75ba a971 9dbb e201 86bb 4dd8 723c
00000110: 695e 1b3c 1b1c b13b 8e9b 023a ee4d 173c
00000120: b0b3 6c3c eb69 ed3b 1b8c 483c 18d7 b23b
00000130: 20a1 a2bb 31d6 783c f0f2 4ebb 5561 133c
00000140: 4222 b93b 54ef 94ba 4a27 22bb 9582 af3b
00000150: 8c97 003c 38ff 193c fe72 4f3b 58b7 30ba
00000160: 49c7 c03b ef83 713c 2834 bb3a 92d1 0b3c
00000170: 5aad 2a3c 7d9d 773c 410c 733c f1f0 743c
00000180: 676b 133c d312 113c 2415 633c 3655 093c
00000190: b239 0eb9 fde4 9b3c cb15 be3a a89c 183c
000001a0: 9072 613c a3cd 683c 8e4d 5abb 46e8 6a3c
000001b0: ab00 4e3c e845 063c 9b76 35bb b33d 253c
000001c0: ed81 333c 4eb9 023c fe4e ed3a 3b9d 6a3c
000001d0: 4ad1 ba3b 4e98 ee3b e0ff 633c fde3 153c
000001e0: 7897 7fbb 9a50 6c3c 428c 043b 86f5 573c
000001f0: 0dd6 6d3c 8ff5 553c f890 813c baf4 443c
0.013060915 0.005935062 0.01517752 0.014426437 0.009357341 0.012840713 -0.0008856669 0.0054769833
0.011227826 0.008852266 0.009508315 -0.002269218 0.013488204 0.014736456 0.015323191 0.008836194
0.005502967 0.010417778 0.007655566 0.01022743 0.009846739 0.008813968 -0.00073133124 0.0148929935
0.001950375 0.012913973 0.012921003 0.0152551085 0.007058082 0.003181541 0.015250162 0.014156452
-0.0014394982 0.0113164475 0.007247373 0.013731845 0.013447039 0.009334584 0.012401351 0.010057517
0.011076598 -0.00315832 0.010914957 0.009536477 -0.00058352115 0.016901042 -0.00086878665 0.008546636
0.008830188 0.014042268 0.0082195075 0.014647651 -0.0053564124 0.007943572 -0.0011235579 0.013218631
0.013472598 5.7182588e-05 0.0005879776 0.014516864 0.0127724605 0.010860193 0.010977624 0.0054270793
-0.0009373905 -0.004804809 -0.00408958 0.014822078 0.009482958 0.0054049618 0.0004982286 0.0092348885
0.014447138 0.0072452924 0.012240435 0.00545777 -0.0049630553 0.015187786 -0.0031577908 0.008995374
0.005649836 -0.0011362829 -0.0024742656 0.0053561428 0.007848632 0.009399228 0.0031654234 -0.00067411875
0.0058831316 0.014740928 0.0014282512 0.008533852 0.010417307 0.015113232 0.0148344645 0.014950023
0.008997775 0.008854586 0.013860021 0.008382132 -0.00013563668 0.019030089 0.0014502344 0.0093146935
0.013760224 0.014209184 -0.0033310386 0.014337605 0.012573401 0.008195378 -0.0027689103 0.010085511
0.01095627 0.00797875 0.0018105207 0.014319713 0.0057012187 0.0072813397 0.013915986 0.009148595
-0.0039000195 0.014423514 0.0020225202 0.013181096 0.014516366 0.013059034 0.015816197 0.012021238

net_model.2.weight f4 [64, 128]
00000000: 0f70 213c db8d 133c 53a6 293c 7edf 393c
00000010: 3c23 293c cb7f 183c 3afa 60bd aae2 0d3c
00000020: c012 0e3c 0e66 263c c2ec 1c3c fa7d 67bd
00000030: d8e3 213c ceed 313c 8f8a 3e3c ff2c 023c
00000040: 8c18 0c3c 5c67 1b3c cde9 1c3c 086a 0c3c
00000050: 60af f23b 9464 323c 9cf4 5bbd cbe5 383c
00000060: 7ff1 9b3c c398 193c b888 103c 4c53 283c
00000070: 1d97 213c fa4c 7b3d 1dc2 3c3c 0483 423c
00000080: 4f67 523c 96cd 063c 353c fb3b 22dd 313c
00000090: b3ba 373c a416 153c af82 67bd a8d7 6cbd
000000a0: 9446 6bbd 4a63 643c 6ee1 093c 00d5 0e3c
000000b0: 2f9e 5bbd 731c 8bbd 93c9 f73c ca00 6abd
000000c0: cbe3 fe3b 41c1 573c 134d 163c f0ea 4d3c
000000d0: 414d 253a 3ec4 6abd f1d0 61bd 2fef 123c
000000e0: aa79 5fbd 3887 5dbd 7754 2f3c 8086 3c3c
000000f0: 77bb 0b3c 5c3d 143c c0ce 6abd 0c68 0a3c
00000100: a52c 5dbd 4e8a 54bd 6d18 9f3c 2de4 3c3c
00000110: 14e9 0c3c cfc5 083c e9c9 3abd 8106 093c
00000120: 2390 323c 61ea 0a3c 0ad0 103c d860 173c
00000130: dac1 4fbd 5220 393c 7cf1 62bd e63c 68bd
00000140: a585 ef3b f5f8 5abd a267 aa3d 0c92 eb3b
00000150: 26fe 99bd 3580 0a3c 2f5c 80bd 1ac7 5bbd
00000160: b991 0c3c 4361 303c deb0 033c 9d3a 6bbd
00000170: 0c95 093c 3b46 2a3c 1b2c 343c 733f 3a3c
00000180: b32b 69bd 60e1 223c 42f1 173c dbac 69bd
00000190: 0c6b 3d3c cf02 afbd 6bfa 1e3d ca93 043c
000001a0: d789 3e3c ba8d 493c 9d41 5f3c 1a01 3a3c
000001b0: 7868 173c 60e2 1c3c eb25 a93d 091a 0a3c
000001c0: 9d0f 6cbd cf4c 013c d7b3 053c 5ebb 473c
000001d0: 4634 88bd 0c61 ea3b a0af 2f3c cbfd 6ebd
000001e0: 3f77 833c 48cf 3c3c db00 9a3c a236 2c3c
000001f0: cfa2 443c 734d 0f3c 632b 223c 4ba0 093c
00000200: 5b3f 273c 9ec3 e03b 1bde 463c 6319 533c
00000210: 03cc 133c 6064 183c 419d 73bd b195 e13b
00000220: 88a8 063c e943 0f3c 4007 0d3c 29be 7fbd
00000230: c43e 2d3c fa60 4c3c 36bb 5e3c c900 be3b
00000240: e7b6 dd3b 9ad7 103c 1e1e 003c ea38 fd3b
00000250: 82ce c33b 3761 1e3c 7de9 86bd 319a 543c
00000260: d3cc bf3c b0c7 1c3c 30ce 133c 0953 453c
00000270: 1593 013c 2b22 ba3d 7e80 5d3c 7baa 5b3c
00000280: 25c5 a93c 3f84 f53b 6106 ae3b c6ee 3f3c
00000290: b84c 443c b64b fb3b ab26 81bd 2bf8 9abd
000002a0: 0994 99bd 623d c33c ba38 003c 760c f03b
000002b0: b9f7 85bd ceb4 4fbd a915 373d 8f86 93bd
000002c0: 3778 c63b 87c1 7a3c 4111 f03b ce69 6c3c
000002d0: 9401 5f3a c2a6 92bd 3de7 73bd 4b86 193c
000002e0: 9527 77bd b9cb 89bd b887 7e3c 6ac7 573c
000002f0: 0542 0b3c 9f03 0d3c 6fcb 98bd 37c4 dc3b
00000300: de3b 87bd f5eb 79bd 1f75 0a3d c5dd 583c
00000310: 7b01 f03b ffb9 d63b 385f 49bd 5a3c e23b
00000320: 45ed 483c 561d ca3b 83f5 0d3c 56f2 f53b
00000330: 9c50 72bd cb04 593c be01 74bd 112a 92bd
00000340: 3093 b53b 1d42 6cbd b6b5 003e 493b b93b
00000350: e956 bdbd 731a eb3b 418f 70bd 6155 86bd
00000360: d946 d43b 14ba 493c a4d1 473c 6863 93bd
00000370: 1fdd f83b 12bd 453c c6d7 503c edc3 573c
00000380: 3a69 92bd e45f 083c 8ab0 273c 6f94 92bd
00000390: ffc2 bb3c 9690 87bd c3de 553d bb94 d53b
000003a0: eba1 543c 3175 673c 04ba b43c 558e 523c
000003b0: d604 173c aa38 f33b 8df3 fe3d 4003 f53b
000003c0: 0040 9abd 7de1 bb3b 1f8d 523c 0b76 633c
000003d0: 193d 7abd a208 b03b aa37 423c 9aea 9bbd
000003e0: cbce e63c 0e01 583c 7928 b73c f6b0 343c
000003f0: cdf7 613c 79f2 143c 0644 3f3c a24d 0b3c
0.009853377 0.009005989 0.010354596 0.011344789 0.010323342 0.009307812 -0.054926135 0.008659998
0.008671463 0.010156168 0.009577932 -0.056516625 0.009880982 0.01085992 0.011629715 0.007945298
0.008550774 0.009485092 0.009577227 0.008570202 0.0074061602 0.0108882375 -0.053700075 0.011285256
0.019036053 0.0093748 0.008821659 0.010273766 0.009862688 0.061352707 0.01152089 0.011872057
0.0128420135 0.008227726 0.0076670893 0.010855945 0.011213946 0.009099636 -0.056521114 -0.057822853
-0.057440355 0.013939688 0.008415563 0.008717775 -0.053617653 -0.06792536 0.030247485 -0.05712966
0.00777862 0.013168634 0.009173649 0.0125682205 0.0006305762 -0.057316057 -0.055130903 0.008968159
-0.054559387 -0.054084033 0.01070129 0.011506677 0.008528582 0.009047832 -0.05732608 0.008447658
-0.053997654 -0.05188971 0.019420827 0.011529011 0.008600492 0.0083479425 -0.045602713 0.008363367
0.010898623 0.008478732 0.008838663 0.009239398 -0.05072198 0.01129921 -0.05540608 -0.056698702
0.007309633 -0.05346008 0.08320548 0.007189041 -0.07519178 0.0084534185 -0.062675826 -0.053656675
0.008579665 0.0107653765 0.008037774 -0.057428945 0.008397352 0.010392721 0.010996844 0.011367667
-0.05692644 0.009941429 0.009273829 -0.057049613 0.0115611665 -0.085454576 0.038813036 0.008091876
0.011629543 0.012301857 0.013626483 0.011352802 0.009241216 0.009575456 0.082591854 0.008429059
-0.057632077 0.007891848 0.008160553 0.012190668 -0.06650595 0.007152682 0.010723025 -0.058347505
0.016048072 0.011524029 0.018799236 0.010511072 0.012001707 0.008746493 0.0098980395 0.008400033
0.010207976 0.006859257 0.012137915 0.012884471 0.009020808 0.009301275 -0.05947614 0.0068842997
0.008218892 0.008744218 0.008607686 -0.06243721 0.0105740465 0.012474293 0.013594439 0.0057984334
0.0067661884 0.008840466 0.0078196805 0.007727732 0.0059755454 0.0096667325 -0.06587503 0.012976215
0.023413097 0.009569094 0.009021327 0.012043723 0.007908602 0.09088548 0.013519404 0.013407345
0.020723889 0.0074925716 0.005310819 0.011714643 0.011981182 0.0076689376 -0.063062035 -0.075668655
-0.074989386 0.02383298 0.007826025 0.007325704 -0.0654139 -0.05070954 0.04469839 -0.072033994
0.006056811 0.01530493 0.0073262756 0.014429523 0.000850701 -0.07160713 -0.059546698 0.009370397
-0.060340483 -0.0672831 0.015535288 0.013170103 0.008499627 0.00860682 -0.07460677 0.006737258
-0.06603216 -0.06101604 0.0338031 0.013236468 0.0073243952 0.006552934 -0.049163073 0.006904167
0.012263601 0.006168048 0.008664492 0.0075056953 -0.059158906 0.013245772 -0.059571974 -0.0713693
0.0055412278 -0.057680238 0.12569317 0.0056528193 -0.092450924 0.007174784 -0.058730368 -0.065592535
0.0064781723 0.012312431 0.012195978 -0.071966946 0.007594719 0.012069004 0.012746757 0.013169271
-0.071489766 0.008323643 0.010234961 -0.07157218 0.02292013 -0.066193745 0.052214395 0.006517974
0.012978057 0.014127062 0.022061355 0.012851317 0.009217462 0.0074225264 0.124487974 0.007477194
-0.07531738 0.0057336674 0.012851029 0.013883124 -0.061093424 0.005372123 0.011854092 -0.07613106
0.028174778 0.013183845 0.022358166 0.011028519 0.0137919905 0.009091013 0.011673933 0.008502396

net_model.2.bias f4 [64]
00000000: d937 bc3c 718a e33c 0fff dc3c 3c06 f93c
00000010: 4988 eb3c 1d1b 8bb9 1c6b 923c edbb e23c
00000020: 3f79 3dae b858 a5ba 84ca 22ba 306f 923c
00000030: eb18 66bb 96bb ea3c 1e57 4ab9 dd6f 923c
00000040: faa0 f099 3269 923c 2131 923c 7519 47ba
00000050: 6d6c 923c 36e2 bf3c b46a 923c e76c 923c
00000060: 267d 923c 7acb 75ba 1891 f0b9 1175 923c
00000070: b743 a6b3 87b5 14bb 5f69 da3a b544 1cbb
00000080: 6171 923c 5868 923c 6177 923c 030b 50ac
00000090: 06a8 17bb e870 923c d720 e1b4 2c77 923c
000000a0: f21c 75ba b929 923c 1c1a 923c 5370 923c
000000b0: a0e8 89b9 d527 923c 2a2a 923c 9a1a c4b4
000000c0: a35a 923c dc72 923c 7329 923c 39bb d4ba
000000d0: 27e4 e2b3 6473 923c 3fe0 54b3 7b66 0bb7
000000e0: 71a3 1c3c 236d 923c cb00 923c 086f 923c
000000f0: 4b6a 923c 2e37 1bbb 8d62 af3a 682b 923c
0.022975849 0.027775975 0.02697709 0.03039848 0.02875151 -0.00026532347 0.01787334 0.0276775
-4.3081313e-11 -0.0012614941 -0.0006209987 0.017875284 -0.0035110067 0.028653901 -0.00019296675 0.017875606
-2.4880436e-23 0.017872427 0.017845692 -0.0007595041 0.017873967 0.023423295 0.017873146 0.017874194
0.017881941 -0.00093763287 -0.0004588447 0.017878087 -7.7422946e-08 -0.0022691207 0.0016663483 -0.0023844664
0.017876329 0.01787202 0.01787919 -2.956469e-12 -0.0023140921 0.017876104 -4.193341e-07 0.017879091
-0.00093503215 0.01784216 0.017834716 0.017875826 -0.00026303995 0.017841259 0.017842371 -3.65272e-07
0.017865485 0.017877035 0.01784203 -0.0016230113 -1.0565446e-07 0.017877288 -4.9564047e-08 -8.308906e-06
0.009560452 0.017874306 0.017822644 0.01787521 0.01787295 -0.0023684013 0.0013380811 0.017842963

net_model.4.weight f4 [32, 64]
00000000: 959a 693d 530c 943d 1024 8e3d a6b8 9f3d
00000010: dab6 983d 6a1c a801 c404 1c3d 85fb 913d
00000020: e3ee 0f02 002b 0a8c 2216 0338 94c8 1b3d
00000030: fb4b 833a 6847 983d 7cbd 6132 da4a 1c3d
00000040: 3991 0617 301f 1c3d cdc9 1b3d 4fb1 91b7
00000050: 92f1 1b3d 73b7 6e3d fdd6 1b3d b2ab 1b3d
00000060: 73f9 1b3d ae09 2303 9b10 d038 13d6 1b3d
00000070: dac0 9bba 83ab ed3a 42dd 24bd 2259 e1ba
00000080: 6404 1c3d 6c26 1c3d 0497 1b3d b28b c02b
00000090: 934f 0a3b 3a3a 1c3d 24e2 3803 85fe 1b3d
000000a0: 4a11 b7b9 5399 1b3d 5ecf 1b3d 93e9 1b3d
000000b0: cb60 28b3 82fe 1b3d fcb0 1b3d b284 1335
000000c0: 5106 1c3d ba68 1c3d f9f6 1b3d 4a5e 253a
000000d0: 423d 6d2a 3964 1b3d efa2 a902 c3e3 8a2b
000000e0: d77a 27bd 4e18 1b3d 93cd 1b3d 5191 1b3d
000000f0: 7be7 1b3d a0b3 edba e6fc 1fbd 9195 1b3d
00000100: 86cd de01 1194 5a03 7865 5301 c157 4183
00000110: 83e1 4903 e0a3 3183 7f09 e882 b097 1c82
00000120: c105 5f03 2006 3183 5381 3103 ff11 3203
00000130: f05a 5f83 8969 0602 4311 2183 b459 a682
00000140: c62a 0983 06bf 5c03 6c3a 4783 d38a 5b83
00000150: 2ef2 2403 e59b 3782 d008 4183 ae6a 2782
00000160: 0177 1903 2428 4883 a420 1b03 90cc 1903
00000170: 7877 4682 7735 4383 f577 1383 4f8a ff02
00000180: 2eb6 3183 6303 1b03 788e 6a03 8078 1f82
00000190: b95c 3483 f04d 4483 17df 2103 bd9d f802
000001a0: 0e8d 5603 e6e3 1d83 313d 4203 264a 2b83
000001b0: 385a 9182 7fa1 0d82 26f9 b981 244c 3983
000001c0: eecf 3403 1cc1 4303 29cf 4703 ef5f 2d83
000001d0: d7cd 4103 ef6e 3083 1a2f 2103 2457 0d83
000001e0: 1af2 b202 36e3 6503 aaa4 0983 ce8c 1483
000001f0: 3f06 5683 79db 4203 c600 2f83 7a1e 4683
00000200: 57a7 3303 9c5a bf02 0c20 bd82 70af 0903
00000210: 8435 1483 8286 5783 4190 3e03 9243 2503
00000220: 3f4f 3003 703f 3283 38c7 2a83 9715 2e83
00000230: 32e0 1883 58cb db82 2eb4 9482 e170 4583
00000240: 21ee 2303 af2e 3983 59d6 2603 64ee 6003
00000250: 98d8 5203 d497 1983 f45c fa02 8001 0803
00000260: 72ea 3b83 e6be b001 2064 fa82 2673 1603
00000270: c08a 1203 0385 1f83 a339 1b83 5b7a 3402
00000280: 13e5 4e83 0e7a ff82 3273 0203 3654 0603
00000290: 2eb9 9002 8ce4 1703 d299 4903 a495 1703
000002a0: 8e4f 3f03 51f9 5883 1c2a 4f82 c89a e502
000002b0: 8ce8 fb81 469c 8882 fd6a 2203 b84e 5d03
000002c0: 88ab 4e83 aa8c d202 b94f a102 6aad e682
000002d0: d8a1 c300 b791 0303 95d6 4d03 20cb c482
000002e0: 9af8 b882 b899 3783 13fc 4803 4a0f ce82
000002f0: 0bd8 4a03 9033 4783 be6c f182 3a29 3003
00000300: 612f 1f03 8d6e 4e83 a59d 3b03 d699 2d83
00000310: 7bae 4483 f8a3 1983 e2e5 6c83 95c2 d802
00000320: a479 0903 d2d3 f682 a9de 1603 b591 5683
00000330: 6a80 4d83 9205 5483 90d9 ad02 26aa 5a03
00000340: 0b7d df02 955b 0003 2af9 5783 19db e002
00000350: 31ea 1483 42ee 0683 83a4 4d83 0073 2103
00000360: c072 f882 1308 0c03 866c 4083 46f9 2c03
00000370: 8e4f ef82 4c24 5883 0a36 0b83 7ea5 ef02
00000380: 6aaf 5603 eed1 4283 4756 de82 9617 0903
00000390: ca0e 3603 16f5 3103 3428 1c02 26be 1983
000003a0: 3a32 5403 de1d 3f03 a50e 2403 5208 6703
000003b0: 19f0 2d82 c01e 4d82 119b 4d83 ac24 4d03
000003c0: a83b 5502 31d2 2b03 c1c9 4f83 121f 1e03
000003d0: 3d1a 0683 70e5 3083 443b 2983 50ca ee82
000003e0: 031d 3403 943c c381 5699 dc82 dec0 1903
000003f0: bfa6 4183 2cb8 4283 dd85 3083 8a2a 5783
0.057032187 0.07228913 0.06940472 0.07798891 0.07456751 6.1754226e-38 0.038090482 0.07128052
1.0574538e-37 -1.0644073e-31 3.1253447e-05 0.038033083 0.0010017151 0.07435495 1.31398075e-08 0.03815732
4.348103e-25 0.03811568 0.03803425 -1.7367913e-05 0.038072176 0.05828042 0.038046826 0.03800554
0.03807969 4.7912507e-37 9.921306e-05 0.038045954 -0.0011883036 0.001813278 -0.04025007 -0.0017192701
0.038090125 0.03812258 0.037985817 1.3681194e-12 0.002110456 0.038141467 5.4332337e-37 0.038084526
-0.0003491736 0.03798802 0.038039558 0.03806455 -3.920358e-08 0.038084514 0.038010582 5.4954864e-07
0.03809196 0.038185813 0.03807733 0.00063083007 2.1071082e-13 0.037937377 2.4925837e-37 9.868706e-13
-0.040888634 0.037864976 0.038037848 0.03798038 0.038062554 -0.0018135197 -0.039059542 0.037984435
8.184483e-38 6.4234414e-37 3.882738e-38 -5.681834e-37 5.9327466e-37 -5.2203744e-37 -3.4094787e-37 -1.1504602e-37
6.5540415e-37 -5.2022656e-37 5.216408e-37 5.2330157e-37 -6.56382e-37 9.875052e-38 -4.7333463e-37 -2.4442995e-37
-4.0309783e-37 6.4871473e-37 -5.854791e-37 -6.451768e-37 4.8473277e-37 -1.3489456e-37 -5.672772e-37 -1.2299838e-37
4.509927e-37 -5.8820797e-37 4.5587876e-37 4.5197485e-37 -1.4581028e-37 -5.7366724e-37 -4.333712e-37 3.7548268e-37
-5.2224757e-37 4.5554294e-37 6.8929966e-37 -1.1716057e-37 -5.3003686e-37 -5.768869e-37 4.756974e-37 3.6530862e-37
6.305087e-37 -4.639977e-37 5.708172e-37 -5.03375e-37 -2.1357618e-37 -1.0405391e-37 -6.831578e-38 -5.445402e-37
5.3135937e-37 5.752703e-37 5.871865e-37 -5.0950257e-37 5.6953895e-37 -5.1849097e-37 4.7367718e-37 -4.153621e-37
2.6293709e-37 6.7557877e-37 -4.0449707e-37 -4.3654927e-37 -6.289612e-37 5.726342e-37 -5.1428766e-37 -5.8221956e-37
5.279547e-37 2.8116935e-37 -2.7789448e-37 4.0462074e-37 -4.3554724e-37 -6.333723e-37 5.6001577e-37 4.856671e-37
5.181272e-37 -5.238232e-37 -5.01872e-37 -5.115879e-37 -4.492615e-37 -3.2295871e-37 -2.1850064e-37 -5.8022675e-37
4.8174753e-37 -5.4420204e-37 4.9029075e-37 6.6101343e-37 6.196209e-37 -4.513695e-37 3.678755e-37 3.996853e-37
-5.522349e-37 6.4926115e-38 -3.6791667e-37 4.421322e-37 4.306482e-37 -4.687859e-37 -4.561657e-37 1.3259426e-37
-6.0800923e-37 -3.7538938e-37 3.8335804e-37 3.947573e-37 2.1265186e-37 4.463727e-37 5.924517e-37 4.454669e-37
5.622118e-37 -6.3762896e-37 -1.5220043e-37 3.3737366e-37 -9.2536527e-38 -2.00731e-37 4.7730338e-37 6.5036428e-37
-6.0734867e-37 3.0937464e-37 2.3702582e-37 -3.3894997e-37 1.796598e-38 3.8664712e-37 6.0490414e-37 -2.89162e-37
-2.717906e-37 -5.3955327e-37 5.9064085e-37 -3.0277755e-37 5.961047e-37 -5.8540035e-37 -3.5474182e-37 5.1769077e-37
4.678029e-37 -6.0664865e-37 5.513533e-37 -5.1016726e-37 -5.7799517e-37 -4.5150886e-37 -6.961806e-37 3.1850032e-37
4.040032e-37 -3.626803e-37 4.433664e-37 -6.305621e-37 -6.0391498e-37 -6.2307595e-37 2.554494e-37 6.4259763e-37
3.2838676e-37 3.772095e-37 -6.3468848e-37 3.3039598e-37 -4.376213e-37 -3.9652567e-37 -6.0432936e-37 4.744566e-37
-3.6506188e-37 4.115157e-37 -5.6548308e-37 5.083241e-37 -3.5163556e-37 -6.351836e-37 -4.0910462e-37 3.5212882e-37
6.3090313e-37 -5.7252463e-37 -3.266949e-37 4.0287757e-37 5.350197e-37 5.229697e-37 1.1472608e-37 -4.518094e-37
6.235886e-37 5.616414e-37 4.821208e-37 6.789435e-37 -1.2778937e-37 -1.5069846e-37 -6.0422093e-37 6.0286183e-37
1.5665889e-37 5.049367e-37 -6.1063435e-37 4.6467694e-37 -3.940918e-37 -5.1985133e-37 -4.973267e-37 -3.5087079e-37
5.293055e-37 -7.171861e-38 -3.2414105e-37 4.518406e-37 -5.6909018e-37 -5.7222895e-37 -5.187542e-37 -6.3231654e-37

net_model.4.bias f4 [32]
00000000: 4855 2c3b 8402 06ba 7a78 98b9 2184 12ba
00000010: e82a 2c3b 668d f9b8 9b67 07ba 2237 2c3b
00000020: 6285 08ba af96 2c3b 3a1a 2c3b 7573 1bb7
00000030: d185 2c3b 1a3e 2c3b 2e33 e5b9 845a 2b3b
00000040: ad18 f0b9 9085 b5b9 bc87 ebb7 a7ff 52b7
00000050: af35 2c3b 3a4a 2c3b ca09 12ba a945 2b3b
00000060: da35 f9b9 6d22 2c3b ad34 99b9 7578 2c3b
00000070: 465f 263b c89b 2c3b 2668 2c3b 9025 2c3b
0.0026295949 -0.0005112069 -0.0002908146 -0.0005589147 0.0026270691 -0.00011899583 -0.000516528 0.002627798
-0.0005207864 0.0026334932 0.002626075 -9.265602e-06 0.0026324878 0.0026282133 -0.00043716416 0.002614648
-0.00045794752 -0.00034622522 -2.807739e-05 -1.2576499e-05 0.0026277115 0.002628936 -0.00055709167 0.002613405
-0.00047533103 0.0026265637 -0.0002922168 0.0026316915 0.0025386377 0.002633797 0.0026307194 0.0026267506

net_model.6.weight f4 [1, 32]
00000000: 9381 29bd 6b79 3483 0c52 dc01 01e0 5f83
00000010: 3068 29bd acc1 4f83 fc5c 5a83 909e 29bd
00000020: e4df 4283 f85f 29bd 957c 29bd 5290 3683
00000030: 3ead 29bd a77d 29bd cb92 0cba 0efa 29bd
00000040: 2d49 4383 ed27 11ba 8e63 4003 04c9 4183
00000050: 5954 29bd 4561 29bd 2179 3c83 d91f 2abd
00000060: 75c1 06ba be5f 29bd 29e3 4683 38a4 29bd
00000070: 15b9 2abd a47f 29bd 327c 29bd 94c4 29bd
-0.041383337 -5.3036627e-37 8.093297e-38 -6.5790954e-37 -0.041359127 -6.1054157e-37 -6.4171183e-37 -0.041410983
-5.726849e-37 -0.04135129 -0.041378576 -5.3650665e-37 -0.041424982 -0.041379597 -0.000536245 -0.041498236
-5.738935e-37 -0.00055372604 5.653801e-37 -5.6948357e-37 -0.041340206 -0.04135253 -5.5387284e-37 -0.04153428
-0.00051405217 -0.041351072 -5.8447737e-37 -0.041416377 -0.041680414 -0.041381493 -0.041378208 -0.041447237
