src/t1dsim_ai/models/IndividualModel/T1DEXI-01-0111/individual_model.pt (torch, 50089 bytes, 7 tensors)

net_model.0.weight f4 [128, 10]
-0.004066977 0.017044509 -0.011179409 -0.028540468 0.024783744 0.0060469788 -0.005525916 0.010391405
0.00010774795 -0.007207323 -0.004162274 0.01713318 -0.010867533 -0.027851963 0.02497276 0.005973157
-0.0057594604 0.011222739 0.0008661071 -0.0072131096 -0.00281526 0.01827314 -0.012415348 -0.028880276
0.0244704 0.006059945 -0.0046192794 0.009400464 -0.0005668021 -0.006530519 -0.0042906315 0.016979923
-0.010885247 -0.028068356 0.024849977 0.005968783 -0.005710208 0.010889305 0.0004403964 -0.00740892
-0.0012060656 0.020509023 -0.013393099 -0.028669087 0.024228673 0.0057904054 -0.003372756 0.0086808875
-0.0018355096 -0.005565725 -3.8151287e-05 3.8442104e-06 1.1297094e-08 4.0143486e-10 -1.3067886e-05 -9.574294e-09
1.1043835e-08 -2.2756025e-07 1.1436754e-09 -2.0226531e-07 -8.288086e-05 0.02137781 -0.014250317 -0.028801834
0.023380088 0.005404842 -0.002664275 0.007558285 -0.002189679 -0.0054594185 0.015389292 0.03156677
-0.0010659869 -0.005974808 -0.005460094 0.0126727065 0.025288325 -0.011137769 -0.017988859 0.024791902
-0.0035847146 0.017709073 -0.011514193 -0.028351884 0.024589559 0.0056689256 -0.005136808 0.010450783
0.00017437864 -0.007045016 0.01207639 0.032820035 -0.016517425 -0.0036921555 -0.00895917 0.021931626
-0.023881743 -0.0065433304 -0.05270408 -0.04153571 0.000197016 0.022129862 -0.014013317 -0.027987747
0.023402143 0.005491037 -0.002683491 0.008880028 -0.0014106269 -0.0053896178 -0.0025098494 0.018763205
-0.012324262 -0.028495986 0.024387559 0.0057315426 -0.0045093354 0.0098554045 -0.000460919 -0.006538214
-0.004950954 0.015904477 -0.010575272 -0.028337287 0.02505545 0.0061662043 -0.005858824 0.011026388
0.00069154514 -0.007601614 -0.0022589117 0.019099444 -0.012633603 -0.028744487 0.024497718 0.005814037
-0.0041894848 0.009357217 -0.0008464272 -0.006178537 -0.003235907 0.017889088 -0.011646651 -0.028310757
0.024586748 0.0057072667 -0.0050246497 0.010315528 4.2907e-06 -0.0069133416 -0.0006041973 0.02111155
-0.013795795 -0.028805902 0.02371671 0.0054306868 -0.00286306 0.007881822 -0.002148464 -0.0056308648
-0.004131578 0.01703356 -0.0111278845 -0.028562948 0.024799194 0.006011131 -0.0054719294 0.010449302
0.00017256467 -0.0072429436 -0.0013779768 0.020394716 -0.013262675 -0.028665517 0.024240395 0.005729541
-0.0034208186 0.008646434 -0.0017338593 -0.005701542 -0.004095612 0.017050084 -0.011068105 -0.028132427
0.024869619 0.0060605705 -0.005712928 0.010779581 0.0005013777 -0.007407616 -0.0051716957 0.015388395
-0.010440205 -0.028309753 0.025169907 0.006202101 -0.0059428555 0.011164034 0.0008675664 -0.0078061563
0.0022747668 0.028734982 -0.011948383 -0.00820344 -0.010126403 -0.014228541 -0.02705229 0.0038420698
-0.04887963 -0.048563782 -0.003032778 0.017985163 -0.012056651 -0.028587611 0.024478173 0.006023374
-0.0049417154 0.009962043 -0.00021232804 -0.006764561 -0.003984058 0.017044598 -0.010880112 -0.027580177
0.02507314 0.005965174 -0.0057209553 0.011493505 0.0011183295 -0.0071650688 -0.003074567 0.01809063
-0.011841476 -0.028485008 0.024430173 0.0056091943 -0.004791234 0.010058023 -0.00015342295 -0.006838342
0.002726499 0.031127356 -0.012749176 -0.0057678954 -0.0018368908 -0.038046394 -0.019566473 0.010869474
-0.05782708 -0.041698586 -0.0006359617 0.020818746 -0.013229619 -0.027487734 0.024084188 0.0056269947
00000000: 4744 85bb eda0 8b3c d729 37bc b3cd e9bc
00000010: 4707 cb3c bc25 c63b be12 b5bb b640 2a3c
00000020: bdf6 e138 682b ecbb af63 88bb e25a 8c3c
00000030: bd0d 32bc cd29 e4bc ac93 cc3c 79ba c33b
00000040: dbb9 bcbb 94df 373c 770b 633a f35b ecbb
00000050: 3a80 38bb 8db1 953c be69 4bbc 5496 ecbc
00000060: 2676 c83c 8192 c63b 535d 97bb 6704 1a3c
00000070: 7295 14ba f7fd d5bb 6d98 8cbb 7b19 8b3c
00000080: 0958 32bc 9cef e5bc 2e92 cb3c c895 c33b
00000090: b21c bbbb 0e69 323c 01e5 e639 87c6 f2bb
000000a0: d914 9eba 8a02 a83c bb6e 5bbc 6fdb eabc
000000b0: 367b c63c 71bd bd3b 7509 5dbb 483a 0e3c
000000c0: 7b95 f0ba af60 b6bb a204 20b8 84fd 8036
000000d0: 2515 4232 efb0 dc2f 253e 5bb7 317c 24b2
000000e0: 4dbb 3d32 4957 74b4 802f 9d30 442e 59b4
000000f0: 53d0 adb8 8420 af3c 297a 69bc d3f1 ebbc
00000100: 9987 bf3c 1a1b b13b 1e9b 2ebb 7dab f73b
00000110: b880 0fbb ece4 b2bb 5e23 7c3c 284c 013d
00000120: 96b8 8bba 52c8 c3bb 97ea b2bb 2fa1 4f3c
00000130: 7629 cf3c 307b 36bc 5f5d 93bc 6318 cb3c
00000140: 88ed 6abb 9e12 913c 07a6 3cbc 3642 e8bc
00000150: 0b70 c93c 65c2 b93b ab52 a8bb c339 2b3c
00000160: 69d9 3639 e1d9 e6bb 0ddc 453c 4d6e 063d
00000170: 8d4f 87bc 17f8 71bb 7cc9 12bc f4a9 b33c
00000180: a5a3 c3bc 6f69 d6bb 3ce0 57bd 5921 2abd
00000190: 1496 4e39 af49 b53c 1d98 65bc 8f46 e5bc
000001a0: dab5 bf3c 28ee b33b 82dd 2fbb 897d 113c
000001b0: c9e4 b8ba 649b b0bb 497c 24bb 4bb5 993c
000001c0: b4eb 49bc 6a70 e9bc 6bc8 c73c aacf bb3b
000001d0: 0cc3 93bb 9078 213c 80a7 f1b9 843e d6bb
000001e0: 9d3b a2bb 1b4a 823c e843 2dbc 9923 e8bc
000001f0: 1641 cd3c df0d ca3b 61fb bfbb 06a8 343c
00000200: cf48 353a f616 f9bb 400a 14bb 7076 9c3c
00000210: 2cfd 4ebc 8f79 ebbc 70af c83c ad83 be3b
00000220: f247 89bb 034f 193c c5e2 5dba 5375 cabb
00000230: 8311 54bb 238c 923c 98d1 3ebc f6eb e7bc
00000240: 266a c93c 0604 bb3b d1a5 a4bb 7602 293c
00000250: d5f8 8f36 5089 e2bb ff62 1eba 21f2 ac3c
00000260: c207 62bc 5bfa ebbc 8c49 c23c e7f3 b13b
00000270: 2da2 3bbb c222 013c 3fcd 0cbb 1e83 b8bb
00000280: 3062 87bb f789 8b3c bb51 36bc d8fc e9bc
00000290: ae27 cb3c 06f9 c43b df4d b3bb 8d33 2b3c
000002a0: 7af2 3439 3756 edbb 3b9d b4ba d212 a73c
000002b0: b14b 59bc f2d3 eabc cb93 c63c e0be bb3b
000002c0: d02f 60bb c6a9 0d3c aa42 e3ba 00d4 babb
000002d0: 7c34 86bb 9eac 8b3c ff56 35bc fa75 e6bc
000002e0: 5fbb cb3c c097 c63b 8333 bbbb d79c 303c
000002f0: e36e 033a 96bb f2bb 5477 a9bb 9b1f 7c3c
00000300: 650d 2bbc dbe9 e7bc 1f31 ce3c fe3a cb3b
00000310: 49bc c2bb 5ae9 363c 656d 633a c9ca ffbb
00000320: 4114 153b a065 eb3c 27c3 43bc b967 06bc
00000330: 36e9 25bc d41e 69bc c49c ddbc 3ccb 7b3b
00000340: 0236 48bd d1ea 46bd 92c1 46bb 9f55 933c
00000350: 4289 45bc 9130 eabc 7386 c83c b95f c53b
00000360: 1dee a1bb d637 233c 60a4 5eb9 40a9 ddbb
00000370: b38c 82bb 1da1 8b3c 7f42 32bc d3ef e1bc
00000380: 3066 cd3c 8277 c33b da76 bbbb 414f 3c3c
00000390: e994 923a f4c8 eabb ad7e 49bb cd32 943c
000003a0: c002 42bc 6459 e9bc c921 c83c 55cd b73b
000003b0: c9ff 9cbb 68ca 243c 29e0 20b9 2c14 e0bb
000003c0: 10af 323b ccfe fe3c ebe1 50bc 9d00 bdbb
000003d0: d4c3 f0ba 89d6 1bbd de49 a0bc e115 323c
000003e0: 17dc 6cbd 23cc 2abd abb6 26ba 138c aa3c
000003f0: 0bc1 58bc f52d e1bc 344c c53c a762 b83b

net_model.0.bias f4 [128]
0.0011552058 0.0010314699 0.002399604 0.00087108393 0.0036448415 -2.1082913e-05 0.004643488 -0.0003849754
0.0014850365 0.005981187 0.004506422 0.0024064837 0.00051356526 0.0027483641 0.001707208 0.004136377
0.0011242448 0.003565713 0.001154879 0.00042482355 -0.0057684956 0.0020223574 0.0011849736 0.0018381465
-0.0098346835 0.0038875118 0.0017125185 0.0019229231 0.0017724336 0.0012634263 0.0021097376 -0.0006011678
0.0007310783 0.004516439 0.0044605616 0.004324424 0.003585679 0.0018946105 0.003653934 -0.00026434285
-0.00066962093 0.00019561616 0.0008544302 0.0025296998 0.0015449126 0.001844886 0.0030085912 -0.023963617
-0.006425452 0.0019324404 0.0016145557 0.0016141686 -0.022627408 -0.003454695 0.008461056 -0.006273333
-0.0010649419 -0.0018981885 0.0006007461 -0.0013297519 0.0014511162 -0.006430359 -0.00010433009 0.0030020168
0.0033760366 0.0096680345 0.0040227445 0.0017060483 0.0032951422 0.002239792 0.0012746634 0.0039335266
0.0018934793 -0.014487174 -0.011920239 -0.0028811162 0.008256559 0.0032122403 -0.0010150112 -0.017158443
-0.00022575496 -0.00037941814 -0.0022438508 0.0011210442 0.00828017 0.0015915576 -0.001025664 -0.00024191359
0.0017963353 0.005316564 0.0019753904 0.0018550146 0.0039011033 0.0020891158 0.003935005 0.002024309
-0.00037475766 -0.011656489 0.0023500614 -0.0073459456 0.0021882246 0.00034416473 -0.00029662705 0.0012963325
0.0026532498 0.0016028034 0.009285484 0.00391485 -0.0007184224 0.0021007522 0.0022561853 0.0030492723
-0.00021301737 0.0024404866 -0.0065304344 0.0039256737 0.005768934 -0.0001582633 0.0042582657 -0.00022874093
-0.00029957594 0.004161744 -0.009136187 0.0013858965 0.0043763495 -0.019257091 0.004795568 0.0019378288
00000000: 466a 973a 6332 873a ad42 1d3b 7459 643a
00000010: 4bde 6e3b 36db b0b7 6728 983b 86d6 c9b9
00000020: 8ea5 c23a d5fd c33b 9caa 933b 19b6 1d3b
00000030: c8a0 063a e61d 343b 65c4 df3a 728a 873b
00000040: 655b 933a bdae 693b 4f5f 973a daba de39
00000050: a605 bdbb 8789 043b 1e51 9b3a f6ed f03a
00000060: a721 21bc a0c5 7e3b 9676 e03a 980a fc3a
00000070: 0151 e83a 8d99 a53a 8643 0a3b b097 1dba
00000080: d6a5 3f3a a3fe 933b e729 923b e6b3 8d3b
00000090: b6fd 6a3b 9454 f83a d776 6f3b 7f97 8ab9
000000a0: 8089 2fba 501e 4d39 d7fb 5f3a 52c9 253b
000000b0: aa7e ca3a 1ad0 f13a c92b 453b 594f c4bc
000000c0: 998c d2bb f149 fd3a 809f d33a 8392 d33a
000000d0: 1d5d b9bc 2a68 62bb 3ea0 0a3c 8890 cdbb
000000e0: 8595 8bba a3cc f8ba 637b 1d3a 124b aeba
000000f0: 6133 be3a c3b5 d2bb cacb dab8 7cbd 443b
00000100: 7f40 5d3b ad66 1e3c 3ad1 833b 7b9d df3a
00000110: 50f3 573b 79c9 123b 9b12 a73a d0e4 803b
00000120: 9f2e f83a 9d5b 6dbc 1b4d 43bc 1cd1 3cbb
00000130: 8546 073c 7384 523b 200a 85ba dd8f 8cbc
00000140: a3b8 6cb9 a4ec c6b9 920d 13bb 00f0 923a
00000150: 8da9 073c d09b d03a 936f 86ba 2faa 7db9
00000160: 0373 eb3a 9236 ae3b 8d75 013b f623 f33a
00000170: a7a9 7f3b 8ce9 083b 37f1 803b 45aa 043b
00000180: 1f7b c4b9 dcfa 3ebc 7d03 1a3b 42b6 f0bb
00000190: 5168 0f3b 0271 b439 9c84 9bb9 b3e9 a93a
000001a0: 25e2 2d3b 2815 d23a 2522 183c 2448 803b
000001b0: 8354 3cba c6ac 093b 82dc 133b 4dd6 473b
000001c0: 6a5d 5fb9 92f0 1f3b 41fd d5bb f0a2 803b
000001d0: 5309 bd3b 7bf3 25b9 ec88 8b3b 2dda 6fb9
000001e0: 6710 9db9 3d5f 883b f2af 15bc f8a6 b53a
000001f0: 7b67 8f3b 0cc1 9dbc 2424 9d3b bffe fd3a

net_model.2.weight f4 [64, 128]
-0.00039343972 -0.0003649965 -0.00042156837 -0.0003769276 -0.00043374207 -4.562362e-37 -0.0004541639 -0.0010216912
-0.00038856862 -0.00039798272 -0.0004221274 -0.0004107955 -0.00036320844 -0.00042004924 -0.00039042995 -0.0004438904
-0.00039166343 -0.00042956858 -0.00038488442 -0.0003524882 -1.103808e-09 -0.0004107456 -0.0003504315 -0.00039526258
-3.5541106e-12 -0.00037881488 -0.0004039544 -0.00040421783 -0.000393235 -0.00039683294 -0.00039772887 -0.0010186275
-0.00037330104 -0.00044113173 -0.00044760975 -0.00044067187 -0.00043512357 -0.00039991605 -0.000430409 -0.0010253922
-1.2358391e-06 -0.0003479782 -0.00037860163 -0.00040578714 -0.00039756246 -0.00036096704 -0.00040526837 -1.2483716e-09
-5.8565763e-10 -0.0004046806 -0.00039644525 -0.00041061052 -8.272763e-08 -0.00011639905 -2.6833051e-05 -1.6470041e-17
-0.00096448394 -0.000116395175 -0.00033466212 -0.0001729443 -0.00039213538 -1.2791258e-10 -0.0010286632 -0.0004171865
-0.0008078463 -0.0004086388 -0.00042999382 -0.00039080912 -0.00041705536 -0.00040663013 -0.00038715906 -0.00043800237
-0.00040491458 -7.108716e-15 -4.803217e-20 -6.60333e-05 -2.5363608e-05 -0.0004139867 -0.00019303506 -3.0098633e-06
-0.001025607 -0.0002928027 -0.0009411841 -0.0003441198 -3.728476e-05 -0.00040478577 -0.00018758619 -0.0010236099
-0.00039471142 -0.00045946156 -0.00038299666 -0.00040369338 -0.00043504903 -0.00041600878 -0.00044458016 -0.00040234084
-0.0010219445 -2.573228e-15 -0.0004048716 -2.0883722e-11 -0.0003614203 -0.00032351006 -0.0003357949 -0.00038641866
-0.0004269836 -0.00039890766 -3.4048193e-05 -0.00041916964 -0.0010046996 -0.00040302053 -0.00042423385 -0.00041941815
-0.0010224271 -0.0004249449 -0.00088023045 -0.00042438036 -0.0004760448 -0.00034119198 -0.00044205785 -0.00029308462
-0.0010213612 -0.00049815426 -3.234937e-05 -0.00039307785 -0.00043694564 -1.7719173e-06 -0.0004433222 -0.00041066678
0.011618944 0.011375332 0.011875493 0.011391961 0.0121821 6.464792e-37 0.012126731 -0.027232513
0.011361274 0.06696359 0.012058114 0.0115840435 0.011572754 0.011821143 0.0113282455 0.012002216
0.011576517 0.012068502 0.011495537 0.011655202 0.06157037 0.011723696 0.011326981 0.0113143055
0.06871555 0.011627327 0.011739256 0.01167671 0.011604869 0.011546888 0.011438308 -0.027228191
0.011427577 0.0119700525 0.012100956 0.011889657 0.012124962 0.011499963 0.011881364 -0.02697548
0.042435765 0.01155805 0.011397804 0.011668158 0.011487619 0.011275929 0.011727569 0.1241709
0.092403606 0.011560636 0.011551366 0.011844262 0.11604699 0.014549789 0.06028921 0.05215979
-0.025852762 0.013216715 0.011295189 0.012237287 0.011324265 0.090142585 -0.027082544 0.011709964
-0.013462976 0.063832246 0.012061456 0.011543608 0.011657638 0.011606798 0.011434668 0.012063735
0.011718885 0.06977135 0.061692517 0.023503428 0.059988488 0.011760725 0.013258079 0.08955977
-0.02710607 0.011747892 -0.026104106 0.0113023445 0.059644476 0.011718539 0.013280034 -0.027149394
0.01139737 0.01225397 0.011343704 0.011668682 0.012017829 0.011565649 0.012067254 0.011588624
-0.026753247 0.06462425 0.01147219 0.04910436 0.011235259 0.011358958 0.012036937 0.011264311
0.011962723 0.011856532 0.050610226 0.011774026 -0.025543062 0.011577543 0.011833065 0.0118728215
-0.026578182 0.011914863 -0.025158871 0.011628409 0.012723671 0.012022903 0.012051159 0.011726775
-0.027055 0.07730812 0.06451683 0.01156956 0.012072318 0.09223351 0.012081246 0.011734546
00000000: 9646 ceb9 005d bfb9 f305 ddb9 5e9e c5b9
00000010: e067 e3b9 c73f 1b83 d91c eeb9 45ea 85ba
00000020: ccb8 cbb9 56a8 d0b9 fb50 ddb9 0a60 d7b9
00000030: 036d beb9 0e3a dcb9 9fb2 ccb9 f6b9 e8b9
00000040: 2d58 cdb9 b837 e1b9 50ca c9b9 2ace b8b9
00000050: cbb4 97b0 5759 d7b9 1fba b7b9 3f3b cfb9
00000060: 2a19 7aac ac9b c6b9 d7c9 d3b9 33ed d3b9
00000070: 1c2b ceb9 040e d0b9 4486 d0b9 7883 85ba
00000080: 9eb7 c3b9 b347 e7b9 2aad eab9 fa09 e7b9
00000090: 4c21 e4b9 d3ab d1b9 85a8 e1b9 7466 86ba
000000a0: 1cdf a5b5 d870 b6b9 0d7f c6b9 d4bf d4b9
000000b0: ee6f d0b9 2d40 bdb9 337a d4b9 2c93 abb0
000000c0: fefb 20b0 502b d4b9 fbd9 cfb9 3647 d7b9
000000d0: ffa7 b1b3 441b f4b8 8a17 e1b7 c9e8 97a3
000000e0: 6cd5 7cba 2f19 f4b8 9775 afb9 6258 35b9
000000f0: 8597 cdb9 31a4 0caf 36d4 86ba d3b9 dab9
00000100: a6c5 53ba 923e d6b9 cb70 e1b9 83e5 ccb9
00000110: 39a8 dab9 f930 d5b9 9cfb cab9 afa3 e5b9
00000120: b74a d4b9 2b0f 00a8 55d3 629f 5c7b 8ab8
00000130: efc3 d4b7 5b0c d9b9 7469 4ab9 0ffd 49b6
00000140: a96d 86ba 5083 99b9 ccb9 76ba fa6a b4b9
00000150: 3562 1cb8 6d39 d4b9 c9b2 44b9 a62a 86ba
00000160: 45f1 ceb9 e3e3 f0b9 f1cc c8b9 cfa6 d3b9
00000170: 4b17 e4b9 c11b dab9 8a16 e9b9 46f1 d2b9
00000180: c4f2 85ba ae6b 39a7 f244 d4b9 f6b1 b7ad
00000190: 037d bdb9 c99c a9b9 a10d b0b9 3c98 cab9
000001a0: c5dc dfb9 7b24 d1b9 f8ce 0eb8 ffc3 dbb9
000001b0: 20b0 83ba 804c d3b9 b46b deb9 5ae5 dbb9
000001c0: f602 86ba 24cb deb9 44bf 66ba 5e7f deb9
000001d0: a795 f9b9 03e2 b2b9 00c4 e7b9 27a9 99b9
000001e0: 32df 85ba 9196 02ba dfae 07b8 0416 ceb9
000001f0: da15 e5b9 9dd2 edb5 b36d e8b9 c34e d7b9
00000200: 625d 3e3c 9a5f 3a3c 6e91 423c 59a5 3a3c
00000210: 6e97 473c 48fc 5b03 32af 463c b816 dfbc
00000220: a324 3a3c 3524 893d 658f 453c 00cb 3d3c
00000230: a69b 3d3c 78ad 413c 1b9a 393c f1a4 443c
00000240: 6eab 3d3c f7ba 453c c757 3c3c 76f5 3e3c
00000250: 3631 7c3d bf14 403c cd94 393c a35f 393c
00000260: bdba 8c3d 8b80 3e3c 0256 403c ac4f 3f3c
00000270: 5922 3e3c 292f 3d3c be67 3b3c a80d dfbc
00000280: bb3a 3b3c 0a1e 443c 1743 463c d6cc 423c
00000290: c7a7 463c 576a 3c3c 0daa 423c affb dcbc
000002a0: 20d1 2d3d fa5d 3d3c dbbd 3a3c cd2b 3f3c
000002b0: 9136 3c3c adbe 383c fd24 403c 504d fe3d
000002c0: 1a3e bd3d d268 3d3c f141 3d3c 6f0e 423c
000002d0: 0baa ed3d 3d62 6e3c d2f1 763d 81a5 553d
000002e0: 2cc9 d3bc ec8a 583c 750f 393c e77e 483c
000002f0: 6989 393c ad9c b83d 36dc ddbc 26db 3f3c
00000300: d093 5cbc 7bba 823d 6a9d 453c 6721 3d3c
00000310: adff 3e3c 702a 3e3c 7958 3b3c f9a6 453c
00000320: 9100 403c 48e4 8e3d 4bb1 7c3d 438a c03c
00000330: 7db6 753d 0eb0 403c 6a38 593c 1d6b b73d
00000340: 8d0d debc 3b7a 403c 47d8 d5bc 782d 393c
00000350: c44d 743d 1dff 3f3c 8094 593c 6868 debc
00000360: 09bc 3a3c e0c4 483c f1da 393c 002e 3f3c
00000370: 6ee6 443c d97d 3d3c bbb5 453c 36de 3d3c
00000380: a029 dbbc b859 843d daf5 3b3c a721 493d
00000390: 1714 383c ec1a 3a3c 9336 453c f28d 383c
000003a0: 4cff 433c e641 423c ab4c 4f3d d8e7 403c
000003b0: af3f d1bc bcaf 3d3c 79df 413c 3986 423c
000003c0: 7dba d9bc 8f36 433c fa19 cebc 1585 3e3c
000003d0: f276 503c b6fb 443c 3972 453c a921 403c
000003e0: 73a2 ddbc b853 9e3d 6621 843d 408e 3d3c
000003f0: f9ca 453c ece4 bc3d 6bf0 453c 4142 403c

net_model.2.bias f4 [64]
-0.002495155 0.010069366 -0.00056539173 0.010039776 -6.5007604e-12 0.0100831995 0.010071552 -0.0011000615
-0.0012746014 0.009997854 0.010130726 0.010064339 0.010040925 0.004160274 0.01010543 0.009788655
0.010067873 0.010094272 0.009946996 0.010091943 -0.0024366577 0.010072007 -7.1732264e-12 0.010127409
0.037336666 0.010021519 0.0100523 -4.871467e-10 -3.8555345e-10 0.025879068 0.0100061735 -0.00080806157
0.010113933 -0.0011883182 0.014439111 0.005443645 -8.5910207e-13 -0.0007174573 -0.0024331594 -8.7067056e-05
0.010136845 0.01010689 0.010100975 -1.5307424e-19 0.010060242 -0.0012772742 -0.0027325884 0.010138636
0.010074243 -0.0022099223 -2.2582659e-05 0.009968742 0.009939392 -0.0011405458 -0.00053215737 -4.3851216e-07
-6.273143e-08 0.01010998 0.010132838 0.009062271 0.010126189 0.010115925 0.010050975 -1.913432e-12
00000000: c185 23bb fbf9 243c cc36 14ba df7d 243c
00000010: a5b9 e4ac 0134 253c 2703 253c f02f 90ba
00000020: 8710 a7ba 0ace 233c 58fb 253c e6e4 243c
00000030: b182 243c e852 883b 3f91 253c 9860 203c
00000040: b8f3 243c 7262 253c baf8 223c ad58 253c
00000050: 55b0 1fbb 0f05 253c ae62 fcac 6fed 253c
00000060: 55ee 183d 4c31 243c 67b2 243c e7e7 05b0
00000070: d3f5 d3af 5700 d43c eff0 233c 18d4 53ba
00000080: e9b4 253c 58c1 9bba 0592 6c3c 9b60 b23b
00000090: d4d0 71ab bf13 3cba a475 1fbb c597 b6b8
000000a0: 0215 263c 5f97 253c 8f7e 253c dab7 34a0
000000b0: b7d3 243c 366a a7ba 3a15 33bb 861c 263c
000000c0: 700e 253c 58d4 10bb e46f bdb7 ef53 233c
000000d0: d5d8 223c 5e7e 95ba 7a80 0bba a76c ebb4
000000e0: f8b6 86b3 54a4 253c 3404 263c eb79 143c
000000f0: 51e8 253c 44bd 253c d8ac 243c 54a5 06ac

net_model.4.weight f4 [32, 64]
-5.360357e-37 -5.696324e-37 -5.9010423e-37 -1.4551582e-37 5.8390582e-37 -3.3561139e-37 -2.4701677e-37 5.9808064e-37
5.8444164e-37 -1.4202781e-37 5.09243e-37 -3.7380814e-37 3.7573619e-37 6.8989322e-37 -6.094354e-37 -5.9413907e-37
6.179242e-37 -4.3155737e-37 -6.377834e-38 -6.2385104e-37 -6.1431745e-37 -6.669752e-37 -6.8707417e-37 5.3597626e-37
4.5071418e-37 -3.2799126e-37 3.720756e-37 4.4796566e-37 4.270567e-37 -4.389383e-37 4.6453336e-37 6.2452375e-37
-1.0121351e-37 -5.7497464e-37 5.64974e-37 -4.595643e-37 -6.241706e-37 -6.6610303e-37 -6.291703e-37 6.3898434e-37
6.0961084e-37 6.598033e-37 1.0028007e-37 -5.359267e-37 5.7393374e-37 -3.9702503e-37 4.9341687e-37 -5.7302296e-37
-2.3693648e-38 -5.4797303e-37 3.3997913e-37 5.841314e-37 4.8645262e-37 6.8412875e-37 -3.6738203e-37 -6.764478e-37
-5.5653607e-37 5.0778787e-37 -2.0166243e-38 3.1993738e-37 -6.300041e-37 -5.4521133e-37 -5.387986e-37 5.0346174e-37
-0.0016945055 0.031399973 0.00046005755 0.031587493 -2.0036983e-37 0.031621773 0.031550933 -0.0011512743
-0.00045258348 0.031429466 0.031374954 0.031377852 0.03150518 0.0364396 0.031562317 -0.055638973
0.03160051 0.0314002 0.045034904 0.031559814 -8.8204964e-05 0.031571858 8.0740297e-13 0.031500578
-0.2248992 0.031618338 0.031440616 -1.9054089e-32 6.8862905e-37 -0.13800818 0.03148883 -0.00087463204
0.03158107 -0.0010727353 -0.05415007 0.047746327 1.185181e-14 -0.0016922975 0.0007759767 1.7007221e-37
0.031403 0.031469602 0.03145602 1.0967838e-19 0.031497512 0.00094101724 -0.001203604 0.03156964
0.03146201 -1.9660163e-05 -1.910001e-09 0.03163346 0.031568088 -7.87768e-24 8.6499305e-08 -3.6859282e-37
-3.548054e-38 0.03141452 0.03151688 0.043778237 0.031541176 0.03143927 0.031539608 7.8258506e-38
-0.0016950518 0.03155131 0.0004631328 0.03147544 -1.961581e-37 0.03158904 0.031477634 -0.0011514557
-0.0004504621 0.031688802 0.03166336 0.031700414 0.031645328 0.036436897 0.031592753 -0.05553599
0.031497765 0.03161099 0.04502487 0.03145536 -0.00012746755 0.03163701 8.07044e-13 0.031357028
-0.22485779 0.03150151 0.031578477 -1.8305659e-32 5.992799e-37 -0.13800044 0.03153065 -0.00087471737
0.03165857 -0.0010711055 -0.05404694 0.04738105 1.1757122e-14 -0.0016921296 0.00077595713 1.7108123e-37
0.031476114 0.0315887 0.0315545 1.0965861e-19 0.03149946 0.0009422257 -0.00117042 0.031404257
0.031612255 -1.9677154e-05 -1.9531983e-09 0.031587332 0.03163513 -8.232056e-24 8.655838e-08 -3.6792457e-37
-2.3856742e-38 0.031667996 0.031533472 0.04377384 0.031421125 0.031648465 0.03170622 6.2398105e-38
-0.0017038493 0.031363826 0.0004738519 0.03142985 -3.824259e-37 0.031346112 0.031366847 -0.001150064
-0.0004621549 0.031335477 0.03118191 0.03134879 0.03131065 0.036462102 0.031282183 -0.055457834
0.031337842 0.031124417 0.04505164 0.03123481 -0.00013621348 0.031352747 8.202186e-13 0.031104099
-0.23177296 0.03124677 0.031378347 -9.717649e-33 5.3115633e-37 -0.13803832 0.031391855 -0.00087234896
0.031205598 -0.001084204 -0.053529486 0.047709163 1.19156605e-14 -0.0016932668 0.0007776305 1.5591565e-37
0.031162204 0.031176692 0.031184983 1.1134586e-19 0.03131891 0.0009485244 -0.0012058942 0.03114194
0.03139864 -2.0878666e-05 -1.921304e-09 0.031246822 0.03132396 -1.6816624e-23 9.971194e-08 -3.860266e-37
-4.2751414e-37 0.031249326 0.031220593 0.04379909 0.031320762 0.031309225 0.031336434 1.8642433e-37
00000000: 4c67 3683 fbd5 4183 54cd 4883 dd10 4682
00000010: 5fb1 4603 c067 e482 641c a882 2c84 4b03
00000020: 0ce0 4603 7851 4182 5249 2d03 9066 fe82
00000030: 7ab6 ff02 2dc2 6a03 5061 4f83 d02c 4a83
00000040: ca44 5203 f3d9 1283 049f ad81 1749 5483
00000050: 990a 5183 bcf5 6283 9acc 6983 1e62 3603
00000060: be5e 1903 2338 df82 b638 fd02 506f 1803
00000070: e351 1103 eb5c 1583 9012 1e03 b183 5403
00000080: c3c3 0982 5ba7 4383 2d40 4003 b261 1c83
00000090: ee64 5483 c2a9 6283 7718 5683 636f 5903
000000a0: 9870 4f03 f984 6003 817e 0802 cd5d 3683
000000b0: ae4c 4303 c219 0783 ace6 2703 57fd 4283
000000c0: 2000 0181 2f77 3a83 b860 e702 06c5 4603
000000d0: 0088 2503 05cc 6803 fa06 fa82 ea2e 6683
000000e0: 2161 3d83 90ca 2c03 4897 db80 f4bc d902
000000f0: 1961 5683 9b86 3983 fa57 3783 b451 2b03
00000100: 2b1a deba 429d 003d e133 f139 e361 013d
00000110: 595d 8882 d585 013d 8d3b 013d 5be6 96ba
00000120: ba48 edb9 2fbc 003d 0683 003d 1086 003d
00000130: 930b 013d b141 153d 7d47 013d b1e5 63bd
00000140: 896f 013d 7f9d 003d 8576 383d dd44 013d
00000150: aefa b8b8 7e51 013d 8443 632b c006 013d
00000160: fa4b 66be 3b82 013d e0c7 003d 75de c58a
00000170: 0d54 6a03 0452 0dbe 6efa 003d 9047 65ba
00000180: 275b 013d 069b 8cba 77cc 5dbd a791 433d
00000190: d480 5528 15d0 ddba ea6a 4b3a 847d 6702
000001a0: 6fa0 003d 45e6 003d 07d8 003d 427c 0120
000001b0: 8903 013d 99ae 763a 40c2 9dba 2b4f 013d
000001c0: 4fde 003d e1eb a4b7 1841 03b1 1692 013d
000001d0: 8a4d 013d 6260 1899 7fc1 b933 edd9 fa82
000001e0: a82c 4181 83ac 003d d817 013d cf50 333d
000001f0: 5231 013d 77c6 003d ad2f 013d 380a d501
00000200: 802c deba f23b 013d a2d0 f239 64ec 003d
00000210: 907f 8582 8263 013d b1ee 003d 71ec 96ba
00000220: 002c ecb9 1ecc 013d 70b1 013d 4bd8 013d
00000230: 889e 013d db3e 153d 6767 013d b579 63bd
00000240: cd03 013d 877a 013d 006c 383d 56d7 003d
00000250: cfa8 05b9 cf95 013d a629 632b 3a70 003d
00000260: 1f41 66be ba07 013d 6f58 013d ca18 be8a
00000270: a4ec 4b03 fd4f 0dbe 4826 013d 4a4d 65ba
00000280: 6bac 013d 5664 8cba 5360 5dbd a212 423d
00000290: 28cc 5328 73ca ddba 9a69 4b3a 1cdd 6802
000002a0: 19ed 003d 2763 013d 4b3f 013d 4876 0120
000002b0: 9405 013d b2ff 763a c768 99ba c0a1 003d
000002c0: da7b 013d 5e10 a5b7 0739 06b1 b861 013d
000002d0: d793 013d 2b3b 1f99 f9e1 b933 8065 fa82
000002e0: 72e3 0181 4db6 013d 3e29 013d 334c 333d
000002f0: 70b3 003d d2a1 013d 62de 013d 22dd a901
00000300: b253 dfba 5b77 003d 536f f839 96bc 003d
00000310: ff21 0283 c864 003d 867a 003d bfbd 96ba
00000320: 614d f2b9 a159 003d 3471 ff3c 9767 003d
00000330: 993f 003d 4959 153d bf21 003d c127 63bd
00000340: 1c5c 003d a2f8 fe3c 1288 383d 25e0 ff3c
00000350: 87d4 0eb9 bd6b 003d fbde 662b 06ce fe3c
00000360: e455 6dbe 3af9 ff3c 9586 003d e2d3 498a
00000370: 3ebe 3403 eb59 0dbe bf94 003d 59ae 64ba
00000380: e2a2 ff3c d91b 8eba bc41 5bbd af6a 433d
00000390: 49a7 5628 9bf0 ddba e6d9 4b3a ad38 5402
000003a0: e147 ff3c 4366 ff3c a677 ff3c 3974 0320
000003b0: 4248 003d 65a6 783a 180f 9eba 621d ff3c
000003c0: dc9b 003d 9824 afb7 f007 04b1 56f9 ff3c
000003d0: 8d4d 003d f2a3 a299 3821 d633 a95b 0383
000003e0: bc79 1183 96fe ff3c 54c2 ff3c ad66 333d
000003f0: 334a 003d 1a3e 003d a25a 003d 66bf 7d02

net_model.4.bias f4 [32]
-0.00056099636 0.0010435559 0.0010447793 0.0010143857 -0.00028169222 -3.022013e-23 -0.0004808213 -0.00039015556
0.0010342923 -0.00043967873 -0.00054295815 0.0010451865 -0.0005719602 -0.00055718323 -0.00038221205 0.001062929
0.0010426758 -4.4197782e-07 0.0010641251 0.000987064 -0.0004096485 0.0010639221 0.0010382703 -3.416588e-05
-0.0004037328 -0.00055684993 0.001039787 -0.0005643046 0.0010092631 -0.00050497806 0.0010636835 -0.00046692847
00000000: d40f 13ba edc7 883a faf0 883a 23f5 843a
00000010: 17b0 93b9 b522 129a be16 fcb9 cb8d ccb9
00000020: 1791 873a ae84 e6b9 4e55 0eba a4fe 883a
00000030: 99ef 15ba ef0f 12ba a263 c8b9 fb51 8b3a
00000040: 65aa 883a f848 edb4 1d7a 8b3a 5f60 813a
00000050: 17c6 d6b9 4d73 8b3a 9216 883a 564d 0fb8
00000060: 19ac d3b9 91f9 11ba 7649 883a d7ed 13ba
00000070: 4049 843a 8160 04ba 4c6b 8b3a 14ce f4b9

net_model.6.weight f4 [1, 32]
6.3408796e-37 -0.035272382 -0.03525587 -0.035817858 1.7252675e-38 -3.772185e-37 -6.4736814e-37 5.904551e-37
-0.035669867 4.70934e-37 5.6749803e-37 -0.035655804 5.7066636e-37 6.76731e-37 -0.00062163075 -0.03502395
-0.03555338 -5.100133e-37 -0.035080034 -0.0353385 1.9575104e-37 -0.035013612 -0.035666473 2.8322995e-37
-6.752414e-37 6.330043e-37 -0.035422236 6.3734704e-37 -0.03548089 4.6965583e-38 -0.03521494 4.5661245e-37
00000000: dac4 5703 c679 10bd 7668 10bd bfb5 12bd
00000010: 70dd bb00 5e5c 0083 b849 5c83 e5eb 4803
00000020: 911a 12bd 2340 2003 0d1c 4103 d20b 12bd
00000030: 0d30 4203 9647 6603 eff4 22ba 4675 0fbd
00000040: 6ca0 11bd 6d8c 2d83 15b0 0fbd 1abf 10bd
00000050: a438 8502 6f6a 0fbd 0217 12bd 9ec1 c002
00000060: d2c5 6583 7466 5703 e816 11bd c2e0 5803
00000070: 6954 11bd 78b4 7f01 8a3d 10bd 8e60 1b03
