src/t1dsim_ai/models/IndividualModel/T1DEXI-01-0704/individual_model.pt (torch, 50089 bytes, 7 tensors)

net_model.0.weight f4 [128, 10]
0	0xbbc88c4b	-0.00612024
1	0x3cf26158	0.029587433
2	0xbcb7ab37	-0.022420509
3	0x3abe91e4	0.0014539328
4	0x3c4663a2	0.012108715
5	0x39ccd687	0.00039069747
6	0x3c2bb9a4	0.010481272
7	0xbb854079	-0.0040665236
8	0x3b87c483	0.004143299
9	0x3b2759c3	0.002553568
10	0xbbcd38c0	-0.0062628686
11	0x3cf19583	0.029490238
12	0xbcb6e107	-0.022324098
13	0x3ad26ce6	0.0016054183
14	0x3c41e5a7	0.011834539
15	0x39be31b2	0.0003627665
16	0x3c25c600	0.010118008
17	0xbb837c3f	-0.004012614
18	0x3b8883ce	0.004166103
19	0x3b40cb04	0.0029417882
20	0xbbcfae73	-0.0063379346
21	0x3cf3e0bb	0.029770246
22	0xbcb8dda1	-0.022566618
23	0x3ac48254	0.0014992454
24	0x3c4be90b	0.0124456985
25	0x39c2c9b6	0.0003715285
26	0x3c2bdcf7	0.010489694
27	0xbb85c9aa	-0.004082878
28	0x3b8a0eb5	0.004213179
29	0x3b161c10	0.002290491
30	0xbbcdbb25	-0.006278413
31	0x3cf1f14a	0.029534
32	0xbcb858a2	-0.0225032
33	0x3ad11c75	0.0015953915
34	0x3c4843e4	0.012223218
35	0x39c6a16b	0.0003788577
36	0x3c2cb3bf	0.010540902
37	0xbb85d5dd	-0.0040843324
38	0x3b8a839e	0.004227116
39	0x3b0c29c0	0.002138719
40	0xbbc95ef0	-0.0061453506
41	0x3cf3204c	0.029678486
42	0xbcb93d89	-0.02261235
43	0x3ac6b31b	0.0015159579
44	0x3c486fa3	0.0122336475
45	0x39d1e616	0.00040035014
46	0x3c2c6974	0.010523189
47	0xbb8643ac	-0.0040974226
48	0x3b87c60c	0.004143482
49	0x3b21730c	0.0024635224
50	0xbbcb0396	-0.006195496
51	0x3cf3c398	0.029756352
52	0xbcb81ce5	-0.022474715
53	0x3ac201a0	0.001480151
54	0x3c46dc47	0.012137479
55	0x39d31940	0.0004026387
56	0x3c2a6ddd	0.01040217
57	0xbb84dfba	-0.0040549906
58	0x3b88b2db	0.004171712
59	0x3b2c2f6e	0.0026273387
60	0xbbd2d70b	-0.0064343265
61	0x3cf233df	0.02956575
62	0xbcb79b17	-0.02241282
63	0x3ad17d25	0.001598273
64	0x3c48cb98	0.012255572
65	0x39bf809f	0.0003652619
66	0x3c2e1429	0.010624924
67	0xbb861164	-0.0040914286
68	0x3b8cb791	0.0042943438
69	0x3af65c8c	0.0018795892
70	0xbccfc10e	-0.02536061
71	0xbb7feebe	-0.0039052214
72	0x3ca5284b	0.020160815
73	0x3cb0f4d9	0.021601127
74	0x3c134da1	0.008990676
75	0x3b2dec11	0.0026538412
76	0xbd44a079	-0.0480046
77	0xbbe861a2	-0.007091717
78	0xbd48438e	-0.04889255
79	0x3ce019c0	0.027356029
80	0xbbcf31c4	-0.006323071
81	0x3cf2e925	0.029652188
82	0xbcb8b039	-0.022544967
83	0x3ad028dc	0.0015881318
84	0x3c48efc7	0.012264199
85	0x39c71b0e	0.00037976395
86	0x3c2bf8ef	0.010496362
87	0xbb85b658	-0.004080575
88	0x3b8b0d6e	0.0042435443
89	0x3b0fc58a	0.002193781
90	0xbb891ab5	-0.004184092
91	0x3ce825e4	0.02833838
92	0xbcb1b94d	-0.021694804
93	0x3b039e25	0.0020083275
94	0x3bbc6924	0.0057498384
95	0x3a28dc87	0.00064415525
96	0x3be9ff2c	0.0071410146
97	0xbb6353f0	-0.0034687482
98	0x3b8593ac	0.0040764417
99	0x3c2e7a86	0.010649329
100	0xbbd47048	-0.0064831115
101	0x3cf280a1	0.02960235
102	0xbcb71360	-0.022348106
103	0x3ae2c2d0	0.001730049
104	0x3c46ec05	0.012141232
105	0x39ccc435	0.00039056098
106	0x3c2d3a3e	0.010572968
107	0xbb8361d8	-0.0040094666
108	0x3b8d3207	0.0043089422
109	0x3afefce7	0.0019454033
110	0xbcea392f	-0.02859172
111	0xbb8cb6f1	-0.0042942693
112	0x3cc448c0	0.023960471
113	0x3cc1d6fb	0.023662081
114	0x3c0d7ef4	0.008636225
115	0x3b0317ec	0.0020003272
116	0xbd239c3b	-0.039943915
117	0xbc0b53fc	-0.00850391
118	0xbd3182d1	-0.043337647
119	0x3cb376f4	0.021907307
120	0xbbcfd388	-0.006342355
121	0x3cf22958	0.02956073
122	0xbcb7cf72	-0.022437785
123	0x3acf2aa2	0.0015805552
124	0x3c46ee18	0.012141727
125	0x39c5a24e	0.00037695694
126	0x3c29c446	0.010361737
127	0xbb84045c	-0.00402884
128	0x3b898224	0.004196422
129	0x3b2198d1	0.0024657736
130	0xbbcd8fe6	-0.0062732575
131	0x3cf25fab	0.029586634
132	0xbcb86c91	-0.022512706
133	0x3acf963d	0.0015837621
134	0x3c4713b7	0.0121506965
135	0x39b9870a	0.00035386562
136	0x3c28e1c4	0.010307733
137	0xbb85437d	-0.004066883
138	0x3b88cf4e	0.0041751033
139	0x3b2f2bf4	0.002672908
140	0xbbc8968d	-0.0061214627
141	0x3cf2a0b7	0.02961765
142	0xbcb8174f	-0.022472052
143	0x3ad0c2ee	0.0015927234
144	0x3c45b96d	0.012068135
145	0x39dbc38e	0.00041916635
146	0x3c2c30ce	0.010509683
147	0xbb85667e	-0.004071056
148	0x3b8a3778	0.004218038
149	0x3b1f5d4f	0.002431709
150	0xbbcd7c83	-0.0062709465
151	0x3cf2c5fd	0.029635424
152	0xbcb88a0e	-0.022526767
153	0x3ace61cb	0.0015745697
154	0x3c4717c8	0.012151666
155	0x39c7b077	0.00038087714
156	0x3c2c41f7	0.010513774
157	0xbb879a74	-0.0041382853
158	0x3b89faf0	0.0042108223
159	0x3b17248a	0.002306255
160	0xbbcdeffe	-0.006284713
161	0x3cf261f2	0.02958772
162	0xbcb6e390	-0.022325307
163	0x3ac480cf	0.0014992001
164	0x3c4753d2	0.01216598
165	0x39c66d3d	0.00037846892
166	0x3c2b8282	0.010468127
167	0xbb84b174	-0.0040494744
168	0x3b89bbf1	0.0042033126
169	0x3b145217	0.0022631937
170	0xbbcda718	-0.0062760226
171	0x3cf3ecf6	0.029776078
172	0xbcb8bbfb	-0.022550574
173	0x3ace0ce7	0.0015720398
174	0x3c4631ec	0.012096863
175	0x39c7e75e	0.0003812862
176	0x3c2c997c	0.01053464
177	0xbb86470b	-0.0040978245
178	0x3b89cdd2	0.004205444
179	0x3b1d2d34	0.0023983242
180	0xbcaf63bb	-0.02140986
181	0xbb89a67d	-0.004200755
182	0x3c4b2871	0.012399779
183	0x3c8cfda6	0.017210793
184	0x3be33532	0.0069338316
185	0xbb29bde3	-0.0025900535
186	0xbd7c8d0f	-0.06165796
187	0x3a07cff0	0.00051808264
188	0xbd5c6811	-0.053810183
189	0x3cb4a11b	0.022049477
190	0xbcdc9cd0	-0.026930243
191	0xbb8a6fde	-0.0042247614
192	0x3cb69178	0.022286162
193	0x3cb651a5	0.022255728
194	0x3c189ceb	0.009314756
195	0x3b21f07d	0.0024709993
196	0xbd354fd8	-0.044265598
197	0xbc0f7966	-0.008756971
198	0xbd3ccc32	-0.046093173
199	0x3cba7a46	0.022763383
200	0xbbca8c7f	-0.006181299
201	0x3cf28430	0.029604048
202	0xbcb81267	-0.022469712
203	0x3ad0b439	0.0015922851
204	0x3c40a46d	0.011757952
205	0x39bc0953	0.000358651
206	0x3c268778	0.010164134
207	0xbb85932f	-0.0040763835
208	0x3b8948ca	0.0041895853
209	0x3b429726	0.0029692142
210	0xbbcd3eeb	-0.006263604
211	0x3cf1ff00	0.029540539
212	0xbcb7f76a	-0.022456843
213	0x3ad9cadf	0.0016616246
214	0x3c43b7ef	0.011945709
215	0x39c276cc	0.00037091074
216	0x3c2a40b1	0.0103914
217	0xbb83a6f7	-0.0040177065
218	0x3b88bd55	0.0041729608
219	0x3b19b54c	0.0023454009
220	0xbcce282f	-0.025165645
221	0xbbeb3447	-0.007177863
222	0x3c78f169	0.015194275
223	0x3ca4e3f4	0.020128228
224	0x3af853ae	0.0018945837
225	0xbc01546f	-0.007893666
226	0xbd656c4b	-0.05601148
227	0x3a0fe713	0.000548945
228	0xbd31c965	-0.043404955
229	0x3bb96c64	0.005658673
230	0xbbc94e59	-0.006143373
231	0x3cf24913	0.02957586
232	0xbcb82cf2	-0.02248237
233	0x3ad2e9ef	0.0016091446
234	0x3c4475f0	0.011991009
235	0x39d30110	0.00040245848
236	0x3c2b7e91	0.0104671875
237	0xbb863b21	-0.004096404
238	0x3b8a6df3	0.0042245327
239	0x3b212828	0.0024590585
240	0xbca45f44	-0.020064957
241	0xbb8c676f	-0.004284791
242	0x3c2edb3d	0.010672388
243	0x3c8ae0c7	0.016952885
244	0x3bff01c3	0.0077821924
245	0xbb0ac613	-0.002117519
246	0xbd81cd4b	-0.06337985
247	0x3aa24dba	0.0012382783
248	0xbd5fcd35	-0.05463906
249	0x3ca60768	0.020267203
250	0xbbcc12ca	-0.006227826
251	0x3cf2d311	0.02964166
252	0xbcb83b1a	-0.02248912
253	0x3acbbe92	0.0015544465
254	0x3c47d7e7	0.012197471
255	0x39cd2707	0.00039129725

net_model.0.bias f4 [128]
0	0x3c8da39e	0.017289933
1	0x3c8c7efe	0.017150398
2	0x3c8ebc6f	0.017423837
3	0x3c8d8b3c	0.017278306
4	0x3c8e1b14	0.017346896
5	0x3c8e68c6	0.017383944
6	0x3c8de9d4	0.017323412
7	0xbc70b78b	-0.014692198
8	0x3c8e1200	0.017342567
9	0x3c7dc671	0.015489207
10	0x3c8d9075	0.017280797
11	0xbc596f39	-0.013271146
12	0x3c8d4c23	0.017248219
13	0x3c8d7023	0.017265385
14	0x3c8dfe07	0.017333044
15	0x3c8e4c9e	0.017370518
16	0x3c8db8f0	0.0173001
17	0x3c8e5619	0.017375039
18	0xbc89a376	-0.016801577
19	0xbc69b0e3	-0.0142633645
20	0x3c8d1c3c	0.017225377
21	0x3c8cc065	0.017181585
22	0xbc62e3c6	-0.013848251
23	0x3c8da9e4	0.017292924
24	0xbc88ddfb	-0.016707411
25	0x3c8de6d3	0.01732198
26	0x3c8ca009	0.017166154
27	0x3c8e1c92	0.017347608
28	0x3c8e7859	0.01739137
29	0x3bc3d01d	0.005975737
30	0x3c8df4e5	0.017328689
31	0x3c8cf751	0.017207773
32	0x3c8db15e	0.01729649
33	0x3c8e360a	0.017359752
34	0x3c8ea377	0.01741193
35	0x3c8e6566	0.017382335
36	0x3c8e0da3	0.017340487
37	0x3c8dec61	0.017324628
38	0x3c8d9e6e	0.01728746
39	0xbc2f641a	-0.010705018
40	0xbc70d127	-0.014698303
41	0x3c8ce579	0.017199265
42	0x3c8c20f2	0.017105553
43	0x3c8e3de5	0.017363498
44	0x3c8d4f77	0.017249806
45	0x3c8d6c35	0.017263511
46	0x3c8dedb1	0.017325254
47	0x3c1b95a6	0.009496128
48	0x3c8db22e	0.017296877
49	0x3c8cf9f4	0.01720903
50	0x3c8df6fd	0.017329687
51	0x3c8d90ed	0.01728102
52	0x3c8d795c	0.017269783
53	0x3b28a863	0.0025735132
54	0x3c8d8e2e	0.01727971
55	0x3c84eb76	0.016225558
56	0xbc82ce72	-0.015967581
57	0x3c874a6b	0.016514977
58	0x3c8c5161	0.017128648
59	0x3c8d028b	0.017213127
60	0x3c8d8bb5	0.017278532
61	0x3c8d7b34	0.017270662
62	0xbc866f9c	-0.016410641
63	0x3c8df870	0.017330378
64	0xbc5ff225	-0.013668572
65	0xbc87c85a	-0.016575027
66	0x3c8dffd5	0.017333904
67	0x3c8e575a	0.017375637
68	0x3c8dc58d	0.017306114
69	0x3c8d84d0	0.017275244
70	0x3c8d634b	0.01725926
71	0x3c8d7708	0.017268673
72	0x3c8d3996	0.017239373
73	0x3c1ec5a7	0.009690679
74	0x3c8d1211	0.017220529
75	0x3c8c9d28	0.017164782
76	0xbc863029	-0.016380386
77	0x3c8e4813	0.017368352
78	0x3c8cbd6c	0.017180167
79	0xbbae4a07	-0.0053188833
80	0x3bd600d6	0.0065308614
81	0x3c8c58b7	0.017132146
82	0xbc6d2f0f	-0.014476552
83	0x3c8da7c1	0.017291905
84	0x3c8d488d	0.017246509
85	0xbc2c6384	-0.010521773
86	0x3c8dbd0e	0.017302062
87	0x3c8be068	0.017074779
88	0x3c8e5ce3	0.017378276
89	0x3c8e56af	0.017375318
90	0x3c8c4aa8	0.017125443
91	0xbbfe8491	-0.007767268
92	0x3c8e5444	0.017374165
93	0x3c8dec07	0.01732446
94	0x3c8e6ec3	0.0173868
95	0x3c8e5311	0.017373594
96	0xbc364a6a	-0.01112614
97	0x3c8c4d78	0.017126784
98	0x3c8deac3	0.017323857
99	0x3c8dea57	0.017323656
100	0x3c0181f6	0.00790452
101	0x3c10a510	0.0088284165
102	0x3c8dbbcc	0.017301463
103	0x3c8e0f84	0.017341383
104	0x3c8e6782	0.01738334
105	0x3c8d22d7	0.017228527
106	0xbc8b235f	-0.01698464
107	0x3c8e5b78	0.0173776
108	0xbbbb4f4e	-0.005716241
109	0x3c8e2a9e	0.017354306
110	0x3c8d12de	0.01722091
111	0x3c8de866	0.01732273
112	0xbbf8ae1f	-0.007589116
113	0x3c8d7427	0.0172673
114	0x3c8d4243	0.01724351
115	0x3c8e1e4c	0.017348431
116	0x3c8e9672	0.017405722
117	0x3c8ca7d4	0.01716987
118	0x3c8ee54a	0.017443318
119	0xbbf38aa9	-0.007432301
120	0xbc87a1b0	-0.01655659
121	0x3c8d9baa	0.01728614
122	0x3c8de45d	0.017320806
123	0x3c8c60f8	0.017136082
124	0x3c8e6d09	0.017385976
125	0x3c8d9f5e	0.017287906
126	0x3c8eb6df	0.017421184
127	0x3c8d2de1	0.01723379

net_model.2.weight f4 [64, 128]
0	0x3c433084	0.0119134225
1	0x3c411182	0.011783959
2	0x3c477820	0.012174636
3	0x3c44abee	0.012003882
4	0x3c461ff9	0.012092584
5	0x3c45f794	0.012082953
6	0x3c44ae79	0.012004488
7	0xbd7d3323	-0.061816346
8	0x3c46e9fc	0.012140747
9	0x3c0a9c1d	0.008460072
10	0x3c47d8ab	0.012197654
11	0xbd694fc1	-0.056960825
12	0x3c44c822	0.012010606
13	0x3c455201	0.012043477
14	0x3c44bcbb	0.0120078875
15	0x3c45ed01	0.012080432
16	0x3c448774	0.011995185
17	0x3c46ca97	0.012133262
18	0xbd88ce2e	-0.06679951
19	0xbd738df4	-0.05946155
20	0x3c4181d8	0.011810742
21	0x3c43a758	0.011941753
22	0xbd78a76e	-0.06070655
23	0x3c4571a2	0.012051018
24	0xbd8ad2a9	-0.067784615
25	0x3c4566bb	0.012048419
26	0x3c424543	0.011857334
27	0x3c47feaf	0.012206717
28	0x3c4850a6	0.012226259
29	0xbdf1854e	-0.11793004
30	0x3c4573a1	0.012051494
31	0x3c44dd30	0.012015626
32	0x3c464c47	0.012103147
33	0x3c435930	0.011923119
34	0x3c465c7f	0.012107014
35	0x3c466ea5	0.012111341
36	0x3c467980	0.012113929
37	0x3c459beb	0.0120610995
38	0x3c483244	0.0122190155
39	0xbd64c4e6	-0.05585184
40	0xbd7d53cd	-0.061847497
41	0x3c41bf39	0.011825376
42	0x3c3fc3db	0.01170441
43	0x3c488488	0.012238629
44	0x3c42254d	0.0118497135
45	0x3c45526d	0.012043578
46	0x3c4716ce	0.012151433
47	0xbddeffe7	-0.10888653
48	0x3c45940f	0.012059226
49	0x3c45b765	0.01206765
50	0x3c470238	0.012146525
51	0x3c4432f1	0.011975036
52	0x3c45378d	0.01203717
53	0xbd75b587	-0.05998757
54	0x3c450ad7	0.01202651
55	0x3c27f570	0.010251388
56	0xbd8eb438	-0.06967968
57	0x3c2ee953	0.010675746
58	0x3c41e36a	0.011834005
59	0x3c429df6	0.011878481
60	0x3c453438	0.012036376
61	0x3c463e1f	0.012099772
62	0xbd84a699	-0.064770885
63	0x3c4460b6	0.011985948
64	0xbd7775c1	-0.060415033
65	0xbd88438f	-0.06653511
66	0x3c47147d	0.012150881
67	0x3c46b188	0.012127288
68	0x3c455bc7	0.012045807
69	0x3c458065	0.012054537
70	0x3c460108	0.012085207
71	0x3c457425	0.012051617
72	0x3c44951d	0.011998442
73	0xbdc01049	-0.09378106
74	0x3c435c68	0.011923887
75	0x3c4303e1	0.01190278
76	0xbd8edcaa	-0.06975682
77	0x3c460028	0.012084998
78	0x3c421851	0.011846618
79	0xbd4a4cbd	-0.04938959
80	0xbdddb285	-0.108250655
81	0x3c407e5d	0.011748877
82	0xbd767f95	-0.060180265
83	0x3c477f8c	0.012176406
84	0x3c464147	0.012100524
85	0xbd625a89	-0.055262122
86	0x3c461774	0.012090553
87	0x3c3fb1d4	0.011700112
88	0x3c46f955	0.012144406
89	0x3c472d05	0.01215673
90	0x3c41008b	0.011779915
91	0xbd439873	-0.04775281
92	0x3c48ed0c	0.012263548
93	0x3c476f5e	0.012172548
94	0x3c47de5f	0.0121990135
95	0x3c45b90e	0.012068046
96	0xbd64f4e4	-0.05589761
97	0x3c42bfb0	0.011886522
98	0x3c4706cb	0.012147616
99	0x3c46ee9f	0.012141853
100	0xbdf77d45	-0.1208444
101	0xbde5a8da	-0.112138465
102	0x3c4431c4	0.011974756
103	0x3c46beed	0.012130481
104	0x3c45bbf2	0.012068735
105	0x3c466824	0.01210979
106	0xbd8acbfe	-0.0677719
107	0x3c4864eb	0.012231092
108	0xbd562b50	-0.0522874
109	0x3c4688f7	0.012117616
110	0x3c457409	0.012051591
111	0x3c476869	0.012170889
112	0xbd4417d0	-0.047874272
113	0x3c4657bd	0.012105879
114	0x3c43b88a	0.011945853
115	0x3c457565	0.012051915
116	0x3c470429	0.012146988
117	0x3c41e535	0.011834432
118	0x3c46ea55	0.01214083
119	0xbd4806b2	-0.04883451
120	0xbd8b95da	-0.06815691
121	0x3c4580af	0.012054606
122	0x3c44e53c	0.012017544
123	0x3c407522	0.011746677
124	0x3c4639f5	0.012098779
125	0x3c42e8e7	0.011896349
126	0x3c481664	0.01221237
127	0x3c450924	0.012026105
128	0x3c445b9e	0.011984734
129	0x3c4171e6	0.011806941
130	0x3c47b8bd	0.012190041
131	0x3c46bee1	0.01213047
132	0x3c46045e	0.012086002
133	0x3c45b012	0.012065904
134	0x3c478f83	0.012180212
135	0xbd7d1e42	-0.061796434
136	0x3c46ddaf	0.012137814
137	0x3c0a96c2	0.008458795
138	0x3c47376c	0.01215921
139	0xbd6963c6	-0.056979917
140	0x3c43b915	0.011945982
141	0x3c443dfc	0.011977669
142	0x3c45e1f1	0.012077794
143	0x3c483ab9	0.012221032
144	0x3c442a38	0.011972956
145	0x3c48afb1	0.012248919
146	0xbd88c0cf	-0.066774
147	0xbd7371dd	-0.05943476
148	0x3c4292ec	0.011875849
149	0x3c436cd6	0.011927804
150	0xbd788e96	-0.060682856
151	0x3c44fc4f	0.012023046
152	0xbd8aba38	-0.067738
153	0x3c43e1dd	0.0119557055
154	0x3c437122	0.011928828
155	0x3c470ffd	0.012149808
156	0x3c48521c	0.012226608
157	0xbdf17fea	-0.11791976
158	0x3c476202	0.012169363
159	0x3c44a876	0.012003055
160	0x3c465885	0.012106066
161	0x3c44ed41	0.012019456
162	0x3c4784c8	0.012177654
163	0x3c4653e6	0.012104964
164	0x3c451e08	0.012031086
165	0x3c4598d7	0.012060366
166	0x3c481bd8	0.01221367
167	0xbd649572	-0.055806585
168	0xbd7cfe3c	-0.061765894
169	0x3c4204d2	0.01184197
170	0x3c3f5fe5	0.011680578
171	0x3c496d62	0.012294145
172	0x3c42ecd2	0.011897283
173	0x3c4421c4	0.011970941
174	0x3c46e822	0.012140306
175	0xbddef799	-0.10887069
176	0x3c459c7c	0.012061235
177	0x3c45e237	0.01207786
178	0x3c474e87	0.0121647185
179	0x3c44c16f	0.012009009
180	0x3c439ab3	0.011938739
181	0xbd75a816	-0.059974752
182	0x3c459ffd	0.01206207
183	0x3c285389	0.010273823
184	0xbd8ea648	-0.069653094
185	0x3c2f1d98	0.010688208
186	0x3c41915a	0.01181444
187	0x3c4246a5	0.011857663
188	0x3c438608	0.011933811
189	0x3c44b161	0.012005181
190	0xbd84a9fc	-0.064777344
191	0x3c43deed	0.011955005
192	0xbd775754	-0.060386017
193	0xbd884a41	-0.06654788
194	0x3c4866da	0.012231553
195	0x3c48d039	0.012256675
196	0x3c44066f	0.0119644245
197	0x3c45864a	0.012055943
198	0x3c44f963	0.012022349
199	0x3c456ca9	0.012049832
200	0x3c43ff74	0.01196276
201	0xbdc00fc0	-0.09378004
202	0x3c4218a1	0.011846692
203	0x3c42f126	0.011898315
204	0xbd8eb761	-0.069685705
205	0x3c476a4f	0.012171342
206	0x3c445862	0.011983963
207	0xbd4a36da	-0.049368717
208	0xbddda900	-0.1082325
209	0x3c40d7d5	0.011770208
210	0xbd76343e	-0.060108416
211	0x3c48b82c	0.012250941
212	0x3c452b65	0.012034272
213	0xbd622f69	-0.055220995
214	0x3c447b11	0.011992232
215	0x3c3f86bb	0.011689837
216	0x3c4707d6	0.012147864
217	0x3c477d9d	0.012175945
218	0x3c413cc6	0.011794275
219	0xbd437d74	-0.047727063
220	0x3c4838dd	0.0122205885
221	0x3c455ad6	0.012045583
222	0x3c48ee08	0.012263782
223	0x3c472334	0.012154389
224	0xbd64d55c	-0.055867538
225	0x3c42651e	0.0118649285
226	0x3c463163	0.012096736
227	0x3c46ce1c	0.012134101
228	0xbdf77392	-0.1208259
229	0xbde5a045	-0.112122096
230	0x3c46ac17	0.01212599
231	0x3c43b902	0.011945965
232	0x3c476666	0.01217041
233	0x3c462cd6	0.012095651
234	0xbd8ab184	-0.0677214
235	0x3c46e53a	0.012139613
236	0xbd560f8b	-0.052260917
237	0x3c47f9a0	0.012205511
238	0x3c4598c4	0.012060348
239	0x3c47b6cb	0.012189577
240	0xbd43ddef	-0.047819074
241	0x3c476d5f	0.012172072
242	0x3c4285b5	0.011872699
243	0x3c4513ab	0.012028615
244	0x3c461bda	0.012091601
245	0x3c41d580	0.0118306875
246	0x3c484658	0.0122238025
247	0xbd47f734	-0.048819736
248	0xbd8b7eb9	-0.0681128
249	0x3c4607a1	0.01208678
250	0x3c47672a	0.012170592
251	0x3c40942b	0.011754076
252	0x3c499a3e	0.012304841
253	0x3c4413ec	0.01196764
254	0x3c49d787	0.012319452
255	0x3c45de3b	0.01207691

net_model.2.bias f4 [64]
0	0x3c82f7cd	0.015987301
1	0x3c82fac5	0.015988717
2	0x3c8258ca	0.015911479
3	0x3c82f284	0.015984781
4	0x3d1afd42	0.03783918
5	0xbb16ebcb	-0.0023028727
6	0xb76b5025	-1.4025752e-05
7	0xb9a0c252	-0.00030662358
8	0xaead278c	-7.874154e-11
9	0xbac0f525	-0.0014721496
10	0x3c82c7de	0.015964445
11	0x3c82ad65	0.015951822
12	0x3c82d1a2	0.015969101
13	0xa60c8ab3	-4.876023e-16
14	0x3c8232cb	0.01589336
15	0x3c8302cd	0.015992546
16	0x3c82afea	0.015953023
17	0x3b76294d	0.0037561238
18	0xba0a83d0	-0.0005283924
19	0xb7ec42f9	-2.8164579e-05
20	0x3c82dbec	0.015974008
21	0x3c9caa68	0.019124225
22	0x3c82f27c	0.015984766
23	0x3c82ea30	0.01598081
24	0x3c8232f8	0.015893444
25	0x3c82362a	0.015894968
26	0xb61c7c64	-2.3318216e-06
27	0x8dbd1d3a	-1.165506e-30
28	0xb25f96a2	-1.3014558e-08
29	0x9d7c5a2b	-3.3398538e-21
30	0xbb2dc163	-0.0026512973
31	0x3c831674	0.016001917
32	0x3c831813	0.01600269
33	0x3c82d5e4	0.015971132
34	0xbaf7c97d	-0.0018904653
35	0x3c82effb	0.015983572
36	0x3c827f9d	0.015929991
37	0xbad4f615	-0.0016247655
38	0xba9e8311	-0.0012093504
39	0xb9c3c032	-0.00037336495
40	0x3c82f24b	0.015984675
41	0xba1bca4c	-0.00059429253
42	0xbadc4be3	-0.0016807284
43	0x3c82d740	0.01597178
44	0x3ccfc763	0.02536363
45	0xad2575a0	-9.405282e-12
46	0x3c824a23	0.015904492
47	0xa9317494	-3.940301e-14
48	0x3c82eef2	0.015983079
49	0xbaea257d	-0.0017863956
50	0xbaf98f33	-0.0019039869
51	0x3c82890d	0.015934492
52	0xb882696e	-6.218521e-05
53	0xba06197c	-0.0005115492
54	0x3c828d6d	0.015936578
55	0xb2df2433	-2.5977078e-08
56	0x3b123755	0.0022310812
57	0x3c82eab4	0.015981056
58	0xb8c9bf83	-9.620099e-05
59	0x3c82fc3a	0.015989412
60	0x3c82f459	0.015985655
61	0x3c82f6ec	0.015986882
62	0x3cbd1dca	0.023085494
63	0x3cba1a8a	0.022717733

net_model.4.weight f4 [32, 64]
0	0x3d152aea	0.03641788
1	0x3d15170a	0.036398925
2	0x3d16490d	0.03669076
3	0x3d151a1a	0.036401846
4	0xbe0f3a94	-0.1398719
5	0xbb059d88	-0.0020388085
6	0x33ab4344	7.9750436e-08
7	0x39a0af6f	0.00030648286
8	0xacd3386f	-6.003246e-12
9	0x3a45bba1	0.00075429125
10	0x3d1489d2	0.03626425
11	0x3d14e743	0.03635336
12	0x3d13f83b	0.036125403
13	0x8300c12c	-3.783757e-37
14	0x3d1592ca	0.036516942
15	0x3d15534e	0.0364564
16	0x3d14bf02	0.03631497
17	0xbd857c8d	-0.06517897
18	0x39d14b95	0.000399199
19	0xabdd565a	-1.5726962e-12
20	0x3d151a75	0.036402185
21	0x3d291e2e	0.041288547
22	0x3d1502db	0.036379676
23	0x3d14b12c	0.036301777
24	0x3d152687	0.036413696
25	0x3d150f7d	0.036391724
26	0x1b310ca6	1.4645184e-22
27	0x869e9efb	-5.9666595e-35
28	0x09b14c60	4.2683023e-33
29	0x82b3ba2e	-2.6408548e-37
30	0x3aeba665	0.0017978667
31	0x3d1470ad	0.03624027
32	0x3d14ea30	0.03635615
33	0x3d154b16	0.03644856
34	0x3a6082e1	0.00085644244
35	0x3d15a27f	0.03653192
36	0x3d152863	0.03641547
37	0x39fa1052	0.00047695875
38	0x3af7fec9	0.0018920536
39	0x9dea967d	-6.2094886e-21
40	0x3d148576	0.03626009
41	0x37372e95	1.0918496e-05
42	0xb3c5d629	-9.212483e-08
43	0x3d15173a	0.036399104
44	0x3d718842	0.058967836
45	0x2a268f2c	1.4793434e-13
46	0x3d14e059	0.036346767
47	0x82992899	-2.2504631e-37
48	0x3d151859	0.036400173
49	0x2fed6692	4.318293e-10
50	0xba69ce2f	-0.00089189684
51	0x3d14d286	0.036333583
52	0xa3d9b6c2	-2.3604588e-17
53	0xa39b434c	-1.6833635e-17
54	0x3d151e07	0.03640559
55	0x2028701b	1.4267246e-19
56	0xbd9a92c3	-0.07547524
57	0x3d14150a	0.036152877
58	0x37a2b8f5	1.9398032e-05
59	0x3d14aa70	0.036295354
60	0x3d151650	0.036398232
61	0x3d1553a6	0.036456726
62	0x3d489a74	0.048975423
63	0x3d4320a0	0.047638535
64	0x01be69d6	6.9946844e-38
65	0x0351f681	6.1702552e-37
66	0x01485e6c	3.6801943e-38
67	0x833a54f3	-5.4758004e-37
68	0x032e43f1	5.1211997e-37
69	0x8323269f	-4.794573e-37
70	0x828a61fd	-2.033352e-37
71	0x8223dbc6	-1.2038421e-37
72	0x036c4c4e	6.944176e-37
73	0x832655a2	-4.8881317e-37
74	0x0338cea5	5.4309956e-37
75	0x03395063	5.4458893e-37
76	0x835399f4	-6.2184057e-37
77	0x0249b208	1.481824e-37
78	0x832415e2	-4.822039e-37
79	0x02944ee7	2.1791933e-37
80	0x831f8880	-4.6882595e-37
81	0x0327d8b5	4.9325657e-37
82	0x831deaa3	-4.6407503e-37
83	0x834dd199	-6.048469e-37
84	0x0322c519	4.783378e-37
85	0x82211f13	-1.183733e-37
86	0x02785d90	1.8247014e-37
87	0x820576bc	-9.805372e-38
88	0x0351f77a	6.170367e-37
89	0x83034f34	-3.858836e-37
90	0x0309e436	4.0522655e-37
91	0x02f4ff43	3.599909e-37
92	0x828a0dae	-2.028513e-37
93	0x80e10cc8	-2.0667572e-38
94	0x83151e1b	-4.3821724e-37
95	0x03081829	3.9994542e-37
96	0x8342578e	-5.7111984e-37
97	0x035d38d6	6.5011307e-37
98	0x035d5bb5	6.5051337e-37
99	0x821b2985	-1.1399517e-37
100	0x832def1d	-5.111462e-37
101	0x83603856	-6.5892354e-37
102	0x03235d50	4.8008512e-37
103	0x03158d2b	4.3949217e-37
104	0x0369b4dd	6.8680167e-37
105	0x834649b4	-5.8271577e-37
106	0x0339defe	5.4622596e-37
107	0x83334fd3	-5.2695006e-37
108	0x8273e34e	-1.7918054e-37
109	0x829b72c0	-2.2841066e-37
110	0x81da66ec	-8.022824e-38
111	0x833cc4ea	-5.547428e-37
112	0x031aa2fc	4.544363e-37
113	0x03418b5e	5.687759e-37
114	0x0339b824	5.4577997e-37
115	0x830cd19d	-4.1382927e-37
116	0x032ef13a	5.141092e-37
117	0x83435a49	-5.740899e-37
118	0x0310c14d	4.2539695e-37
119	0x831ddbf4	-4.6390647e-37
120	0x0300524e	3.77103e-37
121	0x033a0541	5.466652e-37
122	0x83114031	-4.268536e-37
123	0x83164a10	-4.4166058e-37
124	0x834b9c7d	-5.983598e-37
125	0x03232aae	4.795039e-37
126	0x833c6ba3	-5.5371795e-37
127	0x83455d48	-5.800018e-37
128	0x03357081	5.3320268e-37
129	0x030e3712	4.1793267e-37
130	0x830a0836	-4.056398e-37
131	0x031da505	4.6327586e-37
132	0x8304ef5f	-3.90661e-37
133	0x8353d671	-6.2253494e-37
134	0x0356d4ee	6.313338e-37
135	0x0332e546	5.257269e-37
136	0x0328c6a8	4.959881e-37
137	0x83011484	-3.7933244e-37
138	0x833144ad	-5.209446e-37
139	0x8314844a	-4.364515e-37
140	0x830ba775	-4.104066e-37
141	0x83015e99	-3.8018286e-37
142	0x82d414aa	-3.116246e-37
143	0x834abc0c	-5.957833e-37
144	0x033f6331	5.624372e-37
145	0x8339a72a	-5.455851e-37
146	0x0315cab2	4.4019847e-37
147	0x036214d2	6.643933e-37
148	0x0345208a	5.793045e-37
149	0x832498de	-4.837075e-37
150	0x035a9358	6.4233584e-37
151	0x0328ed04	4.9642843e-37
152	0x833815bf	-5.4097703e-37
153	0x033f3587	5.61913e-37
154	0x830877d8	-4.010438e-37
155	0x02e9a488	3.433071e-37
156	0x031290d3	4.3071794e-37
157	0x8309267c	-4.030486e-37
158	0x832b9701	-5.0425727e-37
159	0x01ac0640	6.319179e-38
160	0x8357fee5	-6.3475426e-37
161	0x830964ee	-4.0376543e-37
162	0x0342e307	5.727209e-37
163	0x03065429	3.947567e-37
164	0x0264e0ec	1.6815344e-37
165	0x0314a40c	4.3681608e-37
166	0x0335bb52	5.3406153e-37
167	0x030e1fd9	4.176661e-37
168	0x03116cba	4.273648e-37
169	0x833f62dd	-5.6243345e-37
170	0x82673e03	-1.6988996e-37
171	0x02d6b800	3.1550085e-37
172	0x81cde16a	-7.562856e-38
173	0x829b9c0a	-2.2864765e-37
174	0x03179d3f	4.455542e-37
175	0x03415146	5.68109e-37
176	0x834f7ac9	-6.0972783e-37
177	0x02e946ba	3.4276868e-37
178	0x027f782c	1.8768929e-37
179	0x82cc87f8	-3.0053148e-37
180	0x8103fca8	-2.4242172e-38
181	0x03086563	4.0083194e-37
182	0x0359d94c	6.4020013e-37
183	0x82978f0a	-2.2269556e-37
184	0x8318ff4e	-4.496186e-37
185	0x8323acda	-4.809982e-37
186	0x0339b077	5.4569185e-37
187	0x82a734e2	-2.4568798e-37
188	0x0349a38e	5.9256343e-37
189	0x833c5180	-5.534179e-37
190	0x830f3dd6	-4.2094907e-37
191	0x02f6d7e4	3.6270366e-37
192	0x0313a677	4.339051e-37
193	0x833a6125	-5.4772004e-37
194	0x03305757	5.1822013e-37
195	0x83299576	-4.983621e-37
196	0x820e4383	-1.0451887e-37
197	0x8361dd02	-6.637526e-37
198	0x834697c0	-5.836117e-37
199	0x02aa0c62	2.4986362e-37
200	0x030c20d0	4.117997e-37
201	0x82d604f8	-3.1447326e-37
202	0x03127385	4.3038154e-37
203	0x835ccc1d	-6.48865e-37
204	0x828b5fb6	-2.047915e-37
205	0x834e43bc	-6.0615714e-37
206	0x0292139a	2.1464023e-37
207	0x03403e64	5.649535e-37
208	0x02a343de	2.3989651e-37
209	0x0321d55a	4.7558563e-37
210	0x835459a4	-6.2404103e-37
211	0x01834c24	4.8231056e-38
212	0x83152385	-4.382794e-37
213	0x8305496a	-3.9169462e-37
214	0x83479d56	-5.8661457e-37
215	0x03174c4d	4.44625e-37
216	0x830a634b	-4.066854e-37
217	0x03120309	4.290903e-37
218	0x83559ae9	-6.2772902e-37
219	0x035194a1	6.1590197e-37
220	0x83394a69	-5.4452032e-37
221	0x83207410	-4.7153007e-37
222	0x82f11558	-3.5424018e-37
223	0x033ac542	5.488693e-37
224	0x0361e739	6.638699e-37
225	0x8342bd53	-5.722881e-37
226	0x82a43e02	-2.4133225e-37
227	0x03213cc9	4.7383426e-37
228	0x034da192	6.042956e-37
229	0x032c03c4	5.055058e-37
230	0x83454457	-5.7971547e-37
231	0x834f7bd5	-6.0973985e-37
232	0x035108b3	6.1429566e-37
233	0x0364dac3	6.7254304e-37
234	0x035535bc	6.265676e-37
235	0x03574773	6.326484e-37
236	0x828a49e6	-2.0319693e-37
237	0x8273e109	-1.7917402e-37
238	0x83534762	-6.208927e-37
239	0x036971d0	6.8603196e-37
240	0x0274a7f9	1.7974495e-37
241	0x03247235	4.832637e-37
242	0x835fc2d9	-6.5757484e-37
243	0x0327f3dd	4.935683e-37
244	0x83062e7a	-3.9432413e-37
245	0x8334573d	-5.299739e-37
246	0x016662b4	4.2315144e-38
247	0x8309b27a	-4.0465563e-37
248	0x033c7639	5.5383947e-37
249	0x81e6c662	-8.477332e-38
250	0x806b1208	-9.832866e-39
251	0x032abf26	5.0177938e-37
252	0x83409eb7	-5.6605925e-37
253	0x832f39ab	-5.1494077e-37
254	0x8323fab2	-4.818918e-37
255	0x8341c7e3	-5.694706e-37

net_model.4.bias f4 [32]
0	0x3c38090c	0.011232626
1	0xb9fefed5	-0.0004863652
2	0xb9cde4cf	-0.00039271123
3	0xba17256b	-0.00057657686
4	0x3c38039a	0.011231327
5	0xb95525f7	-0.00020327406
6	0xba0dccfd	-0.0005409269
7	0x3c380a24	0.011232886
8	0xba118894	-0.0005551663
9	0x3c37ea47	0.01122529
10	0x3c3810b2	0.011234449
11	0xba0d0b84	-0.0005380439
12	0xb9eb48fc	-0.0004487707
13	0x3c37e13d	0.011223135
14	0xb9e0ee63	-0.0004290222
15	0x3c37f595	0.011227985
16	0xba0aa3aa	-0.000528867
17	0x3c14dc98	0.009085797
18	0x3c380072	0.011230575
19	0xb8bc391f	-8.975178e-05
20	0x3c37d5f2	0.011220442
21	0x3c380680	0.0112320185
22	0xb9dcdb7a	-0.00042125193
23	0xb8979310	-7.2276336e-05
24	0xba0c3ca1	-0.00053496106
25	0x3c37d715	0.011220713
26	0xb9b9507f	-0.00035345924
27	0x3c37b99f	0.011213689
28	0xa559e824	-1.8900402e-16
29	0x3c3800da	0.011230672
30	0x3c380654	0.0112319775
31	0x3c37df47	0.011222667

net_model.6.weight f4 [1, 32]
0	0xbd1042d2	-0.035219975
1	0x8351aeac	-6.1620093e-37
2	0x019bb0c4	5.7191654e-38
3	0x833fb777	-5.6340463e-37
4	0xbd107cb2	-0.03527517
5	0x82f17277	-3.5477467e-37
6	0x83623c16	-6.6484406e-37
7	0xbd106783	-0.035254966
8	0x8309f6ec	-4.0544134e-37
9	0xbd10778b	-0.035270255
10	0xbd105f44	-0.035247102
11	0x835c88cb	-6.480922e-37
12	0x034a2fe7	5.9417454e-37
13	0xbd1061a2	-0.03524936
14	0xba05c484	-0.00051028305
15	0xbd10ae73	-0.035322618
16	0x835b9009	-6.452366e-37
17	0xbcfab8d0	-0.030605704
18	0xbd109ff5	-0.035308797
19	0x834a53f8	-5.9458856e-37
20	0xbd106767	-0.035254862
21	0xbd106c5b	-0.035259586
22	0x833c77a4	-5.5385575e-37
23	0x031c54b2	4.5941505e-37
24	0x83521ac8	-6.1744197e-37
25	0xbd1095db	-0.035299163
26	0xba0af1f6	-0.0005300337
27	0xbd106b54	-0.035258606
28	0x9bbfc3d9	-3.1724863e-22
29	0xbd105c0b	-0.03524403
30	0xbd107af7	-0.03527352
31	0xbd109111	-0.035294596
