src/t1dsim_ai/models/IndividualModel/T1DEXI-01-1580/individual_model.pt (torch, 50089 bytes, 7 tensors)

net_model.0.weight f4 [128, 10]
0.015011192 -0.0002763021 -0.026183777 0.010291755 0.01661301 -0.000523163 0.00246237 -0.0062909396
-0.007038354 0.00881192 0.014663203 -0.00057377404 -0.026145505 0.00995298 0.016497778 -0.00055260316
0.002101079 -0.006277863 -0.006671284 0.008636511 0.015072394 7.173469e-05 -0.026337763 0.010482403
0.016782781 -0.0005381062 0.0024456528 -0.006287539 -0.007094258 0.008884297 0.015075854 -0.00019195584
-0.026318196 0.010456235 0.016649513 -0.0006109933 0.0025728275 -0.006311141 -0.007041081 0.008769013
0.014975873 -0.00031010903 -0.0263738 0.010169896 0.016546484 -0.0005788907 0.0024474906 -0.006296155
-0.0069819656 0.008765554 0.014893443 -0.00022315716 -0.026218798 0.010100959 0.016513847 -0.0005675833
0.0022897131 -0.0062206103 -0.006865807 0.008717745 0.008984882 -0.00075518846 -0.02714967 -0.03558145
0.0477751 0.0054319254 -0.018046124 -0.0032895969 0.002686695 0.016420804 0.014795347 -0.000220707
-0.026270887 0.01045509 0.016470335 -0.00056963414 0.002339723 -0.0061915745 -0.00685055 0.008700823
0.014975506 -0.00013124767 -0.026329968 0.010385528 0.016619587 -0.0006610579 0.002460257 -0.0062682163
-0.0069422233 0.008744047 0.014796285 -0.00044394296 -0.026177457 0.010141561 0.01655546 -0.0005557906
0.0023574359 -0.006193448 -0.006749095 0.008622213 0.014931834 -8.932282e-05 -0.0262682 0.010341949
0.016549677 -0.0006963434 0.0025950547 -0.006224018 -0.0068151564 0.00876937 0.010658834 0.011112025
-0.0048215324 0.016974395 -0.0068715666 -0.0041664355 -0.08954224 -0.018364163 0.023628317 -0.031913206
0.01499655 -0.00010336443 -0.026257925 0.010388327 0.01675585 -0.0005838406 0.0025303848 -0.006323613
-0.0070503806 0.008829034 0.015021346 -0.00019324849 -0.02629935 0.010306534 0.016710611 -0.00059475977
0.0024373468 -0.006316718 -0.006989877 0.008816728 0.015060006 -0.00017837848 -0.026242573 0.010423112
0.016506532 -0.0006214732 0.0024929675 -0.0062394533 -0.0069713714 0.008773991 0.014725564 -0.00055255246
-0.026261136 0.009822258 0.016346904 -0.0005656543 0.002268962 -0.006316781 -0.0066600875 0.008680178
0.014851489 -0.00033518285 -0.026130136 0.01013653 0.01653535 -0.00055611174 0.00235867 -0.0062587326
-0.0068459744 0.008723629 0.0148555655 -0.00020472072 -0.026335679 0.010153843 0.01644352 -0.0005933586
0.002447 -0.006277946 -0.006884808 0.008750473 0.014680767 -0.0005737996 -0.026166972 0.010112486
0.016462548 -0.0005440784 0.0022032564 -0.00621255 -0.006696184 0.008583885 0.014872224 -0.00021972129
-0.026248762 0.010300329 0.01661992 -0.0005753112 0.002408515 -0.006263024 -0.0069322465 0.008749533
-0.018900746 -0.0046324655 0.024616055 0.010556494 -0.01623805 -0.0017112578 0.007919301 -0.006353482
-0.0066012014 0.014023238 0.0149432495 -0.0002408976 -0.026308611 0.010342733 0.016540455 -0.00053712935
0.0024841418 -0.006222777 -0.0069632903 0.008721082 0.014465159 -0.0008182815 -0.026173733 0.009762818
0.016195783 -0.0007092649 0.0018917503 -0.0062858257 -0.0063891825 0.008434595 0.0150923375 -0.00019925894
-0.026281187 0.010421387 0.016521454 -0.0006505836 0.0025147242 -0.006297756 -0.0069526057 0.008800012
0.012861748 0.011368805 -0.009209027 0.015993133 -0.005480558 -0.004100544 -0.08536462 -0.02416609
0.029580245 -0.0413411 0.015057185 -0.0001395126 -0.026283795 0.010353708 0.016657231 -0.0006309531
00000000: 81f1 753c a4dc 90b9 5c7f d6bc c09e 283c
00000010: 0218 883c e024 09ba b75f 213b 3a24 cebb
00000020: fea1 e6bb df5f 103c ee3d 703c 5369 16ba
00000030: 192f d6bc d311 233c 5926 873c 92dc 10ba
00000040: 42b2 093b 88b6 cdbb c99a dabb 2780 0d3c
00000050: 34f2 763c 4570 9638 4bc2 d7bc 63be 2b3c
00000060: 0b7c 893c b20f 0dba 3f47 203b b307 cebb
00000070: f376 e8bb 718f 113c b700 773c c147 49b9
00000080: 4299 d7bc a150 2b3c 8f64 883c 112b 20ba
00000090: e29c 283b b0cd cebb deb8 e6bb e8ab 0f3c
000000a0: 5d5d 753c 2196 a2b9 de0d d8bc a39f 263c
000000b0: 7e8c 873c b2c0 17ba 1466 203b fa4f cebb
000000c0: f9c8 e4bb 669d 0f3c a103 743c 4bff 69b9
000000d0: cec8 d6bc 7e7e 253c 0c48 873c dfc9 14ba
000000e0: 030f 163b 43d6 cbbb 90fa e0bb dfd4 0e3c
000000f0: 5435 133c d7f7 45ba fc68 debc dbbd 11bd
00000100: d3af 433d 4bfe b13b 77d5 93bc 4796 57bb
00000110: 4313 303b ec84 863c 2f68 723c 966d 67b9
00000120: 0b36 d7bc d34b 2b3c ccec 863c 8053 15ba
00000130: 0a56 193b b1e2 cabb 947a e0bb e68d 0e3c
00000140: d35b 753c 879f 09b9 f2b1 d7bc 1028 2a3c
00000150: cd25 883c d84a 2dba 433c 213b 9c65 cdbb
00000160: 977b e3bb 3143 0f3c 1e6c 723c 04c1 e8b9
00000170: 1b72 d6bc ca28 263c 519f 873c 7ab2 11ba
00000180: 367f 1a3b 68f2 cabb 8327 ddbb 2f44 0d3c
00000190: a7a4 743c d352 bbb8 6830 d7bc 4771 293c
000001a0: 3093 873c d18a 36ba cb11 2a3b d9f2 cbbb
000001b0: ad51 dfbb 67ad 0f3c 64a2 2e3c 360f 363c
000001c0: f2fd 9dbb e30d 8b3c e12a e1bb 9886 88bb
000001d0: ec61 b7bd 7170 96bc 2c90 c13c 6cb7 02bd
000001e0: 17b4 753c 5bc5 d8b8 dc1a d7bc cd33 2a3c
000001f0: 9043 893c e10c 19ba d0d4 253b 5036 cfbb
00000200: e106 e7bb a7a7 103c 171c 763c bfa2 4ab9
00000210: bc71 d7bc bddc 283c b1e4 883c a7e9 1bba
00000220: e5bb 1f3b 79fc cebb 570b e5bb 0a74 103c
00000230: 3ebe 763c 1c0b 3bb9 aafa d6bc b3c5 2a3c
00000240: b538 873c 5cea 22ba 0e61 233b 5474 ccbb
00000250: 1a70 e4bb c9c0 0f3c 7e43 713c 2bd9 10ba
00000260: 9821 d7bc 89ed 203c f1e9 853c 6b48 14ba
00000270: deb2 143b 00fd cebb dd3c dabb 4e37 0e3c
00000280: a953 733c 7bbb afb9 de0e d6bc b013 263c
00000290: 2475 873c 07c8 11ba eb93 1a3b 0e16 cdbb
000002a0: 3254 e0bb 8ded 0e3c c264 733c 4daa 56b9
000002b0: ecbd d7bc 4e5c 263c 90b4 863c 9f8b 1bba
000002c0: d95d 203b 3ab7 cdbb f599 e1bb 255e 0f3c
000002d0: 9a87 703c 0a6b 16ba 1e5c d6bc d7ae 253c
000002e0: 77dc 863c 7ca0 0eba 8264 103b a692 cbbb
000002f0: aa6b dbbb 6ca3 0c3c a1aa 733c fc64 66b9
00000300: a507 d7bc b6c2 283c 8026 883c 7bd0 16ba
00000310: 2dd8 1d3b 0e3a cdbb e627 e3bb 345a 0f3c
00000320: bdd5 9abc f0cb 97bb 9ca7 c93c 25f5 2c3c
00000330: a905 85bc 494c e0ba f5bf 013c df30 d0bb
00000340: e44e d8bb b9c1 653c 88d4 743c 7599 7cb9
00000350: 2885 d7bc 9174 293c d97f 873c 24ce 0cba
00000360: fccc 223b 70e8 cbbb 502c e4bb dee2 0e3c
00000370: 46ff 6c3c f181 56ba 4c6a d6bc 3af4 1f3c
00000380: 05ad 843c f6ed 39ba 9bf4 f73a 54f9 cdbb
00000390: 595c d1bb 4131 0a3c da45 773c 2af0 50b9
000003a0: a54b d7bc 77be 2a3c 0058 873c ed8b 2aba
000003b0: 12ce 243b 685d cebb afd2 e3bb ed2d 103c
000003c0: 15ba 523c 3944 3a3c 75e1 16bc 0804 833c
000003d0: 4196 b3bb db5d 86bb a5d3 aebd f7f7 c5bc
000003e0: 4552 f23c 4955 29bd 69b2 763c 214a 12b9
000003f0: 1d51 d7bc 99a2 293c bf74 883c 8c66 25ba

net_model.0.bias f4 [128]
-0.0005947269 -0.0007328714 -0.00047820722 -0.000596859 -0.00063625176 -0.0006072269 0.003956395 -0.0006364962
-0.00060616445 -0.00067283347 -0.0005989091 0.017327309 -0.0005491323 -0.0006056831 -0.0006040012 -0.00079464517
-0.0006461354 -0.00065539137 -0.00072971155 -0.0006171356 0.025988417 -0.0006181353 -0.00087153417 -0.00062463223
0.01705679 -0.0005740172 -0.0005864866 -0.00058808405 -0.00059818005 -0.0007849534 -0.0006137551 -0.00063451537
-0.0013442518 -0.00057875743 -0.00057427253 -0.00054145476 -0.00067926326 -0.0005989716 -0.00083332136 0.017802035
0.017326294 -0.00085038657 -0.0006013384 -0.00054215844 0.017712915 -0.0008356983 -0.0007666883 -0.00075295096
-0.0006980914 -0.00065002555 -0.0006960108 -0.0005951222 0.016456855 0.017916992 -0.00080835656 -0.0006612667
0.021777483 0.017221954 -0.0008051402 -0.0005621816 -0.0005368216 -0.000587449 0.017061492 -0.00059531926
0.017224748 -0.0007277387 -0.0007357547 -0.0005796106 -0.00065924856 -0.0006236258 -0.00071100733 -0.0007178239
-0.00048821216 -0.0006348185 -0.0006386497 -0.0009405359 0.016964104 -0.0005938142 -0.00066467084 -0.0006549083
-0.0006283239 0.017178038 -0.0007379127 0.034164872 -0.00091299193 -0.0006011375 0.028369837 0.017105358
-0.00064412813 -0.0005856566 -0.001385044 -0.0009967554 -0.0006356611 -0.0005280479 -0.00058793765 -0.0005531738
0.017834948 -0.00060142827 -0.00055213785 -0.001544245 -0.0008050054 -0.0009876152 0.01879197 -0.0016603863
-0.0006252617 -0.00056970393 0.01774669 -0.0005648103 -0.0005570112 -0.0006549656 0.0171666 -0.00065143424
0.01720042 -0.0007588114 0.016979765 -0.0006413309 -0.00070094893 -0.00070200796 -0.0005127657 0.017886676
0.020750433 -0.00062546146 0.017752573 -0.00063989806 -0.0005422021 -0.0006380218 -0.00053370104 -0.0006097184
00000000: 72e7 1bba 2b1e 40ba e3b7 fab9 8876 1cba
00000010: 22ca 26ba 4f2e 1fba a6a4 813b 89da 26ba
00000020: 02e7 1eba 1761 30ba 1c00 1dba 00f2 8d3c
00000030: a5f3 0fba b4c6 1eba d655 1eba bc4f 50ba
00000040: 6a61 29ba 92ce 2bba 1d4a 3fba 45c7 21ba
00000050: a9e5 d43c 5c0a 22ba ab77 64ba 5cbe 23ba
00000060: aeba 8b3c a479 16ba 73be 19ba a729 1aba
00000070: 2fcf 1cba 55c5 4dba 68e4 20ba 9b55 26ba
00000080: 9b31 b0ba c1b7 17ba c78a 16ba 6af0 0dba
00000090: 9610 32ba 4e04 1dba 4073 5aba 93d5 913c
000000a0: dfef 8d3c 7aec 5eba 23a3 1dba a31f 0eba
000000b0: ad1a 913c c312 5bba 95fb 48ba af61 45ba
000000c0: 1f00 37ba 7a66 2aba 7e74 36ba fa01 1cba
000000d0: 87d0 863c a8c6 923c e4e7 53ba db58 2dba
000000e0: b166 b23c 0e15 8d3c 0b10 53ba 5e5f 13ba
000000f0: 7db9 0cba 09ff 19ba 8bc4 8b3c 330f 1cba
00000100: ea1a 8d3c b8c5 3eba a9df 40ba 02f1 17ba
00000110: 6cd1 2cba d27a 23ba e562 3aba 592c 3cba
00000120: baf6 ffb9 f369 26ba 0e6b 27ba 4c8e 76ba
00000130: 4ef8 8a3c 32aa 1bba 4e3d 2eba 27ae 2bba
00000140: 1ab6 24ba f5b8 8c3c 7c70 41ba 77f0 0b3d
00000150: da55 6fba a895 1dba dc67 e83c 8920 8c3c
00000160: b5da 28ba c086 19ba 5d8a b5ba 90a5 82ba
00000170: 7fa2 26ba b26c 0aba d41f 1aba de02 11ba
00000180: 991a 923c 2ba9 1dba 58bd 10ba 4468 caba
00000190: ff06 53ba de72 81ba 9ef1 993c 52a1 d9ba
000001a0: 9ae8 23ba 2f58 15ba 8261 913c c70f 14ba
000001b0: 6404 12ba ffb1 2bba f8a0 8c3c 03c5 2aba
000001c0: e5e7 8c3c f9ea 46ba 2619 8b3c fd1e 28ba
000001d0: e3bf 37ba f506 38ba 206b 06ba 1487 923c
000001e0: d0fc a93c 02f6 23ba d86d 913c d5be 27ba
000001f0: 9122 0eba eb40 27ba 12e8 0bba 82d5 1fba

net_model.2.weight f4 [64, 128]
0.016549248 0.016373642 0.016627045 0.016562426 0.0166296 0.016470283 0.029138826 0.016428981
0.016569799 0.01646746 0.016536353 -0.03426297 0.016612113 0.016640188 0.016462233 0.016377548
0.016457012 0.016451845 0.016407078 0.01652307 -0.035861395 0.016613856 0.016296664 0.016561825
-0.036617674 0.016562892 0.01664404 0.016761279 0.01661332 0.016401723 0.016499843 0.016630458
0.016019708 0.016390972 0.016446905 0.016586017 0.016510185 0.016493807 0.016484046 -0.03660538
-0.035346143 0.016382307 0.016549248 0.016585669 -0.031688593 0.01638919 0.016422162 0.016421963
0.016393498 0.016632482 0.01650182 0.016552879 -0.03448976 -0.036019802 0.016347783 0.016393613
-0.030069195 -0.03664905 0.016349649 0.016499287 0.016519284 0.016492527 -0.036540713 0.01647205
-0.03669191 0.01652342 0.0164628 0.016551258 0.016511757 0.016640697 0.016486775 0.016540775
0.016713878 0.016368236 0.01653243 0.016320765 -0.035755806 0.016534882 0.01646645 0.016461063
0.01646742 -0.03674589 0.016369054 -0.050894797 0.016327467 0.01658713 -0.14425491 -0.036716234
0.01648955 0.016496804 0.01602707 0.016354226 0.016699191 0.016723346 0.016625972 0.016588494
-0.036494803 0.016612371 0.016646035 0.016079746 0.016311392 0.016370032 -0.03192502 0.018351221
0.01653226 0.01674455 -0.035544895 0.01660541 0.01659346 0.016404573 -0.036774974 0.016572235
-0.036643695 0.016586188 -0.036617637 0.016473854 0.016461391 0.016543034 0.016435387 -0.034826037
-0.027602816 0.016534189 -0.031863984 0.016529279 0.016367987 0.016435683 0.016589334 0.016640782
-5.75635e-05 -5.453588e-05 -5.893212e-05 -5.8146332e-05 -5.6992852e-05 -5.6098495e-05 -1.7712962e-05 -5.6437242e-05
-5.726973e-05 -5.6004057e-05 -5.6960074e-05 3.0586998e-05 -5.822437e-05 -5.7723788e-05 -5.731297e-05 -5.429797e-05
-5.6106906e-05 -5.6162287e-05 -5.499381e-05 -5.695109e-05 -6.7634573e-06 -5.7295845e-05 -5.1519797e-05 -5.7404275e-05
6.054805e-05 -5.774259e-05 -5.8011494e-05 -5.8232385e-05 -5.753271e-05 -5.4308843e-05 -5.7772853e-05 -5.690051e-05
-4.500661e-05 -5.696217e-05 -5.7012443e-05 -5.75888e-05 -5.5851066e-05 -5.683509e-05 -5.442374e-05 5.5822158e-05
4.2726948e-05 -5.2652642e-05 -5.747084e-05 -5.7973964e-05 1.9430106e-05 -5.1690437e-05 -5.389949e-05 -5.4920223e-05
-5.5920013e-05 -5.796179e-05 -5.5724722e-05 -5.7626097e-05 3.4502053e-05 4.2945743e-05 -5.208736e-05 -5.5708715e-05
1.4774347e-05 5.8488313e-05 -5.3582113e-05 -5.8267804e-05 -5.767677e-05 -5.6897465e-05 5.9808375e-05 -5.737944e-05
5.802279e-05 -5.5422333e-05 -5.4739972e-05 -5.72745e-05 -5.6325363e-05 -5.742276e-05 -5.5913042e-05 -5.602202e-05
-5.8736576e-05 -5.631645e-05 -5.7271347e-05 -5.1043797e-05 4.6178702e-05 -5.7839257e-05 -5.711528e-05 -5.6082587e-05
-5.619021e-05 5.9819355e-05 -5.493703e-05 -1.7368538e-05 -5.1124905e-05 -5.792935e-05 -3.3702572e-06 6.166233e-05
-5.5814387e-05 -5.7453937e-05 -4.2869455e-05 -4.923978e-05 -5.718372e-05 -5.8715006e-05 -5.844322e-05 -5.7932943e-05
5.3942596e-05 -5.687825e-05 -5.8207e-05 -4.287514e-05 -5.3249365e-05 -4.973266e-05 1.8919278e-05 -2.6543836e-05
-5.7349844e-05 -5.86821e-05 3.8535283e-05 -5.7740122e-05 -5.7881763e-05 -5.5417284e-05 6.081051e-05 -5.7222835e-05
5.7775487e-05 -5.560662e-05 6.23548e-05 -5.6684e-05 -5.591254e-05 -5.6476238e-05 -5.786479e-05 3.049458e-05
1.3612248e-05 -5.7506324e-05 1.96493e-05 -5.6689034e-05 -5.735009e-05 -5.6784906e-05 -5.818798e-05 -5.80939e-05
00000000: 4a92 873c 0422 863c 7135 883c edad 873c
00000010: cd3a 883c b0ec 863c 8cb4 ee3c 1296 863c
00000020: 63bd 873c c4e6 863c 3f77 873c 5457 0cbd
00000030: 2016 883c 0151 883c cedb 863c 352a 863c
00000040: dbd0 863c 05c6 863c 2368 863c 645b 873c
00000050: 66e3 12bd c819 883c 9580 853c aaac 873c
00000060: 6afc 15bd e7ae 873c 1559 883c f34e 893c
00000070: a818 883c e85c 863c ae2a 873c 993c 883c
00000080: c33b 833c 5c46 863c a9bb 863c 66df 873c
00000090: 5e40 873c 051e 873c 8d09 873c 86ef 15bd
000000a0: 1ec7 10bd 3034 863c 4a92 873c abde 873c
000000b0: e6cb 01bd 9f42 863c c587 863c 5a87 863c
000000c0: a84b 863c d840 883c d32e 873c e799 873c
000000d0: 2245 0dbd 8089 13bd c9eb 853c e64b 863c
000000e0: ac53 f6bc 501d 16bd b3ef 853c 8329 873c
000000f0: 7353 873c 561b 873c b7ab 15bd 65f0 863c
00000100: 424a 16bd 205c 873c fedc 863c 8196 873c
00000110: aa43 873c 1252 883c 460f 873c 8580 873c
00000120: 8beb 883c ae16 863c 056f 873c 20b3 853c
00000130: ae74 12bd 2974 873c a6e4 863c 5ad9 863c
00000140: afe6 863c dc82 16bd 6518 863c 1077 50bd
00000150: 2ec1 853c bce1 873c 8fb7 13be c363 16bd
00000160: 1815 873c 4e24 873c 344b 833c 4cf9 853c
00000170: becc 883c 66ff 883c 3133 883c 98e4 873c
00000180: 937b 15bd ab16 883c 445d 883c acb9 833c
00000190: 789f 853c 721a 863c cfc3 02bd 4d55 963c
000001a0: aa6e 873c de2b 893c 8697 11bd 1208 883c
000001b0: 02ef 873c e262 863c 5ba1 16bd 7fc2 873c
000001c0: b317 16bd c2df 873c 60fc 15bd 2df4 863c
000001d0: 0ada 863c 4285 873c 81a3 863c bfa5 0ebd
000001e0: 4d1f e2bc b572 873c cf83 02bd 6968 873c
000001f0: 2816 863c 20a4 863c 5be6 873c 4052 883c
00000200: 5670 71b8 75bd 64b8 e22d 77b8 26e2 73b8
00000210: 9c0b 6fb8 4d4b 6bb8 4c96 94b7 07b7 6cb8
00000220: e834 70b8 e6e5 6ab8 6ae8 6eb8 8a4a 0038
00000230: f135 74b8 721c 72b8 5563 70b8 00be 63b8
00000240: 5554 6bb8 cc8f 6bb8 27a9 66b8 c4de 6eb8
00000250: a8f1 e2b6 f250 70b8 f616 58b8 5fc5 70b8
00000260: f9f4 7d38 a230 72b8 5e51 73b8 8c3e 74b8
00000270: 474f 71b8 adc9 63b8 2151 72b8 75a8 6eb8
00000280: 7bc5 3cb8 aaea 6eb8 a520 6fb8 818b 71b8
00000290: a041 6ab8 3762 6eb8 0c45 64b8 9622 6a38
000002a0: b635 3338 58d7 5cb8 d80c 71b8 1229 73b8
000002b0: d6fd a237 2fce 58b8 2312 62b8 245a 66b8
000002c0: a88b 6ab8 001c 73b8 f7b9 69b8 8db3 71b8
000002d0: 4cb6 1038 a420 3438 6078 5ab8 c7a8 69b8
000002e0: 56df 7737 5951 7538 5bbd 60b8 9464 74b8
000002f0: f6e9 71b8 30a5 6eb8 c1da 7a38 b4aa 70b8
00000300: 7f5d 7338 4775 68b8 9998 65b8 073a 70b8
00000310: e63e 6cb8 38d9 70b8 2c84 6ab8 30f9 6ab8
00000320: eb5b 76b8 5435 6cb8 a436 70b8 dc17 56b8
00000330: 01b0 4138 6e98 72b8 118f 6fb8 383a 6bb8
00000340: c7ad 6bb8 8be6 7a38 306c 66b8 a7b2 91b7
00000350: f36e 56b8 2af9 72b8 942c 62b6 b650 8138
00000360: 3e1a 6ab8 b2fa 70b8 bace 33b8 d086 4eb8
00000370: 8dd8 6fb8 c244 76b8 ee20 75b8 06fd 72b8
00000380: 6c40 6238 8e90 6eb8 4a23 74b8 d5d4 33b8
00000390: 1258 5fb8 0998 50b8 d7b4 9e37 74aa deb7
000003a0: ed8a 70b8 6d21 76b8 f2a0 2138 fc2d 72b8
000003b0: 12c6 72b8 db6f 68b8 ca0e 7f38 8d02 70b8
000003c0: f553 7238 273b 69b8 7ac4 8238 fbbf 6db8
000003d0: a283 6ab8 e6e0 6cb8 d8b3 72b8 9dce ff37
000003e0: 2960 6437 f232 71b8 8dd4 a437 63c5 6db8
000003f0: 318b 70b8 542c 6eb8 de0e 74b8 daa9 73b8

net_model.2.bias f4 [64]
-0.00013954876 -8.716544e-06 -0.0002754433 -0.0001881012 -0.0006792388 -9.184876e-08 -0.00014871097 0.012605445
-0.0024550378 0.0065028556 0.005281238 -0.00014237294 -2.7654186e-08 -0.0021159404 0.013671456 -0.00014556176
-0.00016624157 -0.00016525802 -0.0002281082 -0.001522116 -0.00012747543 -9.0293726e-23 -0.000120200275 -0.00014825445
-0.00017978392 -0.0017451046 -0.0008096191 -1.0312371e-07 0.009441442 -0.0021264737 -0.000284496 -6.410931e-05
-0.00013268775 -1.6013724e-21 -0.00013776157 -0.00014518051 -4.2201253e-11 -0.00016116578 -0.0013191827 -0.0012072369
-0.00014125856 -0.00029745937 -0.00022356585 -0.00013367883 -0.00015162761 -0.0019511302 -0.00024400488 -0.00026212106
-0.00016166484 -0.00014092623 -0.0028988263 -0.00014853574 -0.00024745328 -0.00013916123 -0.00017900148 -1.1305283e-08
-0.00086404773 -0.0001483176 -0.0012236836 -0.00014979774 -0.00013667425 -0.00015003094 -0.001085452 -3.4589432e-06
00000000: d653 12b9 453d 12b7 6069 90b9 083d 45b9
00000010: f20e 32ba 643e c5b3 4cef 1bb9 1287 4e3c
00000020: b3e4 20bb e815 d53b 3c0e ad3b f249 15b9
00000030: 338c edb2 97ab 0abb 3efe 5f3c f0a1 18b9
00000040: 2251 2eb9 1d49 2db9 5430 6fb9 bd81 c7ba
00000050: edaa 05b9 1c51 da9a 0814 fcb8 c074 1bb9
00000060: 6184 3cb9 febb e4ba 9e3c 54ba dc74 ddb3
00000070: 47b0 1a3c 4f5c 0bbb 6828 95b9 6c72 86b8
00000080: 1922 0bb9 18fe f19c 1774 10b9 993b 18b9
00000090: 639a 39ae 9cfe 28b9 6de8 acba 263c 9eba
000000a0: ce1e 14b9 52f4 9bb9 006d 6ab9 232c 0cb9
000000b0: 3afe 1eb9 11bd ffba 90db 7fb9 4b6d 89b9
000000c0: 9384 29b9 99c5 13b9 3cfa 3dbb 42c0 1bb9
000000d0: 9ebc 81b9 cfeb 11b9 58b2 3bb9 2939 42b2
000000e0: 4381 62ba b485 1bb9 0264 a0ba 0613 1db9
000000f0: 3750 0fb9 a051 1db9 ba45 8eba 3120 68b6

net_model.4.weight f4 [32, 64]
0.02927969 0.00021844609 0.029544095 0.029263323 0.00015864501 1.3933658e-18 0.029256698 -0.02540771
0.00016958985 0.0038410465 -0.018184246 0.02922651 3.698253e-38 0.0025769342 -0.025298256 0.02930594
0.029174251 0.029272966 0.029253019 -0.00033274526 0.029271726 6.786098e-23 0.029279897 0.029163368
0.02924948 -4.2453372e-05 -0.0011000216 -1.2153332e-08 0.09291687 0.0016529142 2.8651155e-07 1.8915668e-07
0.029233655 5.7732196e-37 0.029136507 0.029371217 4.3850553e-12 -7.126288e-08 -0.0015148812 3.323024e-05
0.029122956 0.029158164 0.02926551 0.02925795 0.029095905 0.043509014 0.029220564 0.029275084
0.029248621 0.029350495 -3.4347059e-09 0.029148016 -2.2551872e-06 0.029118063 0.029272867 7.0080645e-08
4.332536e-10 0.0290084 -0.00086782454 0.02917147 0.029269956 0.029326446 -0.0005118585 4.6367924e-17
1.3740793e-37 4.8867067e-37 2.6286207e-38 -5.2033234e-37 5.4699244e-37 -3.3052182e-37 -6.176886e-37 -1.8924444e-37
5.114405e-37 -4.9004515e-37 4.7982388e-37 5.6583454e-37 -6.2248817e-37 1.5936554e-37 -4.3388263e-37 -5.2722444e-37
-4.3113967e-37 5.218999e-37 -5.247722e-37 -7.0077824e-37 4.7135003e-37 -1.7002564e-37 -4.7062696e-37 -8.3352e-38
4.7692173e-37 -6.6148144e-37 4.8597484e-37 3.9754824e-37 -2.3383452e-37 -2.8990637e-37 -5.064928e-37 4.8455932e-37
-4.963612e-37 5.115768e-37 6.1489613e-37 -5.810123e-38 -5.8640866e-37 -6.0980455e-37 4.869134e-37 4.2133883e-37
6.349343e-37 -4.449174e-37 5.990136e-37 -5.1295254e-37 -1.1810266e-37 -3.2056669e-37 -4.6440657e-38 -4.7441868e-37
4.6930477e-37 4.6232486e-37 6.944787e-37 -4.3772833e-37 5.9651513e-37 -5.797005e-37 3.4951348e-37 -4.8030655e-37
4.096421e-37 6.3400612e-37 -4.4325097e-37 -5.1646005e-37 -6.6766823e-37 5.3100773e-37 -5.2155558e-37 -6.317618e-37
6.004456e-37 -4.6523277e-38 -3.0200314e-37 4.0748907e-37 -4.4625944e-37 -6.5749785e-37 4.9274e-37 6.3061166e-37
4.723878e-37 -5.238873e-37 -5.180983e-37 -3.62231e-37 -4.1752044e-37 -3.837963e-37 -2.5195328e-37 -6.027546e-37
6.3898475e-37 -5.242656e-37 4.159435e-37 5.6178674e-37 6.5397797e-37 -4.188143e-37 -4.368517e-37 4.848641e-37
-4.884978e-37 -6.299096e-37 -3.478478e-37 3.7940207e-37 4.9529287e-37 -3.821642e-37 -5.8607746e-37 1.0617079e-37
-6.6817063e-37 -3.546671e-37 6.097741e-37 5.2812755e-37 1.5021749e-37 4.880201e-37 5.1407376e-37 4.880131e-37
4.7439325e-37 -5.8490584e-37 -1.707905e-37 3.3546756e-37 -1.7618058e-37 -1.6331199e-37 4.1632e-37 6.4884998e-37
-6.0796282e-37 4.6360433e-37 1.3378223e-37 -3.0764198e-37 5.4712835e-38 3.4968217e-37 5.5151444e-37 -2.6932062e-37
-3.0144847e-37 -5.3855214e-37 1.7375702e-37 -2.8713677e-37 6.747617e-37 -4.5195126e-37 -5.9392495e-37 3.956638e-37
5.1603773e-37 -3.3186234e-37 4.788768e-37 -4.06697e-37 8.750941e-39 -6.1379344e-37 -4.6874165e-37 3.683163e-37
3.943824e-37 -5.7588425e-37 3.790765e-37 -4.9382574e-37 -1.4885864e-37 -5.669843e-37 3.2463456e-37 6.138401e-37
2.5013052e-37 5.4146424e-37 -6.183421e-37 2.9371698e-37 -6.0251247e-37 -4.5939433e-37 -5.183008e-37 4.4595456e-37
-3.5029377e-37 3.8304263e-37 -6.167124e-37 4.887419e-37 -2.6222361e-37 -6.1840225e-37 -3.6296276e-37 4.492336e-37
5.6917327e-37 -6.1171436e-37 -3.1852799e-37 5.71712e-37 6.0273582e-37 5.90636e-37 -4.0275183e-37 -5.207931e-37
5.820642e-37 5.445393e-37 5.3588555e-37 5.7649697e-37 -2.4557249e-37 -1.5073045e-37 -6.971558e-37 6.2613307e-37
1.4503566e-37 4.952045e-37 -5.8545488e-37 4.700962e-37 -3.3627948e-37 -5.7302166e-37 -3.651332e-38 -4.9174715e-37
5.240991e-37 -1.1364158e-37 2.0066137e-37 4.8684817e-37 -6.8258096e-37 -6.7851266e-37 -4.262344e-37 -6.213803e-37
00000000: f6db ef3c ad0e 6539 7506 f23c a3b9 ef3c
00000010: f259 2639 df9f cd21 beab ef3c d423 d0bc
00000020: eed3 3139 11ba 7b3b 21f7 94bc 6f6c ef3c
00000030: 205a 4901 c8e1 283b 4a3e cfbc 0313 f03c
00000040: d7fe ee3c dccd ef3c 07a4 ef3c 5074 aeb9
00000050: 42cb ef3c ea13 a41a 65dc ef3c 04e8 ee3c
00000060: 9b9c ef3c f60f 32b8 9a2e 90ba ebca 50b2
00000070: 334b be3d 99a6 d83a d9d1 9934 fe1a 4b34
00000080: 6b7b ef3c d673 4403 afaf ee3c e89b f03c
00000090: 1149 9a2c 2f09 99b3 fa8e c6ba b360 0b38
000000a0: 4493 ee3c 1add ee3c 39be ef3c 5eae ef3c
000000b0: 895a ee3c 8236 323d f75f ef3c 4dd2 ef3c
000000c0: ce9a ef3c 7370 f03c fc07 6cb1 d2c7 ee3c
000000d0: d257 17b6 0189 ee3c a7cd ef3c 3e7f 9633
000000e0: 062f ee2f 06a3 ed3c b87e 63ba 02f9 ee3c
000000f0: 8cc7 ef3c 043e f03c 3e2e 06ba 95d5 5524
00000100: ad07 3b02 3849 2603 a01d 0f01 570f 3183
00000110: c321 3a03 06f1 e082 4430 5283 08cb 8082
00000120: c008 2e03 f4c0 2683 8e46 2303 248b 4003
00000130: 5ed2 5383 c9ea 5802 82a4 1383 ba67 3383
00000140: 90b5 1283 e597 3103 1b92 3283 6576 6e83
00000150: 6164 2003 4a6d 6782 6425 2083 dee7 e281
00000160: be49 2203 2917 6183 615e 2503 5647 0703
00000170: b823 9f82 d04c c582 bf59 2c83 12e3 2403
00000180: 29e7 2883 a014 2e03 023d 5103 a62a 9e81
00000190: 668b 4783 7881 4f83 24b0 2503 ca5f 0f03
000001a0: 940e 5803 c665 1783 72d5 4b03 788c 2e83
000001b0: c5c0 2082 982a da82 d4d8 7c81 b26f 2183
000001c0: 36b2 1f03 2d52 1d03 a151 6c03 84f3 1483
000001d0: ccfb 4a03 0943 4583 d6dd ed02 9a70 2383
000001e0: dc64 0b03 b9bd 5703 9bd4 1683 04be 2f83
000001f0: 1b32 6383 4cb1 3403 e679 3183 37fa 5683
00000200: 3052 4c03 fc4b 7d81 5e88 cd82 4ea9 0a03
00000210: aeda 1783 24bc 5f83 b5ab 2703 0696 5603
00000220: c8be 2003 0545 3283 ba4c 3083 8a85 f682
00000230: 2913 0e83 5f99 0283 7478 ab82 551b 4d83
00000240: 6c6f 5903 fa65 3283 ca89 0d03 872a 3f03
00000250: 8489 5e03 df83 0e83 26a7 1483 9ffd 2403
00000260: 293a 2683 dd58 5683 a2bb ec82 951a 0103
00000270: 188a 2803 320b 0283 8c6e 4783 1f83 1002
00000280: df5d 6383 b95f f182 d17e 4f03 66b6 3303
00000290: 2877 4c02 8c10 2603 24ee 2e03 f00f 2603
000002a0: 7b6d 2103 7c08 4783 ce77 6882 b14e e402
000002b0: f9cd 6f82 ec49 5e82 96aa 0d03 ceca 5c03
000002c0: 08e1 4e83 a2c1 1d03 4e18 3602 cb5e d182
000002d0: 48f1 9401 3afb ed02 afab 3b03 454a b782
000002e0: bb27 cd82 8242 3783 7c81 6c02 486a c382
000002f0: 099c 6503 82ca 1983 291a 4a83 2ea3 0603
00000300: 3a99 2f03 93da e182 0df4 2203 4e64 0a83
00000310: 104a 5f00 f3dc 5083 2881 1f83 c0a9 fa02
00000320: 8d33 0603 98f6 4383 38fe 0003 4a0a 2883
00000330: aa9d 4a82 4cef 4083 51ef dc02 04e1 5003
00000340: e23a aa02 3040 3803 3269 5283 b7e4 c702
00000350: 3d06 4d83 e452 1c83 5e5e 3083 1fc0 1703
00000360: c865 ee82 b857 0203 3adb 5183 6d4f 2603
00000370: cc75 b282 6f6e 5283 0805 f782 c4dd 1803
00000380: fcad 4103 d627 5083 67c7 d882 248b 4203
00000390: b219 4d03 a7fb 4803 a20c 0983 7a37 3183
000003a0: f110 4603 104c 3903 375a 3603 f82b 4403
000003b0: c320 a782 e529 4d82 d63a 6d83 e20f 5503
000003c0: 8d69 4502 6582 2803 5038 4783 28f7 1f03
000003d0: 26dc e482 3afd 4283 24cc 4681 3855 2783
000003e0: 7857 3203 50ae 1a82 2490 8802 75aa 2503
000003f0: 3045 6883 cae2 6683 410a 1183 dc71 5383

net_model.4.bias f4 [32]
0.0011319123 -0.0005439871 -0.0004722269 -0.00058687734 -0.0028822792 -0.00042841828 -0.0005626862 0.001153265
-0.0005742595 -0.008991408 0.0012715403 -1.934221e-08 -0.0029113754 0.0011341609 -0.0004216864 -0.011298125
-0.0005604714 -0.00038518914 -0.0015737151 -6.802927e-05 -0.0014741293 -0.009508618 -0.0005778548 -2.3460398e-06
-0.0004387213 0.0012716169 -0.00031130592 0.0012416283 -0.00026644242 0.0012504618 0.0011514694 0.0012738906
00000000: ad5c 943a 5b9a 0eba 3995 f7b9 acd8 19ba
00000010: 9fe4 3cbb 549d e0b9 3b81 13ba 2729 973a
00000020: e789 16ba b350 13bc d0a9 a63a f825 a6b2
00000030: c6cc 3ebb 20a8 943a ca15 ddb9 c51b 39bc
00000040: 99ec 12ba 36f3 c9b9 1e45 ceba f0aa 8eb8
00000050: 9237 c1ba 09ca 1bbc 2e7b 17ba a870 1db6
00000060: 2d04 e6b9 62ac a63a c636 a3b9 22be a23a
00000070: 4cb1 8bb9 89e6 a33a e7ec 963a adf8 a63a

net_model.6.weight f4 [1, 32]
-0.027322276 -4.220289e-37 -4.488932e-37 -2.7042372e-37 -0.027387187 -8.893651e-38 -5.5541713e-37 -0.027342906
6.3561145e-37 -0.028821455 -0.02734563 -5.3032578e-37 -1.4722227e-05 -0.027315883 -0.00047920345 -0.030755505
-6.836698e-37 -0.0004961077 -0.027343655 -6.110495e-37 -0.027296852 -0.029217228 -6.647984e-37 5.33577e-37
-0.00045745217 -0.02733474 -6.0462805e-37 -0.027357474 -0.0005207936 -0.027351556 -0.027317848 -0.02737672
00000000: f7d2 dfbc e79b 0f83 1dc0 1883 750a b882
00000010: 185b e0bc b41b f281 a8ff 3c83 3bfe dfbc
00000020: 9149 5803 f91a ecbc f103 e0bc e475 3483
00000030: 7cff 76b7 8fc5 dfbc 993d fbb9 f8f2 fbbc
00000040: 0aa4 6883 390d 02ba cdff dfbc ebed 4f83
00000050: a69d dfbc f858 efbc 1c38 6283 1d91 3503
00000060: 31d6 efb9 1bed dfbc 88be 4d83 c81c e0bc
00000070: de85 08ba 5f10 e0bc aec9 dfbc 2545 e0bc
