src/t1dsim_ai/models/IndividualModel/T1DEXI-01-0210/individual_model.pt (torch, 50089 bytes, 7 tensors)

net_model.0.weight f4 [128, 10]
000000 cb 91 d6 39 36 b3 08 3d 02 45 7b bd f2 fb 0f bb
       0.00040925885 0.033374034 -0.061345108 -0.002197024
000010 6b a8 1c 3d 5a 1e 74 3b 1f 7e 84 ba a2 f6 2b bc
       0.038246553 0.0037249536 -0.0010108388 -0.010495814
000020 52 c7 8a bc f1 d1 7d bc 1a 38 34 39 ac 8b 08 3d
       -0.016940746 -0.015491948 0.00017187037 0.033336326
000030 0d ac 7b bd c0 2c 1d bb 7b e1 1c 3d 58 6c 5d 3b
       -0.061443377 -0.0023982972 0.038300972 0.0033786502
000040 b8 1f ab ba fd 8d 2a bc fa e0 88 bc 3b 84 7d bc
       -0.0013055718 -0.010409829 -0.01670884 -0.015473421
000050 e2 6d d8 39 a2 1b 0a 3d 26 24 7c bd cd 1d 0a bb
       0.000412806 0.03371776 -0.06155791 -0.0021074892
000060 48 7d 1d 3d 8f 5a 78 3b c1 f9 83 ba 62 1d 2d bc
       0.038449556 0.0037895774 -0.0010068939 -0.010566087
000070 f6 ca 88 bc 80 63 7b bc 28 94 fa 39 a3 03 09 3d
       -0.016698342 -0.015343547 0.000477941 0.033450734
000080 fb 0d 7c bd b7 65 06 bb eb d4 1c 3d 1c 56 6e 3b
       -0.06153677 -0.0020507404 0.038288992 0.0036367243
000090 18 5d 70 ba 4e 8b 2d bc 9b f0 89 bc bb ef 7f bc
       -0.00091691455 -0.010592295 -0.016838362 -0.015621121
0000a0 ad 1f c5 39 b8 bf 08 3d af 8c 7c bd 25 18 15 bb
       0.00037598368 0.033385962 -0.061657604 -0.0022749987
0000b0 9e 75 1c 3d 2a cc 67 3b 83 d2 88 ba d1 45 2b bc
       0.038198106 0.0035369494 -0.0010438714 -0.010453657
0000c0 9c 85 8a bc fe e6 7e bc 30 2b b7 39 ba 8b 09 3d
       -0.016909413 -0.0155580025 0.00034936657 0.03358052
0000d0 e7 f3 7b bd 23 b6 1b bb c8 a5 1c 3d 7d e2 6c 3b
       -0.0615119 -0.0023759685 0.03824404 0.003614574
0000e0 c3 cf 8d ba d0 48 2a bc b2 36 88 bc a8 d5 7e bc
       -0.0010819364 -0.010393336 -0.016627643 -0.015553869
0000f0 59 c8 23 bb 7f 4c 02 3d c3 f3 7b bd 69 5a b4 bb
       -0.0024991243 0.031811234 -0.061511766 -0.005503942
000100 59 47 16 3d 73 01 f2 39 bd 0d 85 bb 37 bb 0f bc
       0.036689136 0.00046158917 -0.0040604756 -0.008772663
000110 24 f0 7b bc 44 31 87 bc 36 15 a3 b9 3f 8d 07 3d
       -0.015377078 -0.016502984 -0.00031105586 0.033093687
000120 77 79 7b bd 2e 8f 27 bb 6d 32 1b 3d 10 cc 4a 3b
       -0.061395135 -0.002556752 0.037889887 0.0030944385
000130 4f f6 cf ba ff 62 26 bc b5 62 87 bc ce 6a 83 bc
       -0.0015866252 -0.010155438 -0.01652656 -0.01604214
000140 ba 76 d5 39 13 b2 09 3d 37 44 7c bd b3 66 09 bb
       0.00040714984 0.03361709 -0.061588492 -0.0020965755
000150 d9 f1 1c 3d cd d0 67 3b 3c 77 8c ba dd 8e 2c bc
       0.03831658 0.0035372258 -0.0010716687 -0.010532108
000160 27 e8 88 bc 58 02 7f bc 7c ed a5 39 a7 f5 08 3d
       -0.016712261 -0.015564524 0.00031648192 0.033437397
000170 8b af 7b bd d7 fa 13 bb a9 cb 1c 3d 27 da 64 3b
       -0.061446708 -0.0022579932 0.038280163 0.0034920068
000180 bb c2 8d ba ed 55 29 bc 0c be 88 bc e5 a6 7e bc
       -0.001081548 -0.010335428 -0.016692184 -0.01554272
000190 e5 72 ac 39 96 15 0a 3d 7e 67 7b bd 21 52 0b bb
       0.00032892 0.033711992 -0.061377995 -0.002125867
0001a0 f9 4d 1c 3d e1 80 5f 3b f8 3b 79 ba 1c 9b 2b bc
       0.038160298 0.0034103917 -0.0009507532 -0.010473993
0001b0 6b a8 87 bc 24 62 7f bc aa 46 80 ba 81 a9 03 3d
       -0.0165598 -0.015587363 -0.0009786685 0.032144073
0001c0 67 0d 7b bd b0 64 7d bb b0 4c 19 3d d6 9b 2a 3b
       -0.06129208 -0.003866475 0.03742665 0.0026032827
0001d0 4f e6 0a bb 36 d4 24 bc 2e 6d 83 bc 1d 90 82 bc
       -0.0021194404 -0.010060361 -0.016043272 -0.01593786
0001e0 33 8e c0 39 c2 73 09 3d b5 ba 7b bd c4 6e 0c bb
       0.0003672704 0.03355766 -0.061457355 -0.0021428326
0001f0 59 6b 1d 3d 4d 68 70 3b d8 18 86 ba 6c 1a 2d bc
       0.038432453 0.0036683262 -0.0010230793 -0.0105653815
000200 ad 95 89 bc b6 5f 7d bc cf 90 bc 39 5e 0b 09 3d
       -0.016795004 -0.015464714 0.00035966045 0.033458106
000210 b0 11 7c bd c8 89 12 bb 04 e9 1c 3d 6b 84 6d 3b
       -0.061540306 -0.0022359956 0.03830816 0.0036242257
000220 e9 6b 96 ba 4f 27 2d bc 84 0c 89 bc 05 25 7c bc
       -0.0011476252 -0.010568454 -0.0167296 -0.0153896855
000230 47 10 0b 3a f9 77 09 3d 3e 5f 7b bd 78 4b 05 bb
       0.0005304855 0.03356168 -0.061370127 -0.0020339172
000240 1a 4f 1c 3d ed 55 6c 3b 61 84 84 ba 6a 48 2c bc
       0.038161375 0.0036061958 -0.0010110253 -0.010515312
000250 2c 39 89 bc 42 29 7e bc a9 95 af 39 4c 01 09 3d
       -0.016750894 -0.015512766 0.00033490107 0.033448502
000260 c8 27 7c bd 7d f3 1f bb 4e 04 1c 3d f0 6f 65 3b
       -0.061561376 -0.0024406605 0.038090043 0.0035009347
000270 65 ff 88 ba ad 5e 2f bc 2f 9b 87 bc fb ba 79 bc
       -0.001045209 -0.010703725 -0.01655349 -0.0152423335
000280 e7 5e 98 38 f2 74 08 3d cd 1c 7b bd 32 5d 23 bb
       7.265602e-05 0.033314653 -0.061306763 -0.0024927375
000290 fa da 1b 3d 59 58 63 3b b5 6c a3 ba bb 20 2a bc
       0.03805063 0.003469011 -0.001246831 -0.01038378
0002a0 55 d1 88 bc eb 40 81 bc 15 5b 43 39 4b 6f 09 3d
       -0.01670138 -0.015778026 0.0001863058 0.033553403
0002b0 b0 0f 7c bd 69 22 1a bb 2d cc 1b 3d 6f 45 66 3b
       -0.0615384 -0.0023519045 0.038036514 0.00351366
0002c0 ea d0 8f ba 38 44 2b bc cb 18 89 bc 73 bf 7e bc
       -0.0010972295 -0.010453276 -0.016735455 -0.015548575
0002d0 08 8f 6b 39 1c 82 08 3d 9a 9f 7b bd 1a ab 11 bb
       0.0002246463 0.033327207 -0.061431505 -0.0022227229
0002e0 82 bf 1c 3d d1 7e 66 3b be 01 96 ba e1 bd 28 bc
       0.038268574 0.0035170803 -0.0011444611 -0.010299177
0002f0 46 e4 88 bc 80 77 80 bc 7d d9 93 39 86 6d 09 3d
       -0.016710412 -0.015681982 0.00028200066 0.033551715
000300 2a 99 7b bd 90 d5 0d bb ee e3 1c 3d d1 9d 68 3b
       -0.061425366 -0.0021642186 0.03830331 0.0035494457
000310 a1 20 90 ba a5 30 2c bc b7 6b 89 bc a9 80 7d bc
       -0.0010996052 -0.010509645 -0.016774995 -0.0154725695
000320 03 62 ae 39 ef 6e 09 3d 79 f8 7b bd be 87 12 bb
       0.0003326089 0.03355306 -0.06151626 -0.002235874
000330 83 7b 1c 3d 95 54 6a 3b 76 c7 9e ba 3b 2d 2e bc
       0.038203727 0.0035755981 -0.0012113887 -0.010630901
000340 73 19 89 bc 92 36 7c bc 8b b9 87 39 d2 e4 08 3d
       -0.016735768 -0.01539387 0.00025887447 0.033421345
000350 c1 ca 7b bd a1 96 0d bb 34 45 1c 3d 83 75 6a 3b
       -0.061472658 -0.0021604674 0.038151935 0.003577561
000360 75 af 7c ba eb 2a 2a bc 20 13 89 bc fa b2 81 bc
       -0.0009639182 -0.010386209 -0.016732752 -0.015832413
000370 06 d6 60 b7 ce 33 08 3d d1 c7 7b bd 85 34 28 bb
       -1.3401272e-05 0.03325253 -0.061469857 -0.002566607
000380 61 fe 1b 3d 97 e4 50 3b 59 2b c3 ba 2e e4 23 bc
       0.03808439 0.0031874531 -0.0014890238 -0.010003133
000390 96 50 87 bc b4 c5 80 bc 7b b7 ee 39 9c 01 09 3d
       -0.016517919 -0.015719272 0.000455316 0.0334488
0003a0 b2 ab 7b bd 6f 93 09 bb 16 11 1c 3d 57 02 6c 3b
       -0.06144304 -0.0020992418 0.038102232 0.0036012137
0003b0 27 7a 85 ba 18 3c 2e bc 87 ae 88 bc 37 37 7f bc
       -0.0010183499 -0.010634445 -0.016684784 -0.015577129
0003c0 03 9d 6d ba 6e 2e 04 3d 4f 6c 7b bd 13 7c 64 bb
       -0.0009064229 0.03227084 -0.061382588 -0.0034863993
0003d0 88 ae 19 3d 0b 7d 33 3b 4d 57 0a bb c3 23 23 bc
       0.03751996 0.0027387764 -0.0021109164 -0.009957257
0003e0 5f 94 87 bc a7 fb 84 bc 3e 46 fb 39 f7 7f 09 3d
       -0.016550241 -0.016233278 0.00047926785 0.033569302
0003f0 83 fe 7b bd f7 4e 0e bb 30 04 1d 3d 07 37 6a 3b
       -0.06152202 -0.0021714547 0.03833407 0.0035738365

net_model.0.bias f4 [128]
000000 55 da 5d 3c d7 b6 5c 3c 22 b7 5f 3c b0 f0 5d 3c
       0.013540824 0.013471327 0.013654502 0.013546154
000010 27 84 5d 3c f6 be 5e 3c 26 a2 3c 3c 49 e8 57 3c
       0.013520277 0.013595333 0.011513269 0.01317794
000020 e1 cf 5d 3c e8 b5 5b 3c 2c b8 5b 3c 11 34 50 3c
       0.013538332 0.013410069 0.013410609 0.012707726
000030 79 27 5e 3c 2c 29 5d 3c 64 3f 5d 3c 5f 62 5d 3c
       0.013559216 0.013498586 0.013503883 0.013512223
000040 f4 d4 5a 3c b6 88 5b 3c a0 f6 5b 3c 4d b4 5c 3c
       0.013356436 0.013399294 0.013425499 0.013470721
000050 2e 55 5d 3c e7 0b 5c 3c c7 1d 5a 3c 06 d5 5c 3c
       0.013509078 0.013430572 0.013312764 0.013478523
000060 12 11 51 3c 26 00 5e 3c 52 86 5e 3c 32 21 5e 3c
       0.012760418 0.01354984 0.013581829 0.013557719
000070 28 2a 5d 3c 5d 40 5b 3c 53 de 5d 3c 07 8e 5d 3c
       0.01349882 0.013382045 0.013541776 0.0135226315
000080 e5 60 5a 3c ff 93 5c 3c be aa 5b 3c f6 54 5d 3c
       0.0133287655 0.013463019 0.013407407 0.013509026
000090 00 13 5c 3c 3d 76 5c 3c f3 27 5c 3c 95 ce 46 3c
       0.013432264 0.013455925 0.013437259 0.012134214
0000a0 d7 f7 44 3c af 73 5a 3c cc 3d 5d 3c 7a 25 5e 3c
       0.01202198 0.013333245 0.013503503 0.01355874
0000b0 c4 4d 59 3c c6 96 5a 3c e5 c1 58 3c 22 ef 5b 3c
       0.01326317 0.013341611 0.013229822 0.013423713
0000c0 a4 30 5d 3c 29 6d 5d 3c d6 0a 5d 3c 4a e9 5d 3c
       0.013500366 0.013514795 0.013491353 0.01354439
0000d0 7d a8 58 3c 4d 73 5c 3c 04 0d 52 3c 83 ad 5c 3c
       0.0132237645 0.013455224 0.012820486 0.013469103
0000e0 f0 f5 48 3c f4 d4 57 3c 97 da 59 3c 4e d6 5d 3c
       0.012265667 0.013173331 0.013296745 0.013539864
0000f0 63 fd 5d 3c 99 5c 5d 3c 5d a8 99 3d a4 72 5d 3c
       0.013549182 0.0135108465 0.07502816 0.013516102
000100 8a 73 54 3c 73 e8 5b 3c 62 f7 5a 3c f5 a7 5d 3c
       0.012967 0.013422119 0.013364645 0.013528814
000110 f5 c6 5c 3c bd 64 5c 3c f0 d4 5c 3c 3a e6 5c 3c
       0.013475169 0.013451752 0.013478503 0.013482625
000120 2a 44 5f 3c 07 4f 5d 3c 00 ad 5d 3c 8f 9e 5c 3c
       0.013627091 0.013507611 0.013530016 0.013465538
000130 2e 43 4d 3c 2f 30 5e 3c 42 7d 5a 3c d4 25 5c 3c
       0.012528224 0.013561293 0.013335528 0.013436753
000140 e6 17 5d 3c 4d b7 58 3c 11 c5 5a 3c 27 ad 5c 3c
       0.013494467 0.013227296 0.013352648 0.013469017
000150 56 8a 5b 3c 1d 4b 5d 3c 27 06 5c 3c fc 90 5b 3c
       0.013399681 0.013506678 0.013429201 0.013401266
000160 7c 4a 5c 3c f6 71 5d 3c 54 09 57 3c 04 88 50 3c
       0.013445493 0.01351594 0.013124783 0.012727741
000170 8c 08 5d 3c 1e 6f 5e 3c 1c 04 5e 3c 36 33 5f 3c
       0.013490807 0.013576297 0.013550784 0.0136230495
000180 95 e1 56 3c e7 94 5c 3c e1 37 5e 3c 0e fb 5a 3c
       0.013115306 0.013463235 0.013563127 0.01336552
000190 e4 62 5b 3c 63 f6 58 3c 77 99 59 3c 23 45 5c 3c
       0.013390277 0.013242337 0.013281218 0.013444218
0001a0 9c 3f 5d 3c 5c 07 5d 3c 04 3f 56 3c 36 9b 5d 3c
       0.013503935 0.013490524 0.0130765475 0.013525775
0001b0 5a e6 5d 3c 70 b4 5b 3c d6 52 47 3c 8e 12 5e 3c
       0.01354369 0.013409719 0.012165746 0.0135542285
0001c0 bf d7 4b 3c 10 38 5c 3c b6 15 5b 3c 54 ff 5b 3c
       0.012441575 0.013441101 0.0133718755 0.013427574
0001d0 6d a7 5b 3c b3 16 5d 3c ba 5e 5d 3c c6 b4 57 3c
       0.013406617 0.013494181 0.013511354 0.013165658
0001e0 ce 77 59 3c a0 ab 5d 3c c1 db 5c 3c d2 be 5a 3c
       0.013273193 0.013529688 0.013480128 0.013351159
0001f0 48 c2 5c 3c 5c 48 5e 3c e9 4d 5d 3c 35 0c 5e 3c
       0.013474055 0.0135670565 0.013507345 0.013552715

net_model.2.weight f4 [64, 128]
000000 7d bf e6 3c ed 69 e6 3c 25 74 e7 3c e6 17 e6 3c
       0.02816748 0.028126681 0.028253624 0.028087568
000010 e2 22 e7 3c 08 66 e7 3c 07 bf e4 3c ef 89 e5 3c
       0.028214876 0.028246894 0.02792312 0.028019873
000020 e2 29 e7 3c a8 09 e7 3c 10 48 e7 3c f7 e3 e6 3c
       0.028218213 0.028202847 0.028232604 0.028184874
000030 4b 7f e7 3c cc 7f e7 3c 11 d5 e5 3c 18 28 e6 3c
       0.02825894 0.02825918 0.0280557 0.02809529
000040 21 51 e6 3c 83 87 e6 3c 19 aa e6 3c 9b 1a e7 3c
       0.028114857 0.028140789 0.02815728 0.028210929
000050 c9 ac e5 3c 0e 58 e7 3c e1 7c e6 3c 6b 8a e6 3c
       0.028036492 0.02824023 0.028135719 0.028142175
000060 69 9e e5 3c 67 d8 e6 3c 53 3a e7 3c 30 1b e8 3c
       0.028029637 0.02817936 0.028226053 0.028333277
000070 0e aa e7 3c 11 70 e6 3c fd cd e5 3c c6 85 e7 3c
       0.02827933 0.02812961 0.028052324 0.02826203
000080 9b c1 e6 3c 16 45 e5 3c 4c 48 e6 3c ff c7 e6 3c
       0.02816849 0.027987044 0.028110646 0.028171537
000090 ac 08 e7 3c 95 d0 e6 3c 95 c8 e7 3c 8b 2d e4 3c
       0.028202377 0.028175632 0.028293887 0.027853748
0000a0 7a f7 e3 3c 13 2d e6 3c b7 ec e6 3c ae 80 e7 3c
       0.027827967 0.028097665 0.028189046 0.028259601
0000b0 c6 2a e6 3c 21 e1 e7 3c 25 59 e7 3c 0e 8b e6 3c
       0.028096568 0.028305592 0.02824075 0.028142478
0000c0 ce 5e e6 3c 15 5d e7 3c 88 82 e7 3c 83 80 e6 3c
       0.028121378 0.028242627 0.028260484 0.028137451
0000d0 e8 ff e6 3c 22 66 e7 3c 5e 99 e5 3c c9 c2 e6 3c
       0.028198197 0.028246943 0.028027233 0.028169053
0000e0 87 04 e4 3c 33 15 e6 3c 33 dc e6 3c 30 31 e6 3c
       0.02783419 0.02808628 0.028181171 0.028099626
0000f0 c6 f7 e6 3c 66 99 e6 3c 0b 66 0f be 88 3b e6 3c
       0.02819432 0.028149318 -0.1400377 0.028104559
000100 14 a0 e6 3c 35 f9 e7 3c 3b 1a e7 3c db b5 e6 3c
       0.028152503 0.028317073 0.02821075 0.028162887
000110 c9 b0 e6 3c 88 35 e7 3c 50 d7 e6 3c d0 f5 e6 3c
       0.02816047 0.028223768 0.02817884 0.028193384
000120 44 b7 e7 3c 0e 09 e5 3c 1a 77 e6 3c 47 de e6 3c
       0.02828563 0.02795842 0.028132964 0.028182162
000130 cc 3c e5 3c fb 2b e6 3c 66 de e5 3c 2e 26 e7 3c
       0.027983092 0.028097143 0.02806015 0.028216448
000140 53 37 e7 3c 86 70 e6 3c 67 b7 e5 3c 3f 23 e7 3c
       0.028224623 0.028129827 0.028041555 0.028215049
000150 ea 50 e7 3c e3 20 e7 3c db 64 e7 3c a8 83 e6 3c
       0.028236825 0.028213924 0.028246334 0.02813895
000160 c8 ee e6 3c a0 3c e6 3c 2f 41 e6 3c c9 50 e6 3c
       0.028190032 0.02810508 0.028107254 0.028114693
000170 68 6e e8 3c c4 26 e8 3c 35 f6 e6 3c fd dc e6 3c
       0.028372958 0.028338797 0.028193573 0.028181547
000180 f7 c2 e5 3c 53 ff e7 3c e9 a1 e7 3c 29 2d e7 3c
       0.028047068 0.02831999 0.028275447 0.028219776
000190 13 ea e5 3c 0b 44 e6 3c 86 97 e5 3c d3 a4 e7 3c
       0.028065717 0.028108617 0.028026354 0.028276836
0001a0 80 5f e6 3c 90 15 e8 3c 29 6b e7 3c 43 9c e7 3c
       0.02812171 0.028330594 0.02824934 0.028272754
0001b0 67 49 e7 3c f1 c1 e6 3c 6b d1 e3 3c db 2f e7 3c
       0.028233243 0.02816865 0.02780982 0.028221061
0001c0 d5 7b e4 3c 65 b6 e7 3c 89 70 e6 3c 64 4d e6 3c
       0.027891079 0.028285215 0.028129833 0.028113075
0001d0 ed 59 e6 3c 95 5d e7 3c 06 61 e6 3c 55 e2 e5 3c
       0.028119052 0.028242866 0.028122436 0.028062025
0001e0 6d a8 e5 3c 43 77 e6 3c 14 12 e6 3c c9 a9 e6 3c
       0.028034413 0.02813304 0.028084792 0.028157132
0001f0 be cb e5 3c d0 ba e5 3c 0e 7e e6 3c 1d 6b e7 3c
       0.028051253 0.02804318 0.02813628 0.028249318
000200 21 13 d9 b3 77 ae d5 b3 1f 86 e4 b3 a0 05 db b3
       -1.01083295e-07 -9.9503204e-08 -1.0641474e-07 -1.01990054e-07
000210 6f de d3 b3 95 36 d5 b3 04 10 49 b3 c7 d3 ba b3
       -9.8659136e-08 -9.928514e-08 -4.6813526e-08 -8.699822e-08
000220 f9 f7 d8 b3 37 62 d4 b3 12 73 cc b3 e4 20 a0 b3
       -1.010339e-07 -9.8898845e-08 -9.5204214e-08 -7.4565634e-08
000230 5e 07 e2 b3 d5 92 da b3 5a 1a d1 b3 b1 b3 ce b3
       -1.0525285e-07 -1.0178125e-07 -9.737114e-08 -9.625308e-08
000240 ea fb c8 b3 aa dc c8 b3 67 ff d4 b3 2d fb d7 b3
       -9.359049e-08 -9.353364e-08 -9.918477e-08 -1.0057406e-07
000250 80 3a d4 b3 ca 69 d0 b3 19 8b c3 b3 b3 de cf b3
       -9.8826604e-08 -9.704998e-08 -9.105697e-08 -9.6796974e-08
000260 4a 95 a5 b3 c9 d0 d9 b3 d2 47 e5 b3 7c 99 e3 b3
       -7.710567e-08 -1.0142828e-07 -1.06767075e-07 -1.059843e-07
000270 a4 9a da b3 8b b6 d0 b3 02 09 da b3 e6 a6 d7 b3
       -1.0179545e-07 -9.718959e-08 -1.01530546e-07 -1.0042076e-07
000280 29 2e c5 b3 a1 8e c9 b3 ca 95 c6 b3 c6 06 cb b3
       -9.181924e-08 -9.385736e-08 -9.24734e-08 -9.454156e-08
000290 0b 58 ca b3 66 fd cf b3 06 16 da b3 d6 7a 7f b3
       -9.422373e-08 -9.6852816e-08 -1.0155422e-07 -5.9483533e-08
0002a0 e1 d4 6d b3 f9 6a c2 b3 c7 1c d8 b3 fa 01 e8 b3
       -5.5374475e-08 -9.053287e-08 -1.00635184e-07 -1.08037014e-07
0002b0 5b be c0 b3 06 f5 bf b3 49 9d b7 b3 67 57 d0 b3
       -8.975322e-08 -8.9387e-08 -8.5502116e-08 -9.701653e-08
0002c0 ac 9e d5 b3 a7 93 de b3 7a b5 dc b3 77 5d dc b3
       -9.947448e-08 -1.03645384e-07 -1.0277559e-07 -1.02615495e-07
0002d0 ef d4 b6 b3 ce 12 db b3 9f 88 a7 b3 2e 6f d1 b3
       -8.513768e-08 -1.0201403e-07 -7.801395e-08 -9.7525444e-08
0002e0 74 5c 88 b3 7a 38 bc b3 db 94 bf b3 ad 10 d9 b3
       -6.3498106e-08 -8.764705e-08 -8.921207e-08 -1.0107883e-07
0002f0 67 22 d9 b3 72 44 ce b3 0f 4b a2 1c 92 e1 d9 b3
       -1.0111108e-07 -9.605073e-08 1.0739663e-21 -1.0145881e-07
000300 db 4f a9 b3 69 56 d8 b3 df 0b c4 b3 02 e3 d3 b3
       -7.8842014e-08 -1.0074002e-07 -9.1291206e-08 -9.8667456e-08
000310 63 cf cd b3 cc 42 d4 b3 85 2a d9 b3 4c d0 d6 b3
       -9.58378e-08 -9.8841696e-08 -1.0112584e-07 -1.00030405e-07
000320 ab 41 dc b3 68 bd ce b3 56 e4 dd b3 8c 6a cb b3
       -1.0256493e-07 -9.627075e-08 -1.03326485e-07 -9.472305e-08
000330 fb 8e 94 b3 3d 24 de b3 1d eb ce b3 de df d4 b3
       -6.917795e-08 -1.0344272e-07 -9.6353894e-08 -9.9127405e-08
000340 16 39 d6 b3 d0 b1 c1 b3 b9 14 cb b3 73 00 da b3
       -9.9755354e-08 -9.019607e-08 -9.4566936e-08 -1.0151498e-07
000350 63 0f cb b3 b0 8e e0 b3 3f 23 d4 b3 82 7b cc b3
       -9.455723e-08 -1.04567675e-07 -9.8784305e-08 -9.521956e-08
000360 92 6e cc b3 c1 cd d6 b3 28 11 b6 b3 8b 46 9e b3
       -9.519603e-08 -1.0002578e-07 -8.478156e-08 -7.37028e-08
000370 2b b9 d6 b3 1d fb e4 b3 30 da e1 b3 36 f2 dc b3
       -9.9988334e-08 -1.06627546e-07 -1.0517067e-07 -1.0288606e-07
000380 54 2a b8 b3 41 2b d1 b3 b4 e0 e3 b3 10 93 ce b3
       -8.575867e-08 -9.740189e-08 -1.06113845e-07 -9.619373e-08
000390 45 80 c8 b3 cd 56 bd b3 ea 8f c1 b3 27 d6 ce b3
       -9.336558e-08 -8.816787e-08 -9.013441e-08 -9.6315766e-08
0003a0 86 30 d5 b3 c1 35 dd b3 71 4b ad b3 86 84 d7 b3
       -9.927412e-08 -1.0300892e-07 -8.069663e-08 -1.00358235e-07
0003b0 c4 56 dc b3 68 12 ca b3 97 20 7f b3 bf 18 df b3
       -1.0260331e-07 -9.409706e-08 -5.9401454e-08 -1.0388748e-07
0003c0 66 4e 90 b3 37 6f db b3 5c c5 c5 b3 f8 25 cb b3
       -6.719783e-08 -1.0218212e-07 -9.209427e-08 -9.4598306e-08
0003d0 b9 f8 c7 b3 bb 97 e1 b3 a9 f3 d3 b3 b9 b1 ba b3
       -9.311902e-08 -1.05049786e-07 -9.869775e-08 -8.6936275e-08
0003e0 00 b2 c1 b3 b5 95 d9 b3 0d a5 c9 b3 12 ca c7 b3
       -9.019641e-08 -1.01320815e-07 -9.3898144e-08 -9.303416e-08
0003f0 08 e4 d0 b3 90 00 db b3 b3 ea cf b3 f0 cc e6 b3
       -9.7272334e-08 -1.01980845e-07 -9.68188e-08 -1.07474875e-07

net_model.2.bias f4 [64]
000000 9a 51 af 3b e8 6e 8b b9 61 ba aa 3b bb e7 ad 3b
       0.005350304 -0.00026594778 0.0052102064 0.0053071654
000010 d4 f8 f8 3c 9e a0 67 a7 2c 2c 80 ae 59 2f aa 3b
       0.030392088 -3.214476e-15 -5.8286126e-11 0.0051936326
000020 53 ae 8d 9f c2 e6 7d bb bc b1 a2 bb 8f 2d af 3b
       -6.000422e-20 -0.0038742279 -0.0049650352 0.005346007
000030 c3 a1 42 bc ec d8 ae 3b 28 a9 ab 3b e2 4a af 3b
       -0.011879387 0.0053359177 0.005238671 0.005349503
000040 e9 e7 1f bb e7 3b ae 3b 33 8e ae 3b 98 5c ab 99
       -0.0024399704 0.0053171995 0.00532701 -1.7718384e-23
000050 35 b0 af 3b 03 bb aa 3b 41 ed af 3b 90 e6 ae 3b
       0.0053615817 0.005210282 0.005368859 0.005337544
000060 21 84 ad 3b 1b 82 ea 3a 4a c9 63 95 f4 2b aa 3b
       0.005295292 0.0017891558 -4.6001074e-26 0.005193228
000070 c0 67 3c 3d c6 a5 3d b2 49 e4 0d b8 6c 48 af 3b
       0.04599738 -1.103894e-08 -3.3829627e-05 0.0053492095
000080 4b aa af 3b 01 10 af 3b b4 50 af 3b e5 ef ae 3b
       0.0053608767 0.005342484 0.0053501967 0.0053386563
000090 33 24 ae 3b ae 86 ad 3b ff 3c 44 ba f3 9d 31 ba
       0.005314374 0.005295596 -0.0007485896 -0.00067755504
0000a0 f1 43 af 3b fb 7f ad ba 66 a2 ab 3b 80 4d af 3b
       0.0053486754 -0.0013236994 0.0052378653 0.005349815
0000b0 a5 70 0d 3b 6b 86 54 3b 16 bd ae 3b 09 bf 6c 93
       0.0021582034 0.0032428752 0.0053325994 -2.9881575e-27
0000c0 79 3c ae 3b 3a 16 af 3b 5e cb 72 ba 8b d8 ae 3b
       0.0053172675 0.005343226 -0.00092618715 0.0053358725
0000d0 b7 0f 81 ba 68 60 af 3b 40 e3 ae 3b 0a 2f 10 b9
       -0.0009846602 0.0053520687 0.005337149 -0.00013750434
0000e0 be c0 26 b7 bc ff ae 3b 4e 96 ae 3b 87 e4 ae 3b
       -9.939247e-06 0.0053405445 0.0053279763 0.005337301
0000f0 b6 80 af 3b fb d6 ae 3b b8 b2 bc ac 8d 25 96 3d
       0.0053559197 0.0053356863 -5.363123e-12 0.07331381

net_model.4.weight f4 [32, 64]
000000 f2 00 ec 3c 7c a5 1d 91 85 5a ed 3c 92 79 eb 3c
       0.028809045 -1.243611e-28 0.028973827 0.028744493
000010 33 a8 1f bc f7 d3 51 83 77 ae 81 31 ca 14 eb 3c
       -0.009744692 -6.1662904e-37 3.7742285e-09 0.028696436
000020 bb b9 63 03 d1 8a 3c bb 34 70 68 b8 27 92 eb 3c
       6.6922513e-37 -0.0028769264 -5.5417608e-05 0.028756214
000030 13 da 5e 3c 77 c4 ea 3c 12 16 ec 3c 87 48 ec 3c
       0.013601798 0.028658135 0.028819118 0.028843177
000040 f7 20 b6 3c 34 a6 eb 3c 72 49 eb 3c 12 2d 40 82
       0.022232516 0.028765775 0.028721545 -1.4118867e-37
000050 2a e9 eb 3c 79 8c eb 3c 63 29 ec 3c 83 e0 ea 3c
       0.028797705 0.028753506 0.028828328 0.028671509
000060 5f 70 eb 3c 0d 9c cb 3c 66 00 53 15 11 ba ea 3c
       0.028740106 0.024854684 4.2611425e-26 0.028653177
000070 59 f4 1e bd fd f6 36 17 ec a8 90 00 68 6b ea 3c
       -0.038807247 5.9119115e-25 1.3284909e-38 0.028615668
000080 2a b7 eb 3c 71 2c ec 3c b0 c1 ea 3c 11 98 ec 3c
       0.028773863 0.028829785 0.02865681 0.028881105
000090 f7 f3 eb 3c e2 c6 eb 3c 8a 61 b2 3a 78 35 9e 3a
       0.028802855 0.028781358 0.0013609391 0.0012070378
0000a0 36 a3 ea 3c c3 f9 f9 ba 64 39 eb 3c c8 b4 eb 3c
       0.028642278 -0.0019071627 0.02871389 0.028772727
0000b0 01 6d cd 3c 94 1d d5 3c bb ea ea 3c 0c 97 8a 02
       0.025076391 0.02601508 0.028676381 2.0363974e-37
0000c0 e6 7f eb 3c 91 75 ec 3c 7c 81 1c b7 e0 c1 ea 3c
       0.02874751 0.028864654 -9.3284725e-06 0.0286569
0000d0 c5 45 0d 39 51 90 ea 3c 6c b3 eb 3c 3c 56 a1 1d
       0.00013472799 0.028633269 0.028772078 4.270551e-21
0000e0 f2 8f 9a ba dd 98 e9 3c f1 69 eb 3c 78 fa ea 3c
       -0.0011792167 0.028515274 0.02873704 0.028683886
0000f0 0c e0 eb 3c 14 25 ec 3c fd 6f 21 37 89 8c 7e bd
       0.028793357 0.028826274 9.622422e-06 -0.062145744
000100 a2 c8 f0 02 a9 ae 56 03 44 e8 2d 81 ab 65 30 83
       3.5379988e-37 6.308945e-37 -3.1941724e-38 -5.183846e-37
000110 10 46 1d 03 55 0b 33 83 ea 66 e4 81 6c 9b 85 82
       4.621858e-37 -5.261638e-37 -8.3901647e-38 -1.9631801e-37
000120 6b 96 40 03 ec ab ae 01 0b 9b 42 03 50 1f 3d 03
       5.65964e-37 6.41642e-38 5.7189457e-37 5.5578053e-37
000130 a5 68 54 83 71 1e 8f 02 8f b7 21 83 22 b2 f4 01
       -6.2421327e-37 2.1029434e-37 -4.7524363e-37 8.988705e-38
000140 18 38 17 83 20 04 3a 03 80 e7 c5 81 71 bd 38 83
       -4.4439304e-37 5.4665223e-37 -7.2698557e-38 -5.429021e-37
000150 ea 0d 33 03 87 5a 5b 82 9e 64 4c 02 72 64 e8 81
       5.2619345e-37 -1.6115559e-37 1.5016429e-37 -8.536747e-38
000160 6e 81 31 03 c9 45 04 83 70 39 31 03 5c 15 24 03
       5.2164203e-37 -3.8871423e-37 5.208156e-37 4.8219788e-37
000170 5a 48 9f 82 ca 5b 3d 82 f8 34 2e 83 6e 99 5c 03
       -2.3404478e-37 -1.3911869e-37 -5.119481e-37 6.482832e-37
000180 58 02 55 83 cf 34 5a 03 0c cf 53 03 40 d7 ec 81
       -6.2597765e-37 6.4125063e-37 6.2245005e-37 -8.7001577e-38
000190 6a ea 2e 83 f5 9f 52 83 29 92 2a 03 62 88 0f 03
       -5.14031e-37 -6.1897075e-37 5.0126294e-37 4.2180483e-37
0001a0 3b 71 44 03 22 16 5a 83 1c 6e 49 03 d2 3b 26 83
       5.7729205e-37 -6.408985e-37 5.919499e-37 -4.8851686e-37
0001b0 ea e5 7b 82 85 00 9e 82 d9 37 19 82 2d 46 54 83
       -1.850655e-37 -2.3216312e-37 -1.1256692e-37 -6.238176e-37
0001c0 90 43 28 03 4e 83 3d 03 74 b7 03 03 08 f4 0e 83
       4.944832e-37 5.569284e-37 3.8708034e-37 -4.2010184e-37
0001d0 d0 99 f5 02 65 eb 3a 83 39 b3 30 03 9a 45 21 83
       3.6087799e-37 -5.4930707e-37 5.192749e-37 -4.7393546e-37
0001e0 f0 72 f7 02 7d 14 39 03 f1 3a 03 83 d2 9f 1a 83
       3.635936e-37 5.4390133e-37 -3.85651e-37 -4.5439997e-37
0001f0 c9 46 43 83 7f 2d 4b 03 d8 cf 37 83 a0 6a 59 83
       -5.7386607e-37 5.9708565e-37 -5.401746e-37 -6.389297e-37
000200 f4 87 58 03 7d 20 2d 83 36 fb f7 82 b0 86 00 03
       6.363276e-37 -5.0877425e-37 -3.6437576e-37 3.7770433e-37
000210 01 3d 35 83 b8 59 4e 83 3b 7e 4d 03 2c 9c 25 03
       -5.326115e-37 -6.064095e-37 6.038899e-37 4.866842e-37
000220 2e ec 2d 03 dc 0b 27 83 3e 35 32 83 9c ba 05 83
       5.111125e-37 -4.9090503e-37 -5.2370618e-37 -3.9299404e-37
000230 f7 c7 21 83 5c 41 cc 82 60 c4 d3 82 0e 32 4c 83
       -4.7543196e-37 -3.001262e-37 -3.1116377e-37 -6.000767e-37
000240 e2 ad 66 03 6b 90 42 83 f9 74 0c 03 c6 17 58 03
       6.7790533e-37 -5.717726e-37 4.127658e-37 6.3503986e-37
000250 43 24 38 03 bb d2 03 83 14 42 3e 01 22 b2 23 03
       5.4114367e-37 -3.8739347e-37 3.4944897e-38 4.810588e-37
000260 5e 7d 3a 83 c2 a1 f0 01 56 60 dc 82 08 e9 24 03
       -5.48044e-37 8.839419e-38 -3.2381389e-37 4.8462775e-37
000270 c2 1c 4c 03 be 27 15 83 e8 d5 26 83 4c d1 76 01
       5.9983224e-37 -4.3832786e-37 -4.902857e-37 4.5333227e-38
000280 18 79 4a 83 65 f2 0b 83 ba 30 2c 03 4c a0 1d 03
       -5.9501474e-37 -4.1126684e-37 5.0602192e-37 4.6322165e-37
000290 c8 60 79 02 64 dc 10 03 8a 70 28 03 2e 64 14 03
       1.8321406e-37 4.2570793e-37 4.949995e-37 4.360829e-37
0002a0 40 6a 37 03 7e f5 38 83 c8 71 ae 01 01 04 13 03
       5.3900836e-37 -5.435455e-37 6.4080773e-38 4.3204014e-37
0002b0 60 6c 7b 80 47 90 a7 82 e5 d5 0f 03 fc e4 1f 03
       -1.1334644e-38 -2.4621256e-37 4.226946e-37 4.698876e-37
0002c0 33 d1 40 83 bb 15 09 03 80 b9 fc 01 c2 e1 e4 82
       -5.666388e-37 4.0285627e-37 9.283636e-38 -3.3631168e-37
0002d0 3c 1f ff 81 40 ae 2e 03 38 d4 42 03 67 45 bf 82
       -9.3717025e-38 5.1334033e-37 5.725509e-37 -2.8104763e-37
0002e0 de d1 b7 81 d8 c9 25 83 39 17 35 83 38 ac c4 82
       -6.752473e-38 -4.8720847e-37 -5.3217778e-37 -2.889846e-37
0002f0 1b cb 51 03 f7 16 5a 83 f0 0e 22 83 ee 91 22 03
       6.1652733e-37 -6.4090804e-37 -4.762467e-37 4.777504e-37
000300 47 91 11 03 6e b7 37 83 40 d6 36 03 58 4b 18 83
       4.277844e-37 -5.3989434e-37 5.373094e-37 -4.4755276e-37
000310 1e 96 90 01 94 44 51 83 40 f4 3d 81 f9 1f af 02
       5.3112653e-38 -6.1498304e-37 -3.4889058e-38 2.573229e-37
000320 dc 10 1b 03 d0 02 91 82 d4 c0 03 01 55 e1 c2 82
       4.556976e-37 -2.130745e-37 2.4199247e-38 -2.8635072e-37
000330 74 b0 1d 02 26 32 5e 83 bd d9 5d 02 98 e3 7d 01
       1.1585178e-37 -6.5297504e-37 1.6299004e-37 4.6632052e-38
000340 6c da b2 02 48 af 37 03 9c 63 3c 83 e2 d4 1b 82
       2.6280117e-37 5.398008e-37 -5.536258e-37 -1.1448696e-37
000350 f6 93 69 83 52 9d f1 82 00 13 0d 02 8a 76 e2 02
       -6.8642397e-37 -3.5502065e-37 1.0364497e-37 3.3275753e-37
000360 40 33 11 83 99 08 98 02 69 67 30 83 f4 a8 34 03
       -4.2670502e-37 2.2339327e-37 -5.184046e-37 5.3091194e-37
000370 97 3a 6d 82 86 20 21 03 e7 ca 13 83 18 ff dd 02
       -1.7428825e-37 4.7350983e-37 -4.343234e-37 3.2619448e-37
000380 95 62 a4 02 9f 3f 5b 83 ef c2 45 83 2f 05 68 03
       2.4154218e-37 -6.443135e-37 -5.811687e-37 6.8184623e-37
000390 f4 68 4e 03 6d 3f 3f 03 08 27 78 01 8c c4 3b 83
       6.065844e-37 5.6202664e-37 4.557841e-38 -5.5179986e-37
0003a0 b5 5a 58 03 10 49 47 03 35 63 dc 02 79 cf 5c 03
       6.358082e-37 5.8564716e-37 3.2383037e-37 6.4890356e-37
0003b0 ac e1 18 82 11 91 6e 82 74 76 57 83 ee a7 46 03
       -1.1231961e-37 -1.752711e-37 -6.33188e-37 5.8379744e-37
0003c0 d6 18 62 02 6a 03 2f 03 30 8d 5e 83 d4 62 16 03
       1.6610985e-37 5.1431797e-37 -6.540201e-37 4.4194487e-37
0003d0 8d 2a 05 83 31 32 59 83 1a 38 f5 82 4b f5 2e 82
       -3.9134033e-37 -6.3828185e-37 -3.6031715e-37 -1.2853897e-37
0003e0 3e b1 bb 02 4a 21 df 81 77 3b f9 82 a8 de 2d 03
       2.7578912e-37 -8.196503e-38 -3.6621393e-37 5.1095728e-37
0003f0 84 91 43 83 60 50 29 83 0f 54 21 83 2c 68 3a 83
       -5.7472393e-37 -4.9756902e-37 -4.741014e-37 -5.478007e-37

net_model.4.bias f4 [32]
000000 97 0e dc 38 35 a3 19 ba ca 2f 13 ba 98 5d 1c ba
       0.00010493135 -0.00058608066 -0.0005614726 -0.0005964874
000010 e5 90 45 38 17 99 10 ba 29 56 1a ba 3e 14 df 38
       4.7103404e-05 -0.0005515976 -0.00058874727 0.00010637239
000020 8a 7a 1b ba 30 60 7a 38 fa 4b b2 38 cf 4f 13 ba
       -0.00059310405 5.9694226e-05 8.501853e-05 -0.00056194974
000030 2f a8 ab 38 16 05 d5 38 29 fb f4 b6 05 bb 1b 38
       8.185242e-05 0.00010157579 -7.3010056e-06 3.7129055e-05
000040 80 f4 19 ba a0 18 89 b4 b1 93 87 38 62 02 19 b9
       -0.000587292 -2.5536156e-07 6.464811e-05 -0.00014592105
000050 e0 d2 8b 38 73 3c 08 38 b4 97 1b ba e5 e7 d5 b8
       6.667315e-05 3.2481224e-05 -0.0005935386 -0.00010199825
000060 f4 e6 09 ba e4 14 d0 38 f4 b3 ff b9 ff d1 df 38
       -0.000526055 9.922104e-05 -0.00048771466 0.000106725834
000070 3e 9e 09 ba 10 9c c5 38 3f 63 cd 38 06 32 cf 38
       -0.0005249715 9.422761e-05 9.793648e-05 9.879847e-05

net_model.6.weight f4 [1, 32]
000000 3c a7 df bc d4 93 27 03 8e ec 9e 82 74 e2 a4 82
       -0.027301423 4.9246588e-37 -2.335179e-37 -2.4227612e-37
000010 c6 61 df bc 74 c0 04 83 eb b4 5c 83 d4 d6 df bc
       -0.027268302 -3.901224e-37 -6.4859873e-37 -0.027324118
000020 af c1 b6 02 9a 1c df bc c5 8c df bc f0 94 40 83
       2.6853665e-37 -0.027235318 -0.027288804 -5.65947e-37
000030 bf b1 df bc 78 9e df bc 72 0f 68 83 b4 24 df bc
       -0.027306436 -0.027297243 -6.8196403e-37 -0.027239181
000040 01 a5 2b 83 f0 d2 32 83 f1 7d df bc 7c 44 49 83
       -5.04418e-37 -5.2551643e-37 -0.027281733 -5.9147207e-37
000050 ae 4e df bc 4f 0e df bc 99 c5 10 83 39 ca fe 02
       -0.027259197 -0.027228503 -4.2544628e-37 3.7438016e-37
000060 13 ff 42 83 ab 81 df bc 4a 35 57 83 a7 e8 df bc
       -5.7304287e-37 -0.02728351 -6.3243994e-37 -0.027332617
000070 4e 6b 1c 01 fc 7f df bc 40 93 df bc 5f dd df bc
       2.8729662e-38 -0.027282707 -0.027291894 -0.027327238
