src/t1dsim_ai/models/IndividualModel/T1DEXI-01-1679/individual_model.pt (torch, 50089 bytes, 7 tensors)

net_model.0.weight f4 [128, 10]
000000 cc 85 e1 bb 4a d5 5e 3c 06 05 ba bc 14 2a d2 3b
       -0.006882405 0.013600657 -0.022707473 0.0064137075
000010 f4 ab 87 3c b5 d7 2e 3c bc 0f 61 bc 2e c0 af bb
       0.016561486 0.010671546 -0.0137366615 -0.005363486
000020 0f b8 e9 bc ef 66 55 ba 54 50 6a 3a f3 0e 3a 3c
       -0.028530149 -0.00081406435 0.00089383614 0.011356103
000030 32 31 f6 bc 60 74 19 3c b2 a1 b8 bb 3c 05 9c ba
       -0.030052755 0.009366125 -0.00563451 -0.0011903415
000040 94 b8 69 bc 11 69 3e 3b 3b 52 fe bc a7 a8 ed bc
       -0.014265198 0.0029054324 -0.03104507 -0.029011084
000050 ba 48 a9 3b 63 83 82 3c 8f a4 ee bc a7 07 7a 3c
       0.0051661404 0.01593179 -0.029131202 0.0152606135
000060 4f 28 1a bc 5a bb a3 3c 69 3e 6c 3c 25 1c 01 bd
       -0.009409024 0.019986797 0.014419177 -0.03152098
000070 36 86 72 bc bf f2 e2 bc aa ef ec bb c2 22 65 3c
       -0.014802506 -0.027703641 -0.0072307186 0.013985338
000080 35 ca bb bc ec b1 cc 3b 1f e3 86 3c 86 d2 34 3c
       -0.022923568 0.006246796 0.016465722 0.011036521
000090 15 30 5c bc 39 0a be bb 07 05 e7 bc f2 8d 5d b9
       -0.013439198 -0.0057995585 -0.02820064 -0.00021129081
0000a0 2b cb 6f bb b1 b7 5d 3c ad 88 66 bc c1 88 58 3c
       -0.0036589603 0.013532565 -0.014070672 0.013216198
0000b0 2d 13 ad 39 89 e8 ec 3b 56 5c 97 bc d8 98 61 3c
       0.00033011418 0.007229869 -0.018476646 0.013769351
0000c0 62 94 f3 bc 03 78 3b bb 5f dd 5c bb a4 fc 5c 3c
       -0.02973384 -0.0028605468 -0.0033701283 0.013487969
0000d0 68 3a 59 bc 2f cb 76 3c 8f a3 65 39 70 c1 df 3b
       -0.013258554 0.015063091 0.00021900072 0.0068284795
0000e0 d3 6f a5 bc 0a a9 77 3c 64 7b f7 bc 3e 28 18 bb
       -0.020194924 0.015115986 -0.030210204 -0.0023217346
0000f0 52 82 4b bd f9 cb bf 3c c7 69 9b bc d2 c5 60 bd
       -0.04968483 0.023412691 -0.018971337 -0.054876156
000100 42 89 38 3d 68 08 ea 3a 51 e3 52 bd 13 63 4a 3c
       0.045052774 0.0017855288 -0.051486317 0.012352723
000110 38 2b 4f bc bc 5e bc bc e7 a9 7d bb ad 1b ee 3b
       -0.0126445815 -0.022994392 -0.0038706006 0.007266483
000120 ee cb 02 bd 1a 05 6e 3c e5 08 58 bb 78 95 39 bb
       -0.031932764 0.0145275835 -0.0032964286 -0.002831785
000130 9b 8a 91 bc c4 35 9d 3a d8 69 09 bd 0f 2d 4f bc
       -0.017766288 0.0011994173 -0.033548206 -0.01264502
000140 b9 43 8d bb 85 4f 00 3c 30 75 fb bc 9a 19 62 3c
       -0.0043110517 0.007831459 -0.030695528 0.013800049
000150 5c 46 4f bb 91 99 3b bb 58 33 89 bc 73 c7 9e 39
       -0.003162763 -0.0028625468 -0.016748115 0.0003028471
000160 33 cb 04 bd dc c0 3e bc 18 47 18 bd 67 53 ba 3c
       -0.03242035 -0.011642661 -0.037177175 0.022744847
000170 7f 84 95 bc c5 3d 1d bd dd 35 0d 3d 67 f0 9f 3a
       -0.018251656 -0.038388986 0.034475196 0.0012202383
000180 32 41 10 bd 3f 4c f2 3b 22 b2 b8 bc 88 04 b8 bc
       -0.035218425 0.007394343 -0.022545878 -0.022463098
000190 81 8e d0 bb fb 71 56 3c 46 71 b1 bc 3f fa dd 3b
       -0.006364644 0.0130886985 -0.021660458 0.0067742164
0001a0 f8 35 16 3c e2 c3 1c 3c 3f bf 67 bc 8a f2 0c ba
       0.009168141 0.0095681865 -0.014144718 -0.00053767173
0001b0 40 f5 f0 bc 22 70 37 bb 42 9e 73 3a be 15 a9 3c
       -0.02941382 -0.002799042 0.00092932966 0.02064025
0001c0 7c 5a c3 bc e5 09 a4 bd 51 33 29 3d cd c8 e7 bc
       -0.023846857 -0.080097 0.041308705 -0.028293991
0001d0 3d d9 ed 3b aa d7 fe bc 8e ad 43 3d 40 aa 03 bc
       0.007258563 -0.031108696 0.047772937 -0.008036196
0001e0 82 87 93 3a 81 45 58 3c 40 62 fb bc 13 f7 19 3c
       0.0011255594 0.013200165 -0.030686498 0.009397286
0001f0 37 9c d9 38 af 25 b0 3c ac f1 aa 3b 76 da cc bc
       0.000103764636 0.021502344 0.005216798 -0.025006514
000200 50 28 97 bc 6f 08 95 bc ed d8 22 3b e6 c7 57 3c
       -0.01845184 -0.018192498 0.0024848536 0.013170218
000210 34 e0 fd bc be 3c 40 3c 16 70 40 bb b2 87 b0 3c
       -0.030990697 0.011733232 -0.0029363683 0.02154908
000220 30 ef 32 3c 57 68 ec bc 1a 5a 89 bc ab b8 b5 bc
       0.010921285 -0.028858347 -0.016766597 -0.022182783
000230 45 37 d8 bb 2b 98 4c 3c 2b 1d e2 bc 49 ea 96 3b
       -0.0065983855 0.012487452 -0.027601799 0.0046055657
000240 0b fe 39 3c b4 b4 92 3c 69 20 12 bc 72 80 46 bc
       0.0113520725 0.017908432 -0.00891886 -0.012115585
000250 09 c9 c8 bc 8c 1d 3b 3a c7 e2 51 3b 8f d9 61 3c
       -0.024509924 0.0007137887 0.003202604 0.01378478
000260 a3 c4 f9 bc ea 82 48 3c 63 72 74 bb 69 d1 a9 3c
       -0.030489272 0.012238244 -0.0037299625 0.020729737
000270 b2 8a 41 3c ba bb f2 bc 3f cb 81 bc 39 5a c2 bc
       0.011812853 -0.02963053 -0.015843986 -0.023724662
000280 a2 39 89 bb 59 6b 52 3c c9 f5 83 bc 40 7d 2f 3c
       -0.0041877786 0.0128429765 -0.01610841 0.010711014
000290 26 c3 5f ba 81 9c 13 3c d5 61 76 bc d7 10 55 3c
       -0.0008535854 0.009009481 -0.015037973 0.013004503
0002a0 b9 a4 f5 bc 34 0f c6 bb 42 d6 f3 bb 8b de 6e 3c
       -0.029985772 -0.006044293 -0.007441313 0.014579426
0002b0 ae 23 bc bc 46 dc ba 3b fc 6b 82 3c fa a1 4e 3c
       -0.022966232 0.005702528 0.015920632 0.01261186
0002c0 55 36 57 bc 18 a5 e8 bb 7e 87 e1 bc ee 0d 55 3a
       -0.013135512 -0.007099759 -0.027530428 0.0008127381
0002d0 30 37 4b bd d8 14 c3 3c 1a a9 99 bc 60 8a 61 bd
       -0.049613178 0.02381365 -0.018757392 -0.055063605
0002e0 4e b9 39 3d 2e fc 09 3b 67 82 4e bd fe 98 44 3c
       0.045342736 0.0021054852 -0.05041733 0.011999367
0002f0 1e 9f 45 bc 7f 5a b3 bc 53 5c 23 bb 06 a2 71 3c
       -0.012061862 -0.021893738 -0.0024926856 0.014748102
000300 1b 7b 48 bc 22 a6 ac 3c 7f 24 58 3b 69 98 31 ba
       -0.012236382 0.021075312 0.0032980738 -0.0006774725
000310 88 98 09 bd f2 77 35 3c b5 62 04 bd 63 65 b9 3a
       -0.03359273 0.0110759605 -0.032320697 0.0014144595
000320 0a 0d cc bb fd b9 55 3c 96 27 b6 bc 6d 25 e1 3b
       -0.0062271403 0.013044831 -0.022235673 0.0068709166
000330 5d e4 25 3c 70 9b 16 3c 59 16 68 bc c6 fd 10 bb
       0.010125247 0.009192333 -0.014165484 -0.0022123917
000340 71 8d f3 bc 19 f4 18 bb d2 3a 43 bb 28 0a 39 3c
       -0.02973053 -0.0023338853 -0.0029789698 0.011293925
000350 c0 ab 6c bc 3b 18 91 3c 1f 77 87 b9 84 4d fb 3b
       -0.014445245 0.01771175 -0.0002583796 0.0076691527
000360 ae 72 8b bc 30 3c 95 3c 7a b3 02 bd fb f7 b0 bb
       -0.017022457 0.018217176 -0.031909443 -0.0054006553
000370 c2 67 e2 bb 69 e4 dc 3b 6a 0f f1 bc 0b f3 87 3c
       -0.0069093416 0.006741096 -0.029426295 0.016595384
000380 ef a9 62 3c e4 1d 73 bb 84 b1 99 bc f3 8f a9 bb
       0.013834461 -0.0037096674 -0.018761404 -0.005174631
000390 ca 63 03 bd 3f 4e 69 bb b3 f6 14 38 12 56 66 3c
       -0.03207759 -0.0035599617 3.5515706e-05 0.014058607
0003a0 25 bd f2 bc a5 c3 b3 3b 64 ee f6 3a f8 d4 87 3c
       -0.029631207 0.005485969 0.0018839356 0.016581044
0003b0 e1 82 0d bb 1c 97 96 bc 31 6d b4 bc 9d b0 8b bc
       -0.0021592902 -0.018382601 -0.022024723 -0.01705199
0003c0 6f d0 45 bd 76 09 0f 3d 50 04 b2 bc c7 ac 8c bd
       -0.04829448 0.034921132 -0.021730572 -0.06868892
0003d0 c6 ee 31 3d 89 a3 12 ba a7 7d 80 bc 74 46 bb 3a
       0.043440603 -0.00055938266 -0.015684916 0.0014287964
0003e0 52 94 b3 3c 1c 86 c2 3b d2 97 ee bb 45 5f 63 3c
       0.02192131 0.0059363972 -0.007281282 0.0138776945
0003f0 f1 6b bb bc 7c c9 c9 3b f4 4b 87 3c dd a2 2d 3c
       -0.022878619 0.006158052 0.01651571 0.010597912

net_model.0.bias f4 [128]
000000 55 17 47 bc f0 86 86 bc 98 70 1f bc 16 81 47 bc
       -0.012151559 -0.016421765 -0.009731434 -0.012176773
000010 2a 3c 86 bc 81 be 8a bc d7 f9 b1 bc fa 63 8d bc
       -0.01638611 -0.016936542 -0.021725578 -0.017259587
000020 5d c1 83 bc ed 2a d5 bc a6 ff 5c bc 42 34 a9 3c
       -0.016083414 -0.026021445 -0.013488686 0.020654801
000030 57 a6 13 bc 33 7b 0c bc 5a 67 23 bc d0 9f 12 bc
       -0.0090118265 -0.008574295 -0.009973371 -0.008949235
000040 87 5d 81 bc 57 d5 3d bc 90 24 b3 bc 00 3b 76 bc
       -0.015791668 -0.011586509 -0.02186802 -0.015028715
000050 2e 8e 55 bc 02 b4 89 bc 51 53 72 bc 9c 03 2a bc
       -0.013034387 -0.016809467 -0.014790372 -0.010376837
000060 22 f7 ad bc 19 b4 45 bc 00 47 5a bc f1 a4 26 bc
       -0.021236006 -0.012066864 -0.013322592 -0.010171161
000070 05 19 27 bc 41 54 80 bc 06 0a 8d bc 44 46 77 bc
       -0.010198836 -0.015665175 -0.017216694 -0.015092436
000080 31 84 8b bc 2b d2 78 bc 12 de 8c bc 88 9f 82 bc
       -0.017030807 -0.015186827 -0.017195735 -0.015945211
000090 44 13 8f bc ce 90 8a bc 36 84 19 bc 6d 1f 90 bc
       -0.017465241 -0.016914751 -0.0093699 -0.01759311
0000a0 ec b9 c5 bc 3d 1a 7c bc fb c8 88 bc 51 c7 2b bc
       -0.024136506 -0.015387115 -0.016697397 -0.010484532
0000b0 76 d2 8b bc e8 84 e7 bc 5b 6f 87 bc c3 be 70 bc
       -0.017068129 -0.028261617 -0.01653259 -0.014693919
0000c0 09 79 13 bc 3c 5c 1a bc f4 1d 7b bc 9a b6 57 bc
       -0.009001025 -0.009421404 -0.015326966 -0.013166094
0000d0 85 4f ac bc 1c d4 85 bc e0 f9 b6 bc a0 1a 6f bc
       -0.021034012 -0.016336493 -0.022335947 -0.01459375
0000e0 41 74 df bc d7 70 70 bc 8a 1f b6 bc 6c 1b 15 bc
       -0.027277114 -0.014675341 -0.022231836 -0.009100776
0000f0 1c 1d 25 bc 70 37 8c bc 1b a0 a9 3c f5 ae 83 bc
       -0.010077741 -0.017116278 0.020706227 -0.016074637
000100 39 a7 c0 bc 2c 46 d3 bc 81 64 d5 bc 79 03 2d bc
       -0.023517238 -0.025790296 -0.0260489 -0.01055991
000110 92 c1 8a bc 6f 8c 32 bc d5 92 8d bc 08 e9 8a bc
       -0.016938005 -0.01089774 -0.017281929 -0.016956821
000120 7a 30 7d bc a9 c9 87 bc 72 a8 43 bc 22 9a 6e bc
       -0.015453452 -0.016575651 -0.011942016 -0.014563115
000130 b0 10 b1 bc 4e 2c 15 bc c8 ef 73 bc c1 07 86 bc
       -0.021614403 -0.009104801 -0.014888711 -0.01636112
000140 91 e3 85 bc 61 38 c4 bc 95 ce 8d bc ea 93 42 bc
       -0.016343864 -0.023952665 -0.01731042 -0.011876086
000150 3b f9 88 bc 37 f8 2c bc 13 48 8c bc 16 e4 e4 bc
       -0.016720405 -0.010557226 -0.017124211 -0.027940791
000160 b7 40 7f bc ee 0c 17 bc 94 86 d7 bc d1 53 8e bc
       -0.015579394 -0.009219391 -0.026309289 -0.017373951
000170 38 cf 14 bc a7 d3 21 bc 7c a9 26 bc 6d 10 15 bc
       -0.009082608 -0.009877122 -0.010172244 -0.0090981545
000180 7a 37 cf bc 19 6b 77 bc c7 19 08 bc 3d c2 7c bc
       -0.025295008 -0.015101218 -0.008306927 -0.015427169
000190 85 ee b3 bc 7d 54 91 bc 73 86 8e bc 94 b6 c3 bc
       -0.02196432 -0.017740482 -0.017398095 -0.023890771
0001a0 70 3d 43 bc 32 dc 84 bc bd c5 c9 bc 4a cc 06 bc
       -0.011916503 -0.016218279 -0.024630422 -0.008227417
0001b0 a4 dd 8a bc ee d0 7d bc 47 ea d2 bc aa f2 13 bc
       -0.01695139 -0.015491707 -0.025746478 -0.009030024
0001c0 05 b2 0a 3d 64 ec 8a bc 3a 79 7e bc 51 c7 6c bc
       0.03386118 -0.016958423 -0.015531832 -0.014451818
0001d0 63 72 3e bc ab f2 14 bc ce 91 0e bc 14 72 77 bc
       -0.011623952 -0.00909106 -0.008701755 -0.015102882
0001e0 af f5 b1 bc 6f 24 1a bc 8d c2 a1 bc cf 29 6e bc
       -0.021723596 -0.0094081005 -0.01974609 -0.014536335
0001f0 81 ce 8a bc 54 c4 2c bc ad 80 2d bc 38 cc 21 bc
       -0.016944172 -0.010544855 -0.010589761 -0.00987535

net_model.2.weight f4 [64, 128]
000000 f1 d2 72 3c 7d bc c1 3c a3 28 be 3c 08 d7 72 3c
       0.0148208 0.023649449 0.023212736 0.014821775
000010 82 02 97 3c 12 11 a5 3c 9d 61 85 3d 38 0d d7 3c
       0.018433813 0.020149741 0.06512759 0.02625142
000020 a8 2f c9 3c d9 76 52 3d da e3 68 3c eb 03 b2 3d
       0.024558857 0.051382873 0.01421448 0.086921535
000030 16 5e a0 3c e9 86 af 3c 57 90 6e 3c d6 fc b0 3c
       0.019576114 0.021426635 0.0145607805 0.021604937
000040 02 78 91 3c ba ad 6f 3c fa fb 86 3d 85 b2 cb 3c
       0.01775742 0.014628822 0.065910295 0.024865398
000050 7a 9f 67 3c ee 0c ba 3c c2 29 d1 3c 92 33 85 3c
       0.014137143 0.022711243 0.025532607 0.016259942
000060 8f c3 ab 3d 84 6d 71 3c 53 8c 6a 3c 31 4f c2 3c
       0.08386909 0.014735583 0.014315682 0.023719402
000070 78 94 82 3c 19 77 c9 3c f4 0c 8a 3c 85 ca c8 3c
       0.015939936 0.024592923 0.01685188 0.024510631
000080 60 77 ab 3c 84 43 cd 3c c3 8e d7 3c ad 69 91 3c
       0.020930946 0.025056608 0.026313191 0.017750585
000090 69 d6 8f 3c 43 82 a4 3c de 8c 95 3c 24 34 cf 3c
       0.017558293 0.020081645 0.018255647 0.025293417
0000a0 d7 5f 5a 3d 46 c5 d6 3c da b2 8c 3c e1 44 6c 3c
       0.053314056 0.026217114 0.017175127 0.014420719
0000b0 d9 3d a9 3c f0 68 51 3d 6a e0 ca 3c 5d a5 c7 3c
       0.020659374 0.051125467 0.024765212 0.024370844
0000c0 d4 49 a0 3c 21 64 94 3c 29 c4 72 3c 9b 32 6b 3c
       0.019566454 0.018114151 0.014817276 0.014355327
0000d0 95 f5 ab 3d d9 ec ce 3c 8a 9b f4 3c 81 40 c5 3c
       0.083964504 0.025259422 0.029859323 0.02407861
0000e0 9c 55 8a 3d 58 b2 c4 3c 8f 5a f7 3c 69 29 9d 3c
       0.0675461 0.024010822 0.030194549 0.019184785
0000f0 1a f0 83 3c 18 52 cc 3c 97 ef db 3d 0a 63 94 3c
       0.0161057 0.02494149 0.107390575 0.018113632
000100 cc 14 65 3d e0 ed 52 3d e7 80 36 3d ed 83 6e 3c
       0.055928037 0.051496387 0.044556525 0.014557821
000110 58 d0 a6 3c 71 5e 73 3c 0f 95 88 3c b9 b2 c2 3c
       0.020363018 0.01485406 0.01667264 0.023766862
000120 2f 4d 8d 3c 05 bc c6 3c 41 b3 6f 3c 5b 1b c7 3c
       0.017248718 0.024259577 0.01463014 0.024305036
000130 c9 1b 88 3d fb 0d 9d 3c 99 48 ca 3c 55 ba ce 3c
       0.066459246 0.019171705 0.02469282 0.025235334
000140 61 dd ce 3c 8e 07 6e 3d 2f 10 d2 3c d8 a2 6e 3c
       0.025252046 0.058112673 0.025642483 0.014565192
000150 ea a3 cc 3c 30 d7 6d 3c e4 ce 8e 3c 67 cc 45 3d
       0.024980504 0.014516637 0.017432638 0.048290636
000160 03 4a cb 3c b6 5f b3 3c 02 0d 38 3d d9 06 b3 3c
       0.024815565 0.021896224 0.04493428 0.021853851
000170 b6 7d 9e 3c 58 a1 bf 3c 76 fe c5 3c fe 57 9e 3c
       0.019347053 0.023392364 0.024169188 0.019329067
000180 3b b3 4d 3d 36 ff ca 3c 35 89 a9 3c c5 36 c7 3c
       0.050219756 0.024779897 0.020695308 0.024318108
000190 9d 01 8b 3d 42 da 9d 3d 15 8a d7 3c d4 45 67 3d
       0.06787417 0.07707645 0.02631096 0.056463078
0001a0 05 c9 6e 3c ac d0 95 3c a5 16 6e 3d 46 2a ac 3c
       0.014574294 0.018287979 0.058127064 0.021016251
0001b0 55 bb a4 3c 26 22 ca 3c 40 d1 53 3d cf 7e 9e 3c
       0.020108858 0.024674486 0.05171323 0.019347576
0001c0 f8 4f 80 bd 6a 6f 9d 3c 60 75 ca 3c 20 21 b9 3c
       -0.06265253 0.019218165 0.024714172 0.022598803
0001d0 43 91 6c 3c 2f ec 9e 3c 0a a1 a1 3c 45 5e b3 3d
       0.01443893 0.01939973 0.01973011 0.08758215
0001e0 30 99 85 3d cb c3 96 3c 2a 56 b6 3c 25 2b c4 3c
       0.06523359 0.018403908 0.022257883 0.023946354
0001f0 77 51 8b 3c 73 76 68 3c 11 81 6d 3c 24 ab bd 3c
       0.017006619 0.014188397 0.014496104 0.023152895
000200 9a d8 49 3b 4f fd c0 3c fb c8 1f 3d a3 cb 7b 3b
       0.003079927 0.023558287 0.03901003 0.0038420937
000210 cc 1c 73 3c 64 00 a3 3c 45 52 0a 3e df bf 9c 3c
       0.014838409 0.019897647 0.13507946 0.01913446
000220 b4 8b b2 3c ec e8 00 3e fc c6 80 3a b7 45 4d 3c
       0.021795131 0.12588853 0.0009824927 0.012528828
000230 57 b1 da 3c dd ab 0c 3d 6a c9 b1 3b 5f 9e 13 3d
       0.02669589 0.03434359 0.0054256218 0.036039706
000240 1c 27 3f 3c ea 2c 83 3b ae e6 0b 3e d4 9c ca 3c
       0.011667039 0.004003157 0.13662216 0.024732985
000250 af 9c 93 3a 3a 02 a2 3c e8 fd 7b 3c f0 19 4b 3c
       0.0011261905 0.019776452 0.01538036 0.012396321
000260 18 f3 12 3e 4f be 75 3b 5a 82 84 3a 5e f6 27 3d
       0.14350545 0.0037497466 0.0010109649 0.04100644
000270 c5 aa 3d 3c 36 5d c3 3c 0a 8f 07 3c 34 42 d4 3c
       0.011576359 0.023848157 0.008273849 0.025910474
000280 b6 3f ab 3c af ae f5 3c 3d 3b 9d 3c b7 61 3d 3c
       0.020904403 0.029990522 0.019193286 0.011558942
000290 af b8 20 3c 11 5b a4 3c b1 8a b8 3c 1e 85 3d 3c
       0.009809657 0.020062955 0.02252707 0.011567382
0002a0 28 39 fc 3d 63 36 0a 3d 63 3a 0c 3c 4c 1a 9d 3b
       0.12315589 0.033743273 0.008558842 0.0047943946
0002b0 52 3f a6 3c e5 7a 05 3e 06 ed 42 3c 52 ae b4 3c
       0.020293865 0.13035162 0.011897331 0.022055779
0002c0 d9 5d df 3c 65 68 ac 3c 59 1a 47 3b e6 34 96 3a
       0.02726643 0.021045873 0.0030380695 0.0011459857
0002d0 76 cd 12 3e 1f bf b8 3c a1 e0 b3 3c 5c 7e a7 3c
       0.1433619 0.022552071 0.021957697 0.020445995
0002e0 2b 0c e5 3d 16 63 96 3c 48 6f be 3c c2 05 cd 3c
       0.111839615 0.018357795 0.023246422 0.02502716
0002f0 59 be 3b 3c cc d0 d7 3c f9 10 07 bc da 7a 57 3c
       0.011458957 0.02634468 -0.008243793 0.013151849
000300 54 3a fe 3d e1 4d 00 3e 91 3e b1 3d d0 88 9c 3b
       0.12413469 0.12529708 0.08654512 0.0047770515
000310 fa 30 a2 3c 61 0e d0 3b fb 97 f6 3b cf c0 ca 3c
       0.019798744 0.0063493703 0.0075254417 0.024750141
000320 64 48 12 3c f6 c3 c2 3c 91 db 83 3b 0b 9c 8c 3c
       0.008928392 0.023775082 0.004023977 0.01716425
000330 e8 0a 0b 3e df 77 d9 3c 3b b5 c4 3c 76 9f b3 3c
       0.13578379 0.026546417 0.024012199 0.021926623
000340 f6 4c ab 3c 83 be f7 3d b4 01 90 3c 0f 61 9d 3b
       0.020910721 0.12096884 0.017578937 0.00480283
000350 90 03 66 3c 5d 0b 9d 3b b8 5c 11 3c df 45 cc 3d
       0.014038935 0.0047926144 0.0088722035 0.09974264
000360 19 48 d1 3c 4f 26 16 3d 20 2f b9 3d 8a cc b5 3c
       0.025547074 0.036657628 0.090421915 0.022192258
000370 74 e4 db 3c 6a 06 21 3d c5 6d 2e 3d 1a 73 d4 3c
       0.026842333 0.039312758 0.042585153 0.025933791
000380 9e be ed 3d 64 20 d5 3c 07 b6 ff 3c 3b d2 c0 3c
       0.11608623 0.026016422 0.031214727 0.023537746
000390 0b 29 0e 3e 0a a2 04 3e b0 81 9a 3c c9 c3 f3 3d
       0.13882844 0.12952438 0.018860668 0.119025774
0003a0 53 04 80 3b d8 7b 49 3c 28 30 e4 3d d0 ab 08 3d
       0.0039067655 0.012297593 0.111419976 0.03336698
0003b0 45 a6 a2 3c 7b bb cf 3c cd 13 01 3e f4 f1 df 3c
       0.019854674 0.025357952 0.1260521 0.027337052
0003c0 3f 7f d6 bb 74 e9 7d 3c d7 06 c9 3c f2 9b 89 3c
       -0.0065459306 0.015497554 0.024539394 0.016797993
0003d0 7a d2 90 3b 0e a8 d8 3c 80 12 ec 3c 9c 9c a6 3d
       0.004419622 0.026447322 0.028817415 0.081353396
0003e0 8c f2 09 3e d7 71 b6 3c 18 5b 97 3c d6 c4 a8 3c
       0.1347143 0.02227108 0.018476054 0.020601671
0003f0 76 02 11 3c 69 17 97 3b 71 ea 97 3b ee 9f 22 3d
       0.008850684 0.004610945 0.004636102 0.039703302

net_model.2.bias f4 [64]
000000 81 a4 ab 3b 6f 68 df 3b 6a a8 18 bc f9 df 02 b2
       0.0052381163 0.0068178694 -0.009317497 -7.617921e-09
000010 da 93 ab 3b 56 79 f8 b3 1e 37 f1 ba 97 bc 9d 3b
       0.005236131 -1.1570471e-07 -0.0018403267 0.0048137414
000020 b5 ea 58 8e 45 32 6a bb bc 2b ce 3b e5 a0 ab 3b
       -2.6737063e-30 -0.003573553 0.0062918346 0.005237686
000030 29 e2 d4 b0 79 70 ab 3b c8 8a ab 3b 44 a6 ab 3b
       -1.5489309e-09 0.0052319136 0.00523505 0.0052383263
000040 b9 44 ab 3b 5c 77 ab 3b ab 9d ab 3b 37 7b 4b bb
       0.0052266982 0.0052327346 0.0052373013 -0.0031048784
000050 95 9e ab 3b 2f f4 a1 3b 1a 9a ab 3b 8f 48 ab 3b
       0.0052374103 0.004942439 0.005236876 0.0052271555
000060 b7 92 ab 3b 42 9a ab 3b cc 68 fc bc ff a7 aa 3b
       0.0052359956 0.005236895 -0.03081169 0.005208015
000070 e4 31 0e bd de c9 3f 94 6e b7 99 b9 22 9a ab 3b
       -0.03471555 -9.682847e-27 -0.000293191 0.00523688
000080 c1 9b ab 3b 60 31 e3 b8 fd 97 ab 3b a8 aa ab 3b
       0.005237073 -0.000108334 0.0052366243 0.0052388497
000090 e1 da 88 b9 7d 84 ab 3b d3 fb d5 ba b3 ba d8 3c
       -0.0002610302 0.0052342997 -0.001632566 0.026456213
0000a0 e5 aa ab 3b b5 df ba b6 88 63 ab 3b 50 9a ab 3b
       0.005238878 -5.569275e-06 0.005230371 0.0052369013
0000b0 ec 37 b1 9f e9 a3 9c 3b 13 71 ab 3b ba e0 f1 39
       -7.505493e-20 0.004780282 0.0052319854 0.00046134536
0000c0 f9 59 ab 3b 42 9d ab 3b 25 96 2b bc 00 a3 ab 3b
       0.0052292314 0.0052372525 -0.010472809 0.005237937
0000d0 25 c3 a9 b6 50 a1 ab 3b 34 3e e9 3a d2 cf 3b b7
       -5.0593103e-06 0.005237736 0.0017795027 -1.11944555e-05
0000e0 13 bb 6e bb e3 9f ab 3b 3e e1 aa 3b 87 88 ab 3b
       -0.0036427423 0.005237566 0.0052148392 0.005234781
0000f0 db 90 ab 3b bc 9a ab 3b 33 c1 ca ba c3 0b fb 3a
       0.005235774 0.0052369516 -0.0015468955 0.0019153286

net_model.4.weight f4 [32, 64]
000000 3f 10 2a 3d bb f7 77 3d cf 1f 97 3d ff f2 a0 02
       0.0415194 0.06053899 0.07379114 2.364936e-37
000010 5f 7e 29 3d 74 e5 78 32 f5 a0 73 ac 7d a4 2b 3d
       0.041380282 1.44876715e-08 -3.4621726e-12 0.041904915
000020 e1 1a 22 8c cf cc 21 b8 5b bb 76 bd ac c9 29 3d
       -1.2488115e-31 -3.8576134e-05 -0.06023727 0.041452095
000030 ba a0 50 02 96 79 29 3d 1b 49 2a 3d 38 23 2a 3d
       1.5327553e-37 0.04137572 0.041573625 0.041537493
000040 6b 81 29 3d da 03 2a 3d c4 bf 29 3d 72 b9 9a ba
       0.04138319 0.04150758 0.041442648 -0.0011804535
000050 d1 ed 29 3d 9d c8 2a 3d 0a e0 29 3d 3a a8 29 3d
       0.041486565 0.041695226 0.041473426 0.0414202
000060 d2 d0 29 3d c1 c9 29 3d 7d 36 ac bd 93 ac 29 3d
       0.041458912 0.041452173 -0.0840883 0.041424345
000070 63 4d eb 3d 69 fd 66 82 62 01 20 3d 87 4e 29 3d
       0.1148937 -1.6970456e-37 0.03906382 0.041334655
000080 86 d1 29 3d 69 1a f3 2b ac 70 29 3d ef 73 2a 3d
       0.041459583 1.7273519e-12 0.041367218 0.04161447
000090 d9 d0 50 b1 86 25 2a 3d df 25 95 3d 0f d5 36 bd
       -3.03867e-09 0.04153969 0.07282614 -0.044636782
0000a0 9c 75 29 3d 26 8e 18 36 4a c8 29 3d 91 da 29 3d
       0.041371927 2.2732506e-06 0.041450776 0.041468207
0000b0 5b 06 08 a5 51 f6 2b 3d d1 a6 29 3d a0 0c 79 3d
       -1.1798273e-16 0.041982953 0.041418854 0.060803056
0000c0 b4 f1 29 3d e6 56 2a 3d d3 b8 7b 3d ea 84 29 3d
       0.04149027 0.04158678 0.06145556 0.041386522
0000d0 17 84 a3 b5 6c 5d 29 3d 06 66 25 3d d9 71 91 b6
       -1.218289e-06 0.04134886 0.0403805 -4.3345904e-06
0000e0 74 b2 03 3b f7 eb 28 3d e8 ca 29 3d 55 89 29 3d
       0.002009538 0.04124066 0.041453272 0.041390736
0000f0 78 e4 29 3d 10 31 2a 3d ec 91 33 37 59 ef 25 3d
       0.04147765 0.041550696 1.07032065e-05 0.040511463
000100 de 4b 2e 02 61 65 48 03 f8 9c e7 81 b9 c6 31 83
       1.2805274e-37 5.8891095e-37 -8.508124e-38 -5.2243747e-37
000110 59 4f 37 03 e4 34 2a 83 e0 bc 1c 83 52 35 98 82
       5.3869953e-37 -5.0019225e-37 -4.6061098e-37 -2.2364997e-37
000120 41 67 4e 03 52 46 8b 82 e2 42 20 03 4e 8d 4e 03
       6.065649e-37 -2.0464576e-37 4.709655e-37 6.070017e-37
000130 9f 23 4b 83 58 8f d2 01 3d 35 03 83 40 38 00 83
       -5.969723e-37 7.7347505e-38 -3.8558555e-37 -3.768039e-37
000140 46 aa 00 83 b1 47 1b 03 ad 98 15 82 c2 64 69 83
       -3.7811284e-37 4.5632704e-37 -1.0990607e-37 -6.858821e-37
000150 3d 2a 48 03 56 5f 99 82 09 45 0d 82 66 ba 3c 82
       5.8823205e-37 -2.253605e-37 -1.0378856e-37 -1.3865552e-37
000160 62 8a 37 03 de 1c 22 83 ee 52 16 03 ed 51 18 03
       5.393772e-37 -4.764066e-37 4.4176237e-37 4.476283e-37
000170 04 5d 2a 82 80 ea f8 81 1c ff 0e 83 1d d8 1f 03
       -1.2516322e-37 -9.1437303e-38 -4.20229e-37 4.6973986e-37
000180 b1 cf 3d 83 76 a1 22 03 1a 44 4e 03 82 8f 8c 81
       -5.5780526e-37 4.779287e-37 6.0616136e-37 -5.16338e-38
000190 b7 dc 33 83 09 76 5c 83 31 29 19 03 40 b5 de 02
       -5.285674e-37 -6.4787687e-37 4.5009944e-37 3.2724e-37
0001a0 36 6d 52 03 6d 9b 4e 83 65 a6 6b 03 0e f1 0e 83
       6.183882e-37 -6.071638e-37 6.9251305e-37 -4.2006767e-37
0001b0 e9 08 79 82 df 3a 64 82 81 27 4a 82 ee 6e 30 83
       -1.8296188e-37 -1.676769e-37 -1.4851953e-37 -5.1849092e-37
0001c0 3e 09 20 03 30 b7 3d 03 1a 24 4a 03 fb 76 2f 83
       4.7030384e-37 5.5752397e-37 5.9403907e-37 -5.156446e-37
0001d0 b2 3d e9 02 6d 1b 26 83 17 f3 f9 02 98 b2 0b 83
       3.4271684e-37 -4.88145e-37 3.6726788e-37 -4.1053444e-37
0001e0 28 a1 0d 03 26 86 38 03 60 43 3a 83 7e 73 2f 83
       4.1621174e-37 5.4226735e-37 -5.473783e-37 -5.1560456e-37
0001f0 f7 f6 59 83 ec f6 4b 03 22 02 54 83 55 2f 36 83
       -6.405407e-37 5.993979e-37 -6.230365e-37 -5.3539327e-37
000200 93 32 55 03 58 39 34 81 20 9d 0f 83 c8 a6 04 03
       6.265313e-37 -3.310192e-38 -4.2204294e-37 3.898277e-37
000210 cc 5f 39 83 7c a9 6a 83 6a 46 3b 03 9f 8d 0c 03
       -5.4476583e-37 -6.896098e-37 5.5035192e-37 4.1304875e-37
000220 f2 72 02 03 72 ad 17 83 92 b1 23 83 78 9f 24 83
       3.8335517e-37 -4.4574017e-37 -4.8105236e-37 -4.837833e-37
000230 a4 a1 f0 82 c6 a3 15 83 ac aa bc 82 ea b3 32 83
       -3.5357608e-37 -4.3975167e-37 -2.7722078e-37 -5.251603e-37
000240 1b 54 4c 03 23 7b 3e 83 50 31 35 03 3c 5e 57 03
       6.004676e-37 -5.5977336e-37 5.3247727e-37 6.3290997e-37
000250 d9 2a 4b 03 7d 73 07 83 01 39 23 83 b0 a6 2a 03
       5.9705525e-37 -3.980551e-37 -4.796683e-37 5.014986e-37
000260 2e 24 16 83 34 bd 2d 83 88 43 f6 82 f3 74 15 03
       -4.412257e-37 -5.1057325e-37 -3.6185212e-37 4.3921416e-37
000270 ea 8a 13 03 a8 d2 1c 83 0e d2 57 83 6a 05 2a 02
       4.3358883e-37 -4.60861e-37 -6.3423952e-37 1.2491181e-37
000280 c8 22 30 83 d8 99 d7 82 8e bf 3d 03 ec d6 2e 03
       -5.176168e-37 -3.1679713e-37 5.5762e-37 5.1380722e-37
000290 27 2c 4b 02 73 54 18 03 11 2d 1a 03 4a d8 f8 02
       1.4926756e-37 4.476573e-37 4.5308266e-37 3.6564469e-37
0002a0 d9 2b 32 03 ea e2 68 83 a1 0d 64 82 97 8f 18 03
       5.2359833e-37 -6.8439157e-37 -1.6754706e-37 4.483362e-37
0002b0 16 90 02 82 cd ce bb 82 ac 1e ee 02 22 5d 4d 03
       -9.592242e-38 -2.7595878e-37 3.4988562e-37 6.0350997e-37
0002c0 45 cd 69 83 7e 05 03 03 04 d5 6d 01 69 1f f8 82
       -6.8708184e-37 3.8503745e-37 4.3682856e-38 -3.6458353e-37
0002d0 38 8a ee 00 d8 05 11 03 b7 1d 32 03 b6 a4 be 82
       2.1906432e-38 4.261838e-37 5.234361e-37 -2.801253e-37
0002e0 e9 0e a4 82 6f a8 44 83 19 6e 70 02 ba 7e e0 82
       -2.4106192e-37 -5.7792575e-37 1.7664012e-37 -3.298658e-37
0002f0 2c fe 54 03 80 7b 66 83 0b 00 26 83 33 ee 39 03
       6.2592976e-37 -6.7732696e-37 -4.8783065e-37 5.4640053e-37
000300 19 4a 1b 03 ca 5c f0 82 fe 1e 37 03 fc 9e 37 83
       4.5635466e-37 -3.5318089e-37 5.3814444e-37 -5.396137e-37
000310 18 7d b5 81 43 d2 57 83 f0 fd 28 83 d4 38 d9 02
       -6.66684e-38 -6.342419e-37 -4.966227e-37 3.1917902e-37
000320 60 6c 19 03 90 2c b7 82 a4 5d 13 03 2a 20 24 83
       4.5087067e-37 -2.691501e-37 4.330691e-37 -4.823219e-37
000330 20 b9 28 02 02 27 3f 83 cd 1e 78 02 48 8f 69 03
       1.2395819e-37 -5.6174634e-37 1.8229002e-37 6.8637025e-37
000340 84 39 93 02 f2 7e 2c 03 dd 8c 58 83 fc f4 d1 02
       2.163272e-37 5.0691983e-37 -6.36384e-37 3.0850404e-37
000350 71 09 38 83 70 d4 0e 83 a3 b1 57 83 fd 0e 23 03
       -5.408358e-37 -4.1973916e-37 -6.338674e-37 4.79186e-37
000360 7e 5a 4f 83 e5 80 94 02 c1 6d 40 83 5d e8 1e 03
       -6.0935713e-37 2.1820627e-37 -5.654972e-37 4.6698767e-37
000370 c8 bf 78 82 c0 c5 4e 83 25 ac 13 83 88 8b 0d 03
       -1.8275201e-37 -6.0764965e-37 -4.339703e-37 4.159635e-37
000380 b9 74 4f 03 cb 32 5b 83 5e d6 9c 82 7e ce 2a 03
       6.0965824e-37 -6.4416623e-37 -2.304518e-37 5.019555e-37
000390 70 53 51 03 f0 d8 41 03 12 45 cc 81 a8 59 3b 83
       6.151536e-37 5.6966634e-37 -7.5036876e-38 -5.505728e-37
0003a0 14 73 66 03 22 ef 58 03 9a 7b 58 03 d6 91 6a 03
       6.772303e-37 6.3751206e-37 6.3618583e-37 6.893383e-37
0003b0 e2 77 8e 82 67 e8 91 82 15 5f 58 83 a0 fa 4a 03
       -2.0933834e-37 -2.1439228e-37 -6.3585844e-37 5.965017e-37
0003c0 c3 5c 07 02 e0 80 35 03 39 8f 4b 83 70 6b 0c 03
       9.944855e-38 5.333906e-37 -5.982075e-37 4.1265634e-37
0003d0 60 80 e9 82 06 d6 16 83 24 f7 6d 83 15 33 42 83
       -3.4309957e-37 -4.4326725e-37 -6.9931744e-37 -5.7070115e-37
0003e0 4e 02 31 03 f8 5b c1 81 ed 15 71 02 5d f6 39 03
       5.201827e-37 -7.102897e-38 1.7712176e-37 5.4649425e-37
0003f0 d0 cc 6b 83 ea 6f 41 83 28 a3 25 83 75 28 57 83
       -6.9295406e-37 -5.6846073e-37 -4.8676436e-37 -6.3229264e-37

net_model.4.bias f4 [32]
000000 5d 18 92 b8 6e 66 16 ba 30 db fd b9 5e 04 1a ba
       -6.9663605e-05 -0.0005737309 -0.00048419228 -0.00058752846
000010 c4 96 97 b8 e9 db f4 b9 b8 3f 16 ba 50 57 90 b8
       -7.2283234e-05 -0.00046703152 -0.0005731541 -6.882718e-05
000020 c9 48 17 ba 06 6e 9c b8 52 53 95 b8 32 f0 13 ba
       -0.00057710387 -7.459153e-05 -7.120393e-05 -0.0005643397
000030 69 f8 05 ba 5e 64 94 b8 1a 25 08 ba 87 6c 9d b8
       -0.00051105634 -7.075885e-05 -0.0005193517 -7.506558e-05
000040 85 3d f9 b9 28 08 57 b9 a2 c7 13 ba 27 52 59 b9
       -0.00047538817 -0.00020507036 -0.00056373526 -0.00020725337
000050 66 4e 95 b8 28 fc 9c b8 f9 36 19 ba d6 4b fe b8
       -7.1194765e-05 -7.4856274e-05 -0.00058446784 -0.00012125789
000060 2f 96 06 ba 6e 21 92 b8 50 e1 81 b9 e9 0b 8f b8
       -0.00051340734 -6.968049e-05 -0.00024772668 -6.82099e-05
000070 8c 39 c3 b8 cb 36 95 b8 86 11 93 b8 54 9b 94 b8
       -9.3090435e-05 -7.11508e-05 -7.01277e-05 -7.086122e-05

net_model.6.weight f4 [1, 32]
000000 88 39 21 bd 2e af f7 82 03 92 47 83 54 0c f1 82
       -0.039361507 -3.6393936e-37 -5.8648457e-37 -3.5418843e-37
000010 ab 2c 21 bd b6 86 ab 01 8c d5 4f 83 a3 4a 21 bd
       -0.03934924 6.300878e-38 -6.1076972e-37 -0.03937782
000020 a1 b7 04 02 43 25 21 bd d0 35 21 bd 20 c1 38 83
       9.750527e-38 -0.039342176 -0.03935796 -5.4294437e-37
000030 d0 96 24 03 73 3b 21 bd a8 ca a0 02 3b 2a 21 bd
       4.8368393e-37 -0.039363336 2.3626206e-37 -0.039346915
000040 93 ee 66 83 6f 8d 22 ba 84 81 6a 03 0f 69 22 bd
       -6.7864795e-37 -0.0006200885 6.8915096e-37 -0.039650973
000050 94 21 21 bd 66 2a 21 bd f0 9e 39 83 96 b8 c1 82
       -0.039338663 -0.039347075 -5.4549065e-37 -2.8464748e-37
000060 53 84 6b 83 5c 12 21 bd cc 29 31 83 23 56 21 bd
       -6.9212194e-37 -0.03932415 -5.2063605e-37 -0.039388787
000070 8c e7 21 bd 5a 37 21 bd cc 23 21 bd af 78 21 bd
       -0.03952746 -0.039359428 -0.03934078 -0.039421733
