src/t1dsim_ai/models/IndividualModel/T1DEXI-01-1309/individual_model.pt (torch, 50089 bytes, 7 tensors)

net_model.0.weight f4 [128, 10]
00000000: a4f4 6a3a 7bbe f43c e46b 22bc 5dbc abbc
00000010: 8672 4c3d 02af c93b 1e48 a5bc 2887 43bc
00000020: 90ee adbc 1c9c bebb 553b 9a39 775c e63c
00000030: 2897 4fbc 867a b8bc bc09 4f3d 4dc9 e83b
00000040: 59cd 95bc 1cbd afbc 39b3 7fbc f76a 6bbc
00000050: 17c3 003a bcb8 fa3c 7d76 17bc c011 aabc
00000060: fb8a 4c3d 4c61 8b3b c9e0 abbc 6ad1 0fbc
00000070: ef91 bbbc f72b 9cbb 9512 833a c731 f23c
00000080: 01bf 2dbc 1ca2 aabc 969d 4c3d c889 db3b
00000090: b8c3 a0bc 999c 63bc d182 a5bc 930b 00bc
000000a0: ba75 6d3a bab3 f23c 397d 2abc 79a6 abbc
000000b0: 9a30 4c3d 8bc0 cd3b caef 9fbc 57ab 54bc
000000c0: d036 a8bc fbbb ddbb e47d f139 87ac f93c
000000d0: 4d9f 15bc 9058 abbc b43a 4c3d 03d6 883b
000000e0: 15c7 a8bc 59ea 11bc a422 b9bc 5dbc 9dbb
000000f0: b4d7 0bbd d012 113c ed15 8dbc 68a1 1cbd
00000100: d817 7c3d 3a1f f8bc 1914 6c3d 691e a9bc
00000110: 2c8a 053c f873 02bc c147 cab9 e2af df3c
00000120: a0b7 68bc a461 b8bc 25d1 503d 19a5 c63b
00000130: a1a0 93bc 8d8e d1bc 1665 5bbc 9cb6 8cbc
00000140: 88b1 013a 936a f13c ee7d 31bc 0a32 acbc
00000150: 6be0 4d3d ea51 d23b 1a79 9fbc 10c9 75bc
00000160: b88c 9fbc 0762 1bbc eeef f538 cc50 e53c
00000170: 13b8 4ebc 5cda b5bc 8b0d 4f3d 1545 d33b
00000180: 6041 8ebc 2e12 b2bc fecf 75bc 06e8 6dbc
00000190: a12a 1438 99f1 e13c 0e15 5cbc 9115 b6bc
000001a0: 9b1a 4f3d d2e9 c93b 03aa 8fbc 6410 c5bc
000001b0: 4083 67bc 2441 82bc 4d1b efbc 648f c93b
000001c0: 805d 84bc dd6e 0ebd 9c7d 583d 0ee3 dcbc
000001d0: 564d 6b3d c114 a1bc a560 b13b 6c0b e2bb
000001e0: 422a 573a c97d f43c 8b18 28bc 1f4f acbc
000001f0: 6e3c 4d3d a48c ce3b d542 a4bc e376 4fbc
00000200: 5cc2 a9bc 3e63 d6bb f48b 5e3a d7f9 f33c
00000210: 3a27 29bc 3639 acbc 522e 4d3d 3118 cf3b
00000220: f328 a5bc e06c 4fbc 0ad2 a9bc 2868 d8bb
00000230: b974 6b3a 2834 f43c 7856 26bc bf3c abbc
00000240: 4d55 4c3d cc83 cc3b 1334 a4bc a54c 49bc
00000250: ba66 abbc 01f3 cdbb 4d24 233a 8783 ea3c
00000260: c501 45bc 15d5 b3bc db80 4d3d 6c14 fa3b
00000270: 9a38 99bc 697c 9ebc bcc2 8dbc a065 4bbc
00000280: 9296 3c3a d978 f43c f5df 25bc 3e59 adbc
00000290: 4662 4d3d 78f2 c93b 1633 a4bc 1d12 4dbc
000002a0: 9d79 a9bc 99b3 d4bb 63a0 cb39 aacf f13c
000002b0: 5008 32bc abcc adbc 6068 4d3d 0acf d63b
000002c0: de27 9fbc 6376 73bc fa70 9fbc 4ed8 17bc
000002d0: 60f0 d139 15fc f03c 3115 30bc 925e acbc
000002e0: 2b87 4e3d 61df cd3b f3ad 9ebc 09a3 71bc
000002f0: b0b3 9ebc cf59 18bc d1c7 b9b9 acaa df3c
00000300: 6289 67bc 5600 babc 32fe 503d b08b ca3b
00000310: e730 95bc c17d d0bc de1b 5ebc abb6 8bbc
00000320: 7a3f 293a 866e f43c 4881 2cbc b456 adbc
00000330: 35d4 4d3d f81f d33b 7562 a6bc 3ddf 53bc
00000340: f2b9 a7bc eb58 e1bb 4d7a 1938 1958 f43c
00000350: d00c 29bc cb61 aebc 2a57 4e3d 15e7 af3b
00000360: fdcf a2bc 9bbb 3dbc 5a7c a8bc e005 d1bb
00000370: 1d84 0fbb 5eb2 d43c 3d83 6fbc 6291 c1bc
00000380: 4ea9 553d c43a af3b 2803 87bc 74d7 debc
00000390: c021 12bc 51d4 86bc d439 783a 916b f33c
000003a0: c016 2abc d216 abbc 168d 4c3d ad67 d43b
000003b0: 1e12 a4bc 963e 53bc b252 a8bc 0846 ddbb
000003c0: 9421 45bb 8f28 d53c ee6a 70bc e695 c5bc
000003d0: 0fae 583d fea9 9a3b 63fc 85bc 3752 debc
000003e0: d4f1 02bc e9e1 87bc b1f6 4c3a fc92 f33c
000003f0: bbf4 25bc 29f9 abbc 0eb1 4c3d 5732 c43b
0.0008962846 0.029875984 -0.009913418 -0.020963842 0.049913906 0.0061548958 -0.02017599 -0.011934079
-0.02123192 -0.0058169495 0.00029417375 0.028120263 -0.012670316 -0.022519361 0.050546393 0.007104075
-0.018286394 -0.021452479 -0.015606695 -0.014368764 0.0004911883 0.030605666 -0.009244558 -0.020760417
0.04993723 0.004253542 -0.02098121 -0.008777956 -0.022896735 -0.004765983 0.0010000045 0.029564751
-0.010604621 -0.020829253 0.049954973 0.0066997744 -0.019624576 -0.013892316 -0.02020398 -0.0078152595
0.0009058375 0.029626716 -0.010405832 -0.020953404 0.049851038 0.0062790564 -0.01952352 -0.012980304
-0.02053395 -0.006766794 0.00046060898 0.030477775 -0.009132219 -0.020916253 0.04986067 0.004175903
-0.020602742 -0.0089059705 -0.022599526 -0.0048137144 -0.034141257 0.008854583 -0.01722237 -0.038239866
0.061546177 -0.030288327 0.057636354 -0.020644384 0.0081506185 -0.007962219 -0.00038581903 0.027305547
-0.014203936 -0.022507496 0.050980706 0.0060621616 -0.01802093 -0.025580669 -0.0133908 -0.017176919
0.00049474137 0.029469764 -0.010833247 -0.021019954 0.05026285 0.0064184563 -0.019466925 -0.01500155
-0.01947628 -0.009483821 0.00011727201 0.027992629 -0.012617129 -0.022198848 0.050550025 0.006447444
-0.017365158 -0.021737184 -0.0150032025 -0.014520651 3.532565e-05 0.027581023 -0.013432754 -0.02222708
0.050562482 0.0061619068 -0.017537123 -0.024055667 -0.0141304135 -0.015900202 -0.029187823 0.0061511267
-0.016157866 -0.034773696 0.052854165 -0.026963737 0.0574468 -0.019663217 0.0054131323 -0.0068983342
0.0008207896 0.029845135 -0.010259758 -0.021033822 0.05010646 0.0063033868 -0.0200514 -0.012662622
-0.02072256 -0.0065425923 0.00084894826 0.029782219 -0.010324294 -0.021023374 0.050093003 0.0063200225
-0.020161128 -0.012660235 -0.020730037 -0.0066042133 0.00089819316 0.029810026 -0.010152452 -0.02090299
0.049886037 0.0062412973 -0.020044362 -0.01228634 -0.020923007 -0.006285072 0.0006223366 0.02862717
-0.012024348 -0.021952191 0.050171714 0.007631829 -0.018703748 -0.019346433 -0.01730477 -0.012414366
0.00071940676 0.02984278 -0.010124196 -0.021160718 0.05014255 0.0061629377 -0.02004389 -0.012516526
-0.020687873 -0.0064911363 0.00038838675 0.029517967 -0.01086624 -0.021215757 0.050148368 0.0065554427
-0.01942819 -0.014859769 -0.019463051 -0.00926788 0.0004004268 0.029417077 -0.01074724 -0.021041188
0.050421875 0.0062827324 -0.019370055 -0.014748343 -0.019372791 -0.009298756 -0.00035434825 0.027303062
-0.014131876 -0.022705238 0.05102367 0.006181203 -0.018211795 -0.02545059 -0.013556449 -0.017054876
0.0006456297 0.029837858 -0.01052887 -0.021159507 0.050251205 0.00644302 -0.02031062 -0.012931642
-0.020474408 -0.006877055 3.6591944e-05 0.029827164 -0.010317996 -0.021286866 0.050376095 0.0053681233
-0.019874567 -0.011580373 -0.020567108 -0.006378874 -0.0021898814 0.025963958 -0.014618692 -0.023628894
0.052163415 0.0053475816 -0.016480997 -0.027202345 -0.008919179 -0.016458662 0.0009469066 0.029714378
-0.010381401 -0.020884905 0.049939238 0.0064820857 -0.02002817 -0.01289334 -0.020547245 -0.006752733
-0.0030079829 0.026020316 -0.0146739315 -0.024119329 0.05290037 0.0047199717 -0.016355699 -0.027138812
-0.007992227 -0.016587215 0.00078187423 0.029733174 -0.010129149 -0.020992832 0.04997354 0.0059874463

net_model.0.bias f4 [128]
00000000: a42b 90bb 23ed 74ba 2576 b4bb b5c7 6dbb
00000010: c4c3 83bb bbf9 b4bb 771c 413b ac4a 763a
00000020: 1912 5cbb f13a 7eba 138e 4139 4a6c 343b
00000030: 5f28 84bb 2700 85bb bc34 88bb 2e3b ecba
00000040: 00c9 85bb f7ee 5dbb bebf 61bb b82b 613a
00000050: d139 7cbb ea78 8fbb 5000 ee3a 8b11 80bb
00000060: c2e1 e23a 403e 8bbb 512e 98bb d53f 96bb
00000070: 40fe 87ba a56b 293b 1ae5 6bbb 081a 74bb
00000080: ff4c 0b39 1d8b 70bb c0cc 85bb 372d b4bb
00000090: 3f76 9aba 5b8e 82bb 16d7 833a fd22 103b
000000a0: 520e 193b 655b 7dbb 6641 81bb 2b3b 02ba
000000b0: 1ac0 9239 112c a83a a1d1 1139 60c4 4e3a
000000c0: e207 f6ba 1895 00bb ab2c 11ba f861 6cbb
000000d0: f513 83bb f779 b43a 647f 863a 37bb 92bb
000000e0: 85de 0a3b 4c27 b43a 1f15 763b bd2d 83bb
000000f0: 834f 21ba 6358 88bb 2c9e 5b3b cee3 88bb
00000100: ac03 183a b98d dbba 16d4 8139 e8fc 85bb
00000110: 30f2 76bb 9991 71bb f7e8 8c3a 0537 0eba
00000120: 2319 babb e611 0b3a 5188 67bb f7aa 943a
00000130: 7961 2b3b 3dcf 87bb 958a 51ba 99c8 9a3a
00000140: 7ba8 e4b9 3878 d73a 97dc a13a 0d23 7b3a
00000150: fd7b 873a 6ab9 62bb 9f7d 65bb 94e9 a13a
00000160: 5d2b 8abb 8992 edba 71c5 853a bb45 423b
00000170: aa4e 71bb 09ce e9b9 62b8 fdba 71f2 afbb
00000180: e99f 573b 6829 883a e3de 62bb f16f 823a
00000190: 8d20 e339 280f 503b 1478 75bb d262 5fbb
000001a0: 5135 87bb 5a4d 9ebb 10f1 393b 02ba 73bb
000001b0: ee41 e1ba 8ade 6fbb 0f53 7d3b 2a65 c1ba
000001c0: 34e6 203b 8137 b3b9 f0a8 69bb 91f9 82bb
000001d0: d005 643a 54df 7bbb 8b3c 7cbb af41 273b
000001e0: 4260 363b 3abc 83bb 826c 68bb aeb4 74bb
000001f0: 60bd 89bb 1550 9bbb c311 a6bb 3a52 82bb
-0.0043997336 -0.00093431975 -0.005507248 -0.0036282365 -0.00402114 -0.0055229343 0.002946643 0.0009395282
-0.0033580123 -0.0009698114 0.00018458841 0.0027530366 -0.004033133 -0.004058856 -0.004156677 -0.0018023008
-0.004082799 -0.0033864358 -0.0034446563 0.00085895834 -0.003848661 -0.0043784278 0.0018158052 -0.0039083413
0.0017309713 -0.004249364 -0.004644193 -0.004585246 -0.0010375455 0.0025851515 -0.003599471 -0.003724696
0.00013284756 -0.0036704012 -0.004083246 -0.005498554 -0.0011784508 -0.0039842553 0.0010058607 0.002199351
0.0023354483 -0.0038659212 -0.0039445637 -0.0004967923 0.00027990417 0.0012830516 0.0001390637 0.00078875385
-0.001877066 -0.0019620117 -0.0005537967 -0.0036069136 -0.004000182 0.0013769259 0.0010261354 -0.004477884
0.002118976 0.0013744622 0.003754921 -0.004003255 -0.0006153511 -0.004160927 0.0033511026 -0.004177547
0.0005798887 -0.0016750611 0.00024762814 -0.0040889867 -0.0037680976 -0.0036860465 0.0010750581 -0.00054250687
-0.005679266 0.0005305096 -0.0035329054 0.0011342455 0.0026150628 -0.004144578 -0.00079933676 0.001180905
-0.00043613077 0.0016439026 0.0012349066 0.0009580113 0.0010336634 -0.0034595379 -0.0035017503 0.0012352937
-0.004216595 -0.0018125336 0.0010205937 0.0029643613 -0.003682057 -0.0004459473 -0.0019357319 -0.0053694774
0.003290171 0.0010388317 -0.0034617714 0.0009951574 0.00043321066 0.0031747315 -0.0037455605 -0.0034086
-0.004126229 -0.0048309984 0.0028372444 -0.0037189727 -0.0017185786 -0.003660115 0.0038654243 -0.0014754881
0.0024551274 -0.00034182894 -0.0035653673 -0.003997036 0.0008698376 -0.0038432674 -0.0038488235 0.0025521328
0.002782837 -0.004020241 -0.0035465066 -0.0037339139 -0.0042034835 -0.004739771 -0.0050680353 -0.0039770873

net_model.2.weight f4 [64, 128]
00000000: 4ffe f83c 3411 f53c 8fda fc3c c0dc f53c
00000010: 573d f63c 0376 fb3c 51d3 3c3d 2884 fa3c
00000020: 5a34 f83c 5b0f f33c aec7 f43c 33c2 1c3d
00000030: 28a6 f83c 5810 f93c d34f f73c 2dfb f43c
00000040: 5c77 f93c bb3b f83c 49aa f83c 4f1b fa3c
00000050: fcb1 f93c 6b8c fd3c b561 013d 0498 f83c
00000060: 6c0d 013d 6fba f63c 1950 fb3c 21a0 f83c
00000070: e98d f33c 120a 2f3d b349 f43c 790f f63c
00000080: 4c17 f53c 01f0 f63c 75db f93c 46dc fa3c
00000090: 80d2 f23c fd63 f83c 6a37 f43c 9b36 203d
000000a0: cee7 283d 2974 003d 612e f83c 49b6 f33c
000000b0: 4bb6 f63c 2b73 f03c 8845 f53c 5cf2 f93c
000000c0: 8cf3 f53c 4387 f53c 6c07 f53c d425 f63c
000000d0: 7710 fa3c 7214 f83c 7b37 f73c 6520 fa3c
000000e0: ccbf 223d 565f f03c 5a9e 053d 6683 f83c
000000f0: 271c f63c 722d f93c 6093 0f3d 226b f93c
00000100: b449 f93c d36f f83c d9be f53c 2328 f73c
00000110: 5c94 f63c 753e f73c ff99 f23c 815b f43c
00000120: a36f fd3c 8033 f63c 30ec f63c 514d f43c
00000130: 7773 1d3d 75e1 f43c fb1e f63c 7300 f73c
00000140: d992 f83c 73cd fd3c 03cb f43c 50f2 f33c
00000150: 785d f43c 214d f93c ab8d f93c 4ec4 f53c
00000160: dcd1 f83c 161a f53c bb11 f43c 97ac 0e3d
00000170: 038e f73c 2405 f53c 0f9e f43c b157 fa3c
00000180: d65c 0f3d fd20 f93c f2c4 f63c 5115 f43c
00000190: 8bf1 f83c d206 103d 80c8 fc3c 3301 f93c
000001a0: 7a98 f63c 1d63 f93c 401b 143d c2a4 f63c
000001b0: ed18 f73c 9321 f83c 2972 023d 1642 f33c
000001c0: a17e 103d 1f05 f53c 0001 f83c b54d f73c
000001d0: 570f f23c c7c3 fa3c e015 f63c a793 293d
000001e0: 2fa6 173d ca76 f73c b9ce f53c dac7 f83c
000001f0: 972a f83c 2970 f93c 6dd9 f83c 124b f83c
00000200: 66ac 3602 c4cd dd02 6acc cf02 c059 8002
00000210: cc79 4b02 5001 ac02 16f6 0c02 455a e002
00000220: d4ce c802 a8a3 3603 5a7d 0a03 74eb 2303
00000230: c2da a402 e018 b902 3cf6 6c02 9676 9002
00000240: e64d c802 5ace 8b02 de93 bd02 089a 0a03
00000250: f935 b802 3811 f602 00c0 4403 a2af 8102
00000260: 6c89 1403 1030 8102 de34 d002 9446 cb02
00000270: 2a78 bb02 e4d2 7d02 4c2e 8002 a94c 5a02
00000280: 059a ce02 5c37 ad02 1c25 e502 5e24 ad02
00000290: ace1 0c02 e714 dd02 450f a902 d8c1 c702
000002a0: a0e2 c802 e0a8 2103 5c48 a402 3800 fc02
000002b0: 6733 9202 fe57 b402 dd52 0303 8f94 8e02
000002c0: c67a 8e02 60c4 7d02 c588 0003 5ce3 1d02
000002d0: f32b de02 8bfa 4202 6201 0b03 ea76 e902
000002e0: 0383 bf02 27bb d902 319b a702 efc8 7002
000002f0: 4835 8502 fd86 ea02 c060 2803 fadf f402
00000300: 5229 bc02 7a79 1c03 d023 8c02 133c 7a02
00000310: 9a00 8e02 0ec0 7e02 c7a6 8802 144e 8e02
00000320: 79fb a302 9e2c 6f02 80d6 9b02 d4a5 8902
00000330: 98c4 5903 1587 9702 1fc8 9e02 3cb1 9802
00000340: 32d7 b002 6841 1c03 a452 5f02 b48f 3303
00000350: eaee ef02 5c8b e602 30ee cf02 1ad7 7502
00000360: 434c b402 0106 e002 ae23 e602 b30c 2603
00000370: d7f8 cc02 4f48 4802 cfb4 9702 bc86 a902
00000380: 564d 4d03 2fba f002 88b2 9602 44c0 1303
00000390: c217 2403 21ef 0403 b341 0403 817a c502
000003a0: a906 8902 5f97 9902 9b13 3903 327d c802
000003b0: c281 6802 d2f1 d002 3f31 9802 8830 5802
000003c0: f3b7 ed02 4d47 bd02 e664 8102 50d6 8e02
000003d0: 1398 1803 66a0 d302 aef3 cd02 dd44 1903
000003e0: 2971 6903 23f7 8402 8ca5 6002 1e7e 7d02
000003f0: 4cbe de02 f2d1 9902 a857 8e02 df9a d402
0.030394701 0.02991543 0.030865936 0.030012488 0.030058546 0.03069592 0.046099965 0.030580595
0.0302984 0.029670408 0.029880371 0.03827114 0.030352667 0.030403301 0.03018943 0.029904926
0.030452423 0.03030192 0.030354636 0.0305306 0.030480377 0.030950746 0.03158732 0.030345924
0.03150694 0.030118195 0.030677842 0.030349793 0.029730754 0.042734213 0.029820299 0.030036675
0.029918335 0.03014374 0.030500153 0.030622613 0.02964139 0.030321116 0.02981158 0.039114576
0.04123669 0.03136078 0.030295553 0.029750006 0.030116221 0.029351791 0.029940382 0.030511074
0.030023359 0.029971724 0.029910766 0.030047335 0.03052543 0.030283187 0.030177822 0.030533025
0.039733693 0.029342335 0.03262172 0.030336093 0.030042721 0.030417178 0.035052657 0.030446593
0.030430652 0.03032676 0.02999823 0.030170506 0.03010004 0.030181149 0.029614447 0.029828789
0.030937022 0.030053854 0.03014192 0.029822024 0.038440194 0.029892663 0.03004407 0.030151581
0.03034346 0.030981755 0.02988196 0.02977863 0.029829726 0.030432286 0.03046306 0.030000832
0.030373506 0.029919665 0.02979361 0.034832563 0.030219084 0.029909678 0.029860524 0.030559393
0.035000645 0.030411238 0.030123208 0.02979532 0.030388614 0.035162754 0.030857325 0.03039608
0.030102003 0.030442769 0.0361588 0.03010786 0.030163253 0.030289447 0.031847153 0.029694598
0.035277013 0.029909668 0.030273914 0.03018842 0.02954833 0.030610932 0.030039728 0.041400578
0.03702372 0.03020801 0.0300058 0.030368734 0.030293746 0.03044899 0.030377114 0.030309234
1.3420724e-37 3.2591135e-37 3.0533244e-37 1.8859424e-37 1.4949039e-37 2.5273882e-37 1.0356199e-37 3.2965654e-37
2.9506072e-37 5.367286e-37 4.069845e-37 4.817168e-37 2.4223195e-37 2.7197584e-37 1.7409207e-37 2.1226963e-37
2.943207e-37 2.0542654e-37 2.7855926e-37 4.0731374e-37 2.7067349e-37 3.6156334e-37 5.781963e-37 1.9055655e-37
4.3651044e-37 1.8982433e-37 3.0593197e-37 2.986868e-37 2.7546151e-37 1.8648027e-37 1.8834483e-37 1.6038111e-37
3.0357382e-37 2.545184e-37 3.3669826e-37 2.544094e-37 1.035034e-37 3.2485029e-37 2.4841082e-37 2.9351683e-37
2.9517435e-37 4.7507507e-37 2.4139166e-37 3.7028198e-37 2.1482275e-37 2.6499128e-37 3.8592562e-37 2.0950293e-37
2.0935493e-37 1.8643861e-37 3.7772823e-37 1.1599787e-37 3.2645194e-37 1.4324771e-37 4.0850016e-37 3.4304526e-37
2.8140125e-37 3.1992704e-37 2.462752e-37 1.769008e-37 1.9573176e-37 3.446069e-37 4.9481826e-37 3.5981134e-37
2.7647834e-37 4.598373e-37 2.0591707e-37 1.838434e-37 2.086537e-37 1.871609e-37 2.007913e-37 2.090984e-37
2.4095036e-37 1.7571751e-37 2.289832e-37 2.0225521e-37 6.3996247e-37 2.226499e-37 2.3330877e-37 2.243612e-37
2.5984392e-37 4.5919362e-37 1.6407169e-37 5.2768335e-37 3.5255024e-37 3.387545e-37 3.055263e-37 1.8061488e-37
2.6492395e-37 3.2917288e-37 3.3815942e-37 4.8797594e-37 3.0117933e-37 1.4714431e-37 2.2291235e-37 2.4909652e-37
6.0332863e-37 3.5371695e-37 2.214299e-37 4.3420128e-37 4.822254e-37 3.906582e-37 3.8866733e-37 2.9016862e-37
2.0134164e-37 2.2568212e-37 5.438912e-37 2.9459217e-37 1.7081907e-37 3.0701651e-37 2.2362659e-37 1.5883102e-37
3.4929602e-37 2.7811979e-37 1.901276e-37 2.0988034e-37 4.484336e-37 3.1095728e-37 3.0261908e-37 4.504171e-37
6.8602447e-37 1.9537506e-37 1.650443e-37 1.8623698e-37 3.2729193e-37 2.2601832e-37 2.0915337e-37 3.1239492e-37

net_model.2.bias f4 [64]
00000000: 55d6 00bb 37ed 83b9 e51f 883d 6e54 c0bb
00000010: 6d26 bcba 3bfd 449e 439c 01bb 3b97 17bb
00000020: 0f5e d498 2f00 003d 13bc c8bb 5e5b 00bb
00000030: 5476 c0bb 2243 02bb ec68 11bb 4c22 02bb
00000040: e1cf 06bb 8547 c4bb 5e9e 2a3b a3a0 9e98
00000050: 806b f9ba d69e c7bb ac99 f7ba 63b8 01bb
00000060: 01de 0fbb 6012 693b 3fc6 62bb 356b bfbb
00000070: 35c2 68b9 a87d 6e3d e394 a8a5 4ec9 00bb
00000080: 3200 00bb 5a51 00bb 2f5f 02bb 8b33 02bb
00000090: 2d70 11b7 819b 0abb 511c 8d3b 0ea7 e1bb
000000a0: f711 01bb 0952 1cbb 279a 15bb 0bff f9ba
000000b0: 53d1 23b6 8936 c9bb 9f59 04bb cc7a 05b0
000000c0: e7ea 5cba 6436 00bb a547 72bb 1e1b 04bb
000000d0: 4b5a 3fb7 ce01 01bb 4789 03bb 5df9 20bb
000000e0: fdb7 17b7 42d5 00bb ca4d 34bb 9c95 ffba
000000f0: d886 f9ba 31df bfbb 1245 25bb d2ef 80a6
-0.0019659002 -0.00025163006 0.066467084 -0.00586944 -0.0014354713 -1.04285204e-20 -0.0019776977 -0.0023130912
-5.489569e-24 0.031250175 -0.006125936 -0.001958571 -0.005873481 -0.001987644 -0.0022187782 -0.0019856868
-0.0020570683 -0.005989971 0.0026034336 -4.1004244e-24 -0.001902923 -0.0060919328 -0.0018890402 -0.001979374
-0.0021952393 0.003556393 -0.0034603027 -0.0058416375 -0.00022197592 0.058225304 -2.9244244e-16 -0.0019651237
-0.0019531366 -0.001957974 -0.001989316 -0.0019867148 -8.668791e-06 -0.0021149816 0.004306354 -0.0068863695
-0.0019694546 -0.0023852608 -0.0022827478 -0.0019073201 -2.4410735e-06 -0.0061405343 -0.002019502 -4.8559623e-10
-0.0008427337 -0.001956367 -0.0036968973 -0.0020157765 -1.140551e-05 -0.0019684914 -0.0020070837 -0.0024562695
-9.0431395e-06 -0.0019658362 -0.0027512186 -0.0019499543 -0.0019037379 -0.005855464 -0.002521817 -8.946788e-16

net_model.4.weight f4 [32, 64]
00000000: 543e fb3c 875f f5b2 6c66 aebd c4a2 393d
00000010: 63b7 05bb 22f6 0683 30fb fa3c 7a61 fb3c
00000020: 9699 5503 71ab 8bbd 6627 333d cfa1 fa3c
00000030: 7b45 2a3d d72a fa3c c5fc fb3c 4c8e fb3c
00000040: 396c fa3c 7e85 393d 57fe 59bc 364f 8c14
00000050: 53ee fa3c 0928 123d ceed fa3c 8134 fa3c
00000060: 2522 fb3c 823a 64bc b01c 903c 4c39 3b3d
00000070: 6185 2917 cd9d 89bd 3f28 29a5 e8bd f93c
00000080: 6ad9 fa3c d551 fb3c e81d fa3c 4d05 fc3c
00000090: ff23 9802 893f fb3c 3a32 1ebc 5beb ff3c
000000a0: 32f5 f93c 0ef1 e03a 5f20 fb3c 04ba fa3c
000000b0: 0f28 3831 8af9 163d 0e63 fa3c 94d6 a536
000000c0: b64f 593a 14b3 fb3c 011d 4c3a 793a fa3c
000000d0: 6d80 26ba f5d4 f93c 8723 fb3c f09b 143b
000000e0: f1bd ea34 49f1 f83c 9207 193b 7627 fa3c
000000f0: 1fcf fa3c 6589 283d 96f1 b4ba fcc2 3d83
00000100: e915 6602 4e50 2d03 6892 bd01 9d3c 2583
00000110: 1f5f 3003 6b50 2583 a271 5783 c592 4c82
00000120: e286 3d03 c0f9 dd82 ffec 3503 be65 3b03
00000130: cf52 4383 5f19 8102 76e9 2383 76b1 d382
00000140: 46aa 0083 c0ae 5003 aee6 9c81 2769 4483
00000150: c768 4d03 e22a 8a82 02e0 2982 ec81 8782
00000160: a643 3703 dd04 6683 c5b3 0303 b9cf 2103
00000170: 9786 8c82 5628 0983 e5f5 2683 2c2f 0b03
00000180: 14f6 4083 42d0 4403 259d 4803 a850 9580
00000190: b95c 3483 560f 6583 a051 5303 3485 0903
000001a0: e981 5803 343d 1383 e2fb 6703 bdcc 0a83
000001b0: be53 8282 e28d 0b82 4cfa 6a81 2883 2883
000001c0: 42d8 1603 d94f 3f03 342f 3c03 c185 0e83
000001d0: d584 2203 6312 4e83 f6df 1a03 ae67 0a83
000001e0: 9e44 e302 dbd5 6203 312b 3383 9af4 3f83
000001f0: c15c 4183 b658 3c03 23db 3d83 892d 3783
00000200: a661 3f03 9d88 4a82 9a52 0983 9596 0303
00000210: be0b 4f83 dde7 6a83 e96e 3f03 8a7f 2403
00000220: 8646 f002 2a73 3583 586b 2c83 4c61 dd82
00000230: cf92 3983 887f dc82 a5d3 c482 e31c 4383
00000240: 94da 5f03 3668 1983 5cbd 1a03 60bf 4b03
00000250: 2062 6103 4083 0383 02a0 6183 cfcc 1603
00000260: 7c98 4983 22dc fc82 5487 1883 b6d6 0003
00000270: dc9b 2803 51c8 2883 eb81 3983 d0db 5401
00000280: ff3f 3b83 e2e8 0683 de2f 4103 5637 3b03
00000290: ecf8 5f02 7c86 1b03 8c84 4e03 6889 2603
000002a0: f419 2d03 c487 4c83 e297 1c82 9c8d 0703
000002b0: 56c6 fa81 231a 7c82 ec4d 1f03 dd2e 3b03
000002c0: 5127 3983 56e2 f202 2f45 a502 0aea fa82
000002d0: 84a2 0f81 3b01 0d03 7eb3 4703 3a29 1682
000002e0: 2d9b 1783 c76b 4a83 fc66 4881 4ef7 9f82
000002f0: c0cf 3e03 5800 4683 3faf 3383 3a39 2f03
00000300: 725f 2003 4bee df82 07bb 5803 ee36 2383
00000310: 409d 9302 cb57 5983 e72a 3283 a4eb dc02
00000320: b61f 0403 96b5 ae82 1121 1203 d4f0 1383
00000330: ee6f 6a02 7cf7 2d83 d2f2 8e02 1c19 2b03
00000340: 5e65 9202 03e5 2b03 7cd1 0483 ecc5 ee02
00000350: 68b6 4f83 509e f882 6ac1 4483 b628 1003
00000360: 226a 1883 280f 8502 4aaf 6983 9a5d 0603
00000370: 4b98 3982 5687 5f83 b097 0e83 5d2e 1203
00000380: d333 4303 2f32 4383 d4b2 e582 15a1 4d03
00000390: 2826 5403 6075 5803 0826 8a80 c2d4 3d83
000003a0: 07dc 6203 bcb7 6803 0344 3f03 b1de 4b03
000003b0: 7ac1 4b82 a04a 6082 ee60 5f83 0868 3d03
000003c0: c009 9302 86a8 2e03 1cb1 6683 9d06 1403
000003d0: ceb5 e582 d047 1f83 e3f6 a482 1ad7 0083
000003e0: 4d3d 3b03 6d51 ab02 acd3 6502 5080 2f03
000003f0: a02f 5083 7e6a 5983 b031 5e83 f486 3383
0.030669369 -2.8565195e-08 -0.08515629 0.04532124 -0.0020403496 -3.9661607e-37 0.030637354 0.030686129
6.277138e-37 -0.06819809 0.043738745 0.030594734 0.041570168 0.030538006 0.030760178 0.0307075
0.030569183 0.045293324 -0.013305268 1.416763e-26 0.03063122 0.03568271 0.030630972 0.030542614
0.03065593 -0.013929965 0.017591804 0.04570894 5.4775193e-25 -0.06719551 -1.4672049e-16 0.030486062
0.03062125 0.030678669 0.030531839 0.030764246 2.2355053e-37 0.030669944 -0.00965553 0.031240156
0.030512426 0.0017161684 0.030655084 0.030606277 2.6798295e-09 0.036859073 0.030564811 4.9423634e-06
0.0008289771 0.03072504 0.00077863043 0.03054546 -0.00063515344 0.030497054 0.03065659 0.0022675954
4.3724097e-07 0.030388491 0.002335046 0.030536395 0.030616341 0.041146655 -0.0013804908 -5.576594e-37
1.6904019e-37 5.0932316e-37 6.963772e-38 -4.8558723e-37 5.1830945e-37 -4.8581457e-37 -6.3313265e-37 -1.5029674e-37
5.5696946e-37 -3.261638e-37 5.3463178e-37 5.5071155e-37 -5.740041e-37 1.8969409e-37 -4.8169395e-37 -3.110552e-37
-3.7811284e-37 6.132631e-37 -5.763636e-38 -5.771993e-37 6.0364364e-37 -2.030189e-37 -1.2480446e-37 -1.9911039e-37
5.3856523e-37 -6.759651e-37 3.8703805e-37 4.75521e-37 -2.0648402e-37 -4.0306985e-37 -4.906529e-37 4.090258e-37
-5.6706213e-37 5.783829e-37 5.895511e-37 -1.3712423e-38 -5.3003686e-37 -6.7314656e-37 6.210103e-37 4.041359e-37
6.3625824e-37 -4.3269675e-37 6.8173946e-37 -4.0789583e-37 -1.9149849e-37 -1.0252826e-37 -4.3158591e-38 -4.9521323e-37
4.432929e-37 5.6221516e-37 5.530242e-37 -4.188359e-37 4.7760005e-37 -6.0559066e-37 4.5513627e-37 -4.0673574e-37
3.3394037e-37 6.6660925e-37 -5.2652954e-37 -5.6410644e-37 -5.682408e-37 5.535007e-37 -5.5793665e-37 -5.383114e-37
5.624195e-37 -1.4879822e-37 -4.0355503e-37 3.86703e-37 -6.084531e-37 -6.9032586e-37 5.6257174e-37 4.8341676e-37
3.530531e-37 -5.332332e-37 -5.066948e-37 -3.2528877e-37 -5.453514e-37 -3.2399294e-37 -2.892109e-37 -5.733851e-37
6.5784725e-37 -4.5082287e-37 4.5473906e-37 5.9876026e-37 6.62342e-37 -3.8648108e-37 -6.6305237e-37 4.4316147e-37
-5.9243635e-37 -3.7154422e-37 -4.4824134e-37 3.7862295e-37 4.954968e-37 -4.9600715e-37 -5.451575e-37 3.9095958e-38
-5.5027825e-37 -3.9646397e-37 5.677255e-37 5.5017883e-37 1.645489e-37 4.5704787e-37 6.0690115e-37 4.894075e-37
5.0869923e-37 -6.0106063e-37 -1.1504658e-37 3.9835494e-37 -9.2120094e-38 -1.8521537e-37 4.681535e-37 5.5008157e-37
-5.4411747e-37 3.5688615e-37 2.428428e-37 -3.686853e-37 -2.638155e-38 4.143759e-37 5.868689e-37 -1.1032091e-37
-4.4553045e-37 -5.9486187e-37 -3.6808086e-38 -2.3504896e-37 5.6074467e-37 -5.8187365e-37 -5.2804545e-37 5.149357e-37
4.712934e-37 -3.2903678e-37 6.369139e-37 -4.796445e-37 2.1689966e-37 -6.387135e-37 -5.235875e-37 3.2461346e-37
3.8827716e-37 -2.5671227e-37 4.29435e-37 -4.3475875e-37 1.7223727e-37 -5.112423e-37 2.1004397e-37 5.0281208e-37
2.1510954e-37 5.0515276e-37 -3.903179e-37 3.5084559e-37 -6.1041225e-37 -3.6531192e-37 -5.782125e-37 4.236453e-37
-4.479062e-37 1.9551293e-37 -6.867377e-37 3.948651e-37 -1.3635359e-37 -6.568917e-37 -4.190418e-37 4.2958766e-37
5.736484e-37 -5.7362958e-37 -3.3751168e-37 6.0429e-37 6.2345e-37 6.3611435e-37 -1.2686942e-38 -5.578634e-37
6.666801e-37 6.838959e-37 5.620793e-37 5.9911976e-37 -1.496961e-37 -1.6478337e-37 -6.564508e-37 5.566153e-37
2.1605305e-37 5.132746e-37 -6.7794237e-37 4.3500883e-37 -3.3752877e-37 -4.6808337e-37 -2.423934e-37 -3.7862744e-37
5.502473e-37 2.5172928e-37 1.688501e-37 5.1575173e-37 -6.1180377e-37 -6.3892816e-37 -6.5296975e-37 -5.275829e-37

net_model.4.bias f4 [32]
00000000: 243a a73b 5556 18ba 7fea 10ba b30a 1cba
00000010: 09e9 a63b 54fe 05ba 3c64 16ba 0a59 a73b
00000020: 8509 1bba dac6 a63b 7029 a73b 4a7c 19ba
00000030: 70fa a63b 8343 a73b 3c30 e6b9 90cd a63b
00000040: bdb4 1aba ea6a 4cb9 adf1 a63b e28b c3b7
00000050: d8e9 a63b 53fe a63b c38e 1aba f6bb c5b9
00000060: ed86 17ba 011d a73b 4de1 0dba 6259 a73b
00000070: 3f5b 0dba 8ffc a63b 402d a73b 8434 a73b
0.0051033664 -0.00058112043 -0.00055281067 -0.0005952522 0.005093698 -0.0005111445 -0.0005736982 0.00510705
-0.0005914199 0.005089623 0.0051013753 -0.00058550073 0.0050957724 0.0051044836 -0.00043904956 0.005090423
-0.0005901566 -0.00019494785 0.005094728 -2.331095e-05 0.0050937943 0.005096236 -0.0005895907 -0.0003771481
-0.00057802984 0.005099893 -0.00054122956 0.005107091 -0.000539232 0.0050960253 0.00510183 0.005102696

net_model.6.weight f4 [1, 32]
00000000: 7720 f1bc 40e1 b882 4280 eb81 601b 8782
00000010: df09 f1bc 58f3 3a80 fae5 4e83 506e f1bc
00000020: f466 d482 78ec f0bc 8f1a f1bc 47f4 5183
00000030: 81a1 f1bc 1c3e f1bc c6eb 15ba df0a f1bc
00000040: 1a78 3b83 be2d 1d83 063f f1bc 0cd9 5083
00000050: 83ef f0bc 1af2 f0bc f77b 4483 81c7 be82
00000060: bcdd 4583 9cf6 f0bc 61a5 3783 2170 f1bc
00000070: 2bd0 daa3 be20 f1bc 532e f1bc 517f f1bc
-0.029434426 -2.7165657e-37 -8.650941e-38 -1.985218e-37 -0.029423652 -5.413754e-39 -6.080196e-37 -0.029471546
-3.1209692e-37 -0.029409632 -0.02943161 -6.1699996e-37 -0.029495956 -0.029448561 -0.0005719032 -0.029424129
-5.509223e-37 -4.6190663e-37 -0.029448997 -6.1374864e-37 -0.029411083 -0.029412318 -5.774153e-37 -2.80325e-37
-5.8147635e-37 -0.029414468 -5.396871e-37 -0.029472413 -2.372377e-17 -0.029434558 -0.029441034 -0.029479655
