src/t1dsim_ai/models/IndividualModel/T1DEXI-01-1490/individual_model.pt (torch, 50089 bytes, 7 tensors)

net_model.0.weight f4 [128, 10]
0	0x3b88dfe8	0.0041770823
1	0xbb9d43c7	-0.0047993395
2	0xbba7aecc	-0.005117273
3	0x3c864629	0.016390877
4	0x3cb3b545	0.021937022
5	0x3cbb1afd	0.022840017
6	0xbc1a8e39	-0.009433323
7	0x3c53a50b	0.012917767
8	0xbb7b349d	-0.003833092
9	0xbcdfcc6a	-0.027319152
10	0x3bfb2a93	0.0076649874
11	0x3b0b526d	0.0021258846
12	0xbbf4660b	-0.0074584535
13	0x3c74e968	0.0149482265
14	0x3cbad4b3	0.022806501
15	0x3ca3cb9b	0.019994548
16	0xbbed0159	-0.0072328267
17	0x3c5516c6	0.013005918
18	0x3b0d9334	0.0021602632
19	0xbcdd4279	-0.027009236
20	0x3b87d074	0.0041447226
21	0xbba03db7	-0.0048901695
22	0xbbab222a	-0.0052225785
23	0x3c849f10	0.016189128
24	0x3cb4bfbb	0.02206408
25	0x3cbccce3	0.023046916
26	0xbc1c7e03	-0.009551528
27	0x3c5193b4	0.012791563
28	0xbb7e4624	-0.0038799131
29	0xbce0eda0	-0.027457058
30	0x3bb63e79	0.0055616465
31	0xbb97e85f	-0.004635855
32	0xbbde5fef	-0.0067863385
33	0x3c62f395	0.01385202
34	0x3cc1cdd9	0.023657726
35	0x3ca9031b	0.020631364
36	0xbc0f2a59	-0.008738124
37	0x3c5ce2ff	0.013481854
38	0xbb297ecf	-0.0025862937
39	0xbcd397b6	-0.025829177
40	0x3bc77bbb	0.006087748
41	0xba4e1b66	-0.0007862359
42	0xbbd466e3	-0.0064819916
43	0x3c843e40	0.016142964
44	0x3cba9a4e	0.022778656
45	0x3ca683a7	0.020326449
46	0xbc079a06	-0.008276468
47	0x3c5f6043	0.01363379
48	0xba4ca6ec	-0.0007806856
49	0xbce1b73a	-0.02755319
50	0x3b8ce31d	0.004299535
51	0xba6356cf	-0.0008672298
52	0xbba763d6	-0.005108337
53	0x3c9af140	0.018913865
54	0x3cab2cf6	0.020895462
55	0x3cb0a5e5	0.02156348
56	0xbc0b3e65	-0.008498763
57	0x3c52bcec	0.012862425
58	0xbb2c5a0a	-0.0026298785
59	0xbcf98248	-0.03045763
60	0x3c52ca10	0.012865558
61	0x3cf20b8d	0.029546523
62	0xbbde6cc0	-0.0067878664
63	0xbc73d736	-0.014882853
64	0xbb6c6e2b	-0.0036076407
65	0xbcbfa346	-0.023393285
66	0x3c879129	0.01654871
67	0xbc806d2b	-0.015677055
68	0xbd08a0a4	-0.033356324
69	0x3c8f14f8	0.017466053
70	0x3bc3faa8	0.0059808083
71	0x3a32fb81	0.0006827638
72	0xbbc5357b	-0.0060183383
73	0x3c8b08b6	0.016971927
74	0x3cb51bd4	0.022107996
75	0x3cad62fe	0.021165367
76	0xbbf252c4	-0.0073951203
77	0x3c4b944f	0.012425496
78	0x3a675d8d	0.0008825891
79	0xbce99a09	-0.028515832
80	0x3b857d7e	0.0040737977
81	0xbbaf0f9b	-0.0053424365
82	0xbbac4910	-0.005257733
83	0x3c828eef	0.015937297
84	0x3cb5978e	0.022166993
85	0x3cba42ac	0.02273687
86	0xbc1ac06b	-0.00944529
87	0x3c501f3b	0.012702758
88	0xbb7e9c56	-0.0038850508
89	0xbcde9533	-0.027170753
90	0x3c52c0c0	0.012863338
91	0x3cf7186b	0.03016301
92	0xbbd2621a	-0.006420386
93	0xbc683507	-0.014172799
94	0xbb2ac3e3	-0.00260567
95	0xbcb8ec9d	-0.022573764
96	0x3c7ef197	0.015560529
97	0xbc8a5d16	-0.01689009
98	0xbd05d10d	-0.03267007
99	0x3c87832d	0.016542042
100	0x3c52d5b7	0.012868336
101	0x3cf2cfe4	0.029640146
102	0xbbdc6071	-0.006725364
103	0xbc71a3ab	-0.014748494
104	0xbb66b819	-0.0035204946
105	0xbcbf0124	-0.023315974
106	0x3c86ae30	0.016440481
107	0xbc81c392	-0.015840326
108	0xbd0826d6	-0.03324016
109	0x3c8dce2f	0.01731023
110	0x3c0249ef	0.007952197
111	0xbbe9b570	-0.0071322247
112	0xbc41ed75	-0.011836399
113	0x3b97fc76	0.00463825
114	0x3ccafd3e	0.024778958
115	0x3c22eab1	0.00994365
116	0x3ab1a391	0.0013552775
117	0x3c7ddb8a	0.015494237
118	0x3bc0cbdc	0.005883677
119	0xbc5beb8d	-0.013422859
120	0x3baa400b	0.005195623
121	0xbba46c8e	-0.0050178235
122	0xbbd4395a	-0.0064765634
123	0x3c658819	0.014009499
124	0x3cbff998	0.023434445
125	0x3cab3ebc	0.020903938
126	0xbc129d64	-0.008948658
127	0x3c54e1be	0.012993274
128	0xbb3a0ddf	-0.0028389615
129	0xbcd5d7f5	-0.026103953
130	0x3bd149f1	0.0063869883
131	0xbb951c68	-0.0045505054
132	0xbbffbe9a	-0.007804704
133	0x3c44d5d2	0.012013869
134	0x3cc897df	0.02448648
135	0x3c9bdbcc	0.019025706
136	0xbc09cff8	-0.0084114
137	0x3c62bd8e	0.013839139
138	0xba93e701	-0.0011284054
139	0xbcc842f6	-0.024445992
140	0x3b865c5f	0.004100367
141	0xba905683	-0.0011012111
142	0xbba0405a	-0.004890484
143	0x3c9e49a5	0.019322226
144	0x3ca99ddb	0.020705154
145	0x3cb2d428	0.02182968
146	0xbc0fc888	-0.008775838
147	0x3c550ee8	0.013004042
148	0xbb503a4b	-0.0031773027
149	0xbcf78a76	-0.03021739
150	0x3bcf5b25	0.006328004
151	0xbba9dfbe	-0.005184143
152	0xbc02de77	-0.00798761
153	0x3c3913c8	0.01129622
154	0x3ccb00d3	0.024780666
155	0x3c973a49	0.01846041
156	0xbbfd0357	-0.0077213454
157	0x3c566d18	0.013087533
158	0xba78175d	-0.00094639306
159	0xbcc2cc61	-0.023779096
160	0x3c0c1941	0.008550943
161	0xbbbd1469	-0.0057702553
162	0xbc42e86a	-0.011896232
163	0x3ba08e50	0.0048997775
164	0x3ccb1b81	0.024793388
165	0x3c2544e1	0.010087223
166	0x3ac1de4d	0.0014790982
167	0x3c8061e9	0.015671687
168	0x3bbb46d6	0.0057152314
169	0xbc652d35	-0.013987829
170	0x3c538517	0.012910149
171	0x3cf61119	0.03003745
172	0xbbd87632	-0.006605887
173	0xbc6ac0b3	-0.01432817
174	0xbb3e1d41	-0.0029009136
175	0xbcbb0b4a	-0.022832531
176	0x3c819120	0.015816271
177	0xbc874ddf	-0.016516624
178	0xbd069185	-0.032853622
179	0x3c89fb70	0.016843528
180	0x3bd45f56	0.0064810915
181	0xba8da6d6	-0.0010807167
182	0xbbecab65	-0.0072225803
183	0x3c7b89d6	0.015352687
184	0x3cb6082a	0.02222069
185	0x3cadcf1c	0.021216922
186	0xbc2addae	-0.010428829
187	0x3c53729a	0.012905741
188	0xbb86af36	-0.0041102422
189	0xbcd7f81d	-0.026363427
190	0x3bcce6ab	0.0062530837
191	0xbb88d5e2	-0.0041758874
192	0xbbf7d2b3	-0.007562959
193	0x3c4f1e65	0.012641524
194	0x3cc93ea2	0.024565998
195	0x3c9f5d31	0.019453617
196	0xbc0bb5a4	-0.008527193
197	0x3c6b13a9	0.014347949
198	0xbadef987	-0.0017011621
199	0xbccbd635	-0.024882415
200	0x3baa5215	0.005197773
201	0xbb9c287b	-0.004765568
202	0xbbd00b88	-0.006349031
203	0x3c6a9f3f	0.014320194
204	0x3cbee745	0.023303637
205	0x3cacf403	0.021112448
206	0xbc0f046b	-0.008729081
207	0x3c53bf39	0.012924009
208	0xbb323e33	-0.0027197718
209	0xbcd54963	-0.02603597
210	0x3c241d33	0.010016727
211	0x3bb67f7e	0.0055693975
212	0xbc1418b1	-0.00903909
213	0x3c5e3f7c	0.013564941
214	0x3cbcefce	0.023063567
215	0x3c9ccccf	0.01914063
216	0xbbcad0ef	-0.0061894576
217	0x3c65b843	0.014020982
218	0x3b968e82	0.004594625
219	0xbce428c6	-0.027851474
220	0x3c5279e5	0.012846445
221	0x3cf1d3c4	0.029519923
222	0xbbdc6ceb	-0.006726851
223	0xbc735b50	-0.014853314
224	0xbb6b952d	-0.003594707
225	0xbcbf5d57	-0.023359938
226	0x3c87c771	0.016574593
227	0xbc805219	-0.015664147
228	0xbd087a6a	-0.03331987
229	0x3c8f02f9	0.017457472
230	0x3b85b85f	0.0040808166
231	0xbb9ecb4b	-0.0048460118
232	0xbba541b0	-0.005043231
233	0x3c879831	0.016552063
234	0x3cb2e0d5	0.021835724
235	0x3cba994b	0.022778174
236	0xbc1a347f	-0.00941193
237	0x3c54fb38	0.012999348
238	0xbb81e5cd	-0.003964162
239	0xbcde52b8	-0.027139053
240	0x3c541c14	0.0129461475
241	0x3cf23f99	0.029571341
242	0xbbdf980f	-0.0068235467
243	0xbc7239f4	-0.014784325
244	0xbb6ac50c	-0.0035823015
245	0xbcbfd556	-0.023417156
246	0x3c86e5ee	0.01646706
247	0xbc8183b3	-0.01580987
248	0xbd0892ab	-0.033343
249	0x3c8f77e6	0.017513227
250	0x3bab520b	0.005228286
251	0xbba703c3	-0.005096884
252	0xbbd5c7a1	-0.0065240418
253	0x3c634eac	0.013873737
254	0x3cbe8d87	0.023260845
255	0x3ca95f51	0.020675333

net_model.0.bias f4 [128]
0	0x3c7fb7e1	0.015607805
1	0x3c91c20d	0.017792726
2	0x3c807e7d	0.015685314
3	0x3c869261	0.01642722
4	0x3c8b45ef	0.01700112
5	0x3c8c6b29	0.017140942
6	0x3bf29c04	0.0074038524
7	0x3c8985dd	0.016787464
8	0x3c7c6832	0.0154057015
9	0x3be51ff0	0.0069923326
10	0x3bf22d21	0.0073906337
11	0x3c9ba0c9	0.018997567
12	0x3c859604	0.016306885
13	0x3c8a09cd	0.016850377
14	0x3c8b4403	0.017000204
15	0x3c8a85db	0.01690953
16	0x3c9ab0c4	0.018883117
17	0x3bea17f1	0.0071439673
18	0x3c955868	0.018230632
19	0x3c8a2435	0.016862968
20	0x3c84a74e	0.016193058
21	0x3c974ece	0.018470194
22	0x3bf2f4e9	0.0074144495
23	0x3c7db50c	0.0154850595
24	0x3bf29a04	0.007403614
25	0x3c845614	0.016154326
26	0x3c7d88ff	0.015474557
27	0x3c80cdee	0.015723195
28	0x3c929d83	0.017897373
29	0x3bf223c4	0.0073895175
30	0x3c94b3a8	0.018152073
31	0x3c94d246	0.018166672
32	0x3c867497	0.016413016
33	0x3c94f580	0.01818347
34	0x3c657e8f	0.014007225
35	0x3beed0b3	0.0072880625
36	0x3c8de195	0.01731948
37	0x3c951453	0.018198168
38	0x3c96b5bc	0.018397205
39	0x3c642527	0.013924873
40	0x3c9e491a	0.019321967
41	0x3c86f30e	0.01647332
42	0x3c7c55e4	0.015401337
43	0x3c966b6c	0.01836177
44	0x3c94ebac	0.018178783
45	0x3beb9efa	0.0071905823
46	0x3bf2fe6c	0.0074155834
47	0x3c9b1dee	0.01893517
48	0x3c88235d	0.016618425
49	0x3c8c616f	0.017136304
50	0x3c889754	0.016673721
51	0x3c8bfa50	0.017087132
52	0x3bed5112	0.0072423303
53	0x3c77c48d	0.015122545
54	0x3beb6d1a	0.007184637
55	0x3c8c13de	0.017099317
56	0x3c82cf3c	0.015967958
57	0x3c8ae45f	0.016954599
58	0x3c9dd463	0.019266313
59	0x3c7d65e0	0.015466183
60	0x3c7e1356	0.01550754
61	0x3c9347f2	0.017978642
62	0x3c9c50ad	0.019081438
63	0x3c9f541e	0.01944929
64	0x3c92ed6e	0.01793548
65	0x3c87f9ff	0.0165987
66	0x3c9f43a1	0.019441428
67	0x3c95a3a9	0.018266516
68	0x3bf203bf	0.0073857005
69	0x3c8342f2	0.016023133
70	0x3c8d0234	0.017212965
71	0x3bf1ba42	0.00737694
72	0x3c8ca33b	0.017167678
73	0x3c79b668	0.015241243
74	0x3c893860	0.016750515
75	0x3ca1c1bc	0.0197457
76	0x3c9cfd98	0.019163892
77	0x3c848816	0.016178172
78	0x3c897858	0.016781017
79	0x3c89b336	0.016809087
80	0x3c97101c	0.018440299
81	0x3c9d41e4	0.019196458
82	0x3c94b8b9	0.018154489
83	0x3c927ab6	0.017880779
84	0x3c8a579f	0.016887484
85	0x3c83b779	0.016078698
86	0x3c7fbce8	0.015609004
87	0x3cb05170	0.021523207
88	0x3bf1f066	0.007383394
89	0x3c8d99f9	0.017285334
90	0x3b6d61eb	0.0036221694
91	0x3bf1d95e	0.0073806485
92	0x3c8cb3fc	0.017175667
93	0x3c8e0c4d	0.01733985
94	0x3c8cad8c	0.017172597
95	0x3c8e22d0	0.017350584
96	0x3c9f5ba4	0.019452877
97	0x3c8caed1	0.017173203
98	0x3c9289fa	0.017888058
99	0x3c9ac07f	0.018890617
100	0x3be5ee2b	0.007016917
101	0x3bf281b1	0.0074007143
102	0x3bf04554	0.0073324833
103	0x3c975c1f	0.018476544
104	0x3c7ee19d	0.01555672
105	0x3c7aa7d8	0.015298806
106	0x3c8c6cec	0.017141782
107	0x3c822460	0.015886486
108	0x3c860b7b	0.016362896
109	0x3c864bf8	0.016393647
110	0x3c99f40d	0.01879313
111	0x3c8c258c	0.017107747
112	0x3c9d201a	0.019180346
113	0x3c924398	0.017854497
114	0x3c90b937	0.017666442
115	0x3bf2113d	0.007387309
116	0x3bf1af21	0.0073756133
117	0x3c8ae8da	0.016956735
118	0x3c51979a	0.012792492
119	0x3c95f858	0.018306896
120	0x3c5e0ea8	0.013553299
121	0x3c7b4919	0.015337252
122	0x3bf15430	0.0073647723
123	0x3c94bd62	0.018156711
124	0x3beda609	0.007252459
125	0x3c7c9a2e	0.015417619
126	0x3c8af82c	0.01696404
127	0x3c8c306d	0.017112935

net_model.2.weight f4 [64, 128]
0	0x3cbc1145	0.022957454
1	0x3cc67029	0.024223404
2	0x3cbc2476	0.022966605
3	0x3cb4e48c	0.022081636
4	0x3cc1f695	0.02367715
5	0x3cc93f15	0.024566213
6	0xbcf0e34f	-0.029405264
7	0x3cc57c3f	0.024107097
8	0x3cb99a21	0.022656502
9	0xbcee43cd	-0.029085064
10	0xbcefd3ba	-0.029275764
11	0x3cbbfe4a	0.022948403
12	0x3cb503fd	0.022096628
13	0x3cb36ed3	0.021903431
14	0x3cc8c690	0.024508744
15	0x3cb02c5c	0.021505527
16	0x3cb9e3c5	0.022691617
17	0xbcef207d	-0.029190296
18	0x3cc5dc61	0.024152936
19	0x3cb4c580	0.022066832
20	0x3cb35921	0.021893086
21	0x3cd52d02	0.026022438
22	0xbcf03aae	-0.029324856
23	0x3cbb249d	0.022844607
24	0xbcf0c9ba	-0.029393066
25	0x3cb2b700	0.021815777
26	0x3cba4253	0.022736704
27	0x3cb88b94	0.022527494
28	0x3cc7b837	0.024379833
29	0xbceffbfd	-0.029294962
30	0x3cc44150	0.023956925
31	0x3cc68a2e	0.024235811
32	0x3caff7a3	0.021480387
33	0x3cb30e30	0.021857351
34	0x3cab8b2a	0.020940382
35	0xbcefdaa0	-0.029279053
36	0x3cabe5f7	0.02098368
37	0x3cc5d931	0.024151416
38	0x3cbb6126	0.022873472
39	0x3cac52c8	0.021035567
40	0x3cbf8813	0.023380315
41	0x3d5c5d67	0.053800013
42	0x3cb99385	0.02265335
43	0x3cbb451d	0.022860104
44	0x3cb934b9	0.022608148
45	0xbcef425c	-0.029206447
46	0xbcf0aaa9	-0.029378252
47	0x3cbd2f44	0.023093827
48	0x3cb15a28	0.021649435
49	0x3cb391e8	0.02192016
50	0x3cb275a7	0.021784617
51	0x3cc9aeab	0.024619421
52	0xbcef9ad9	-0.029248642
53	0x3cb8018d	0.022461677
54	0xbcef9c16	-0.029249232
55	0x3cc56cb6	0.024099689
56	0x3dbb851a	0.091562465
57	0x3caa95d7	0.020823402
58	0x3cbf4d3c	0.023352258
59	0x3cb983fb	0.022645941
60	0x3cba747a	0.022760618
61	0x3cb6c48e	0.022310521
62	0x3cbca853	0.023029482
63	0x3cc0804b	0.023498675
64	0x3cc73b9d	0.024320418
65	0x3cb1f6ca	0.021724124
66	0x3cbfc138	0.023407564
67	0x3cd0c46f	0.025484292
68	0xbcf07cd7	-0.029356403
69	0x3cb25f69	0.02177401
70	0x3cc63114	0.024193324
71	0xbcf04d9b	-0.02933388
72	0x3cca0d4e	0.024664547
73	0x3da8822e	0.08227955
74	0x3cb25392	0.021768365
75	0x3cc42a37	0.02394591
76	0x3cbe06f9	0.023196684
77	0x3cb2bc88	0.021818414
78	0x3ca4d796	0.02012233
79	0x3cb24eca	0.021766085
80	0x3cd20b2a	0.025640089
81	0x3cbe8142	0.023254994
82	0x3cc4791a	0.023983527
83	0x3cb89992	0.022534166
84	0x3de39e2f	0.111141555
85	0x3cb33b78	0.021878943
86	0x3cbd23d1	0.023088368
87	0x3e078fd2	0.13238457
88	0xbcf023af	-0.02931389
89	0x3cb432db	0.021996906
90	0xbe05919f	-0.13043831
91	0xbcf01968	-0.02930899
92	0x3cb48ecc	0.022040747
93	0x3cb4f15e	0.02208775
94	0x3cb25e0d	0.021773363
95	0x3cc8195e	0.024426159
96	0x3cbfc77e	0.023410555
97	0x3d57fd3d	0.05273174
98	0x3cb8656c	0.0225093
99	0x3cbb271b	0.022845795
100	0xbcedfc90	-0.029051095
101	0xbcf04d2b	-0.029333672
102	0xbcf0271b	-0.029315522
103	0x3cb1e192	0.021714006
104	0x3cbcc6b9	0.023043977
105	0x3cb9db4e	0.02268758
106	0x3cc6cc43	0.024267321
107	0x3cb2326f	0.021752564
108	0x3cb4e6ef	0.022082774
109	0x3caf7dd1	0.021422299
110	0x3cb98969	0.02264853
111	0x3cb24269	0.021760182
112	0x3cbe88ed	0.02325865
113	0x3cb93b4f	0.022611288
114	0x3cb6b987	0.022305263
115	0xbceff42d	-0.029291237
116	0xbcf05015	-0.029335061
117	0x3cb486ea	0.022036988
118	0x3c8dfd30	0.017332643
119	0x3cb1c267	0.021699144
120	0x3c91c29b	0.01779299
121	0x3cb93c0f	0.022611646
122	0xbcf06b44	-0.029348023
123	0x3cc4c8f6	0.024021607
124	0xbcefd4ad	-0.029276216
125	0x3cb8a6f2	0.022540543
126	0x3ca68306	0.020326149
127	0x3cb2e86c	0.021839343
128	0x82c6b0f6	-2.9195056e-37
129	0x0360ad9d	6.602698e-37
130	0x82eed9e1	-3.5096013e-37
131	0x82cae4fd	-2.9812665e-37
132	0x81c9a412	-7.407117e-38
133	0x8265a684	-1.687205e-37
134	0xa51d9213	-1.3667071e-16
135	0x822acd67	-1.2548575e-37
136	0x82a7365c	-2.4569645e-37
137	0xa50b43f7	-1.2079356e-16
138	0xa520c6fe	-1.3945209e-16
139	0x01fa9be2	9.2059177e-38
140	0x8367945e	-6.8055116e-37
141	0x8332c85f	-5.2539513e-37
142	0x824567c0	-1.4503049e-37
143	0x8296cdac	-2.215857e-37
144	0x81a2400d	-5.960131e-38
145	0xa519f685	-1.3354159e-16
146	0x02e391a0	3.3438237e-37
147	0x8271b564	-1.775794e-37
148	0x823897b0	-1.3561717e-37
149	0x82623d3c	-1.6621431e-37
150	0xa5168643	-1.3055916e-16
151	0x8214ebe2	-1.0941018e-37
152	0xa52c8397	-1.4963206e-16
153	0x826edb90	-1.754849e-37
154	0x82f764c7	-3.6351231e-37
155	0x8356b904	-6.3101335e-37
156	0x02b03f23	2.5897114e-37
157	0xa5284c2f	-1.4597489e-16
158	0x01f300d1	8.9265274e-38
159	0x02341620	1.3230661e-37
160	0x0346d801	5.843493e-37
161	0x82bc8bfc	-2.7704464e-37
162	0x82eb7667	-3.4598106e-37
163	0xa5219b82	-1.4017212e-16
164	0x82c65964	-2.9144793e-37
165	0x027fcdc0	1.8793489e-37
166	0x82aa64f5	-2.5037201e-37
167	0x834d34f4	-6.0304873e-37
168	0x823c826f	-1.3849491e-37
169	0x81980d6d	-5.5855247e-38
170	0x82872744	-1.9859005e-37
171	0x828543d2	-1.958152e-37
172	0x016f230e	4.3922518e-38
173	0xa513ab94	-1.280835e-16
174	0xa51d0636	-1.3619684e-16
175	0x83576d6e	-6.330844e-37
176	0x01591b7a	3.987632e-38
177	0x82a6e0b1	-2.4520474e-37
178	0x81b8689a	-6.774102e-38
179	0x8238e698	-1.3584362e-37
180	0xa51d87d1	-1.3663596e-16
181	0x03601b5b	6.5859086e-37
182	0xa5bc29ca	-3.264112e-16
183	0x818c31ba	-5.149923e-38
184	0x833fc972	-5.6361103e-37
185	0x01031fc6	2.4083696e-38
186	0x015a8d5c	4.0141697e-38
187	0x82dad3f2	-3.2153872e-37
188	0x82434c1f	-1.4348183e-37
189	0x835f640c	-6.564866e-37
190	0x0248903d	1.4735074e-37
191	0x832d3476	-5.0900353e-37
192	0x005c7534	8.49091e-39
193	0x81f2221b	-8.89457e-38
194	0x815f2456	-4.09847e-38
195	0x035b1a2c	6.438836e-37
196	0xa51e4daa	-1.3730629e-16
197	0x827e7777	-1.8695258e-37
198	0x02b869c9	2.7097088e-37
199	0xa528011d	-1.4572054e-16
200	0x82d84276	-3.1776494e-37
201	0x800bcf30	-1.084515e-39
202	0x82d3a94f	-3.1100842e-37
203	0x0223223a	1.1985171e-37
204	0x0303a3e2	3.868557e-37
205	0x82fe1738	-3.7335273e-37
206	0x830675e0	-3.9514375e-37
207	0x03169fbd	4.426441e-37
208	0x01e48e24	8.3957934e-38
209	0x035ea207	6.5425935e-37
210	0x02add1f4	2.5540573e-37
211	0x82682e98	-1.705804e-37
212	0x83e33959	-1.3355027e-36
213	0x82ea6d40	-3.4445916e-37
214	0x82bbdf8a	-2.7605486e-37
215	0x8f0fb6da	-7.08566e-30
216	0xa51b2544	-1.3456733e-16
217	0x829263a2	-2.1509958e-37
218	0x9d0cc4d8	-1.8630612e-21
219	0xa51ebc2a	-1.3768068e-16
220	0x826f12b6	-1.7564317e-37
221	0x836b302c	-6.911559e-37
222	0x831c00fb	-4.5845405e-37
223	0x8315b3ee	-4.3993714e-37
224	0x0281034f	1.8956745e-37
225	0x02777fae	1.8183336e-37
226	0x82b74863	-2.6930981e-37
227	0x8315f931	-4.4073222e-37
228	0xa50edf7c	-1.2392256e-16
229	0xa51f7ce5	-1.3833368e-16
230	0xa51ff598	-1.3874262e-16
231	0x828f549a	-2.106052e-37
232	0x8248d4a4	-1.4754704e-37
233	0x819c5dc6	-5.743991e-38
234	0x01c2e750	7.159626e-38
235	0x81f07057	-8.8323276e-38
236	0x826a6a0a	-1.7222037e-37
237	0x82872b17	-1.98612e-37
238	0x823353da	-1.3174907e-37
239	0x82a1f05e	-2.3794788e-37
240	0x82df6b0c	-3.2828347e-37
241	0x828a96b2	-2.0363772e-37
242	0x82f80b8d	-3.6446955e-37
243	0xa52c5180	-1.4946235e-16
244	0xa52b2a66	-1.4846251e-16
245	0x82fe1c79	-3.7338288e-37
246	0x02b4f8f2	2.659151e-37
247	0x022b68c9	1.2593168e-37
248	0x035d2b09	6.4995465e-37
249	0x8231dd46	-1.3067409e-37
250	0xa523b18b	-1.419815e-16
251	0x02ba3597	2.7361003e-37
252	0xa5170b04	-1.3100894e-16
253	0x82a1a0a7	-2.3749034e-37
254	0x83360eeb	-5.350212e-37
255	0x8322c255	-4.7830603e-37

net_model.2.bias f4 [64]
0	0x3c945ba5	0.018110106
1	0xba41b6ae	-0.0007389587
2	0x9818dc74	-1.975684e-24
3	0xb45d9515	-2.0636465e-07
4	0xb96a943b	-0.00022371199
5	0x9b8b5204	-2.3048622e-22
6	0xba2d3bb6	-0.0006608324
7	0xb631a1c2	-2.646921e-06
8	0x8ed00c2d	-5.1287684e-30
9	0xbafa0dbe	-0.0019077582
10	0xafd74fba	-3.916492e-10
11	0x3c941b90	0.01807955
12	0xba9013a5	-0.0010992183
13	0x3c21a9ef	0.0098671755
14	0xbaf1fa35	-0.0018461408
15	0x3c94541d	0.018106515
16	0xbad5d29c	-0.0016313377
17	0xbb3ef0de	-0.0029135267
18	0xbb3a1f56	-0.0028400025
19	0xbaef49b5	-0.0018256219
20	0x3c946b16	0.018117469
21	0xba8464ce	-0.0010100843
22	0x3c948851	0.018131407
23	0x9bea6a01	-3.8780556e-22
24	0x3c939796	0.018016618
25	0x3c93ff71	0.01806614
26	0xb7e02ae7	-2.6722859e-05
27	0xa9c93828	-8.935935e-14
28	0xbb186e3a	-0.002325906
29	0xbacf7c90	-0.0015829969
30	0xba512433	-0.00079781114
31	0x953ebcea	-3.851922e-26
32	0x3c9484a3	0.018129652
33	0xbb17254b	-0.0023063
34	0x3c946b82	0.01811767
35	0x3c93c425	0.018037865
36	0x3c4a9859	0.012365424
37	0xba53141c	-0.0008052008
38	0xb90f0bdf	-0.00013641965
39	0xba92e322	-0.0011206607
40	0x3c93a5db	0.018023422
41	0xb9c0e786	-0.00036793592
42	0x3c937db4	0.018004276
43	0xbb24ea5a	-0.0025164098
44	0x97f29534	-1.5676548e-24
45	0x3c904ee2	0.01761574
46	0x912cdf88	-1.3637288e-28
47	0xbaaca5f7	-0.001317202
48	0xbb3d7029	-0.0028905964
49	0x3c9427ad	0.018085325
50	0x9f8a340b	-5.853137e-20
51	0x8e479155	-2.4598619e-30
52	0x3bab57b2	0.00522896
53	0x3c940061	0.018066587
54	0xb30d4f5f	-3.290131e-08
55	0xbb41bac7	-0.002956079
56	0xbb34cc80	-0.0027587712
57	0x9ae6545a	-9.526205e-23
58	0xba11c669	-0.00055608765
59	0x3c945738	0.018107995
60	0x3c942ae6	0.018086862
61	0xace52214	-6.512355e-12
62	0xb9272b96	-0.00015942598
63	0x3c8d689b	0.017261794

net_model.4.weight f4 [32, 64]
0	0x3d041037	0.032242026
1	0x2e92ecd2	6.681379e-11
2	0x98df49f4	-5.7718823e-24
3	0x021930f7	1.1254717e-37
4	0xbaabf540	-0.0013119355
5	0x830fc4b1	-4.2249714e-37
6	0xbac2497f	-0.0014822929
7	0x2d7b5678	1.4286898e-11
8	0x0351b5bc	6.16282e-37
9	0xbb5338a7	-0.0032229812
10	0xa2905588	-3.912184e-18
11	0x3d041011	0.032241885
12	0xbadfd9a6	-0.0017078414
13	0xbd08b61c	-0.033376798
14	0x3917d3a1	0.0001447932
15	0x3d04303f	0.032272574
16	0x3ab10f38	0.0013508564
17	0x3b11f0fa	0.0022268877
18	0xba509eb8	-0.0007958221
19	0x3b2c1756	0.0026259026
20	0x3d03a852	0.032142945
21	0x3b2a12df	0.002595119
22	0x3d0388f8	0.032113045
23	0x021d0966	1.1537236e-37
24	0x3d04f0b6	0.032456122
25	0x3d0458b0	0.03231114
26	0x3353537e	4.92032e-08
27	0x02c6a54c	2.918836e-37
28	0xbbdfe30d	-0.0068324865
29	0xbc0aa166	-0.008461332
30	0x077f4854	1.9205323e-34
31	0x14109f5c	7.30157e-27
32	0x3d038b4e	0.032115273
33	0xbb30f457	-0.0027001107
34	0x3d0387dd	0.03211199
35	0x3d057010	0.032577574
36	0x3d07f6aa	0.03319422
37	0xb81eb06b	-3.7834438e-05
38	0xac2c0614	-2.4446044e-12
39	0xba25f9a8	-0.0006331452
40	0x3d0491c2	0.032365568
41	0x3a665091	0.0008785809
42	0x3d050848	0.0324786
43	0xbb1fcd1e	-0.0024383734
44	0x2d37760f	1.042856e-11
45	0x3d01fc08	0.031734496
46	0x8c87a911	-2.0901797e-31
47	0x3a17fca4	0.0005797839
48	0xb8173bc1	-3.6056856e-05
49	0x3d0490f8	0.032364815
50	0x82ea1efa	-3.440099e-37
51	0x83160f1d	-4.4098387e-37
52	0x3b9f1307	0.004854563
53	0x3d03e644	0.03220202
54	0x311b2db9	2.258146e-09
55	0x3b3b2766	0.002855742
56	0xba284bff	-0.00064200157
57	0x1a89380e	5.6752433e-23
58	0x37107b61	8.611795e-06
59	0x3d0362fa	0.032076813
60	0x3d03db93	0.032191824
61	0x0281366c	1.8986083e-37
62	0x85984dab	-1.4322542e-35
63	0x3cff9d84	0.031203039
64	0x02ae9238	2.5650928e-37
65	0x03312e79	5.2068973e-37
66	0x80e24d80	-2.0782624e-38
67	0x833f3607	-5.6191876e-37
68	0x034721c7	5.851962e-37
69	0x83206851	-4.7139523e-37
70	0x8303e76c	-3.87631e-37
71	0x826e2c63	-1.7498217e-37
72	0x03552fef	6.26501e-37
73	0x827b52f8	-1.8464378e-37
74	0x036020f4	6.586551e-37
75	0x033de8f8	5.5809543e-37
76	0x8344c347	-5.782339e-37
77	0x027a61b6	1.8395141e-37
78	0x8307ebdc	-3.9943688e-37
79	0x83108b57	-4.247775e-37
80	0x8313969e	-4.3372317e-37
81	0x031dcbf9	4.6372302e-37
82	0x826b0748	-1.7267163e-37
83	0x8347839e	-5.8631933e-37
84	0x0336f44e	5.376544e-37
85	0x825dbe00	-1.6291043e-37
86	0x822ce26e	-1.2701546e-37
87	0x821662f6	-1.104866e-37
88	0x0344e96a	5.786717e-37
89	0x832580c6	-4.8636967e-37
90	0x0308726f	4.009817e-37
91	0x03327476	5.244319e-37
92	0x828c0998	-2.0576658e-37
93	0x81037ce8	-2.4150516e-38
94	0x832ad7a5	-5.0206058e-37
95	0x0313c8d4	4.3429957e-37
96	0x834d14f4	-6.026814e-37
97	0x0336917d	5.3652005e-37
98	0x03449fb6	5.7782562e-37
99	0x81d4f8ce	-7.823352e-38
100	0x83345cb9	-5.3003686e-37
101	0x83515daa	-6.15271e-37
102	0x033d5ee6	5.5651046e-37
103	0x02f17fbe	3.5485088e-37
104	0x034ba7b6	5.984886e-37
105	0x83412d3c	-5.676953e-37
106	0x035caf40	6.4853366e-37
107	0x8302c785	-3.8432604e-37
108	0x82aa2823	-2.5002292e-37
109	0x82affb9c	-2.5858356e-37
110	0x825c0227	-1.6163665e-37
111	0x832ee06d	-5.1391632e-37
112	0x0325a7ba	4.8681683e-37
113	0x0330c5b2	5.1948695e-37
114	0x033c823c	5.5397736e-37
115	0x832ba673	-5.044346e-37
116	0x0330ed88	5.1994424e-37
117	0x8335b0a3	-5.339389e-37
118	0x0322bdc1	4.782535e-37
119	0x83240a5d	-4.8207165e-37
120	0x03057176	3.9215434e-37
121	0x035e9e51	6.5421675e-37
122	0x832dcd2c	-5.1075656e-37
123	0x8334ae7a	-5.3097535e-37
124	0x835156e3	-6.151932e-37
125	0x031c3006	4.589941e-37
126	0x834c5e5a	-6.005852e-37
127	0x8351cc72	-6.165427e-37
128	0x0341d510	5.6962186e-37
129	0x82a97b11	-2.4902955e-37
130	0x830ab78a	-4.0765248e-37
131	0x02f99f90	3.6678846e-37
132	0x82f5943c	-3.6084597e-37
133	0x8369cc78	-6.8707265e-37
134	0x032038c9	4.708496e-37
135	0x034ead6e	6.0737047e-37
136	0x0331edb6	5.2288504e-37
137	0x8314ec75	-4.376473e-37
138	0x830d869b	-4.1590695e-37
139	0x830eca25	-4.19621e-37
140	0x83266fe0	-4.891144e-37
141	0x82c4851b	-2.887601e-37
142	0x82c35040	-2.8698736e-37
143	0x835ba1c8	-6.454403e-37
144	0x031b6b14	4.5673326e-37
145	0x831c8775	-4.5999777e-37
146	0x032ce3a3	5.080757e-37
147	0x0368e5a0	6.844227e-37
148	0x0351eda7	6.169239e-37
149	0x832e14a0	-5.115768e-37
150	0x8354a0b8	-6.2485697e-37
151	0x0326dc3f	4.9035846e-37
152	0x832d43ab	-5.091781e-37
153	0x82f2e4d0	-3.5690036e-37
154	0x83087211	-4.009775e-37
155	0x031405ae	4.349981e-37
156	0x0330050e	5.1727554e-37
157	0x830c50b0	-4.1234927e-37
158	0x832fda1e	-5.1678264e-37
159	0x02152421	1.095716e-37
160	0x833df746	-5.5825964e-37
161	0x82ed6782	-3.488343e-37
162	0x035976d2	6.3906968e-37
163	0x030ecd30	4.1965593e-37
164	0x02823c92	1.9136549e-37
165	0x032a0e10	4.9974653e-37
166	0x034c8aa6	6.0109372e-37
167	0x032319a6	4.793084e-37
168	0x0333d9ea	5.2853525e-37
169	0x8362d152	-6.665572e-37
170	0x828e9fae	-2.0956676e-37
171	0x02b09b13	2.5949884e-37
172	0x8205b46c	-9.823075e-38
173	0x829c4552	-2.2961928e-37
174	0x0313ca2e	4.343151e-37
175	0x035d0b0e	6.4958753e-37
176	0x83195f53	-4.5072086e-37
177	0x02e9426a	3.4274393e-37
178	0x021e83c6	1.1645824e-37
179	0x82e3deb2	-3.3482473e-37
180	0x806ac6f8	-9.805939e-39
181	0x0306b048	3.958142e-37
182	0x03399bce	5.454547e-37
183	0x828bcf1c	-2.054309e-37
184	0x830773dd	-3.980594e-37
185	0x8342963c	-5.7183937e-37
186	0x8285a9fa	-1.9640155e-37
187	0x82e1d507	-3.318305e-37
188	0x0340d056	5.6662887e-37
189	0x835a5d2a	-6.417139e-37
190	0x8306a422	-3.9567476e-37
191	0x0315ab64	4.398391e-37
192	0x0323e8c8	4.8168615e-37
193	0x82e09ee0	-3.3005032e-37
194	0x03509a10	6.130256e-37
195	0x834233a1	-5.7070743e-37
196	0x01c6116a	7.27587e-38
197	0x83383416	-5.413253e-37
198	0x83130c90	-4.321384e-37
199	0x02b62cae	2.6768141e-37
200	0x0309303b	4.0316047e-37
201	0x829b32d5	-2.280438e-37
202	0x02f7fc7d	3.643831e-37
203	0x83196681	-4.5080328e-37
204	0x82e188ae	-3.313923e-37
205	0x8341c4f6	-5.6943702e-37
206	0x02ac52ea	2.532072e-37
207	0x03501345	6.1147827e-37
208	0x02a79f1e	2.4629773e-37
209	0x02db249c	3.220017e-37
210	0x8349967c	-5.924134e-37
211	0x02c48826	2.8877757e-37
212	0x833d5e29	-5.56502e-37
213	0x8319c988	-4.5194005e-37
214	0x8348c5b3	-5.9001665e-37
215	0x03006192	3.7727824e-37
216	0x835cb13a	-6.4855635e-37
217	0x02164f1e	1.1042965e-37
218	0x836611b7	-6.761126e-37
219	0x03337172	5.27336e-37
220	0x830437ab	-3.8855217e-37
221	0x83318f5c	-5.2180194e-37
222	0x83093432	-4.03206e-37
223	0x03112078	4.2648943e-37
224	0x0335002a	5.3191308e-37
225	0x8357bc36	-6.3398877e-37
226	0x82d7a019	-3.1683302e-37
227	0x03210bbd	4.7327123e-37
228	0x034d2f88	6.029865e-37
229	0x03423120	5.706787e-37
230	0x81792efc	-4.5767787e-38
231	0x83546293	-6.241436e-37
232	0x035c9537	6.482348e-37
233	0x034929fb	5.9116782e-37
234	0x03593fcd	6.384381e-37
235	0x034b6499	5.977182e-37
236	0x8223316f	-1.1989535e-37
237	0x82902705	-2.1181294e-37
238	0x836767e8	-6.8004077e-37
239	0x032a3a04	5.002511e-37
240	0x022194fc	1.1871168e-37
241	0x0342fda8	5.730266e-37
242	0x8353043e	-6.2012197e-37
243	0x030d52a4	4.1531043e-37
244	0x831846d9	-4.4750114e-37
245	0x8343f0f5	-5.7581955e-37
246	0x00cbf5c0	1.8730764e-38
247	0x833f8244	-5.6279393e-37
248	0x032b9f9c	5.0435606e-37
249	0x818cec0e	-5.17666e-38
250	0x027a447d	1.8386754e-37
251	0x033e1d14	5.586936e-37
252	0x834b60ed	-5.9767604e-37
253	0x8348f5ac	-5.9056735e-37
254	0x831518ee	-4.3815782e-37
255	0x835878de	-6.3615444e-37

net_model.4.bias f4 [32]
0	0xba2f7cdb	-0.0006694325
1	0xba178109	-0.00057794206
2	0xba0cba4b	-0.0005368336
3	0xba1bb65c	-0.00059399544
4	0xba2e6df1	-0.0006653956
5	0xba06c658	-0.000514125
6	0xba17dbd2	-0.00057929487
7	0xba2e1cc6	-0.0006641861
8	0xba1a308d	-0.00058818684
9	0xba2f2cd3	-0.00066823995
10	0xba2e7c4d	-0.00066560955
11	0xba156e5d	-0.00057003443
12	0xb2c3317a	-2.2723487e-08
13	0xba30c36b	-0.0006742987
14	0xba16bd80	-0.00057502836
15	0xb9d11870	-0.00039881794
16	0xba15e97c	-0.0005718691
17	0xba144bff	-0.0005657076
18	0xba2e297e	-0.0006643756
19	0xb53ae888	-6.9628777e-07
20	0xba2be760	-0.000655761
21	0xba2c8a32	-0.0006581872
22	0xba192015	-0.00058412674
23	0xb81400ce	-3.52867e-05
24	0xba12fbb5	-0.0005606965
25	0xba2f8dfa	-0.00066968764
26	0xb9ad9d60	-0.00033114385
27	0xba2f366d	-0.000668383
28	0xb9db382c	-0.00041812786
29	0xba2e4038	-0.00066471426
30	0xba2c3fdc	-0.0006570795
31	0xba2f1a7a	-0.00066796655

net_model.6.weight f4 [1, 32]
0	0xbcbef627	-0.023310734
1	0x828548c4	-1.958436e-37
2	0x8311165b	-4.2637333e-37
3	0x8242d749	-1.4314653e-37
4	0xbcc1008e	-0.023559835
5	0x01efed30	8.813508e-38
6	0x836b1da0	-6.90943e-37
7	0xbcbf3bd8	-0.023343965
8	0x8280ac14	-1.8906678e-37
9	0xbcc33031	-0.02382669
10	0xbcbed2a1	-0.023293795
11	0x834cd370	-6.019293e-37
12	0x0309c269	4.0483853e-37
13	0xbcbf0f67	-0.023322774
14	0xba1c4ece	-0.00059626705
15	0xb99ecaa4	-0.00030287087
16	0x836030aa	-6.5883547e-37
17	0xba20fccc	-0.00061411853
18	0xbcc291a2	-0.023751084
19	0x836c9447	-6.952438e-37
20	0xbcbfb65b	-0.023402384
21	0xbcc16de3	-0.023611968
22	0x83420a34	-5.702319e-37
23	0x035d98d0	6.5121483e-37
24	0x835edf58	-6.5496323e-37
25	0xbcbeed58	-0.023306534
26	0x83314e3b	-5.210543e-37
27	0xbcbf550a	-0.02335598
28	0xb9d8e5cd	-0.00041369945
29	0xbcbf25bb	-0.023333421
30	0xbcbf0dfe	-0.023322102
31	0xbcbf54c1	-0.023355843
