src/t1dsim_ai/models/IndividualModel/T1DEXI-01-0957/individual_model.pt (torch, 50089 bytes, 7 tensors)

net_model.0.weight f4 [128, 10]
0	0x3cedb873	0.029018616
1	0x3c00a069	0.007850745
2	0xbd06af0c	-0.03288178
3	0x3cdaa92d	0.026691997
4	0x3c155f05	0.009116893
5	0xbb9fe9e6	-0.004880178
6	0x3d269a31	0.040674392
7	0xbd3f458f	-0.046697196
8	0xbc9e62c7	-0.01933421
9	0x3d0540ae	0.032532386
10	0xbbc3b8a3	-0.005972938
11	0x3c8fe683	0.017565971
12	0x3d1d009a	0.03833065
13	0x3b06c6d6	0.0020565293
14	0x3beaff41	0.007171542
15	0x3ca18624	0.019717284
16	0x3d109b09	0.035304103
17	0xbc4a0626	-0.012330567
18	0x3c825aec	0.015912496
19	0x3d18023a	0.0371115
20	0x3b932979	0.004491028
21	0xbab97647	-0.0014149629
22	0x3bf0728a	0.007337873
23	0xba976ff5	-0.0011553752
24	0x3ba45af3	0.005015725
25	0xb99af20f	-0.00029553517
26	0x3cebb66e	0.028773513
27	0xbd90ad9b	-0.070643626
28	0x3b28633b	0.0025693912
29	0x3d0579d8	0.032586902
30	0x3cf8d247	0.030373706
31	0x3bb1315a	0.0054074945
32	0xbd108c48	-0.035290033
33	0x3ce442d9	0.027863907
34	0x3c2a9326	0.0104110595
35	0x3c02efb1	0.007991717
36	0x3d2afd5e	0.041745536
37	0xbd3d66a1	-0.046240453
38	0xbcb6040b	-0.022218725
39	0x3d067988	0.032830745
40	0x3cf7a029	0.030227738
41	0x3bacac5a	0.0052695693
42	0xbd0fe79b	-0.035132986
43	0x3ce66b86	0.028127443
44	0x3c2990ac	0.010349434
45	0x3bff0fab	0.00778385
46	0x3d2ae2bf	0.04172015
47	0xbd3dde9c	-0.046354875
48	0xbcb538e2	-0.02212185
49	0x3d069514	0.032857016
50	0x3cee40a9	0.029083567
51	0x3bf33e45	0.0074231946
52	0xbd0758e6	-0.033043765
53	0x3cde24ec	0.027117215
54	0x3c176b97	0.00924196
55	0xbb744eca	-0.0037278407
56	0x3d275a11	0.04085738
57	0xbd3f5422	-0.046711095
58	0xbca12bee	-0.019674268
59	0x3d05851c	0.032597646
60	0x3cde3a05	0.027127275
61	0x3c03b999	0.008039855
62	0xbd004edf	-0.031325217
63	0x3cc65965	0.024212549
64	0x3bb342a0	0.005470589
65	0xbc544662	-0.012956234
66	0x3d219018	0.03944406
67	0xbd3d54f7	-0.046223607
68	0xbc78084a	-0.015138695
69	0x3d04c17e	0.03241109
70	0x3b94284d	0.004521406
71	0xbae34947	-0.0017340564
72	0x3be5e57f	0.0070158835
73	0xba5579b1	-0.00081434386
74	0x3ba4825c	0.005020423
75	0xb9ccbc55	-0.0003905023
76	0x3cecff86	0.028930437
77	0xbd93c872	-0.07215966
78	0x3b4b0241	0.0030976685
79	0x3d053745	0.032523412
80	0x3b35b2f6	0.0027725077
81	0xbaffa7b6	-0.0019504938
82	0x3c2e3eb7	0.01063507
83	0xbb1e0ac7	-0.002411531
84	0x3b87ba1a	0.004142058
85	0xbb95d702	-0.00457275
86	0x3ceded89	0.02904393
87	0xbd81fbff	-0.063468926
88	0x3b6d7ede	0.0036238949
89	0x3d0dd253	0.03462441
90	0xbb8c1ae6	-0.0042756675
91	0x3c5359f3	0.0128998635
92	0x3d07cb98	0.033153147
93	0x3a7e9d3e	0.0009712762
94	0x3aa43339	0.0012527473
95	0x3c620f4c	0.013797592
96	0x3d110085	0.035400886
97	0xbcfa1707	-0.030528558
98	0x3b8562f3	0.0040706336
99	0x3d1584d6	0.036503635
100	0x3afd4f95	0.0019326085
101	0xb9e4b12f	-0.0004361956
102	0x3c7bc4d9	0.015366756
103	0x3b3656d7	0.0027822757
104	0x3b401eaa	0.0029315152
105	0xbba26e63	-0.004957007
106	0x3cf0aebb	0.029380193
107	0xbd7b5204	-0.061357513
108	0x3b48b0c8	0.0030622948
109	0x3d0dec1b	0.034648996
110	0x3b6ff479	0.0036614223
111	0xba61b9b3	-0.000861074
112	0x3c128b17	0.008944294
113	0xbb2a5f76	-0.002599684
114	0x3baff80e	0.0053701466
115	0xb92aa6e3	-0.00016274634
116	0x3ceb2db4	0.028708316
117	0xbd8a3d9c	-0.06750032
118	0x3b26c02f	0.002544414
119	0x3d042b79	0.03226802
120	0x3a5a17a0	0.00083195604
121	0x3ba98aae	0.0051740026
122	0x3cbce40e	0.023057964
123	0x3b2ba309	0.0026189706
124	0x3a6f4437	0.0009127291
125	0x3b5c6239	0.0033627881
126	0x3cf85636	0.030314546
127	0xbd5fc052	-0.05462677
128	0x3b86634e	0.0041011935
129	0x3d08b4bd	0.03337549
130	0xbb5f3d8a	-0.003406378
131	0x3c2dc5d4	0.010606248
132	0x3cff65c0	0.031176448
133	0x3affff7c	0.0019531096
134	0x39a6c460	0.00031808298
135	0x3c2eb527	0.010663307
136	0x3d0f5999	0.034997556
137	0xbd19ee62	-0.037580855
138	0x3b504151	0.0031777213
139	0x3d11992b	0.035546463
140	0x3b67b737	0.0035357007
141	0xba7e52a5	-0.0009701646
142	0x3c190340	0.009339154
143	0xbb3e9d93	-0.002908562
144	0x3bb0d733	0.0053967475
145	0xba0919dd	-0.0005229989
146	0x3ce823d5	0.028337399
147	0xbd8908f5	-0.066911615
148	0x3b0f5f04	0.0021876702
149	0x3d0427ed	0.03226464
150	0x3cebe2ac	0.028794609
151	0x3bf975ee	0.0076129353
152	0xbd058fa0	-0.032607675
153	0x3cdda99e	0.027058419
154	0x3c13667c	0.008996602
155	0xbba06df8	-0.004895922
156	0x3d266845	0.040626783
157	0xbd402f0d	-0.04691987
158	0xbc9d5dd0	-0.019209772
159	0x3d05715d	0.032578815
160	0xbbd05304	-0.0063575525
161	0x3c89d035	0.016822914
162	0x3d1b1a49	0.037866864
163	0x3a88425c	0.0010395753
164	0x3bcc19ec	0.006228676
165	0x3c9ed7b1	0.019389959
166	0x3d0f14aa	0.034931816
167	0xbc614bd8	-0.013750993
168	0x3c701af3	0.014654863
169	0x3d19a6b8	0.03751251
170	0x3cdf2439	0.027238952
171	0x3c8afae7	0.016965343
172	0xbd1cfc7e	-0.038326733
173	0xbc1c6c27	-0.00954727
174	0xbb1fa15f	-0.002435766
175	0xbd0c25a5	-0.034215588
176	0x3d21777e	0.039420597
177	0xbd3af4b1	-0.045643512
178	0xbb7a86fa	-0.0038227425
179	0x3d027c9d	0.03185712
180	0x3b90eb61	0.0044225906
181	0xbac3a126	-0.0014925345
182	0x3bf03c8d	0.007331437
183	0xba9280a5	-0.0011177255
184	0x3ba4efe0	0.005033478
185	0xb9b78ef7	-0.00035010997
186	0x3cec0b78	0.028814062
187	0xbd918115	-0.071046986
188	0x3b315cb8	0.0027063321
189	0x3d057a8a	0.032587565
190	0x3b907b98	0.004409265
191	0xbac45a87	-0.0014980593
192	0x3bf0a7d1	0.007344224
193	0xba93c459	-0.0011273726
194	0x3ba59c9a	0.0050540688
195	0xb9a7d794	-0.0003201334
196	0x3cec923c	0.028878324
197	0xbd91862e	-0.07105671
198	0x3b3b5d1b	0.002858943
199	0x3d053aa9	0.032526646
200	0x3a314b38	0.00067632226
201	0x3bab9614	0.0052363966
202	0x3cbe1594	0.023203649
203	0x3b237935	0.0024944071
204	0x3a80d7ec	0.0009829975
205	0x3b66cf4c	0.0035218773
206	0x3cf927fb	0.030414572
207	0xbd5e15f7	-0.054220166
208	0x3b88b3f6	0.0041718436
209	0x3d08e57c	0.03342198
210	0x3b70c112	0.0036736173
211	0xba6189b3	-0.00086035876
212	0x3c128bf5	0.008944501
213	0xbb29b8c9	-0.0025897494
214	0x3bafa393	0.0053600757
215	0xb9390623	-0.00017645261
216	0x3ceaf6bf	0.02868211
217	0xbd8a06d0	-0.06739581
218	0x3b232fba	0.0024900273
219	0x3d0429d8	0.032266468
220	0x3cb4ec78	0.022085413
221	0x3cdcddb9	0.026961194
222	0xbd0de9bd	-0.03464674
223	0xbcc901f2	-0.02453706
224	0xbce2e03c	-0.027694814
225	0xbd988294	-0.07446781
226	0x3d0a40f6	0.033753358
227	0xbd208ae6	-0.039194964
228	0x3becc3a7	0.007225472
229	0x3cfb21ee	0.030655827
230	0x3b94f6f9	0.004546043
231	0xbadfc86d	-0.0017073281
232	0x3be548fc	0.006997226
233	0xba55aae4	-0.000815077
234	0x3ba423b0	0.005009137
235	0xb9c73a38	-0.00037999614
236	0x3cec9ac7	0.028882397
237	0xbd938573	-0.07203188
238	0x3b485e5c	0.003057382
239	0x3d052e41	0.032514814
240	0x3ae2e7fa	0.0017311566
241	0x3b6d0629	0.0036167002
242	0x3ca89ebc	0.020583503
243	0x3b5ad786	0.0033392622
244	0x3a783990	0.00094690267
245	0x3abbf0f3	0.0014338776
246	0x3cf1dfd5	0.029525677
247	0xbd6fc175	-0.058534104
248	0x3af48984	0.0018656706
249	0x3d07c19b	0.03314362
250	0x3cf90c97	0.030401511
251	0x3b900ebf	0.004396289
252	0xbd11ed38	-0.03562662
253	0x3ceb1c2a	0.028699953
254	0x3c2e2346	0.010628527
255	0x3c3bab11	0.01145436

net_model.0.bias f4 [128]
0	0x3d1b1a09	0.037866626
1	0xbd028e6d	-0.03187411
2	0xbcb522c4	-0.022111304
3	0x3d24442a	0.04010407
4	0x3d240743	0.040045988
5	0x3d1c40fd	0.038147915
6	0x3d16ac5e	0.036785476
7	0xbcb34e19	-0.021887826
8	0xbc7d7fd6	-0.015472373
9	0xbcc886a9	-0.024478273
10	0xbc70265a	-0.014657581
11	0xbcad32a1	-0.021142306
12	0xbc8b9c16	-0.017042201
13	0xbcac97d3	-0.02106849
14	0xbca669a3	-0.020314043
15	0x3d1ac1f4	0.037782624
16	0xbd032b97	-0.032023992
17	0x3d03e32d	0.032199074
18	0xbcb3b7a9	-0.021938162
19	0xbcb34387	-0.021882785
20	0xbc8d2f5f	-0.017234502
21	0xbcad503e	-0.021156427
22	0x3cf8398a	0.030300874
23	0xbcb361f1	-0.021897288
24	0xbc8057ea	-0.01566692
25	0x3d25b84b	0.04045896
26	0xbcf35b15	-0.029706517
27	0x3d2459b2	0.040124603
28	0x3d1b0ba1	0.037852887
29	0xbc95c78e	-0.018283632
30	0x3d1ae319	0.037814233
31	0xbcdfc860	-0.027317226
32	0xbcda0433	-0.02661333
33	0x3d1b57c4	0.037925497
34	0x3d2692fe	0.040667526
35	0x3d23d650	0.039999306
36	0x3d1c21bc	0.03811811
37	0x3d23c61f	0.039983865
38	0xbcd93091	-0.026512416
39	0x3d1925f4	0.03738971
40	0x3d226353	0.039645504
41	0x3cfd385e	0.030910667
42	0xbcb112b4	-0.021615364
43	0xbc79fff6	-0.01525878
44	0xbc8c9096	-0.017158788
45	0x3d195915	0.03743847
46	0x3d259488	0.040424854
47	0x3d21d194	0.03950651
48	0xbcb3b43f	-0.021936534
49	0xbcb34ecc	-0.02188816
50	0x3d1acc48	0.037792474
51	0x3d1a8052	0.037720032
52	0x3cfb828a	0.030701894
53	0xbcb35631	-0.021891685
54	0x3d257350	0.040393174
55	0xbcb2fb46	-0.021848332
56	0x3d17e826	0.03708663
57	0xbcac322c	-0.021020018
58	0xbc6fb1cc	-0.014629792
59	0xbcb3c355	-0.021943728
60	0xbd00fc3c	-0.03149055
61	0xbcb36ed4	-0.021903433
62	0xbcaa7c10	-0.02081111
63	0xbca7f7f9	-0.020503985
64	0xbcc2e3a8	-0.023790196
65	0xbcb0a7c8	-0.02156438
66	0x3d1d0d04	0.03834249
67	0x3d0359fa	0.03206823
68	0x3d1d18f0	0.03835386
69	0xbcac1e5b	-0.021010568
70	0xbd025a09	-0.031824145
71	0x3d1a2e75	0.03764196
72	0xbc97d1cb	-0.018532654
73	0xbc7cf767	-0.015439845
74	0xbcb45ac6	-0.02201594
75	0xbc8e84cc	-0.017397307
76	0xbcb22ce1	-0.021749916
77	0x3d254304	0.040347114
78	0xbc92a1d2	-0.017899428
79	0xbd0c47f1	-0.034248296
80	0xbcb4673d	-0.022021884
81	0xbca7e4c9	-0.020494835
82	0xbcb3c35b	-0.021943739
83	0xbcac437b	-0.021028271
84	0xbcb444aa	-0.022005398
85	0xbcaf65dc	-0.021410875
86	0xbc82b2b0	-0.015954345
87	0xbcb2e610	-0.021838218
88	0x3d26a2de	0.040682666
89	0xbd0510c0	-0.032486677
90	0xbcfca0b2	-0.030838344
91	0xbcb39d39	-0.021925556
92	0x3d251318	0.040301412
93	0xbcb430ea	-0.02199598
94	0x3d1cb131	0.03825492
95	0x3d24ad59	0.04020438
96	0x3d04f232	0.032457538
97	0xbcb2fde1	-0.021849575
98	0xbced6b52	-0.028981838
99	0x3cfb3302	0.03066397
100	0x3d237139	0.0399029
101	0xbcd7a014	-0.026321448
102	0x3cf76051	0.030197294
103	0x3d11e123	0.035615098
104	0x3d23ecce	0.040020756
105	0xbc7fcac1	-0.015612305
106	0xbcb23255	-0.021752516
107	0xbcb45d22	-0.022017065
108	0xbcb3354b	-0.021875998
109	0x3d04762d	0.032339264
110	0xbce58ad2	-0.028020296
111	0xbcde6bcb	-0.027151009
112	0xbce0690b	-0.027393838
113	0x3d1ee209	0.038789783
114	0x3cf82c5d	0.030294592
115	0xbc8137fb	-0.015773764
116	0x3d1a8eb9	0.037733767
117	0xbc80e7f1	-0.015735598
118	0x3d263661	0.040579204
119	0x3cf89ba8	0.03034766
120	0xbcb2e2d7	-0.021836681
121	0xbcad06a1	-0.021121325
122	0x3d020c32	0.03174991
123	0x3d1a6e89	0.03770307
124	0x3d2416d2	0.040060826
125	0x3d16ea56	0.036844574
126	0x3d1a37c4	0.03765084
127	0xbcb36666	-0.021899413

net_model.2.weight f4 [64, 128]
0	0x3c3c3709	0.011487731
1	0xbce7cf5c	-0.028297119
2	0xbcbe41c6	-0.023224723
3	0x3c55fa1d	0.01306012
4	0x3c59bf9c	0.013290312
5	0x3c4238d8	0.011854373
6	0x3c46a8b9	0.012125188
7	0xbcc2bdc6	-0.023772132
8	0xbc84bfc9	-0.016204732
9	0xbc96a5f6	-0.018389683
10	0xbc82f7a7	-0.01598723
11	0xbc9e400a	-0.019317646
12	0xbc78e475	-0.015191187
13	0xbc875911	-0.016521962
14	0xbc96b867	-0.018398477
15	0x3c42a48a	0.0118800495
16	0xbce1aa12	-0.027546916
17	0x3c1d80de	0.009613244
18	0xbcbdc16b	-0.023163518
19	0xbcbc561f	-0.022990284
20	0xbc78ba25	-0.015181099
21	0xbc9e4790	-0.019321233
22	0x3ca69f36	0.02033959
23	0xbcc32aef	-0.023824183
24	0xbc7ddb18	-0.015494131
25	0x3c6738bf	0.01411265
26	0xbd1be380	-0.038058758
27	0x3c9c3aa9	0.01907094
28	0x3c3db3a2	0.011578472
29	0xbc811503	-0.01575709
30	0x3c36afe9	0.011150339
31	0xbd07e14b	-0.03317384
32	0xbd01d519	-0.031697366
33	0x3c3d8b75	0.011568894
34	0x3c64a2d2	0.013954835
35	0x3c5bbf7a	0.013412351
36	0x3c3e1179	0.0116008455
37	0x3c5b48b6	0.013384035
38	0xbd016c9e	-0.031597726
39	0x3c3abe68	0.011397935
40	0x3d95417b	0.0728788
41	0x3c52c17e	0.012863515
42	0xbcb6945c	-0.02228754
43	0xbc7df219	-0.015499615
44	0xbc81a25e	-0.015824493
45	0x3c3fb5b8	0.01170104
46	0x3c68606c	0.014183145
47	0x3c8a7b93	0.016904628
48	0xbcc37378	-0.02385877
49	0xbcc2f48f	-0.023798255
50	0x3c436211	0.011925236
51	0x3c39acc7	0.011332697
52	0x3cdf962b	0.027293285
53	0xbcca4269	-0.02468987
54	0x3c6606c5	0.0140397
55	0xbcac8f5b	-0.021064451
56	0x3ce83118	0.028343722
57	0xbc9cf5d1	-0.019160183
58	0xbc8235ff	-0.015894888
59	0xbcc10ed7	-0.023566647
60	0xbd33c394	-0.04388769
61	0xbcc32e1a	-0.023825694
62	0xbc9ae34f	-0.018907217
63	0xbc7a5522	-0.015279086
64	0xbc92b926	-0.017910551
65	0xbcb58f31	-0.022163006
66	0x3c4029ce	0.011728717
67	0x3c1dee90	0.009639397
68	0x3c3eeb6a	0.011652807
69	0xbc9ccebb	-0.019141546
70	0xbd002072	-0.031280942
71	0x3c403de4	0.011733506
72	0xbc8ceee7	-0.017203761
73	0xbc856898	-0.016285226
74	0xbcbdef7a	-0.02318548
75	0xbc795452	-0.015217857
76	0xbcafa40a	-0.021440525
77	0x3c572f68	0.013133861
78	0xbc874449	-0.016512053
79	0xbdacad22	-0.0843146
80	0xbcbc38d9	-0.022976326
81	0xbc7c95af	-0.015416547
82	0xbcc8ab32	-0.024495695
83	0xbc9d1043	-0.019172793
84	0xbcbd65d7	-0.02311985
85	0xbca0d15f	-0.019631086
86	0xbc852384	-0.016252287
87	0xbcae98b1	-0.021313043
88	0x3c625b1c	0.0138156675
89	0xbd49cb70	-0.04926628
90	0xbcc5c1a6	-0.02414019
91	0xbcc85128	-0.02445276
92	0x3c64c078	0.013961904
93	0xbcc174bb	-0.023615232
94	0x3c3da403	0.011574748
95	0x3c57ef66	0.013179636
96	0x3c1d8d40	0.009616196
97	0xbcbaa019	-0.022781419
98	0xbcabf87c	-0.02099251
99	0x3cdf724b	0.027276179
100	0x3cbd04a7	0.023073507
101	0xbc9eadcf	-0.019369988
102	0x3ca16e42	0.019705895
103	0x3d5e44c9	0.054264817
104	0x3c515dd5	0.012778719
105	0xbc8488ab	-0.01617845
106	0xbcac1a13	-0.021008527
107	0xbcbd10b7	-0.02307926
108	0xbcc25630	-0.023722738
109	0x3c1dcee7	0.009631849
110	0xbca83765	-0.020534227
111	0xbd06e7e0	-0.032935977
112	0xbca4c530	-0.020113558
113	0x3c4927b8	0.012277536
114	0x3c9efe17	0.019408269
115	0xbc7d688c	-0.01546682
116	0x3c3c7d9d	0.011504558
117	0xbc864d1a	-0.016394187
118	0x3c5c981d	0.013464001
119	0x3c9e71ab	0.01934131
120	0xbcacbba0	-0.02108556
121	0xbc9d4fef	-0.019203154
122	0x3c22c6a8	0.009935059
123	0x3c3b975a	0.011449659
124	0x3c51c75d	0.01280388
125	0x3c4aaf75	0.012370934
126	0x3c34acde	0.011027543
127	0xbcc0b8fe	-0.023525711
128	0x832214ef	-4.763155e-37
129	0x0357a206	6.3368815e-37
130	0x821a555a	-1.1338628e-37
131	0x8225c6f3	-1.2179381e-37
132	0x82922523	-2.1474087e-37
133	0x0070ba30	1.0352367e-38
134	0x83065da7	-3.948657e-37
135	0x81d8a658	-7.958456e-38
136	0x019d92c8	5.788331e-38
137	0x82f1e8ac	-3.5545314e-37
138	0x82f974c5	-3.6654284e-37
139	0x01b80e36	6.7611317e-38
140	0x032263bf	4.7722024e-37
141	0x02705387	1.7656386e-37
142	0x81bd61f4	-6.956819e-38
143	0x836db82b	-6.9859455e-37
144	0x8358b1d0	-6.3680814e-37
145	0x833be2c4	-5.5214675e-37
146	0x0237c26a	1.3500511e-37
147	0x81728218	-4.4541718e-38
148	0x8324a077	-4.8379473e-37
149	0x8302c786	-3.843261e-37
150	0x814e5c08	-3.7902254e-38
151	0x820f59e0	-1.0531774e-37
152	0x8256503e	-1.5745265e-37
153	0x02b139bc	2.604095e-37
154	0x836b37bc	-6.9124273e-37
155	0x02b54b6c	2.663885e-37
156	0x82100e4d	-1.0583553e-37
157	0x82855216	-1.9589709e-37
158	0x02288d43	1.2383231e-37
159	0x83007264	-3.7747133e-37
160	0x830ec396	-4.195457e-37
161	0x027bde35	1.8504338e-37
162	0x82e51ed2	-3.3666216e-37
163	0x830b950e	-4.1019535e-37
164	0x0321329d	4.737175e-37
165	0x01be36f2	6.987382e-38
166	0x82af7556	-2.5781286e-37
167	0x8333bbb1	-5.281883e-37
168	0x826941a0	-1.713697e-37
169	0x01774e5c	4.5422955e-38
170	0x82764a3c	-1.809453e-37
171	0x021c3855	1.1477236e-37
172	0x82ae0990	-2.557249e-37
173	0x035aa8bc	6.425814e-37
174	0x8201e47a	-9.542993e-38
175	0x829edfdc	-2.3344502e-37
176	0x02941b06	2.1762156e-37
177	0x819da65e	-5.7911417e-38
178	0x0344585f	5.770067e-37
179	0x0266d921	1.6960044e-37
180	0x033ca85a	5.5441493e-37
181	0x83048d74	-3.8953694e-37
182	0x8310d507	-4.256234e-37
183	0x021f426e	1.170054e-37
184	0x0326c5ec	4.901022e-37
185	0x02879d74	1.992684e-37
186	0x021ef3b2	1.1677944e-37
187	0x02ad867e	2.549726e-37
188	0x0321e338	4.757448e-37
189	0x023eb430	1.4010707e-37
190	0x02b2a292	2.624806e-37
191	0x032aadd6	5.0158064e-37
192	0x834dcd6c	-6.04799e-37
193	0x82a05659	-2.3559448e-37
194	0x8337434b	-5.3856115e-37
195	0x83482750	-5.8819846e-37
196	0x0312d5f4	4.315115e-37
197	0x01d82376	7.939675e-38
198	0x032ad46a	5.020235e-37
199	0x031bc55e	4.5776973e-37
200	0x82c3b587	-2.8756866e-37
201	0x00959118	1.3735539e-38
202	0x03005d59	3.7722977e-37
203	0x82cb6701	-2.988729e-37
204	0x829220fc	-2.1471704e-37
205	0x018595d2	4.9071466e-38
206	0x834795f1	-5.865297e-37
207	0x82bd5154	-2.7817734e-37
208	0x0220fbc2	1.1827194e-37
209	0x825bfbae	-1.6161807e-37
210	0x822ad5c2	-1.2550973e-37
211	0x80263b78	-3.511082e-39
212	0x021c81ba	1.14983e-37
213	0x820738db	-9.93455e-38
214	0x805e0738	-8.635126e-39
215	0x020ef711	1.0503417e-37
216	0x8297f34c	-2.2327101e-37
217	0x0285c5b5	1.9656072e-37
218	0x02695626	1.714286e-37
219	0x8323bbb5	-4.811687e-37
220	0x82e53ac2	-3.3682251e-37
221	0x02aa4f5e	2.502481e-37
222	0x0348209f	5.8812165e-37
223	0x82bcccac	-2.7741593e-37
224	0x8339431b	-5.4443647e-37
225	0x82689082	-1.708614e-37
226	0x0310d108	4.2557753e-37
227	0x035a1a5f	6.4094715e-37
228	0x03303595	5.178326e-37
229	0x834a242f	-5.9404e-37
230	0x82c48350	-2.8874981e-37
231	0x034e95b4	6.070981e-37
232	0x8302f2a8	-3.848212e-37
233	0x834b692c	-5.977707e-37
234	0x823f305a	-1.404634e-37
235	0x01c71d5a	7.314317e-38
236	0x82afb1ef	-2.5816068e-37
237	0x832dcc68	-5.1074778e-37
238	0x83209b14	-4.7197795e-37
239	0x82ccf929	-3.0118117e-37
240	0x82eeabdb	-3.5069597e-37
241	0x82f7294a	-3.6317087e-37
242	0x03193e21	4.503398e-37
243	0x01950082	5.4734684e-38
244	0x035ad988	6.4314156e-37
245	0x830b069b	-4.085601e-37
246	0x0246c996	1.4604595e-37
247	0x0351bfef	6.163991e-37
248	0x0181ee76	4.772929e-38
249	0x82084666	-1.0011905e-37
250	0x834d931f	-6.041297e-37
251	0x0171a304	4.4381667e-38
252	0x82c143e4	-2.8397769e-37
253	0x03551b90	6.2626714e-37
254	0x02b374ee	2.63688e-37
255	0x81760eb8	-4.5193624e-38

net_model.2.bias f4 [64]
0	0x3d174987	0.036935356
1	0xb2426fa3	-1.13176695e-08
2	0xb850cdb2	-4.9782633e-05
3	0xba3f0c27	-0.00072878826
4	0xba96a01b	-0.0011491807
5	0x3cea78e2	0.028622095
6	0x3be893e8	0.00709771
7	0xb614c676	-2.2169238e-06
8	0xa9b1852b	-7.88348e-14
9	0xb298daf0	-1.779469e-08
10	0xb30f0bc0	-3.330547e-08
11	0xb2d92022	-2.5276737e-08
12	0x3d4e23d7	0.05032715
13	0xbad0ad8f	-0.0015920865
14	0xba84d2c5	-0.0010133615
15	0xb198cc5d	-4.4470156e-09
16	0xbb02fbac	-0.0019986434
17	0x3d436a81	0.047708992
18	0x3bf90d81	0.0076004867
19	0xbac41a1a	-0.0014961392
20	0xba721728	-0.0009235018
21	0xae97115a	-6.869767e-11
22	0xb9a04a2f	-0.0003057285
23	0xb80a3b43	-3.2956956e-05
24	0xba53e8b1	-0.0008083685
25	0xb9a145c1	-0.00030760284
26	0x3d4e579b	0.050376516
27	0xb6712198	-3.5931353e-06
28	0xb249614b	-1.1721862e-08
29	0xb3019832	-3.0173574e-08
30	0xb0d72c26	-1.5655857e-09
31	0xb1a467ba	-4.7848205e-09
32	0x9724ebe5	-5.3289e-25
33	0xb392d5d0	-6.837547e-08
34	0x3d3724c8	0.04471281
35	0xb0f4a274	-1.7799509e-09
36	0xad8e01e6	-1.6144374e-11
37	0xb2429e70	-1.1328311e-08
38	0xb2101b7a	-8.388151e-09
39	0xafdc43d5	-4.0065964e-10
40	0xb18956c5	-3.9970893e-09
41	0xb261b954	-1.3138862e-08
42	0xba6c7e80	-0.00090215355
43	0xb8ec7abd	-0.00011276219
44	0xb352c2fb	-4.907177e-08
45	0xbb021312	-0.0019847793
46	0xa08daf86	-2.400248e-19
47	0xb1f96d4d	-7.25928e-09
48	0x3d4dacca	0.050213613
49	0xb9e8da34	-0.00044413062
50	0xb3077884	-3.1541745e-08
51	0x3d4dd0e4	0.05024804
52	0xaf829d54	-2.375865e-10
53	0x3d4e1a47	0.05031803
54	0xb015dad1	-5.451684e-10
55	0xb08b8431	-1.0151152e-09
56	0xaed410c1	-9.64362e-11
57	0xb27e5b5f	-1.4805521e-08
58	0x3d1ebbda	0.038753368
59	0x3bdf0d59	0.006807011
60	0x3d1f3f5c	0.038878784
61	0xb2a6e3d4	-1.9428548e-08
62	0xb09639d4	-1.0930372e-09
63	0xac895122	-3.9027817e-12

net_model.4.weight f4 [32, 64]
0	0x834c636d	-6.0064347e-37
1	0x8341f0b0	-5.69939e-37
2	0x836b130c	-6.908216e-37
3	0x8299a1e2	-2.2574246e-37
4	0x033d6682	5.565978e-37
5	0x834cfc14	-6.0239583e-37
6	0x833fae70	-5.63301e-37
7	0x03500650	6.1132953e-37
8	0x033a576d	5.4760847e-37
9	0x836bafb6	-6.9262e-37
10	0x032f9bb2	5.1606607e-37
11	0x8194a24e	-5.459951e-38
12	0x03322570	5.2352475e-37
13	0x035d3c82	6.5015522e-37
14	0x831e73f8	-4.6565152e-37
15	0x834597bf	-5.8067293e-37
16	0x0351f924	6.170558e-37
17	0x82de24d8	-3.2641116e-37
18	0x821878ab	-1.1201826e-37
19	0x82b24d35	-2.6199064e-37
20	0x832f3b05	-5.149563e-37
21	0x83418daa	-5.6880225e-37
22	0x83421152	-5.703136e-37
23	0x0326f68a	4.906603e-37
24	0x032afaf4	5.024659e-37
25	0x82fe5cbe	-3.7375177e-37
26	0x030d0402	4.1440777e-37
27	0x031278bf	4.3044154e-37
28	0x030f7b28	4.21653e-37
29	0x83442039	-5.7636213e-37
30	0x03064914	3.946295e-37
31	0x0335dc7f	5.3444236e-37
32	0x82d18b34	-3.0789689e-37
33	0x834c0e0c	-5.9966337e-37
34	0x036dc028	6.9868625e-37
35	0x8312d34a	-4.314809e-37
36	0x834c1bc1	-5.998207e-37
37	0x8366d2e9	-6.783304e-37
38	0x836675aa	-6.7725997e-37
39	0x8333aa9f	-5.2799236e-37
40	0x0355ec78	6.2866527e-37
41	0x0364ab2c	6.7199674e-37
42	0x02ae12da	2.5577822e-37
43	0x8357324e	-6.324057e-37
44	0x0329722b	4.9795695e-37
45	0x8304b921	-3.900383e-37
46	0x0323bdf6	4.811946e-37
47	0x8340a566	-5.6613597e-37
48	0x80741d98	-1.0663534e-38
49	0x832b27fa	-5.0298274e-37
50	0x02d4b9c0	3.1257216e-37
51	0x0361e925	6.6389194e-37
52	0x031cbb2a	4.6059133e-37
53	0x036b7d85	6.9204382e-37
54	0x8311c3fb	-4.2836645e-37
55	0x836cf1b2	-6.963162e-37
56	0x821c0b07	-1.1464235e-37
57	0x0328cdd9	4.9607064e-37
58	0x02224785	1.1922405e-37
59	0x02de7a50	3.2690172e-37
60	0x8356e019	-6.31462e-37
61	0x833dae26	-5.574202e-37
62	0x834792d4	-5.8649394e-37
63	0x03279887	4.925198e-37
64	0x01f788e4	9.09299e-38
65	0x02e1bba9	3.316849e-37
66	0x014954ec	3.6978798e-38
67	0x8317237d	-4.441565e-37
68	0x03220cfd	4.762243e-37
69	0x0313140a	4.322242e-37
70	0x029420de	2.176551e-37
71	0x825f46e9	-1.6403803e-37
72	0x03112921	4.2658884e-37
73	0x01e5f73c	8.447608e-38
74	0x81e730f1	-8.4926226e-38
75	0x85338f50	-8.442862e-36
76	0x09513443	2.5182033e-33
77	0x0266a4da	1.6945041e-37
78	0x832ea16c	-5.1319307e-37
79	0x0056edb8	7.98313e-39
80	0x83281b8e	-4.9402394e-37
81	0x0363c7e4	6.6938768e-37
82	0x00c8ae90	1.842972e-38
83	0x8349f8fe	-5.935442e-37
84	0x03317a1f	5.2155813e-37
85	0x825aa3e5	-1.6063146e-37
86	0x811af354	-2.8459912e-38
87	0x8165c150	-4.2199352e-38
88	0x03326efc	5.2436902e-37
89	0x83230f48	-4.7918937e-37
90	0x09ac77f0	4.1520282e-33
91	0x02a9e444	2.4963336e-37
92	0x84eef78f	-5.6180878e-36
93	0x83983b8f	-8.947431e-37
94	0x832304b8	-4.790681e-37
95	0x8e0da5b1	-1.745937e-30
96	0x833af424	-5.4940747e-37
97	0x817b3ca6	-4.6144932e-38
98	0x0364c4f7	6.7229283e-37
99	0x853dc39d	-8.922666e-36
100	0x83282576	-4.9413766e-37
101	0x03452e5b	5.794631e-37
102	0x028efb00	2.1009092e-37
103	0x03545c6d	6.24073e-37
104	0x0901806e	1.5588198e-33
105	0x0318430a	4.4745742e-37
106	0x0355fa15	6.2882154e-37
107	0x831e1814	-4.6459667e-37
108	0x80e4f112	-2.1024973e-38
109	0x82896765	-2.0189686e-37
110	0x80aa7ce8	-1.5656842e-38
111	0x02f78fcf	3.637593e-37
112	0x031e1ff6	4.6468716e-37
113	0x035ff035	6.5809554e-37
114	0x0269442c	1.7137701e-37
115	0x84de0a03	-5.2201143e-36
116	0x027cd208	1.8574312e-37
117	0x061686a7	2.831079e-35
118	0x824452cb	-1.4423566e-37
119	0x02fea153	3.7414541e-37
120	0x02c8416c	2.942491e-37
121	0x85354088	-8.5224316e-36
122	0x830f3cac	-4.209357e-37
123	0x8327bd6e	-4.9294344e-37
124	0x835971ba	-6.390112e-37
125	0x8193d193	-5.4299996e-38
126	0x02c595a9	2.903245e-37
127	0x03088c52	4.0127888e-37
128	0x03333c76	5.267278e-37
129	0x82113944	-1.0669352e-37
130	0x8300ab08	-3.7812153e-37
131	0x02e73442	3.3972394e-37
132	0x830e61c6	-4.184229e-37
133	0x0253f2db	1.5571528e-37
134	0x030a04a5	4.0559887e-37
135	0x0338c1a6	5.4295038e-37
136	0x82ee1384	-3.4982158e-37
137	0x81ee3795	-8.750715e-38
138	0x84b2698b	-4.1944525e-36
139	0x099e54e8	3.8116962e-33
140	0x8e11e35d	-1.7982101e-30
141	0x8300ba4e	-3.7829687e-37
142	0x82972c8e	-2.221303e-37
143	0x8352cfdf	-6.1952078e-37
144	0x03403501	5.6484574e-37
145	0x83232531	-4.794409e-37
146	0x0341d31e	5.6959953e-37
147	0x0360db4c	6.6079424e-37
148	0x035b48b4	6.4441775e-37
149	0x831b47d4	-4.563286e-37
150	0x031f63fe	4.6840686e-37
151	0x03072355	3.9713494e-37
152	0x833cee37	-5.552169e-37
153	0x02de8d6b	3.2701138e-37
154	0x8e988d99	-3.7607247e-30
155	0x03197edf	4.51083e-37
156	0x09dcfb22	5.3199238e-33
157	0x0877473d	7.44126e-34
158	0x831bb646	-4.5759646e-37
159	0x92908927	-9.121488e-28
160	0x8367001d	-6.788493e-37
161	0x83109a8f	-4.249522e-37
162	0x032b487c	5.033559e-37
163	0x0a300a4f	8.4760306e-33
164	0x028feccc	2.1147876e-37
165	0x81b6eade	-6.719326e-38
166	0x0365f268	6.757532e-37
167	0x82526e5d	-1.5460036e-37
168	0x8dbe295d	-1.1719612e-30
169	0x801143dc	-1.585547e-39
170	0x8252cc1e	-1.5486942e-37
171	0x02fd86fc	3.7252486e-37
172	0x83a31673	-9.585433e-37
173	0x82a38ee6	-2.4032717e-37
174	0x031353c0	4.3295558e-37
175	0x0262f040	1.6672806e-37
176	0x835852f6	-6.357193e-37
177	0x02ac775e	2.5341642e-37
178	0x0350761c	6.126129e-37
179	0x09b2a9b5	4.3011533e-33
180	0x81a88714	-6.190728e-38
181	0x8a946fd4	-1.4293947e-32
182	0x06750819	4.6085328e-35
183	0x01e0d040	8.258343e-38
184	0x82fcdd75	-3.7155182e-37
185	0x09b8cf36	4.449125e-33
186	0x03141979	4.352253e-37
187	0x82f634f3	-3.6176843e-37
188	0x035dec12	6.521706e-37
189	0x84384c6f	-2.1664193e-36
190	0x822b6036	-1.2590707e-37
191	0x83611752	-6.6148328e-37
192	0x0320a640	4.721062e-37
193	0x82b7c876	-2.7004492e-37
194	0x0344829c	5.7749155e-37
195	0x8326bbe4	-4.8998703e-37
196	0x832bef94	-5.0527406e-37
197	0x035b5216	6.4452546e-37
198	0x03407110	5.655352e-37
199	0x029f5bf8	2.3415738e-37
200	0x0046d304	6.504183e-39
201	0x027d40f4	1.8606145e-37
202	0x023f34fb	1.4047668e-37
203	0x81ebc2e6	-8.660503e-38
204	0x830a488a	-4.0637826e-37
205	0x83610efe	-6.6138767e-37
206	0x02e3b8f4	3.346081e-37
207	0x033ba77a	5.5146615e-37
208	0x02b1df1e	2.6135875e-37
209	0x032ac666	5.018626e-37
210	0x8359219d	-6.3809155e-37
211	0x0331695b	5.2136567e-37
212	0x83538384	-6.21583e-37
213	0x83089cf0	-4.0146963e-37
214	0x8347896c	-5.8638597e-37
215	0x033081c0	5.1870697e-37
216	0x82966391	-2.2097667e-37
217	0x0326072e	4.8791257e-37
218	0x8345a66a	-5.808413e-37
219	0x033069ea	5.1843335e-37
220	0x01fbe8c6	9.253685e-38
221	0x020a3b45	1.0155648e-37
222	0x82e94f60	-3.4281832e-37
223	0x822c04aa	-1.2637903e-37
224	0x03429ded	5.7192766e-37
225	0x03365846	5.3586326e-37
226	0x82a39bc2	-2.4040098e-37
227	0x80289ef0	-3.730436e-39
228	0x035c7237	6.47833e-37
229	0x821a0c69	-1.1317695e-37
230	0x02d87d69	3.181033e-37
231	0x00108250	1.516115e-39
232	0x82a78c95	-2.4619135e-37
233	0x82469d82	-1.4591945e-37
234	0x035be2b6	6.4618567e-37
235	0x035ab79a	6.4275206e-37
236	0x020eb64d	1.048483e-37
237	0x82672191	-1.6980833e-37
238	0x834494a8	-5.776987e-37
239	0x022fc627	1.2913836e-37
240	0x021d1e86	1.1543298e-37
241	0x0325959b	4.866088e-37
242	0x0320c7a2	4.724894e-37
243	0x01ebee36	8.666718e-38
244	0x8157c348	-3.962937e-38
245	0x8235c505	-1.3354322e-37
246	0x0346c18c	5.840915e-37
247	0x822fa290	-1.2903623e-37
248	0x0324a71c	4.83871e-37
249	0x021dfc6c	1.160698e-37
250	0x0286b840	1.9795285e-37
251	0x030a985e	4.0729464e-37
252	0x8323853b	-4.8054336e-37
253	0x025f8cb5	1.6423833e-37
254	0x833f4fcf	-5.622147e-37
255	0x835791f7	-6.335038e-37

net_model.4.bias f4 [32]
0	0xba0e71d7	-0.00054338336
1	0xb9dbdcde	-0.00041935494
2	0xb9e94b46	-0.00044497306
3	0xb9edb35b	-0.00045337793
4	0xb952c3dd	-0.00020100125
5	0xb2f63914	-2.8664125e-08
6	0xba0089fb	-0.0004903373
7	0xb9f38e43	-0.00046454565
8	0xb99691b6	-0.00028718793
9	0xb9da0274	-0.00041582028
10	0x3ccbf687	0.024897827
11	0xb9a3c79a	-0.00031238497
12	0x3cccce89	0.025000827
13	0x3ccc90a9	0.024971323
14	0xb9c156fe	-0.00036876643
15	0xb27fc316	-1.4887311e-08
16	0xba021d64	-0.0004963486
17	0xb942a8c8	-0.00018564158
18	0x3ccd24d3	0.025041973
19	0xb926fcb0	-0.00015925127
20	0xb95e7c3e	-0.00021217854
21	0xb9d35dc2	-0.0004031491
22	0xb9ffb402	-0.00048771506
23	0xb51c0fec	-5.81377e-07
24	0xb9b6e9bb	-0.00034887888
25	0xba104f75	-0.0005505004
26	0xb9ef863f	-0.00045685653
27	0xba0a9ed0	-0.0005287947
28	0xb97f6369	-0.00024355728
29	0xb9dd70e2	-0.0004223651
30	0xba004d51	-0.00048943335
31	0x3cccab2b	0.024983963

net_model.6.weight f4 [1, 32]
0	0x032f2780	5.147322e-37
1	0x37edb7b8	2.8338152e-05
2	0xb7c31aa3	-2.3258215e-05
3	0xba00666c	-0.00048980745
4	0x8194538c	-5.44865e-38
5	0x025f0829	1.6385794e-37
6	0x83518ffb	-6.158486e-37
7	0x0333b138	5.280681e-37
8	0xba1ee65d	-0.00060615485
9	0x032cb479	5.075343e-37
10	0xbd82c7d7	-0.06385773
11	0xb9554d51	-0.00020342066
12	0xbd823129	-0.06357033
13	0xbd826c35	-0.06368295
14	0xba0cbd31	-0.0005368768
15	0x019b0fc2	5.696062e-38
16	0x8336f98f	-5.377147e-37
17	0xba1205dc	-0.0005570331
18	0xbd822247	-0.06354194
19	0x8353892e	-6.21648e-37
20	0x80a7e4d8	-1.5418622e-38
21	0x030a41ad	4.0629947e-37
22	0xb9f5ee17	-0.00046907432
23	0x0324531e	4.829068e-37
24	0xba18b6db	-0.00058255874
25	0x032d67c5	5.0959252e-37
26	0x83291f56	-4.970061e-37
27	0x0361e69c	6.6386284e-37
28	0x83427ede	-5.7157112e-37
29	0x02f853fc	3.648853e-37
30	0x031a6fe6	4.5384986e-37
31	0xbd81ff44	-0.06347516
