src/t1dsim_ai/models/IndividualModel/T1DEXI-01-0235/individual_model.pt (torch, 50089 bytes, 7 tensors)

net_model.0.weight f4 [128, 10]
-0.028788678 0.036144163 -0.048747208 0.006774143 0.017575642 -0.0036903934 0.03118423 0.012915877
0.010913354 0.017466556 -0.0541531 0.048374064 -0.03618321 -0.016899576 0.026845215 0.00446825
-0.017606108 0.012165434 0.0127702365 0.027132807 -0.026042562 0.034818783 -0.060180444 -0.0007432503
0.009436857 -0.004757087 0.019076819 0.006404521 0.00940498 0.017656915 -0.025188819 0.035278562
-0.05472231 0.005208089 0.012546697 -0.0058091804 0.032807127 0.010007639 0.00858155 0.017379628
-0.039146714 0.043931473 -0.04797595 -0.012424107 0.021122478 0.0026168409 -0.020824185 0.0102630425
0.009959937 0.022679266 -0.034688756 0.040229514 -0.057284568 -0.013870857 0.017851703 -0.00076322723
-0.019229706 0.009726236 0.007299783 0.02320156 -0.029916592 0.030135544 -0.033705022 0.02280279
0.012976951 -0.016389607 0.005920718 0.041550454 -0.045199174 -0.055256736 -0.02700024 0.0359638
-0.05225307 0.005404618 0.01359156 -0.0037126332 0.032240428 0.01130722 0.010438141 0.01735879
-0.024792848 0.034352716 -0.058519196 0.005483828 0.0106814 -0.006510723 0.03385773 0.006508135
0.008238532 0.017491765 -0.028161619 0.03377149 -0.06265921 -0.009026897 0.011372813 -0.0017375316
0.0032290176 0.005978269 0.010119438 0.017518755 -0.027424011 0.034005564 -0.062619254 -0.008305746
0.011000063 -0.0019858212 0.004209854 0.006194829 0.010169343 0.0176006 -0.029695569 0.029596504
-0.036388893 0.020280778 0.01008567 -0.017657207 -0.002496732 0.04396638 -0.04577733 -0.052397083
-0.024671013 0.034742747 -0.05734943 0.005184589 0.011352788 -0.0063273353 0.033567037 0.0075568003
0.008233737 0.01752244 -0.025680032 0.034038983 -0.058605388 0.0048331404 0.011074698 -0.006225286
0.032846946 0.0060401815 0.008201339 0.017523617 -0.024703063 0.03534535 -0.055196427 0.0057945824
0.01178984 -0.005750361 0.03297814 0.009675715 0.008530694 0.017561639 -0.05229503 0.032352515
-0.07463241 -0.02661998 0.01586529 -0.004199717 -0.019476451 0.004980969 -0.0037279446 0.028174212
-0.027540669 0.03455547 -0.060307655 -0.0069737416 0.010607117 -0.003063102 0.008160475 0.0073538357
0.009964642 0.017403137 -0.03045035 0.03435306 -0.069966845 -0.019414417 0.014017078 -0.005651228
-0.027829299 0.001237842 0.0059799193 0.026324524 -0.027428588 0.036031753 -0.051744554 0.004288005
0.014342042 -0.0034906112 0.030914837 0.011696832 0.010452715 0.017265068 -0.0249202 0.034369875
-0.058291763 0.005330338 0.010858841 -0.006430841 0.033688303 0.006615024 0.0081577515 0.017394084
-0.034771185 0.040694173 -0.056582607 -0.0124056935 0.017818008 -0.00031701964 -0.019453615 0.009477495
0.007840661 0.023460655 -0.02757146 0.03393 -0.06475089 -0.009762087 0.011917375 -0.0016511228
0.0014905802 0.0050692423 0.011099948 0.017282601 -0.0503673 -0.052343875 0.0129019 -0.017931478
-0.0137419235 -0.069617964 0.06712224 0.07225539 0.032638133 0.016475216 -0.025892533 0.034408677
-0.060274288 0.0014543678 0.009039064 -0.0047192127 0.020858934 0.005904705 0.009365763 0.017580405
-0.053304847 0.049753036 -0.03544413 -0.015705638 0.026854023 0.006074885 -0.020653944 0.015057677
0.016531976 0.028114073 -0.024545899 0.03514417 -0.056117974 0.0054951333 0.011655881 -0.006283973
00000000: 3cd6 ebbc e70b 143d 27ab 47bd a1f9 dd3b
00000010: cbfa 8f3c 87da 71bb 1276 ff3c 1d9d 533c
00000020: edcd 323c 0616 8f3c a4cf 5dbd e223 463d
00000030: d834 14bd fb70 8abc 7fea db3c 666a 923b
00000040: af3a 90bc 8751 473c 413a 513c 9f45 de3c
00000050: 3657 d5bc 249e 0e3d c57f 76bd afd6 42ba
00000060: 0c9d 1a3c 57e1 9bbb fd46 9c3c 04dd d13b
00000070: 5817 1a3c 3ca5 903c c858 cebc 4180 103d
00000080: 8024 60bd 9ea8 aa3b a990 4d3c f05a bebb
00000090: c460 063d 15f7 233c a199 0c3c b95f 8e3c
000000a0: 4e58 20bd 7df1 333d 6e82 44bd 7b8e 4bbc
000000b0: 0c09 ad3c 4e7f 2b3b 7b97 aabc 5226 283c
000000c0: 012f 233c dec9 b93c cc15 0ebd b4c7 243d
000000d0: 39a3 6abd 9742 63bc bc3d 923c 5013 48ba
000000e0: 9e87 9dbc ca5a 1f3c 0533 ef3b 3311 be3c
000000f0: a413 f5bc d1de f63c 470e 0abd ebcc ba3c
00000100: 479d 543c 7f43 86bc 9502 c23b cf30 2a3d
00000110: c522 39bd e354 62bd 9b2f ddbc c74e 133d
00000120: 5107 56bd 3919 b13b 22af 5e3c a64f 73bb
00000130: 8a0e 043d eb41 393c bd04 2b3c 0534 8e3c
00000140: 5f1a cbbc 6fb5 0c3d d3b1 6fbd afb1 b33b
00000150: 0a01 2f3c e757 d5bb 67ae 0a3d 3142 d53b
00000160: e8fa 063c e44a 8f3c 32b3 e6bc f953 0a3d
00000170: 7953 80bd 8de5 13bc 0955 3a3c e3bd e3ba
00000180: ed9d 533b 5be5 c33b 00cc 253c 7e83 8f3c
00000190: 52a8 e0bc 6b49 0b3d 863e 80bd d314 08bc
000001a0: 9c39 343c 8d24 02bb d1f2 893b fefd ca3b
000001b0: 519d 263c 222f 903c 1f44 f3bc 5e74 f23c
000001c0: 850c 15bd e023 a63c 5e3e 253c d9a5 90bc
000001d0: 36a0 23bb 1716 343d 0281 3bbd 539e 56bd
000001e0: dd1a cabc 694e 0e3d 3ce7 6abd 7ce3 a93b
000001f0: 0b01 3a3c 8955 cfbb 977d 093d 099f f73b
00000200: cce6 063c 388b 8f3c ee5e d2bc 766c 0b3d
00000210: 340c 70bd 525f 9e3b a672 353c 7cfd cbbb
00000220: 858a 063d b7ec c53b e95e 063c b08d 8f3c
00000230: 145e cabc 49c6 103d a615 62bd 7be0 bd3b
00000240: 2c2a 413c 866d bcbb 1614 073d e486 1e3c
00000250: 53c4 0b3c 6ddd 8f3c 5033 56bd 1284 043d
00000260: e1d8 98bd 2512 dabc edf7 813c c89d 89bb
00000270: 148d 9fbc 6537 a33b 8850 74bb 9bcd e63c
00000280: f89c e1bc 098a 0d3d 2905 77bd fc83 e4bb
00000290: 79c9 2d3c 53be 48bb 83b3 053c 72f8 f03b
000002a0: bd42 233c 0691 8e3c 0373 f9bc cbb5 0c3d
000002b0: c74a 8fbd fc0a 9fbc e3a7 653c f02d b9bb
000002c0: 45fa e3bc 163f a23a 33f3 c33b 87a6 d73c
000002d0: ebb1 e0bc 0896 133d 19f2 53bd 6582 8c3b
000002e0: e2fa 6a3c bdc2 64bb 1d41 fd3c 12a4 3f3c
000002f0: dd41 2b3c 796f 8d3c 7325 ccbc 6dc7 0c3d
00000300: 58c3 6ebd 1eaa ae3b 48e9 313c ceb9 d2bb
00000310: bffc 093d d8c2 d83b 17a8 053c 0a7e 8e3c
00000320: 3b6c 0ebd efae 263d 2ac3 67bd 4041 4bbc
00000330: 12f7 913c a835 a6b9 305d 9fbc 7f47 1b3c
00000340: 1e76 003c 8f30 c03c 8bdd e1bc 2ffa 0a3d
00000350: 1d9c 84bd 29f1 1fbc 1841 433c 7d6a d8ba
00000360: 925f c33a e31b a63b 8edc 353c 3e94 8d3c
00000370: f14d 4ebd 8866 56bd 7e62 533c 09e5 92bc
00000380: ce25 61bc dd93 8ebd 6377 893d a2fa 933d
00000390: 90af 053d 08f7 863c 941c d4bc 1df0 0c3d
000003a0: 2ce2 76bd 7ca0 be3a 9518 143c a0a3 9abb
000003b0: 5be0 aa3c 417c c13b db72 193c c804 903c
000003c0: 2f56 5abd d7c9 4b3d dd2d 11bd 1ca9 80bc
000003d0: f8fc db3c d40f c73b 7632 a9bc 7ab4 763c
000003e0: 116e 873c 7c4f e63c 7b14 c9bc 55f3 0f3d
000003f0: f6db 65bd 8510 b43b 4ff8 3e3c c9e9 cdbb

net_model.0.bias f4 [128]
-0.00085590297 -0.009609199 0.0020295384 0.0017013622 -0.009587506 -0.006500826 -0.016969824 -0.00012297212
0.0028410945 0.0016683415 0.0019538247 -0.018045964 0.002623365 0.0028581875 0.0018364949 0.00031163418
0.0015814999 0.002767928 -0.00026714383 0.0027585414 -0.0071274242 0.001549158 0.009372615 0.0021328127
-0.01246144 0.002368337 0.002668899 0.0017403984 0.0014942329 0.008776115 0.0011687678 -0.0049503916
0.0035450794 -0.010243626 0.0017659005 0.0022769847 -0.006753635 0.001988881 0.0033544598 -0.015751475
-0.013859115 -0.0209368 0.0026971677 -0.005492706 -0.016144639 -0.011949392 -0.019516017 0.0015790877
0.0019309552 0.0028221142 0.0015953232 -0.0029974207 -0.020057937 -0.012477685 -0.020486109 0.00160267
-0.021438742 -0.028643504 -0.015916426 0.0029716806 0.0016122326 0.0019243169 -0.0181634 0.0027410972
0.010209664 0.0017284949 -0.015825262 -0.0028408398 -0.009240072 0.0023281008 0.00047260945 -0.0037067607
-0.003087313 -0.009165008 0.002870962 -0.0035538499 -0.01662945 0.002827873 0.0034380187 -0.0008562475
0.0025414685 -0.020421635 -0.002720928 0.0015669438 -0.009981881 0.00275321 -0.014847498 -0.019148234
-0.0030359083 0.002005301 -0.00084472145 0.010033648 0.0017499987 0.0017725348 0.0019076429 0.002762742
0.011689076 0.00020219103 -0.0006755624 -0.016624127 -0.015886672 -0.017314455 0.009126579 -0.006965193
0.0028001806 0.0015425879 -0.02034959 0.002878985 -0.0009476597 -0.0030286228 -0.019734234 0.00175421
-0.019609123 0.0010867724 0.00013861574 0.0028411632 0.00018303544 0.0036212327 0.002942883 -0.021662658
-0.019243142 0.002964827 8.044421e-06 -0.009025146 0.002875115 0.001354848 0.0005382265 0.0018520536
00000000: ad5e 60ba e76f 1dbc 0102 053b 3e00 df3a
00000010: ea14 1dbc e204 d5bb 4d04 8bbc 14f2 00b9
00000020: a831 3a3b 40ac da3a bd0b 003b 21d5 93bc
00000030: c3ec 2b3b 6e50 3b3b 8bb6 f03a d562 a339
00000040: 554a cf3a 2066 353b 700f 8cb9 a5c8 343b
00000050: 2b8d e9bb 1e0d cb3a 998f 193c a9c6 0b3b
00000060: 112b 4cbc 1a36 1b3b b2e8 2e3b 141e e43a
00000070: 23da c33a b2c9 0f3c 5731 993a e536 a2bb
00000080: 9054 683b e2d4 27bc ca75 e73a 7739 153b
00000090: 994d ddbb e357 023b 7fd6 5b3b 3d09 81bc
000000a0: 5711 63bc a783 abbc f7c2 303b 28fc b3bb
000000b0: c341 84bc 62c7 43bc 0ee0 9fbc 64f9 ce3a
000000c0: 1b18 fd3a 38f3 383b 2a1a d13a 6070 44bb
000000d0: 8b50 a4bc 346f 4cbc 7cd2 a7bc ae10 d23a
000000e0: 4da0 afbc c8a5 eabc 2a63 82bc 87c0 423b
000000f0: 8d51 d33a 5c39 fc3a 69cb 94bc fba3 333b
00000100: 6f46 273c aa8e e23a fba3 81bc 622d 3abb
00000110: ac63 17bc 0d93 183b 91c8 f739 20ed 72bb
00000120: 8454 4abb d428 16bc c026 3c3b b5e7 68bb
00000130: 7c3a 88bc d653 393b 6250 613b cc75 60ba
00000140: c48e 263b 464b a7bc 9951 32bb e961 cd3a
00000150: 0b8b 23bc 336f 343b ec42 73bc c2dc 9cbc
00000160: 17f6 46bb 5e6b 033b 4c70 5dba 2c64 243c
00000170: 3660 e53a 6654 e83a e009 fa3a 1f0f 353b
00000180: 8a83 3f3c 3e03 5439 3a18 31ba 522f 88bc
00000190: c424 82bc 0bd7 8dbc a687 153c 463c e4bb
000001a0: 3c83 373b a930 ca3a 2fb4 a6bc 5aad 3c3b
000001b0: 5e6c 78ba dc7b 46bb b0a9 a1bc 85ed e53a
000001c0: 50a3 a0bc 0872 8e3a 6159 1139 cf32 3a3b
000001d0: 34ed 3f39 3452 6d3b 62dd 403b e375 b1bc
000001e0: cba3 9dbc 8b4d 423b 86f6 0637 35de 13bc
000001f0: 6d6c 3c3b 2895 b13a c517 0d3a 9bc0 f23a

net_model.2.weight f4 [64, 128]
0.026527004 0.045565385 0.02650995 0.025977708 0.042349104 0.038406346 0.06031383 0.026593937
0.026799444 0.030676 0.03041491 0.06164328 0.026392883 0.02663645 0.02612666 0.048945386
0.028971456 0.043430455 0.0262867 0.026722483 0.038894173 0.03278372 -0.077936515 0.026696052
0.049367122 0.026136404 0.026474284 0.02885985 0.028224546 -0.07256162 0.025970632 0.03184645
0.042813756 0.042991146 0.031829998 0.026372304 0.03899776 0.026344556 0.039708488 0.060181413
0.07237478 0.049763657 0.026623856 0.02996233 0.05932285 0.04903671 0.05570679 0.02746194
0.02949859 0.027051954 0.03248089 0.02896261 0.052098904 0.048954632 0.050576333 0.026694026
0.052422173 0.096308365 0.04797785 0.026938861 0.028979653 0.026126923 0.059338085 0.026478665
-0.0780241 0.03065943 0.048756123 0.029109566 0.046010364 0.026371766 0.026168283 0.036749143
0.030928135 0.040776253 0.026703808 0.04563267 0.06703773 0.026310146 0.04380037 0.026891697
0.026393756 0.051539585 0.028486546 0.032203835 0.04405766 0.02661654 0.057775103 0.050046083
0.046145562 0.02930723 0.047187008 -0.07763104 0.030656295 0.028386436 0.030268375 0.026512587
-0.08151141 0.026603293 0.026554974 0.051022533 0.050524242 0.055319503 -0.080022946 0.044234656
0.026644167 0.026076604 0.04587758 0.026719594 0.026695399 0.047606625 0.05086691 0.030343052
0.050142433 0.028068362 0.049121957 0.02685738 0.049489584 0.042934105 0.026616402 0.053891152
0.057366945 0.026856687 0.048890986 0.04045421 0.026679182 0.026700092 0.026223972 0.030481296
2.0964858e-37 -1.8827239e-37 -3.0904678e-37 -1.4354881e-37 6.4542045e-37 6.213872e-37 -3.161906e-37 5.0837933e-37
1.3755513e-37 3.2984718e-37 3.0654617e-37 -1.4286202e-37 -1.536867e-37 1.7087498e-37 5.2103567e-38 -9.872981e-38
5.910882e-37 6.1912774e-38 6.242858e-37 1.7934402e-37 3.283043e-37 6.5329265e-37 4.1803715e-37 5.212519e-37
-4.5520012e-37 2.7475545e-38 -1.0178169e-37 -2.73883e-37 5.426818e-37 6.335081e-38 -1.1432515e-37 7.6961593e-38
6.11641e-38 4.339359e-37 3.3627029e-37 4.023818e-37 -1.8206201e-37 3.218621e-37 -3.4987824e-37 -3.858566e-37
-3.4597584e-37 -5.179808e-37 6.500691e-39 -1.0394914e-37 -1.194302e-37 2.3534559e-37 5.633485e-37 6.039616e-37
3.099434e-37 2.8763725e-37 1.2418548e-37 6.5607e-39 9.115822e-38 6.057013e-37 5.6381224e-37 4.868519e-37
-1.4649436e-37 6.3636914e-37 -5.8732643e-37 1.386664e-37 2.7488765e-37 2.6245831e-37 5.424399e-37 4.884312e-37
4.48699e-37 5.344658e-37 -3.3297777e-37 8.6141213e-38 -5.327012e-37 5.5667893e-37 1.7020181e-37 1.0312595e-37
-5.830723e-38 6.5152146e-37 1.2624291e-37 -1.263176e-37 -5.2965217e-37 -1.8633609e-37 3.6052073e-37 4.2850945e-37
5.51253e-37 -6.1500815e-37 2.2312358e-37 -1.68271e-37 -1.8339245e-37 2.3020576e-37 3.176941e-37 -2.718666e-37
-1.2252954e-38 8.536972e-38 4.236381e-37 -3.5830969e-37 5.2218744e-37 -2.9836643e-38 5.53957e-38 -1.3567665e-37
2.6119073e-37 5.2289226e-37 -8.4084864e-38 1.3776026e-37 2.7716013e-38 -2.9541488e-37 -5.532809e-37 1.6950136e-37
2.9383543e-37 -1.3666853e-38 -5.418688e-37 4.345727e-38 7.069676e-38 -2.1360098e-37 -3.7361689e-37 5.8791784e-37
-5.152955e-37 5.035066e-37 2.6554507e-37 3.5993445e-37 6.114933e-37 -6.968636e-37 1.876662e-37 6.193742e-37
-1.2233662e-37 1.6088193e-37 3.2357387e-37 4.418437e-37 1.3503094e-37 4.2074155e-37 -1.8723377e-37 1.0602787e-37
00000000: 294f d93c c5a2 3a3d 652b d93c 34cf d43c
00000010: 4176 2d3d f94f 1d3d a20b 773d 87db d93c
00000020: 828a db3c 3c4c fb3c b028 f93c aa7d 7c3d
00000030: e335 d83c af34 da3c 9407 d63c f57a 483d
00000040: 8c55 ed3c 22e4 313d 3557 d73c 1ce9 da3c
00000050: 7f4f 1f3d 3948 063d 2e9d 9fbd aeb1 da3c
00000060: 2e35 4a3d 031c d63c 99e0 d83c 7e6b ec3c
00000070: 2a37 e73c 309b 94bd 5dc0 d43c 6c71 023d
00000080: 7a5d 2f3d 7c17 303d 2c60 023d bb0a d83c
00000090: 1dbc 1f3d 8ad0 d73c 5ea5 223d c980 763d
000000a0: 3b39 943d fad4 4b3d 461a da3c 8f73 f53c
000000b0: 84fc 723d b8da 483d ce2c 643d ddf7 e03c
000000c0: 07a7 f13c 0f9c dd3c af0a 053d ff42 ed3c
000000d0: a965 553d a784 483d 2129 4f3d 6ead da3c
000000e0: a2b8 563d 523d c53d 6c84 443d e3ae dc3c
000000f0: bd66 ed3c 2108 d63c 7e0c 733d c9e9 d83c
00000100: 19cb 9fbd 7c29 fb3c 80b4 473d 2f77 ee3c
00000110: 5d75 3c3d 9a09 d83c de5e d63c 4586 163d
00000120: 005d fd3c 0005 273d f2c1 da3c 53e9 3a3d
00000130: 144b 893d 6088 d73c 0468 333d fa4b dc3c
00000140: b837 d83c 2c1b 533d 9e5c e93c 2be8 033d
00000150: ce75 343d ee0a da3c 96a5 6c3d 1ffd 4c3d
00000160: 2103 3d3d b715 f03c 2a47 413d 06fd 9ebd
00000170: e922 fb3c ac8a e83c 62f5 f73c ed30 d93c
00000180: 74ef a6bd 26ef d93c d189 d93c 01fd 503d
00000190: 82f2 4e3d b496 623d 12e3 a3bd 662f 353d
000001a0: de44 da3c 9a9e d53c 21ea 3b3d 0de3 da3c
000001b0: 4fb0 da3c 2aff 423d d259 503d fe91 f83c
000001c0: 2762 4d3d 9fef e53c 1b34 493d 0204 dc3c
000001d0: 97b5 4a3d acdb 2f3d a40a da3c f8bc 5c3d
000001e0: 9af9 6a3d 8e02 dc3c ea41 483d 50b3 253d
000001f0: 4d8e da3c 27ba da3c a8d3 d63c e9b3 f93c
00000200: efad 8e02 ad21 8082 8b53 d282 7663 4382
00000210: 0da0 5b03 7672 5303 2c30 d782 16fe 2c03
00000220: f83a 3b02 7c7b e002 e09f d002 2674 4282
00000230: 0030 5182 3e95 6802 e3d6 8d01 5162 0682
00000240: 0b23 4903 e88a a801 f76e 5403 451c 7402
00000250: ad6e df02 d14d 5e03 2c40 0e03 725f 3103
00000260: 86e5 1a83 5297 1501 be89 0a82 2665 ba82
00000270: 41aa 3803 1275 ac01 809c 1b82 6782 d101
00000280: 2881 a601 26a9 1303 8cda e402 66ec 0803
00000290: 5acf 7782 490c db02 631d ee82 da4c 0383
000002a0: 7e75 eb82 7e42 3083 48c9 4600 fd7c 0d82
000002b0: 5a8f 2282 fc2a a002 93b2 3f03 7a84 4d03
000002c0: c2ef d202 7ac1 c302 5308 2902 9070 4700
000002d0: 0228 f801 061c 4e03 f9da 3f03 c8aa 2503
000002e0: d665 4782 928b 5803 59db 4783 30be 3c02
000002f0: 2f14 bb02 b09e b202 2e95 3803 5c34 2603
00000300: 32af 1803 8ade 3503 e99c e282 aa7f ea01
00000310: d244 3583 936d 3d03 adaa 6702 265e 0c02
00000320: 35ba 9e81 86b3 5d03 3cd5 2b02 42ef 2b82
00000330: 363b 3483 a7a0 7d82 925b f502 70d0 1103
00000340: e994 3b03 c446 5183 9cd9 9702 e309 6582
00000350: f19e 7982 80ab 9c02 1e36 d802 d805 b982
00000360: 406c 8580 0366 e801 1528 1003 5ada f382
00000370: f1b0 3103 3672 2281 2bcd 9601 6aac 3882
00000380: d8c1 b102 57ee 3103 99e6 e481 7282 3b02
00000390: 7ce6 1601 880c c982 9045 3c83 9bb6 6602
000003a0: 5af9 c702 a0d1 9480 6e63 3883 989a 6c01
000003b0: 7374 c001 8a5e 9182 3e45 fe82 de0e 4803
000003c0: 9258 2f83 9c55 2b03 7ab8 b402 6df5 f402
000003d0: 9414 5003 6221 6d83 2070 7f02 1ac3 5203
000003e0: 1784 2682 2cfb 5a02 8536 dc02 045a 1603
000003f0: 6acb 3702 c22b 0f03 72d9 7e82 5251 1002

net_model.2.bias f4 [64]
2.5065248e-05 -1.2869525e-09 -0.00014472271 -1.8151237e-05 -0.0020863335 -4.4705448e-18 3.45241e-05 -0.00020328537
-0.0050038644 -0.0015599831 1.6698521e-05 5.0272858e-05 -0.028873205 -3.762404e-16 -1.1577828e-21 1.5284202e-05
0.010477405 -1.4576176e-06 -3.5403332e-07 -6.388226e-26 7.001596e-05 -0.0029662622 9.5975054e-05 1.8532719e-05
-0.00013296948 -1.5692425e-25 -0.00046545314 -0.00017177052 -0.0016966074 -0.0015602093 -1.2209556e-25 2.4046203e-05
4.2630247e-05 4.6688634e-05 3.4217595e-05 5.4142874e-06 -0.0026547923 -5.3217213e-05 -3.7461774e-07 -0.00016984642
1.7882812e-05 -8.641832e-06 -0.000101241436 6.225578e-05 0.01480053 0.011366768 2.1587663e-05 -0.027332706
-2.2472703e-05 4.797846e-05 0.0435948 1.3852183e-05 0.03442186 4.6801233e-05 -1.9492853e-05 -0.0025295368
-0.00021019299 2.8936694e-05 -0.001057543 4.4311688e-05 7.435319e-05 1.6494485e-05 -0.005048818 0.045651253
00000000: 3643 d237 9ee0 b0b0 b5c0 17b9 7c43 98b7
00000010: deba 08bb 1aef a4a2 f8cd 1038 0029 55b9
00000020: 75f7 a3bb 5978 ccba cd13 8c37 12dc 5238
00000030: 8087 ecbc 48e3 d8a5 8df5 ae9c 9336 8037
00000040: 6ca9 2b3c 5ca3 c3b5 f811 beb4 312a 9e95
00000050: 88d5 9238 9f65 42bb 3746 c938 b676 9b37
00000060: b96d 0bb9 4843 4296 1008 f4b9 4c1d 34b9
00000070: b360 deba f07f ccba a125 1796 d4b6 c937
00000080: e1cd 3238 8ad3 4338 dd84 0f38 60ac b536
00000090: 06fc 2dbb 8c35 5fb8 121f c9b4 cd18 32b9
000000a0: 0c03 9637 63fc 10b7 9551 d4b8 518f 8238
000000b0: ec7d 723c ae3b 3a3c 2717 b537 d7e8 dfbc
000000c0: c383 bcb7 7b3c 4938 7690 323d ac66 6837
000000d0: f0fd 0c3d 714c 4438 9584 a3b7 96c6 25bb
000000e0: 4067 5cb9 14bd f237 419d 8aba 50db 3938
000000f0: 11ee 9b38 a35d 8a37 8e70 a5bb cffc 3a3d

net_model.4.weight f4 [32, 64]
0.044282924 -2.6788833e-37 -2.3126301e-27 0.044242617 7.174494e-11 -4.5290935e-37 0.044235602 0.04424525
0.00012697319 -2.4149656e-05 0.044133503 0.04418282 0.07035578 5.007378e-37 4.2803188e-38 0.04431702
-0.044840187 0.044275694 -3.529057e-36 -9.53921e-38 0.044218477 0.045334216 0.04420785 0.04415258
0.044239584 3.0981957e-25 -6.350687e-05 0.044230465 0.00038502802 -2.6438097e-06 -2.9772938e-37 0.04410879
0.044221822 0.044283472 0.04412565 0.044384364 -0.00027920556 0.04428142 8.348645e-12 7.868861e-29
0.04412728 -1.5954556e-24 0.044241738 0.044210352 -0.049119737 -0.01530485 0.044165615 0.057417978
0.044251464 0.044318635 -0.060073256 0.044149064 -0.05372533 0.044083934 0.04426809 0.0019726516
-1.5073391e-12 0.044003725 0.0025011427 0.044135872 0.044213504 0.0443085 -0.0021704123 -0.06367572
1.8257432e-37 6.999083e-37 4.1544923e-38 -3.8764462e-37 5.5204115e-37 -5.5774096e-37 -5.0111774e-37 -8.055224e-38
6.7586167e-37 -5.9363173e-38 5.4687912e-37 6.542654e-37 -5.9800145e-37 2.1803065e-37 -4.410677e-37 -4.046082e-37
-4.9083037e-37 5.947036e-37 -5.7900675e-37 -6.381251e-37 5.1411587e-37 -1.8049007e-37 4.3396779e-38 -5.5872987e-38
6.051124e-37 -6.8029206e-37 4.6276606e-37 1.8459977e-37 -1.5571424e-37 -4.9216124e-38 -4.0859397e-37 4.6799216e-37
-5.8963034e-37 4.538318e-37 6.531364e-37 -1.4655629e-37 -4.508643e-37 -7.0067515e-37 4.9454316e-37 4.702481e-37
5.9020467e-37 -5.742348e-37 6.484087e-37 -4.894422e-37 -2.1656752e-37 -2.7729544e-37 -3.3137525e-38 -5.7880837e-37
5.4693545e-37 6.799655e-37 5.098732e-37 -5.1359046e-37 5.873702e-37 -3.9041776e-37 4.818598e-37 -5.8785834e-37
4.2961147e-37 6.6533682e-37 -6.6631146e-37 -5.0423225e-37 -6.571619e-37 4.8148543e-37 -6.2774485e-37 -6.7927165e-37
5.4285998e-37 -5.1366355e-37 -4.0327787e-37 4.1746363e-37 -3.6445522e-37 -5.642248e-37 5.211608e-37 4.016054e-37
4.1213905e-37 -4.5445396e-37 -3.899393e-37 -5.2359134e-37 -4.9645395e-37 -3.491237e-37 -2.5439775e-37 -6.3824603e-37
6.791731e-37 -4.7791824e-37 5.2851274e-37 6.0171514e-37 4.901559e-37 -4.317142e-37 -4.876334e-37 4.113409e-37
-5.0763887e-37 -4.730869e-37 -3.5009754e-37 3.673449e-37 5.17567e-37 -5.21611e-37 -5.388861e-37 3.8186515e-38
-5.5858214e-37 -3.8585854e-37 4.78685e-37 6.318039e-37 1.3745348e-37 3.950252e-37 4.7150873e-37 4.0134775e-37
5.3179976e-37 -6.5664312e-37 -2.9509036e-38 3.79417e-37 -1.248429e-37 -8.8353213e-38 3.922692e-37 6.479222e-37
-5.567879e-37 4.202807e-37 2.3777013e-37 -3.5196517e-37 7.7303504e-38 5.089421e-37 4.693143e-37 -2.6890312e-37
-3.38918e-37 -6.725451e-37 -2.3855335e-37 -2.9950436e-37 5.978508e-37 -6.2313554e-37 -6.1734933e-37 4.45759e-37
4.326985e-37 -3.621975e-37 5.216421e-37 -4.7693133e-37 1.13136e-37 -5.726997e-37 -4.0456657e-37 3.103411e-37
4.1171014e-37 -9.346977e-38 3.5758845e-37 -6.468819e-37 1.8209409e-37 -6.4868855e-37 8.746265e-38 5.616753e-37
3.2216314e-37 4.8106366e-37 -6.231329e-37 1.7486128e-37 -6.6283946e-37 -4.0786664e-37 -6.297192e-37 4.8002257e-37
-2.604431e-37 -6.622761e-38 -5.7297632e-37 4.994859e-37 2.3189438e-38 -3.1701163e-37 -4.4475725e-37 4.3602767e-37
6.121276e-37 -6.619463e-37 -4.9559815e-37 5.7527777e-37 5.526955e-37 5.2286993e-37 -6.569404e-37 -5.5180555e-37
6.2131126e-37 5.7146297e-37 5.2506636e-37 5.6511206e-37 -1.7673934e-37 -1.6551673e-37 -6.4154408e-37 6.5182965e-37
1.1836505e-37 4.137593e-37 -6.586403e-37 4.151231e-37 -3.3537929e-37 -5.696882e-37 -2.5864833e-37 -4.4163973e-37
4.6289875e-37 9.1336096e-38 1.1299592e-37 5.0682575e-37 -6.0795484e-37 -5.472058e-37 -6.3095448e-37 -5.991605e-37
00000000: 0362 353d bb50 b682 b639 3793 bf37 353d
00000010: d0c4 9d2e f81d 1a83 6430 353d 823a 353d
00000020: 1b24 0539 fe94 cab7 55c5 343d 0bf9 343d
00000030: b116 903d 6a64 2a03 f00a 6901 c385 353d
00000040: 58aa 37bd 6e5a 353d 071c 9684 4cd7 0182
00000050: 6f1e 353d 5fb0 393d 4a13 353d 56d9 343d
00000060: 9134 353d dfc4 bf16 fe2e 85b8 012b 353d
00000070: 96dd c939 4e6c 31b6 c69f ca82 6bab 343d
00000080: f121 353d 9662 353d 19bd 343d 61cc 353d
00000090: 5662 92b9 6f60 353d f4de 122d d47f c710
000000a0: cfbe 343d 82e2 f697 d336 353d ea15 353d
000000b0: c731 49bd 32c1 7abc 01e7 343d 1d2f 6b3d
000000c0: 0641 353d 7587 353d 600f 76bd a6d5 343d
000000d0: 170f 5cbd 5b91 343d 7552 353d 9a47 013b
000000e0: 9d23 d4ab 403d 343d 36ea 233b d1c7 343d
000000f0: 3819 353d d47c 353d 7a3d 0ebb 6a68 82bd
00000100: de81 7802 9d2a 6e03 2c31 6201 9ce8 0383
00000110: 91d9 3b03 17ca 3d83 8385 2a83 b848 db81
00000120: dbfb 6503 189a a181 e417 3a03 8ea2 5e03
00000130: 467d 4b83 4c62 9402 6a16 1683 58ae 0983
00000140: 5b05 2783 fd5d 4a03 9a06 4583 8924 5983
00000150: cff1 2e03 9cab 7582 4846 6c01 ca19 9881
00000160: b9e8 4d03 cc7d 6783 9c78 1d03 a243 7b02
00000170: 7ef2 5382 a2fa 8581 8e09 0b83 de3f 1f03
00000180: 0ca4 4883 536e 1a03 3440 5e03 6a7b 4782
00000190: d26b 1983 6a6d 6e83 c948 2803 6304 2003
000001a0: 14d6 4803 e866 4383 5da4 5c03 6e8c 2683
000001b0: 6263 9382 aeb7 bc82 f86a 3481 52f5 4483
000001c0: cc1c 3a03 5961 6703 3880 2d03 0ac4 2e83
000001d0: 29df 4703 2fda 0483 e9f7 2303 af09 4883
000001e0: 7030 1203 0367 6203 eabb 6283 d394 2b83
000001f0: e09e 5f83 4cd7 2303 4a9c 5583 e824 6783
00000200: c6b9 3803 68ca 2e83 753a 0983 360e 0e03
00000210: 0e09 f882 e9fe 3f83 8257 3103 c4a8 0803
00000220: 603e 0c03 86a4 1a83 81b0 0483 3d2b 3283
00000230: 3def 2883 ed99 ed82 5722 ad82 122f 5983
00000240: 521c 6703 8da0 2283 f4d7 3303 c8c0 4c03
00000250: 9aca 2603 9ce7 1283 dcee 2583 d9f8 0b03
00000260: 95bd 2c83 aefb 2083 9843 ee82 8200 fa02
00000270: 721e 3003 ba7e 3183 9a5f 3783 3ce8 4f01
00000280: 5e13 3e83 054d 0383 58e3 2203 e2fd 5603
00000290: 8c17 3b02 8c6b 0603 3472 2003 5292 0803
000002a0: 4bf6 3403 af71 5f83 98a9 2081 e21b 0103
000002b0: 67ed 2982 3485 f081 777b 0503 fc79 5c03
000002c0: 1177 3d83 9d03 0f03 66d1 a102 fb88 ef82
000002d0: ae70 d201 1c2f 2d03 0bb3 1f03 8801 b782
000002e0: d8a7 e682 f1da 6483 db59 a282 05d5 cb82
000002f0: 2670 4b03 c30a 5483 b612 5283 16af 1703
00000300: 5b3d 1303 b47f f682 7081 3103 944a 2283
00000310: 24fe 1902 2ee1 4283 b8aa 0983 0c35 d302
00000320: 0319 0c03 ec72 fe81 b25c f302 5c1f 5c83
00000330: 88da 7702 bebc 5c83 9218 ee01 d220 3f03
00000340: bc40 db02 8eb2 2303 880a 5483 4302 6e02
00000350: 768d 6183 32ca 0a83 4748 5683 dd57 2303
00000360: 963f b182 e849 b481 47f9 4283 5cf7 2903
00000370: b882 fc00 37bf d782 d257 1783 5e5f 1403
00000380: d64b 5003 a83f 6183 b0a4 2883 c3c1 4303
00000390: 9212 3c03 65ec 3103 948b 5f83 0bc5 3b83
000003a0: d86b 5303 7275 4203 bbab 3203 344c 4003
000003b0: ac90 7082 2a4a 6182 5f4e 5a83 5fce 5d03
000003c0: 331c 2102 85cb 0c03 aa1f 6083 5242 0d03
000003d0: 503f e482 d7da 4183 e506 b082 3f48 1683
000003e0: 2b84 1d03 f8a3 f801 55cd 1902 c076 2c03
000003f0: 56e0 4e83 5934 3a83 e3b3 5683 3ee2 4b83

net_model.4.bias f4 [32]
0.0009889777 -0.00057895685 -0.00054993713 -0.0005955559 0.0006587529 -0.00049927644 -0.00058072247 0.0006126537
-0.0005908322 0.0006758977 0.00097642496 -0.000512561 0.0006766301 0.00068250246 -5.332397e-14 0.00035017636
-0.000587772 -0.00028166914 0.00058581936 -0.00040594392 0.000654114 0.0006289554 -0.00059281895 -2.511378e-12
-0.0004385753 0.0010199765 -0.00048572756 0.00061393675 -3.2513522e-05 0.0009816887 0.0009575766 0.0006773145
00000000: 96a0 813a 23c5 17ba a829 10ba 141f 1cba
00000010: 29b0 2c3a e0e1 02ba a03b 18ba 7e9a 203a
00000020: 14e2 1aba ba2e 313a c5f6 7f3a 635d 06ba
00000030: e15f 313a f7e9 323a 5a26 70a9 e097 b739
00000040: b614 1aba feac 93b9 ac91 193a dfd4 d4b9
00000050: d978 2b3a 7be0 243a 6867 1bba f7b8 30ac
00000060: 95f0 e5b9 bbb0 853a 40a9 feb9 99f0 203a
00000070: 215f 08b8 02ac 803a e105 7b3a cf8d 313a

net_model.6.weight f4 [1, 32]
-0.042441864 -2.8652944e-37 1.3110689e-37 5.2789846e-37 -0.042457707 4.244718e-38 -5.708974e-37 -0.04246206
5.056511e-37 -0.042442966 -0.042429652 -6.266909e-37 -0.042490393 -0.042444114 -6.4932776e-37 -0.042475887
-3.5648625e-37 -0.0005940001 -0.042460248 -0.00058056513 -0.04244152 -0.042444576 -5.221601e-37 5.564753e-37
-5.5506244e-37 -0.042420726 -5.7913096e-37 -0.042478792 -9.1987036e-05 -0.04244276 -0.04243762 -0.042464413
00000000: 85d7 2dbd 7800 c382 1574 3202 71a2 3303
00000010: 22e8 2dbd bc1a 6701 2d44 4283 b2ec 2dbd
00000020: 6c10 2c03 add8 2dbd b7ca 2dbd 7a40 5583
00000030: 680a 2ebd e1d9 2dbd 6df4 5c83 32fb 2dbd
00000040: aa9c f282 acb6 1bba ccea 2dbd 1131 18ba
00000050: 29d7 2dbd 5dda 2dbd 8fae 3183 d65b 3d03
00000060: c2e0 3c83 5bc1 2dbd 6c11 4583 3efe 2dbd
00000070: 2ae9 c0b8 76d8 2dbd 12d3 2dbd 2aef 2dbd
