src/t1dsim_ai/models/IndividualModel/T1DEXI-01-0157/individual_model.pt (torch, 50089 bytes, 7 tensors)

net_model.0.weight f4 [128, 10]
0	0xbd350cf5	-0.04420181
1	0x3d3e8cc4	0.046520963
2	0xbd324826	-0.043525837
3	0xbc8a4d32	-0.016882513
4	0x3ca60aa1	0.02026874
5	0x397395e9	0.00023230132
6	0x3bbc19a0	0.0057403594
7	0xbaaadcee	-0.0013035813
8	0x3b3c68bf	0.0028748957
9	0xbcc6d3b8	-0.024270877
10	0xbcd1c89d	-0.025608355
11	0x3d2a6c5d	0.04160725
12	0xbd357700	-0.04430294
13	0x3c890ccb	0.016729733
14	0x3b72b4e6	0.0037034093
15	0x3b19e845	0.002348439
16	0xbc25be6c	-0.010116201
17	0x3cf73345	0.030175814
18	0xbccf1d01	-0.025282385
19	0xbd02bfc1	-0.031921152
20	0xbd3884e4	-0.04504861
21	0x3d3ae817	0.045631494
22	0xbd2deb0d	-0.04246049
23	0xbc7c43b1	-0.015396998
24	0x3cc4d8ed	0.02402922
25	0xba7968ed	-0.00095142314
26	0x3b004f51	0.0019578526
27	0x3b9cfb7f	0.004790723
28	0x3b24bb44	0.0025136033
29	0xbcb87e47	-0.022521151
30	0xbd39c10a	-0.045350112
31	0x3d4048a3	0.04694427
32	0xbd2eac8b	-0.04264502
33	0xbc9c5b70	-0.01908657
34	0x3caaeb41	0.02086413
35	0x3a057a5d	0.0005091781
36	0x3b7c152e	0.0038464773
37	0xba94a57b	-0.0011340821
38	0x3b1bd9fe	0.0023781057
39	0xbcc3e703	-0.023913866
40	0xbcdd62ae	-0.027024593
41	0x3d1162da	0.035494663
42	0xbd58e066	-0.052948378
43	0x3ccc0403	0.024904257
44	0x3b834bd4	0.004006842
45	0x3aaca781	0.0013172479
46	0x3c01e8a0	0.007928997
47	0x3ada30d9	0.0016646638
48	0xbce1f23b	-0.027581325
49	0xbd124e12	-0.035718985
50	0xbcfa5606	-0.030558597
51	0x3d21cf47	0.039504316
52	0xbd65ebca	-0.05613307
53	0x3c1868cc	0.009302329
54	0xbc01b2bf	-0.007916152
55	0x3b7cdb5f	0.0038582904
56	0x3c3a4ab8	0.011370353
57	0xbc003769	-0.007825711
58	0x3b528f04	0.00321287
59	0xbd19f3bc	-0.03758596
60	0xbcd5ecc7	-0.02611388
61	0x3d2d5975	0.04232164
62	0xbd35b1cd	-0.044359017
63	0x3c951c26	0.018201899
64	0x3bb5b9a8	0.0055458136
65	0x3b6f0b44	0.003647522
66	0xbca4c79b	-0.02011471
67	0x3d1ec7ab	0.038764637
68	0xbd0ebef2	-0.03485007
69	0xbcfd893c	-0.030949228
70	0xbd4bd1a4	-0.049760476
71	0x3d40e9bb	0.047097903
72	0xbd28e26a	-0.04123155
73	0xbd088145	-0.033326406
74	0x3cb345cd	0.02188387
75	0xb8f54559	-0.000116954274
76	0xbbb4e65d	-0.0055206255
77	0xb9b7b273	-0.00035037435
78	0x3b83ac1a	0.004018319
79	0xbcafe0eb	-0.021469554
80	0xbcfb9069	-0.030708509
81	0x3d216cc7	0.03941038
82	0xbd67ba74	-0.0565743
83	0x3c132e3e	0.008983193
84	0xbc0c66c1	-0.00856942
85	0x3b821ea8	0.0039709397
86	0x3c4e3026	0.012584722
87	0xbc1926f7	-0.009347669
88	0x3b738b81	0.0037162008
89	0xbc8681ea	-0.01641937
90	0xbd54dce1	-0.05196846
91	0x3d3e3bae	0.046443634
92	0xbd2a4eba	-0.041578986
93	0xbd397d92	-0.04528577
94	0x3cc6dfa0	0.024276555
95	0x3ae882bb	0.0017739156
96	0xbbaae61c	-0.0052154195
97	0xbb8d5dab	-0.0043141446
98	0x3bfd5ed8	0.0077322535
99	0xbca0e1ad	-0.01963886
100	0xbcf5a931	-0.029987903
101	0x3d0ef99c	0.034906015
102	0xbd53296b	-0.05155317
103	0x3cdb82a3	0.02679569
104	0x3b6f4066	0.003650689
105	0x39927d15	0.00027940483
106	0x3c1361ca	0.008995483
107	0x3b529af8	0.0032135826
108	0xbce6d377	-0.028177006
109	0xbd1125ff	-0.035436627
110	0xbd504ad1	-0.0508526
111	0x3d4185b6	0.047246657
112	0xbd28f342	-0.041247614
113	0xbd20979d	-0.03920709
114	0x3cc402ab	0.023927053
115	0x3a9ff8eb	0.0012204921
116	0xbb88a6a5	-0.004170256
117	0xbb347a46	-0.00275387
118	0x3b9ec910	0.004845746
119	0xbcd1a044	-0.025589116
120	0xbd38ecd0	-0.045147717
121	0x3d3e64b1	0.046482746
122	0xbd3221c1	-0.04348922
123	0xbc9519e4	-0.018200822
124	0x3ca28596	0.01983909
125	0x3a211ed1	0.00061462546
126	0x3b247d6a	0.0025099167
127	0xba342ff8	-0.0006873603
128	0x3b1d0912	0.0023961705
129	0xbcbe5243	-0.023232585
130	0xbd3c2f9d	-0.045943845
131	0x3d3c46dd	0.045966018
132	0xbd3558aa	-0.04427401
133	0xbc9707ff	-0.01843643
134	0x3c93170d	0.017955327
135	0xba024b0d	-0.000497029
136	0xbaa4ebfe	-0.0012582538
137	0x3a31820c	0.00067713927
138	0x3ad3a534	0.0016147257
139	0xbcb49ba4	-0.022046871
140	0xbd37506f	-0.04475444
141	0x3d3e4202	0.04644967
142	0xbd334889	-0.043770347
143	0xbc91293f	-0.017719863
144	0x3c9d1012	0.019172702
145	0x3a66ad87	0.00087996613
146	0x3b1de273	0.0024091273
147	0xba5f3110	-0.0008514086
148	0x3b2fefe7	0.0026845874
149	0xbcbd2372	-0.02308819
150	0xbd2f7727	-0.042838242
151	0x3d34952d	0.044087578
152	0xbd48b03c	-0.048996195
153	0xbcacea85	-0.021107921
154	0x3c3beedc	0.011470523
155	0x3afa5c2d	0.0019100957
156	0xbb8522a4	-0.0040629674
157	0xbb14f246	-0.0022727414
158	0x3c0e06d6	0.008668622
159	0xbc98508f	-0.0185931
160	0xbd47df28	-0.048796803
161	0x3d4011fe	0.04689216
162	0xbd1f6e1a	-0.03892336
163	0xbc851734	-0.016246416
164	0x3cc2019a	0.023682404
165	0xbad00ee9	-0.0015873584
166	0x3b38fcaf	0.0028226783
167	0x3aa48784	0.0012552594
168	0xbb24cbeb	-0.0025145959
169	0xbcc367d9	-0.02385323
170	0xbd436db8	-0.047712058
171	0x3d413cc8	0.047177106
172	0xbd2e1d5d	-0.04250847
173	0xbcb683df	-0.022279678
174	0x3ca332f9	0.019921767
175	0xb9077d26	-0.00012921225
176	0xbadb2942	-0.001672067
177	0x3991ad24	0.00027785555
178	0x3ae0b25e	0.0017143001
179	0xbcbe1049	-0.023201125
180	0xbd4f2a4d	-0.05057745
181	0x3d43fdb8	0.047849387
182	0xbd1946ef	-0.037421163
183	0xbc8d13f3	-0.017221427
184	0x3cbe1eee	0.023208108
185	0xba8f0cf0	-0.001091389
186	0xb9811f06	-0.00024627912
187	0x3b26ea69	0.002546931
188	0xbbbe7d9e	-0.0058133146
189	0xbcc61595	-0.024180213
190	0xbd3fcd8e	-0.04682689
191	0x3d3d4887	0.046211746
192	0xbd31f956	-0.043450676
193	0xbca2ccdb	-0.019873073
194	0x3c9b4f42	0.018958692
195	0xba1bfa42	-0.0005950072
196	0xba952dd2	-0.0011381453
197	0x39cf9cd2	0.00039598957
198	0x3a4fa960	0.0007921662
199	0xbcba8c82	-0.022772077
200	0xbd3a3aef	-0.04546636
201	0x3d3edf30	0.046599567
202	0xbd356e7a	-0.04429481
203	0xbca52acf	-0.020162014
204	0x3c8b890d	0.017033124
205	0x3a045ba6	0.0005049057
206	0xbb42af3d	-0.00297065
207	0x39e82912	0.00044281088
208	0x3b62a77a	0.0034584687
209	0xbcacce03	-0.021094328
210	0xbd463e17	-0.048399057
211	0x3d40ae85	0.047041435
212	0xbd2a6b93	-0.041606497
213	0xbcaa0f65	-0.020759294
214	0x3ca3bd9b	0.019987872
215	0x37d14098	2.494482e-05
216	0xbac20588	-0.0014802674
217	0xb9b1297d	-0.00033790982
218	0xb87f3dfc	-6.0854465e-05
219	0xbcc50511	-0.024050267
220	0xbd583050	-0.05278045
221	0x3d46ca68	0.048532873
222	0xbd1a7f6f	-0.037719186
223	0xbcd46c86	-0.025930654
224	0x3cc5bf8d	0.02413919
225	0x3a63910e	0.00086809776
226	0xbbacec38	-0.005277183
227	0x3aa30907	0.0012438603
228	0xb9685e91	-0.00022160473
229	0xbcd156f7	-0.025554163
230	0xbd3c0998	-0.045907587
231	0x3d3df5ba	0.04637692
232	0xbd32d548	-0.043660432
233	0xbc96a0bd	-0.018387193
234	0x3c96dbf3	0.018415427
235	0xb9d328e5	-0.00040275525
236	0x3a1c6c96	0.00059671083
237	0x394f103f	0.0001974711
238	0x3b1968d2	0.0023408425
239	0xbcb7bfd0	-0.02243033
240	0xbd4cfbed	-0.050044943
241	0x3d3b80c8	0.045777112
242	0xbd34b51a	-0.044118024
243	0xbd1abdc5	-0.037778635
244	0x3cad49c6	0.021153342
245	0x3ae396bc	0.0017363648
246	0xbb9cfe38	-0.0047910474
247	0xbb63fa9d	-0.0034786828
248	0x3be6507b	0.007028637
249	0xbd2a97ef	-0.0416488
250	0xbcc53544	-0.02407325
251	0x3d12d192	0.035844393
252	0xbd5f336e	-0.054492407
253	0x3cb69f52	0.022292767
254	0x3b8e440c	0.004341608
255	0x3b20b77e	0.0024523432

net_model.0.bias f4 [128]
0	0xbb44a554	-0.003000577
1	0xbc31014a	-0.01080353
2	0xba58112b	-0.00082423043
3	0xbb7db505	-0.0038712632
4	0x3b8f83b9	0.0043797162
5	0x3c173a0f	0.009230151
6	0xbc42a9b2	-0.011881279
7	0xbbd69ff9	-0.006549832
8	0x3c21c044	0.0098725
9	0xbbfbe76f	-0.007687501
10	0x3b818e8d	0.003953761
11	0xbbdb341a	-0.0066895606
12	0xbb697a46	-0.003562586
13	0xbb750da6	-0.0037392168
14	0xbb6bda51	-0.003598828
15	0xbb0bfe56	-0.0021361313
16	0xbba73bd8	-0.0051035695
17	0xbb94e28b	-0.0045436076
18	0xbbc413af	-0.005983792
19	0xbb84e427	-0.004055518
20	0xbb881f01	-0.0041540866
21	0xbba60c33	-0.005067372
22	0xbbdca7bc	-0.0067338627
23	0xbb8800df	-0.0041504945
24	0xbbde8657	-0.006790917
25	0x3bad9d5e	0.0052983006
26	0xba2c45c2	-0.0006571674
27	0xbb73fd2b	-0.0037229757
28	0x3c2b3416	0.01044943
29	0x3c1a840b	0.009430896
30	0x3be2e424	0.006924169
31	0x3b90fae4	0.0044244397
32	0xbbba0124	-0.0056764055
33	0xbb792c75	-0.0038020883
34	0xbb8034c9	-0.0039125425
35	0x3be47630	0.006972097
36	0x3c26ea78	0.010187738
37	0xbb79bfb2	-0.0038108644
38	0xbb142430	-0.0022604577
39	0xbc4a2470	-0.012337789
40	0xbbdf3a23	-0.0068123504
41	0xbb9413a0	-0.004518941
42	0xbb64f837	-0.0034937987
43	0x3b877392	0.00413365
44	0xbb6f4a9a	-0.0036512972
45	0x3c28f7ee	0.010313017
46	0xbc32fc4c	-0.01092441
47	0xbbb4f005	-0.0055217766
48	0xbba0405e	-0.0048904857
49	0x3c19e3ce	0.009392692
50	0x3c04cc9d	0.008105424
51	0xba602452	-0.0008550334
52	0xbb98839b	-0.0046543605
53	0xbbcdff77	-0.0062865573
54	0xbbe1b688	-0.0068882145
55	0xbb81d685	-0.0039623403
56	0xbbcd46ab	-0.006264528
57	0xbc13e98d	-0.009027851
58	0xbc3caee0	-0.011516303
59	0xbb5f4f60	-0.003407441
60	0xbbb95fa7	-0.0056571546
61	0xbc41acb4	-0.011820961
62	0x3bc854ff	0.006113648
63	0xbb8436bc	-0.004034845
64	0xbbf51db3	-0.007480347
65	0xbb13a26a	-0.0022527226
66	0x3b9e9b6d	0.0048403055
67	0xbb6c8cdc	-0.00360947
68	0x3c203a6d	0.009779555
69	0x3bc28542	0.0059362957
70	0x3c19511c	0.009357717
71	0x3c1932a6	0.009350454
72	0xbb5f4946	-0.0034070774
73	0xbb9142a5	-0.0044329935
74	0xbb7ec9f7	-0.0038877705
75	0x3be24c9d	0.0069061057
76	0xbbdc1347	-0.006716165
77	0x3bd76d76	0.006574328
78	0xbbbd2bd2	-0.005773046
79	0x3bf5b34a	0.0074981796
80	0xbbb8aef8	-0.0056360923
81	0xbc4a83e8	-0.01236055
82	0xbba90a69	-0.0051587117
83	0xbaf50a22	-0.0018695036
84	0xbc327aca	-0.010893533
85	0xbb8147c1	-0.0039453213
86	0xbb7136e1	-0.0036806392
87	0xbbc69da4	-0.0060612727
88	0xbc4511ef	-0.0120282015
89	0xbad415a7	-0.0016180769
90	0xbc58cf5a	-0.01323303
91	0x3b565496	0.0032704226
92	0x3c184005	0.009292607
93	0xba3ae43a	-0.00071293453
94	0xbb82bb74	-0.0039896313
95	0xbb635fbb	-0.003469451
96	0xbc54fc65	-0.012999629
97	0xbb91c8c3	-0.0044489815
98	0x3be09203	0.0068533435
99	0xbc3fcd41	-0.011706651
100	0xbbc40972	-0.0059825713
101	0xbbe1ba3d	-0.0068886564
102	0xbbb48f7f	-0.00551027
103	0xbb5ef67d	-0.003402143
104	0xbb190455	-0.002334853
105	0x3c23b7ea	0.009992579
106	0xbbd68796	-0.006546925
107	0x3be3c872	0.006951385
108	0xbb5fe401	-0.0034163
109	0x3b85fa6c	0.0040886905
110	0xbb7227ed	-0.0036950067
111	0x3bd83b50	0.0065988675
112	0xbc488d5d	-0.012240735
113	0x3bc64f9c	0.0060519706
114	0xbb84ff70	-0.004058771
115	0x3c230215	0.009949227
116	0x3c1612d7	0.009159765
117	0xbb986d4b	-0.0046517006
118	0x3c0a6873	0.008447754
119	0x3b6a9836	0.0035796291
120	0xbc3ab35d	-0.011395303
121	0xbb79e732	-0.0038132188
122	0x3c1c96ec	0.009557467
123	0xba1efe38	-0.0006065103
124	0x3c13012d	0.008972448
125	0xbb04ae8c	-0.002024564
126	0xbade23b0	-0.0016947892
127	0x3bdb7a43	0.0066979243

net_model.2.weight f4 [64, 128]
0	0x3d266d0f	0.04063135
1	0x3d27f419	0.041004274
2	0x3d2aa918	0.041665167
3	0x3d2cb071	0.042160455
4	0x3d153fcf	0.036437806
5	0x3d0f32f7	0.034960713
6	0x3d4cc541	0.049992803
7	0x3d699e5e	0.057035796
8	0x3d141233	0.03615017
9	0x3d898e49	0.06716592
10	0x3d183254	0.03715737
11	0x3d7c3270	0.06157154
12	0x3d2a4e2d	0.04157846
13	0x3d2d86ad	0.042364765
14	0x3d293b6a	0.041316427
15	0x3d2ff43e	0.042957537
16	0x3d3280ec	0.04357998
17	0x3d3c93db	0.046039443
18	0x3d3e05c6	0.046392225
19	0x3d33f3f3	0.04393382
20	0x3d3431d2	0.043992825
21	0x3d39b8e0	0.045342326
22	0x3d5d033d	0.053958166
23	0x3d2cc1cb	0.042177003
24	0x3d7a68fb	0.061135273
25	0x3d14f6ac	0.036368057
26	0x3d2aa0eb	0.04165737
27	0x3d2e9bfa	0.04262922
28	0x3d10980f	0.035301264
29	0x3d11ed6b	0.03562681
30	0x3cf7048a	0.030153532
31	0x3d15def9	0.036589596
32	0x3d40a40e	0.047031455
33	0x3d2e67d3	0.042579483
34	0x3d2f2994	0.04276426
35	0x3cfa0561	0.030520143
36	0x3d1539fd	0.036432255
37	0x3d2becca	0.041973867
38	0x3d253db6	0.040342055
39	0x3d508c64	0.050915137
40	0x3d7888e6	0.06067743
41	0x3d3b8618	0.04578218
42	0x3d2c9078	0.042129964
43	0x3d139763	0.036033046
44	0x3d347245	0.04405429
45	0x3d12d1bb	0.035844546
46	0x3d2ab8e2	0.041680224
47	0x3d3ddde3	0.046354186
48	0x3d31eeea	0.043440737
49	0x3d0fe380	0.03512907
50	0x3d0ddc41	0.03463388
51	0x3d30e8fa	0.043190934
52	0x3d32c7a3	0.04364742
53	0x3d44e3b7	0.04806873
54	0x3d825946	0.06364684
55	0x3d30d94f	0.04317599
56	0x3d621035	0.055191237
57	0x3d11e9bd	0.0356233
58	0x3d443054	0.04789765
59	0x3d2beb88	0.041972667
60	0x3d417964	0.047234908
61	0x3d2629c6	0.040567182
62	0x3cfecd73	0.031103825
63	0x3d2f4883	0.042793762
64	0x3d6120ae	0.054962806
65	0x3d390406	0.045169853
66	0x3d163326	0.036669873
67	0x3d29d067	0.041458514
68	0x3d10aee6	0.035323046
69	0x3d0ceb77	0.034404244
70	0x3d0e2ea3	0.034712445
71	0x3d0ee06a	0.034881987
72	0x3d264fa2	0.040603288
73	0x3d37bbe8	0.044856936
74	0x3d2b6f74	0.041854337
75	0x3d049ace	0.032374196
76	0x3d7ea8fe	0.062172882
77	0x3cf79e09	0.030226724
78	0x3d4131f4	0.04716678
79	0x3d0e0f0a	0.03468231
80	0x3d4118e1	0.047142867
81	0x3d5318a9	0.05153719
82	0x3d41ce97	0.04731616
83	0x3d33e6a0	0.043921113
84	0x3d2951bc	0.041337714
85	0x3d2b9290	0.04188782
86	0x3d2db214	0.042406157
87	0x3d4a61e4	0.049409762
88	0x3d256b73	0.040385675
89	0x3d26bfd9	0.040710304
90	0x3d2d01ce	0.04223805
91	0x3d173a0d	0.036920596
92	0x3d0f79ff	0.035028454
93	0x3d3d0231	0.046144668
94	0x3d2c4761	0.04206026
95	0x3d28905f	0.041153308
96	0x3d3aa9b8	0.045572013
97	0x3d3ad577	0.045613732
98	0x3cf7cb69	0.03024836
99	0x3d3979ab	0.045282047
100	0x3d5f4503	0.054509174
101	0x3d7bb08b	0.06144766
102	0x3d3d8681	0.04627085
103	0x3d2e4a1f	0.042551156
104	0x3d243294	0.040087298
105	0x3d0f1520	0.034932256
106	0x3d79afa8	0.060958534
107	0x3cf90248	0.030396596
108	0x3d2d5a09	0.042322192
109	0x3d139995	0.03603514
110	0x3d460bc7	0.048351076
111	0x3cf8d60c	0.030375503
112	0x3d4dd762	0.050254233
113	0x3d0cec71	0.034405176
114	0x3d337d92	0.043820925
115	0x3d154ae8	0.03644839
116	0x3d11690f	0.035500582
117	0x3d3dc8cd	0.046334077
118	0x3d0946c6	0.03351476
119	0x3d1818ab	0.0371329
120	0x3d3e8888	0.046516925
121	0x3d2bbf19	0.04193029
122	0x3d10ad5a	0.03532157
123	0x3d31ffb9	0.043456767
124	0x3d10b02e	0.035324268
125	0x3d1a191d	0.037621606
126	0x3d1ac128	0.037781864
127	0x3d0d563b	0.034506064
128	0x3d265b00	0.040614128
129	0x3d259c32	0.040432163
130	0x3d2b2d8e	0.04179149
131	0x3d2dd9a7	0.042443898
132	0x3d0f076e	0.034919195
133	0x3d0a6146	0.033784173
134	0x3d550f21	0.05201638
135	0x3d756b98	0.059917063
136	0x3d0fbf4a	0.035094537
137	0x3d91c3fe	0.07117461
138	0x3d12fa79	0.0358834
139	0x3d857187	0.06515794
140	0x3d2adbe7	0.04171362
141	0x3d2e38b5	0.04253455
142	0x3d29fa7c	0.041498646
143	0x3d30f92b	0.043206375
144	0x3d342de9	0.043989096
145	0x3d400ce8	0.04688731
146	0x3d4143c0	0.047183752
147	0x3d367640	0.044546366
148	0x3d3704da	0.04468236
149	0x3d3c7a64	0.04601516
150	0x3d66f6bf	0.05638766
151	0x3d2da3e6	0.042392634
152	0x3d85e369	0.06537516
153	0x3d0f0595	0.034917433
154	0x3d2b3fc7	0.04180887
155	0x3d2f45f6	0.04279133
156	0x3d0b3276	0.03398367
157	0x3d0e5514	0.034749106
158	0x3cea1027	0.028572155
159	0x3d0fb3bc	0.035083517
160	0x3d443d70	0.047910154
161	0x3d304f40	0.04304433
162	0x3d30f5e8	0.043203264
163	0x3cecac23	0.028890675
164	0x3d1058ca	0.035240926
165	0x3d2d2000	0.042266846
166	0x3d23a073	0.03994794
167	0x3d556ca2	0.052105553
168	0x3d83929b	0.06424447
169	0x3d3ed5cb	0.046590608
170	0x3d2d8ee4	0.0423726
171	0x3d0e5829	0.034752045
172	0x3d374b44	0.044749513
173	0x3d0dff0f	0.03466707
174	0x3d284867	0.041084673
175	0x3d414ee8	0.04719439
176	0x3d3419c7	0.043969896
177	0x3d0adf05	0.033904094
178	0x3d0a0190	0.033692896
179	0x3d321dbc	0.04348539
180	0x3d34c315	0.044131357
181	0x3d487adf	0.048945304
182	0x3d8b9af9	0.06816668
183	0x3d32d3b8	0.043658942
184	0x3d6d1670	0.057882726
185	0x3d0e0092	0.034668513
186	0x3d46d946	0.04854705
187	0x3d2cdb5a	0.042201377
188	0x3d44ecb0	0.048077285
189	0x3d231699	0.039816473
190	0x3cf83e11	0.030303033
191	0x3d31097c	0.043221936
192	0x3d6acefd	0.057326306
193	0x3d3c1862	0.04592169
194	0x3d102b50	0.035197556
195	0x3d2a6d4d	0.041608144
196	0x3d0b88ae	0.034065895
197	0x3d08eeea	0.03343097
198	0x3d092cf4	0.033490136
199	0x3d09d437	0.03364965
200	0x3d25a40c	0.04043965
201	0x3d3a6b78	0.045512646
202	0x3d2c7e44	0.042112604
203	0x3cfe371c	0.031032138
204	0x3d86986b	0.0657204
205	0x3ceb7cf1	0.0287461
206	0x3d44bbb5	0.048030574
207	0x3d0a7b19	0.0338088
208	0x3d45648a	0.048191585
209	0x3d586e1f	0.052839395
210	0x3d46363d	0.04839157
211	0x3d3458e3	0.04403008
212	0x3d26ef6f	0.040755685
213	0x3d2c9046	0.042129777
214	0x3d2eb06e	0.042648725
215	0x3d504834	0.05085011
216	0x3d21ffc7	0.03955057
217	0x3d24da96	0.040247522
218	0x3d2ab49f	0.04167616
219	0x3d14cba7	0.03632703
220	0x3d0a2885	0.03373005
221	0x3d3f2fe9	0.04667655
222	0x3d2d3a92	0.042292185
223	0x3d289f35	0.041167457
224	0x3d3c05e0	0.04590404
225	0x3d3de464	0.04636039
226	0x3cea7433	0.028619861
227	0x3d394f15	0.045241434
228	0x3d6a32b6	0.057177268
229	0x3d863daf	0.06554734
230	0x3d417a37	0.047235694
231	0x3d2ef40f	0.04271322
232	0x3d236f18	0.03990087
233	0x3d091bd0	0.03347379
234	0x3d83c5bb	0.064341985
235	0x3ceb877e	0.028751131
236	0x3d2e7c1c	0.04259883
237	0x3d0e4e1d	0.034742463
238	0x3d4ab357	0.049487438
239	0x3cec43fa	0.028841008
240	0x3d524fdd	0.051345695
241	0x3d09036a	0.03345052
242	0x3d35a81a	0.044349767
243	0x3d114a43	0.035471212
244	0x3d0db41d	0.034595598
245	0x3d41ad71	0.047284547
246	0x3d03fc85	0.032223243
247	0x3d13c8c9	0.036080156
248	0x3d442299	0.047884557
249	0x3d2d066d	0.042242456
250	0x3d0bf09a	0.034165002
251	0x3d336612	0.043798514
252	0x3d0d16fd	0.03444575
253	0x3d184934	0.037179187
254	0x3d17c266	0.037050627
255	0x3d0986bb	0.033575755

net_model.2.bias f4 [64]
0	0xbc13480a	-0.008989343
1	0xbc30463c	-0.010758933
2	0xa9f86905	-1.10316304e-13
3	0xbc148e8b	-0.009067188
4	0xbbc1ccf5	-0.0059143254
5	0x9926d223	-8.624436e-24
6	0xbc13b555	-0.009015401
7	0xbc171189	-0.009220489
8	0xa6ac6463	-1.1962107e-15
9	0xb8d02dd9	-9.926753e-05
10	0xbc13c4fb	-0.009019132
11	0xbc130547	-0.008973426
12	0xbc13293a	-0.008981997
13	0xbc136685	-0.0089966105
14	0xbc16762c	-0.009183448
15	0xbc15d135	-0.009144117
16	0xbac95115	-0.0015359247
17	0xbc13b0d0	-0.009014323
18	0xaa20d2bd	-1.4283969e-13
19	0xb8dfaf28	-0.00010666094
20	0xbc125b4d	-0.008932901
21	0xbc224665	-0.009904479
22	0xbc121ea7	-0.008918441
23	0xbc13527f	-0.008991837
24	0xb3e893ef	-1.0830251e-07
25	0xbb092aae	-0.002092998
26	0x3d61e92e	0.055154018
27	0xb9f1dca6	-0.00046131498
28	0xbc0ce02a	-0.008598367
29	0x3d605e1d	0.054777253
30	0xbb02b5a5	-0.0019944694
31	0xbc12e820	-0.008966476
32	0xbc13055e	-0.008973448
33	0xbc12f4d2	-0.0089695025
34	0xbc130f35	-0.008975794
35	0xbc13685a	-0.008997047
36	0xbc14ea7e	-0.00908911
37	0xbc149d53	-0.009070712
38	0xbad31755	-0.0016104976
39	0xa8fc4282	-2.8006463e-14
40	0xbc1313dd	-0.008976904
41	0xac3370a0	-2.549995e-12
42	0xbc170f6c	-0.009219985
43	0xbc12974a	-0.008947203
44	0xbc287ee8	-0.010284163
45	0xbc3659df	-0.011129825
46	0xbc15ecdc	-0.00915071
47	0xba874d20	-0.0010322668
48	0xbc1482f8	-0.0090644285
49	0xbc130901	-0.008974315
50	0x3d65da54	0.056116417
51	0xbc134876	-0.008989444
52	0xbac628d1	-0.0015118365
53	0xbc12d0b4	-0.0089608915
54	0xbc1385db	-0.009004082
55	0x9a4d6aef	-4.2479387e-23
56	0xba664f94	-0.0008785662
57	0xbc132a3e	-0.008982239
58	0xbb728af5	-0.0037009094
59	0xbc13100d	-0.008975995
60	0xbc1261ef	-0.008934482
61	0xbc13594d	-0.008993459
62	0xb5cb60f0	-1.5152891e-06
63	0xbc2c7732	-0.010526465

net_model.4.weight f4 [32, 64]
0	0x3d2e0070	0.042480886
1	0x3d34e208	0.044160873
2	0x223d5e29	2.5664124e-18
3	0x3d2df4d3	0.04246981
4	0x3c5748e2	0.013139935
5	0x1b59b390	1.8007839e-22
6	0x3d2deacb	0.042460244
7	0x3d2e3416	0.04253014
8	0xa2e83d0c	-6.294836e-18
9	0x35906090	1.075694e-06
10	0x3d2d6f7a	0.04234264
11	0x3d2daeb6	0.042402945
12	0x3d2cc447	0.042179372
13	0x3d2d7649	0.042349134
14	0x3d2e88ee	0.042611055
15	0x3d2e6771	0.04257912
16	0x3a463418	0.0007560863
17	0x3d2dfa20	0.042474866
18	0x82868be5	-1.9769826e-37
19	0xb5807314	-9.570235e-07
20	0x3d2dd22c	0.042436764
21	0x3d2e433f	0.0425446
22	0x3d2dcbd2	0.042430706
23	0x3d2d7d74	0.04235597
24	0xb13325de	-2.6069453e-09
25	0x3aae86b6	0.0013315293
26	0xbda46859	-0.08027715
27	0xaf4aef51	-1.8456815e-10
28	0x3caf3488	0.021387354
29	0xbda79f97	-0.08184736
30	0x3ae35351	0.0017343556
31	0x3d2d33c8	0.04228571
32	0x3d2dcdbd	0.042432535
33	0x3d2e0be7	0.04249182
34	0x3d2d630d	0.04233079
35	0x3d2e6280	0.042574406
36	0x3d2e2fdc	0.04252611
37	0x3d2e238d	0.042514373
38	0x3ac5a0ae	0.0015077794
39	0x1ebfd2e0	2.0310127e-20
40	0x3d2d5615	0.042318422
41	0x0b49a4b2	3.8835095e-32
42	0x3d2e1779	0.042502854
43	0x3d2dc7f3	0.042427015
44	0x3d328d65	0.043591876
45	0x3d360ff4	0.044448808
46	0x3d2dd5f1	0.04244036
47	0x39be53fd	0.000363022
48	0x3d2df4ff	0.042469975
49	0x3d2e3e41	0.04253984
50	0xbda8278b	-0.08210667
51	0x3d2d708d	0.042343665
52	0xba9dc32b	-0.0012036314
53	0x3d2d3e9b	0.042296033
54	0x3d2df2f0	0.04246801
55	0x81d7ef5e	-7.9322e-38
56	0xb6c808a7	-5.9614717e-06
57	0x3d2cd67a	0.04219673
58	0x3b3434a7	0.0027497204
59	0x3d2d7c1d	0.04235469
60	0x3d2dc7da	0.04242692
61	0x3d2e25f7	0.042516675
62	0x82957e04	-2.1965912e-37
63	0x3d3483b6	0.04407092
64	0x01f2e41a	8.922407e-38
65	0x033225bd	5.235282e-37
66	0x81a12ce0	-5.920645e-38
67	0x832e1d8f	-5.1167936e-37
68	0x0356981c	6.306356e-37
69	0x8329a6e5	-4.985622e-37
70	0x8292ff7e	-2.1599417e-37
71	0x821e0b82	-1.1611309e-37
72	0x035ad824	6.431256e-37
73	0x8343fe60	-5.759736e-37
74	0x0349014b	5.9070075e-37
75	0x03427b5b	5.715308e-37
76	0x834b190c	-5.968509e-37
77	0x02a1928d	2.374094e-37
78	0x832bb241	-5.045701e-37
79	0x827917da	-1.8300476e-37
80	0x83231513	-4.7925587e-37
81	0x034a1a71	5.939282e-37
82	0x82d8ab8a	-3.1836806e-37
83	0x834ef0bb	-6.0814304e-37
84	0x033bcb5a	5.5187797e-37
85	0x828cd80a	-2.0695151e-37
86	0x82cab89a	-2.9787188e-37
87	0x81f44be4	-8.974034e-38
88	0x031ae141	4.551511e-37
89	0x831c2aa4	-4.589323e-37
90	0x02f5364a	3.6030675e-37
91	0x0303234a	3.853795e-37
92	0x8277d695	-1.8208276e-37
93	0x829a6ae3	-2.2689616e-37
94	0x83352bd3	-5.3241427e-37
95	0x0359b9f8	6.398405e-37
96	0x83286d68	-4.9496355e-37
97	0x031a918a	4.5423603e-37
98	0x03606a2e	6.594957e-37
99	0x817c6c24	-4.6362677e-38
100	0x83011f00	-3.794528e-37
101	0x83673fd7	-6.7958083e-37
102	0x0347a7e2	5.8673564e-37
103	0x02c84d80	2.9431842e-37
104	0x0346e1fc	5.8446388e-37
105	0x8360f10b	-6.6104387e-37
106	0x034ffb5c	6.112038e-37
107	0x832a907c	-5.012437e-37
108	0x828335e2	-1.9279647e-37
109	0x8264c40b	-1.6807056e-37
110	0x815ab57c	-4.0170485e-38
111	0x83479f7c	-5.8663923e-37
112	0x034bf668	5.99392e-37
113	0x032a6a20	5.0080335e-37
114	0x033f6270	5.6242856e-37
115	0x8308b5bc	-4.017543e-37
116	0x03387c75	5.421561e-37
117	0x83387014	-5.42014e-37
118	0x030fb513	4.2231786e-37
119	0x8339e5bc	-5.4630336e-37
120	0x02e39db1	3.3445163e-37
121	0x035c759a	6.478719e-37
122	0x8305e766	-3.935082e-37
123	0x83287ad0	-4.9511745e-37
124	0x8357baf5	-6.3397438e-37
125	0x032e41f7	5.120973e-37
126	0x833b4169	-5.502945e-37
127	0x835e8cdb	-6.540163e-37
128	0x0347cda5	5.8716912e-37
129	0x020655c3	9.869378e-38
130	0x8300740c	-3.7749035e-37
131	0x03055793	3.9185717e-37
132	0x8344df2e	-5.785542e-37
133	0x833f7f2f	-5.6275855e-37
134	0x034b4597	5.9736224e-37
135	0x03068b2a	3.9538813e-37
136	0x0308b753	4.0177254e-37
137	0x8309f58c	-4.0542556e-37
138	0x8307a438	-3.986145e-37
139	0x831ca22f	-4.6030457e-37
140	0x831ef35c	-4.671139e-37
141	0x82f013e3	-3.5276245e-37
142	0x82c8d8ae	-2.9511727e-37
143	0x834b289f	-5.970297e-37
144	0x0340e553	5.668698e-37
145	0x83205ce9	-4.712643e-37
146	0x031e5c66	4.6538095e-37
147	0x035e2e02	6.529275e-37
148	0x033f4d76	5.6218776e-37
149	0x830da9f0	-4.1631255e-37
150	0x82b3105b	-2.6311074e-37
151	0x032b5f80	5.036201e-37
152	0x83362f31	-5.3539166e-37
153	0x82dfadda	-3.286669e-37
154	0x82fed02b	-3.7441428e-37
155	0x03134cc7	4.3287553e-37
156	0x0349a932	5.926282e-37
157	0x8301ba46	-3.8123524e-37
158	0x8346cd98	-5.842298e-37
159	0x020557b6	9.796469e-38
160	0x8341337c	-5.6776704e-37
161	0x8303f30b	-3.877644e-37
162	0x032c92a3	5.071459e-37
163	0x033acc70	5.489517e-37
164	0x02ab8a60	2.5205615e-37
165	0x030d9cb4	4.161606e-37
166	0x03355056	5.328334e-37
167	0x03142797	4.353874e-37
168	0x032e25f5	5.1177577e-37
169	0x8345cb3e	-5.8126407e-37
170	0x829be740	-2.2907934e-37
171	0x0314f979	4.377967e-37
172	0x81a2f516	-5.986108e-38
173	0x828ae45e	-2.0408354e-37
174	0x03024e56	3.829349e-37
175	0x034d0fa2	6.026203e-37
176	0x83417b61	-5.6859234e-37
177	0x02fe1ccc	3.7338474e-37
178	0x029a8688	2.2705483e-37
179	0x82d7e5b3	-3.1723252e-37
180	0x000f9e38	1.43429e-39
181	0x031ced38	4.6116593e-37
182	0x0327cb4b	4.931026e-37
183	0x82bb66cc	-2.7536183e-37
184	0x8315a915	-4.398126e-37
185	0x834ee58a	-6.0801457e-37
186	0x02f3b928	3.5811915e-37
187	0x82f1c758	-3.5526185e-37
188	0x0344a8c6	5.7792966e-37
189	0x83336e68	-5.2730112e-37
190	0x83488e89	-5.893834e-37
191	0x030c3bac	4.12108e-37
192	0x032f3eb2	5.149985e-37
193	0x83248424	-4.834696e-37
194	0x033d733e	5.56744e-37
195	0x834ae2ff	-5.9623043e-37
196	0x022a39b5	1.2506189e-37
197	0x832550b2	-4.8581776e-37
198	0x834eb521	-6.0745885e-37
199	0x029617bc	2.2054142e-37
200	0x02d498c4	3.1238283e-37
201	0x833f18ca	-5.615831e-37
202	0x03217153	4.7443737e-37
203	0x832fecd8	-5.169976e-37
204	0x8090b570	-1.3289399e-38
205	0x833f2700	-5.6174625e-37
206	0x029c1759	2.293554e-37
207	0x036aee45	6.903994e-37
208	0x02bf58bc	2.8115859e-37
209	0x031b6aae	4.567287e-37
210	0x83680648	-6.8185883e-37
211	0x02a523fd	2.4265227e-37
212	0x833e086c	-5.584565e-37
213	0x831a85f4	-4.5410303e-37
214	0x833f790d	-5.6268815e-37
215	0x03306010	5.1832026e-37
216	0x83083d60	-4.0037263e-37
217	0x03239720	4.807488e-37
218	0x832ced7e	-5.0818885e-37
219	0x03469cd3	5.8366996e-37
220	0x82b8903d	-2.7119159e-37
221	0x835dc970	-6.51773e-37
222	0x82fb068c	-3.6884893e-37
223	0x032ddec8	5.109587e-37
224	0x03445884	5.7700834e-37
225	0x833513ac	-5.32137e-37
226	0x82b84cea	-2.7080517e-37
227	0x032d9a85	5.101751e-37
228	0x0351b060	6.162205e-37
229	0x033c7cad	5.5391355e-37
230	0x83393e23	-5.4437943e-37
231	0x8354543d	-6.23979e-37
232	0x03435e4b	5.7413593e-37
233	0x03666490	6.7706365e-37
234	0x0369f96a	6.875886e-37
235	0x033fe7f2	5.6396115e-37
236	0x827ca9f5	-1.8562811e-37
237	0x826f9ea1	-1.7604471e-37
238	0x835efeee	-6.553258e-37
239	0x033fdbd4	5.6382206e-37
240	0x025933ca	1.5957505e-37
241	0x032f544d	5.152465e-37
242	0x8345b896	-5.810499e-37
243	0x03112c26	4.266235e-37
244	0x82ed6384	-3.488114e-37
245	0x833ad736	-5.4907537e-37
246	0x82753bf0	-1.8016958e-37
247	0x82f9f80a	-3.672963e-37
248	0x0321fc08	4.7602965e-37
249	0x80ee10c0	-2.1862857e-38
250	0x025988fe	1.5981957e-37
251	0x032ebae4	5.1348544e-37
252	0x8333bf94	-5.2823293e-37
253	0x83649cac	-6.718303e-37
254	0x8330ed1a	-5.199393e-37
255	0x8342daa3	-5.726246e-37

net_model.4.bias f4 [32]
0	0xbb164ec9	-0.0022935143
1	0xba0ea07e	-0.00054407853
2	0xba086e4c	-0.0005204424
3	0xba1ae75e	-0.000590911
4	0xbb17c91b	-0.002316064
5	0xb9f884e3	-0.00047401254
6	0xba12a3e0	-0.0005593877
7	0xbb15eeb0	-0.0022877865
8	0xba195d97	-0.0005850433
9	0xbb17f697	-0.002318775
10	0xbb1672cd	-0.002295661
11	0xba125959	-0.0005582772
12	0xbb16812d	-0.0022965178
13	0xbb161893	-0.002290283
14	0xb9e50396	-0.00043680955
15	0xbb17f523	-0.0023186884
16	0xba18b3d5	-0.0005825137
17	0xb9abca5a	-0.00032766425
18	0xbb16a7d6	-0.0022988222
19	0xab396e63	-6.5878395e-13
20	0xbb17ab21	-0.0023142772
21	0xbb17e881	-0.0023179355
22	0xba1874e7	-0.00058157597
23	0xb92ff690	-0.00016781152
24	0xba0f9719	-0.00054775324
25	0xbb169e4d	-0.0022982538
26	0xba0d7428	-0.0005396032
27	0xbb15b905	-0.0022845876
28	0xbb1cf023	-0.0023946844
29	0xbb16a324	-0.0022985423
30	0xbb16885a	-0.0022969455
31	0xbb15d88b	-0.0022864665

net_model.6.weight f4 [1, 32]
0	0xbd209fdc	-0.039214954
1	0x8336d22a	-5.372625e-37
2	0x8328c66e	-4.959855e-37
3	0x833fc51a	-5.6356117e-37
4	0xbd20ba07	-0.03923991
5	0x824b9375	-1.4956403e-37
6	0x834f22b9	-6.0871692e-37
7	0xbd20be19	-0.03924379
8	0x803bdce0	-5.497529e-39
9	0xbd20b39d	-0.039233793
10	0xbd20a784	-0.039222255
11	0x83505e2b	-6.1233806e-37
12	0xbd20f117	-0.03929242
13	0xbd20ac21	-0.039226655
14	0xba0f7a7e	-0.000547327
15	0xbd20c59a	-0.039250948
16	0x83140b08	-4.3505954e-37
17	0xba13d5de	-0.00056394737
18	0xbd20ca07	-0.03925517
19	0x8361cbcb	-6.63555e-37
20	0xbd20a93c	-0.039223894
21	0xbd20b38b	-0.039233726
22	0x833f35d0	-5.619163e-37
23	0x8290f10c	-2.1297252e-37
24	0x833ae459	-5.4922618e-37
25	0xbd20a1a6	-0.03921666
26	0x8328a570	-4.9560676e-37
27	0xbd20c7a3	-0.03925289
28	0xbd220f03	-0.039565098
29	0xbd20b120	-0.03923142
30	0xbd20adfb	-0.03922842
31	0xbd20d679	-0.039267037
