src/t1dsim_ai/models/IndividualModel/T1DEXI-01-0641/individual_model.pt (torch, 50089 bytes, 7 tensors)

net_model.0.weight f4 [128, 10]
0	0xbce53165	-0.027977655
1	0x3cb412aa	0.021981556
2	0xbca91199	-0.020638274
3	0x3b997231	0.004682802
4	0x3b962ddb	0.004583103
5	0x3c6204e2	0.0137951095
6	0x3c84a502	0.016191963
7	0xbc2af6ea	-0.010434845
8	0xbbae90f4	-0.0053273384
9	0xbd212452	-0.03934128
10	0xbc47878a	-0.012178311
11	0x3cf6af6e	0.030112948
12	0xbcc8e12f	-0.024521438
13	0x3b8f4ed1	0.0043734093
14	0xbacc40f0	-0.0015583318
15	0xbbdd5021	-0.006753937
16	0x3ab59a72	0.0013855232
17	0xbd0008e9	-0.031258497
18	0xbcb13170	-0.021630019
19	0xbd83a8b3	-0.06428661
20	0xbcd8c62e	-0.026461687
21	0x3cad4387	0.021150364
22	0xbccda52a	-0.02510317
23	0x3b0ed7bd	0.002179607
24	0x3bff8b3b	0.00779858
25	0x3c753555	0.014966329
26	0x3b5fb136	0.0034132726
27	0xbb879281	-0.0041373377
28	0xbbfde46b	-0.007748177
29	0xbd030866	-0.03199043
30	0xbb8c612d	-0.004284045
31	0x3cc30103	0.023804193
32	0xbcd98206	-0.026551258
33	0x3bb4ca67	0.0055172923
34	0xbbc9f650	-0.006163396
35	0x3c1c5b7e	0.009543298
36	0x3c9c009e	0.019043263
37	0xbb966bde	-0.0045904955
38	0xbae6bbef	-0.0017603616
39	0xbd34c6d4	-0.04413493
40	0xbbaf8bd6	-0.005357246
41	0x3cbfb39d	0.023401076
42	0xbcba748d	-0.022760654
43	0x3be37c2f	0.006942294
44	0x3c15b146	0.009136504
45	0x3c86019d	0.016358191
46	0x3c240e15	0.010013123
47	0x3bbdc62c	0.005791446
48	0xbcc43a01	-0.02395344
49	0x3ccbf082	0.024894956
50	0xbcd8cb32	-0.026464079
51	0x3cc02923	0.023457116
52	0xbcb49d99	-0.022047805
53	0x3a97a40a	0.0011569273
54	0x3c0c3d9d	0.008559612
55	0x3c796518	0.015221857
56	0x3ba7a952	0.00511662
57	0xbbcdbd83	-0.006278695
58	0xbbb220f0	-0.0054360554
59	0xbcfdba38	-0.030972585
60	0xbd1d9809	-0.03847507
61	0x3d18fa03	0.037347805
62	0xbcd0f857	-0.025509043
63	0xbd87e303	-0.06635096
64	0x3cb0956c	0.021555625
65	0xbc48f5af	-0.012265607
66	0x3c18bd4c	0.009322476
67	0xbb9d8777	-0.0048074084
68	0xbd01ddb7	-0.031705584
69	0xbd0a1793	-0.03371389
70	0xbd0f16a0	-0.034933686
71	0x3cbe845b	0.023256471
72	0xbc4f3e2b	-0.012649099
73	0x3c3319fb	0.010931487
74	0x3b98dafe	0.004664778
75	0x3c578add	0.013155666
76	0x3caa8096	0.020813268
77	0xbc389943	-0.011267009
78	0xbbc2cbfa	-0.005944726
79	0xbd6857c8	-0.05672434
80	0xbd0b8bad	-0.034068752
81	0x3cbbe312	0.022935424
82	0xbc3759a8	-0.011190809
83	0x3beb2f20	0.0071772486
84	0x3bf41522	0.0074488083
85	0x3c19b4b9	0.009381467
86	0x3cac674f	0.021045355
87	0xbc2018fb	-0.009771581
88	0xbbe818d1	-0.0070830365
89	0xbd3dbe71	-0.046324197
90	0xbc35dbee	-0.011099799
91	0x3cf9e38f	0.030504016
92	0xbcd14125	-0.025543759
93	0x3baf386c	0.005347302
94	0xbb67c249	-0.0035363606
95	0xbb755ae4	-0.0037438208
96	0xbcbff85d	-0.023433859
97	0xbd0170ad	-0.031601597
98	0xbca51fba	-0.02015673
99	0xbd104048	-0.035217553
100	0xbb9b8dea	-0.004747142
101	0x3cbdefd8	0.023185655
102	0xbcc2b809	-0.023769395
103	0x3bf54c47	0.0074858996
104	0x3befa156	0.007312934
105	0x3c85d1f9	0.016335474
106	0x3c2be167	0.010490752
107	0x3b9c1844	0.004763635
108	0xbcc73482	-0.02431703
109	0x3cc1d505	0.023661146
110	0xbca83486	-0.020532858
111	0xba541efc	-0.0008091775
112	0xbd113535	-0.035451133
113	0xbd1e2772	-0.038611837
114	0xbc9a7ce5	-0.018858382
115	0xbc7c0b8a	-0.0153836105
116	0xbcb8e6d0	-0.022570997
117	0xbd046cb2	-0.032330222
118	0xbbbaa2a5	-0.0056956583
119	0xbbee1f5c	-0.007266922
120	0xbd117951	-0.035516087
121	0x3cbe471f	0.023227273
122	0xbc2fd4a2	-0.010731848
123	0x3c0cd4d6	0.008595666
124	0x3be785de	0.0070655188
125	0x3c32cd0e	0.010913147
126	0x3cb1bf85	0.021697769
127	0xbc272d96	-0.01020374
128	0xbbe42851	-0.006962814
129	0xbd51a938	-0.05118677
130	0xbd02af5c	-0.031905517
131	0x3cb9fa95	0.022702495
132	0xbc6eb8a1	-0.014570386
133	0x3b99cdf5	0.0046937414
134	0x3bf31216	0.0074179275
135	0x3c2d27c0	0.010568559
136	0x3c9bdcc3	0.019026166
137	0xbc1e5a08	-0.00966502
138	0xbbdf4a10	-0.006814249
139	0xbd21d09a	-0.03950558
140	0xbcf24a67	-0.029576493
141	0x3cb62e88	0.022238985
142	0xbc905cc3	-0.017622357
143	0x3ac4acdd	0.001500513
144	0x3bffe877	0.0078096944
145	0x3c2c14b1	0.01050298
146	0x3c851ecd	0.016250039
147	0xbc0cc455	-0.008591731
148	0xbbfb1755	-0.0076626935
149	0xbd048d64	-0.032361403
150	0xbb9b4fe2	-0.0047397474
151	0x3cbd7c6a	0.023130614
152	0xbcc2357d	-0.023707146
153	0x3bf3246e	0.0074201142
154	0x3bed6468	0.0072446354
155	0x3c884fc3	0.016639596
156	0x3c2bf7d9	0.010496103
157	0x3b9963a4	0.0046810675
158	0xbcc6e663	-0.024279779
159	0x3cc12d07	0.023581041
160	0xbd0eb240	-0.03483796
161	0x3cbf3ff3	0.023345923
162	0xbc3e9576	-0.011632314
163	0x3c026520	0.00795868
164	0x3be60577	0.0070196944
165	0x3c3bdf04	0.011466745
166	0x3cada6a1	0.021197619
167	0xbc218a8c	-0.009859692
168	0xbbd4c3d9	-0.0064930734
169	0xbd43a977	-0.047769036
170	0xbc851ce0	-0.01624912
171	0x3cb3752f	0.021906463
172	0xbc9e2612	-0.019305263
173	0x3c0d58bd	0.008627114
174	0xbb800463	-0.003906773
175	0x3be7724e	0.0070631867
176	0x3cc6ae56	0.024253052
177	0xbc82c771	-0.015964242
178	0xb9d1c735	-0.00040012007
179	0xbd873704	-0.0660229
180	0xbd07eff7	-0.033187833
181	0x3cb9d7d4	0.022685923
182	0xbc63e5a2	-0.013909729
183	0x3c222e86	0.009898787
184	0x3b9f8e7d	0.004869281
185	0x3c551be7	0.013007141
186	0x3ca2bbcb	0.019864937
187	0xbc2a44b1	-0.010392354
188	0xbba937ad	-0.005164108
189	0xbd525a96	-0.05135592
190	0xbc31a623	-0.010842833
191	0x3cf5541a	0.02994733
192	0xbcd1ab20	-0.025594294
193	0x3b1cdf1a	0.002393669
194	0xbba9c4b2	-0.0051809186
195	0xbc1b2f2d	-0.009471697
196	0x3c615af4	0.013754595
197	0xbd05c714	-0.03266056
198	0xbcb40842	-0.021976594
199	0xbda5abb2	-0.08089389
200	0xbd10355e	-0.035207145
201	0x3cb40152	0.021973286
202	0xbc0c02e0	-0.008545607
203	0x3c3444fb	0.011002774
204	0x3b787856	0.0037913523
205	0xba653f0e	-0.00087450526
206	0x3ce93b42	0.02847064
207	0xbc79e70e	-0.015252842
208	0xbc15d7b4	-0.009145666
209	0xbd91e8c4	-0.07124475
210	0xbd0e385d	-0.03472172
211	0x3cbbe98f	0.022938518
212	0xbc333b33	-0.010939407
213	0x3c0a7aa8	0.008452095
214	0x3be340c5	0.0069352114
215	0x3c2c336e	0.010510309
216	0x3cae580b	0.021282217
217	0xbc221d40	-0.009894669
218	0xbbe15ae7	-0.0068772915
219	0xbd4bae36	-0.049726687
220	0xbcaa4444	-0.020784505
221	0xbacd0ff9	-0.0015645019
222	0xbd12065c	-0.035650596
223	0xbd15b376	-0.0365481
224	0xbcb0875d	-0.021548921
225	0xbc779e6d	-0.015113455
226	0xbcc5bca2	-0.024137799
227	0xbd10ce65	-0.035353083
228	0xbb7ff6e9	-0.0039057082
229	0xbc15e034	-0.0091476925
230	0xbb93e4cc	-0.0045133587
231	0x3cbc1cc6	0.022962939
232	0xbcde93ca	-0.02717008
233	0x3bc534a3	0.0060182377
234	0xbbea9927	-0.0071593705
235	0x3c209b20	0.00980261
236	0x3ca4e351	0.020127924
237	0xbb8ec453	-0.0043568998
238	0xbaa54961	-0.001261037
239	0xbd39e4f1	-0.04538435
240	0xbcb1ca99	-0.021703051
241	0xbb4f8a33	-0.0031668067
242	0xbd145741	-0.036216024
243	0xbcf8b3a8	-0.030359104
244	0xbc9c1c66	-0.01905651
245	0xbc94c13b	-0.018158546
246	0xbcd8aba2	-0.026449028
247	0xbd23f43f	-0.040027853
248	0xbaffffff	-0.0019531249
249	0xbc162c55	-0.009165843
250	0xbb87f209	-0.004148726
251	0x3cc2f304	0.02379752
252	0xbcda067b	-0.026614418
253	0x3bb945f4	0.005654091
254	0xbbd19056	-0.00639538
255	0x3c1a5307	0.009419209

net_model.0.bias f4 [128]
0	0xbb38321f	-0.0028106046
1	0xbb2709af	-0.002548795
2	0xbb609292	-0.003426705
3	0x3c0a1b27	0.008429325
4	0x3b42d402	0.0029728417
5	0xbbb5c08b	-0.0055466346
6	0xbc88992e	-0.016674604
7	0xbb4030e6	-0.002932602
8	0xbb9dd64a	-0.004816805
9	0xbb98db12	-0.004664787
10	0x3b5c3ba1	0.0033604878
11	0x3bd117d3	0.006381014
12	0xbb94d103	-0.0045415177
13	0xbb937a80	-0.004500687
14	0xbb993bfc	-0.00467634
15	0x3b60805e	0.00342562
16	0xbb9887db	-0.004654867
17	0x3a56f3c6	0.0008199777
18	0xbb5b6326	-0.0033475845
19	0xb99ab2d4	-0.00029506406
20	0xbb87c519	-0.004143369
21	0xbb94a11b	-0.004535807
22	0x3bfc0462	0.007690952
23	0x3c072e48	0.00825078
24	0x3c4020d1	0.011726574
25	0x3c0b8a2e	0.008516831
26	0xbb4c347a	-0.0031159208
27	0x3c0aaaab	0.008463542
28	0x3b3ce906	0.0028825416
29	0x3b46d1ad	0.003033738
30	0x3c084766	0.008317804
31	0x3b2a50c2	0.0025988077
32	0x3c01add0	0.007914975
33	0x3c009300	0.0078475475
34	0xbb83d8e9	-0.0040236604
35	0x3c0fe360	0.008782238
36	0x3b3ef1b9	0.0029135777
37	0x3c077b4f	0.008269145
38	0xbbbbc640	-0.0057304204
39	0x3b977fab	0.0046233735
40	0x3ad9a87f	0.0016606002
41	0xbb4ce6eb	-0.0031265568
42	0xbb9c9871	-0.0047789146
43	0x3b3a6faa	0.0028447905
44	0xbbae9198	-0.0053274147
45	0xbc98bca2	-0.018644635
46	0xbc0510c6	-0.008121675
47	0xbbaf914b	-0.0053578964
48	0xbb96b7ba	-0.0045995386
49	0xbb8a1acc	-0.00421462
50	0xbba2d2de	-0.004968985
51	0x3b45fa9a	0.0030209185
52	0x3c0461c6	0.008079952
53	0xbb9c9245	-0.004778179
54	0xbb7e6d61	-0.003882252
55	0xbba19586	-0.0049311547
56	0x3ce83d83	0.028349644
57	0xbc5d3938	-0.013502412
58	0x3c4aaa00	0.012369633
59	0xbba4444a	-0.0050130235
60	0x3b73dc6c	0.003721024
61	0xbbb1074c	-0.005402481
62	0xbca67f0b	-0.02032425
63	0xbbced47f	-0.0063119526
64	0xbac24a9d	-0.0014823262
65	0x3ca79736	0.020457845
66	0x3b49d834	0.0030799033
67	0x3b37968f	0.0028013324
68	0x3b6193b0	0.0034420304
69	0x3b5fe672	0.0034164456
70	0x3b5c6a78	0.0033632796
71	0x3b61efa8	0.0034475122
72	0xbb943c38	-0.00452378
73	0x3b6bd87c	0.003598719
74	0xbb941f92	-0.004520365
75	0x3b80a8d5	0.0039263763
76	0xbb234a43	-0.002491609
77	0x3c0e0168	0.008667327
78	0xbbc8f8a8	-0.0061331578
79	0xbb37925d	-0.0028010823
80	0xbaef43f6	-0.0018254507
81	0xbcb285ca	-0.021792311
82	0xbba03362	-0.004888938
83	0xbc263269	-0.010143855
84	0xbc02b7c2	-0.007978382
85	0xbbc6874a	-0.006058608
86	0x3b83e0c8	0.0040245987
87	0x3b68af3b	0.0035504836
88	0x3c07ee25	0.008296524
89	0x3b665d86	0.003515096
90	0xbc05594b	-0.008138965
91	0x3c20b628	0.009809054
92	0x3c00e101	0.007866145
93	0x3b646a47	0.0034853385
94	0x3b5f4f74	0.0034074457
95	0x3c0d2491	0.008614675
96	0xbc97a4da	-0.018511225
97	0x3b7c70e2	0.0038519432
98	0x3b5c922e	0.0033656466
99	0xbc0613c7	-0.008183426
100	0xbcc100f4	-0.023560025
101	0x3b4d5707	0.003133239
102	0xbb8e5f58	-0.004344862
103	0x3c016117	0.007896683
104	0xbb833e86	-0.004005256
105	0xbba845be	-0.005135267
106	0xbb3f4987	-0.0029188113
107	0x3b5819b9	0.0032974316
108	0xbb78ef3c	-0.0037984392
109	0xbbcce17b	-0.0062524653
110	0xbb998650	-0.0046852008
111	0x3c034eab	0.008014361
112	0x3bced434	0.0063119177
113	0xbb9705d0	-0.004608847
114	0xbb988896	-0.004654954
115	0xbb91480f	-0.004433639
116	0xbc992387	-0.018693699
117	0xbb7dfe4c	-0.003875631
118	0x3b376d94	0.0027988898
119	0xbc3599d3	-0.011084038
120	0x3d026100	0.031830788
121	0xbb98f27a	-0.0046675773
122	0x3b835a58	0.0040085725
123	0x3c0bbce8	0.0085289255
124	0xbb8fe094	-0.0043907855
125	0xbb4c0260	-0.0031129345
126	0x3b50d52d	0.0031865344
127	0xbc1fc50e	-0.009751571

net_model.2.weight f4 [64, 128]
0	0x3c8a2d5a	0.016867328
1	0x3d025a6d	0.031824518
2	0x3c6ef9d9	0.0145859355
3	0x3c461092	0.012088912
4	0x3c6f27d4	0.014596898
5	0x3c82082f	0.015873043
6	0x3d9cdcf9	0.07659335
7	0x3cc126bb	0.023578038
8	0x3ca57f89	0.020202415
9	0x3d062966	0.032754324
10	0x3c6a7c38	0.014311843
11	0x3d1c12c4	0.038103834
12	0x3cb58e2d	0.022162521
13	0x3c934644	0.017977841
14	0x3c7a0838	0.015260749
15	0x3c677a27	0.0141282445
16	0x3cb0d574	0.021586157
17	0x3c9beb7d	0.019033188
18	0x3caefe92	0.021361623
19	0x3d16feec	0.036864206
20	0x3cda1b8c	0.026624463
21	0x3caf9539	0.02143346
22	0x3d26eaf2	0.040751405
23	0x3c5be3f9	0.013421052
24	0x3d39c017	0.045349207
25	0x3c494393	0.012284177
26	0x3ca81822	0.02051932
27	0x3c4a55e9	0.012349584
28	0x3c71b036	0.014751485
29	0x3d25759e	0.04039537
30	0x3c569001	0.013095857
31	0x3c7757a2	0.015096577
32	0x3c477f7a	0.012176389
33	0x3c7eba4d	0.015547347
34	0x3c6b6c87	0.014369137
35	0x3c46698a	0.012110123
36	0x3c76eab2	0.015070604
37	0x3c5c7759	0.013456189
38	0x3d0acd45	0.033887167
39	0x3d3d2224	0.046175137
40	0x3d052273	0.032503556
41	0x3cb0f152	0.021599445
42	0x3ca67e0e	0.02032378
43	0x3c71b699	0.014753007
44	0x3cf3d5de	0.029765066
45	0x3db31568	0.08744317
46	0x3db177d0	0.086654305
47	0x3c89843f	0.016786693
48	0x3cfa8b0f	0.030583886
49	0x3c9601f2	0.018311474
50	0x3d047d41	0.032346014
51	0x3c6e2b12	0.014536636
52	0x3c730786	0.014833337
53	0x3c8ddf35	0.017318347
54	0x3d277ca3	0.040890347
55	0x3ca88aff	0.020574091
56	0x3d8fd851	0.07023681
57	0x3da26eba	0.07931276
58	0x3d3bbb7b	0.045833092
59	0x3c8617c6	0.016368758
60	0x3c693a0b	0.01423503
61	0x3cf51b9a	0.029920388
62	0x3da5517e	0.08072184
63	0x3cded45d	0.027200872
64	0x3cf9053a	0.030398
65	0xbd2b5f91	-0.041839186
66	0x3c6c08d2	0.0144064
67	0x3c77cece	0.01512499
68	0x3c6483f5	0.013947477
69	0x3c653421	0.013989479
70	0x3c60edfd	0.013728616
71	0x3c637f9a	0.013885403
72	0x3c784ec3	0.015155497
73	0x3c6114b6	0.013737848
74	0x3c9d9563	0.019236272
75	0x3c6189ee	0.013765795
76	0x3d4fb207	0.05070689
77	0x3c4bd709	0.012441405
78	0x3cdb4892	0.026768003
79	0x3ca3dd15	0.020002881
80	0x3d034d9c	0.032056436
81	0x3db4ce0d	0.088283636
82	0x3c9c697d	0.01909327
83	0x3d96e102	0.073671356
84	0x3db16fc2	0.08663894
85	0x3cda23c8	0.02662839
86	0x3c55f3b9	0.013058596
87	0x3cf76993	0.030201709
88	0x3c52b617	0.012860796
89	0x3c651bfb	0.013983722
90	0x3daff929	0.085924454
91	0x3d315dba	0.043302275
92	0x3c7d471c	0.015458848
93	0x3c6d8a2f	0.014498278
94	0x3c62dcd1	0.013846592
95	0x3c379aa4	0.011206303
96	0x3da7e453	0.08197846
97	0x3c5cf9e2	0.013487311
98	0x3c6aff16	0.014343044
99	0x3da596d1	0.080854066
100	0x3dabb553	0.08384194
101	0x3d421f7f	0.04739332
102	0x3c96d948	0.018414155
103	0x3c5ab126	0.0133479
104	0x3c953aa3	0.018216437
105	0x3c800a83	0.015630012
106	0x3d3eaf90	0.04655415
107	0x3c646855	0.01394089
108	0x3c8cd87a	0.017193068
109	0x3ce5e651	0.028063925
110	0x3d134715	0.03595646
111	0x3c4c076d	0.012452942
112	0x3d4e45e7	0.050359633
113	0x3cfd5009	0.030921953
114	0x3c9ad87c	0.018902056
115	0x3c92232d	0.017839039
116	0x3dac4e6e	0.08413397
117	0x3c9a29d0	0.018818766
118	0x3c72aa97	0.01481118
119	0x3d9ecd30	0.0775398
120	0x3d9f492f	0.077776305
121	0x3c81478f	0.015781192
122	0x3c59c950	0.013292626
123	0x3c4a0eaf	0.012332602
124	0x3ca21eae	0.01979002
125	0x3ca07d30	0.019590944
126	0x3c6c8c71	0.014437781
127	0x3cbdf06a	0.023185927
128	0x3c865337	0.016397102
129	0x3d02f431	0.03197116
130	0x3c678fc4	0.0141333975
131	0x3c3f9c13	0.011694926
132	0x3c68cef0	0.014209494
133	0x3c7d7406	0.015469557
134	0x3da1a375	0.07892505
135	0x3cc0ed0a	0.023550529
136	0x3ca32a26	0.019917559
137	0x3d05fc5f	0.032711383
138	0x3c689ef3	0.014198053
139	0x3d2bafa2	0.041915543
140	0x3cb26a8a	0.021779317
141	0x3c9008fa	0.017582405
142	0x3c7415da	0.014897788
143	0x3c65212f	0.013984962
144	0x3cae23f8	0.021257386
145	0x3c999d35	0.01875172
146	0x3cad5851	0.021160277
147	0x3d17e90b	0.03708748
148	0x3cda1fb6	0.02662645
149	0x3cac816f	0.021057812
150	0x3d34badd	0.04412352
151	0x3c556dff	0.013026713
152	0x3d49ff0c	0.049315497
153	0x3c431e8f	0.011909141
154	0x3ca56889	0.020191448
155	0x3c420e26	0.011844194
156	0x3c6d4357	0.014481387
157	0x3d351e42	0.04421831
158	0x3c515cfa	0.012778515
159	0x3c711ef9	0.014716857
160	0x3c41db23	0.011832031
161	0x3c7cbb39	0.015425497
162	0x3c675628	0.014119662
163	0x3c3ff6c5	0.011716549
164	0x3c70398a	0.014662156
165	0x3c58280d	0.013193143
166	0x3d0a40ec	0.03375332
167	0x3d4afc8e	0.04955726
168	0x3d158006	0.036499046
169	0x3cafd78d	0.021465087
170	0x3ca31c34	0.01991091
171	0x3c6f5bca	0.014609287
172	0x3cf33018	0.029686019
173	0x3db6bf70	0.089232326
174	0x3db52035	0.08844034
175	0x3c869d4b	0.016432425
176	0x3cf8f01b	0.030387929
177	0x3c932b4a	0.017964978
178	0x3d043c23	0.032283913
179	0x3c68812f	0.014190956
180	0x3c6c6540	0.014428437
181	0x3c8b613c	0.017014138
182	0x3d38a5b3	0.045079898
183	0x3ca65011	0.02030185
184	0x3d985863	0.074387334
185	0x3da75d5b	0.08172103
186	0x3d4ba30e	0.049716048
187	0x3c82a0c0	0.015945792
188	0x3c649b53	0.013953048
189	0x3cf4d327	0.029885842
190	0x3daa9787	0.08329683
191	0x3cddfbfa	0.02709769
192	0x3d0d28fb	0.03446291
193	0xbd1b58dc	-0.03792654
194	0x3c6749ed	0.014116746
195	0x3c72d33d	0.014820871
196	0x3c608ad5	0.013704975
197	0x3c605216	0.013691446
198	0x3c5e9b64	0.013586853
199	0x3c5ffda6	0.013671314
200	0x3c6fb4b1	0.0146304825
201	0x3c5dfa8e	0.013548506
202	0x3c9b7d3a	0.018980611
203	0x3c5fd136	0.01366072
204	0x3d61886a	0.055061735
205	0x3c4745aa	0.012162605
206	0x3cd94b09	0.026525037
207	0x3ca245d0	0.01980868
208	0x3d0353af	0.03206223
209	0x3dba1cc5	0.090875186
210	0x3c9b0ceb	0.018927058
211	0x3d9b4795	0.075820126
212	0x3db50413	0.08838668
213	0x3cd81dfe	0.026381489
214	0x3c4fa7f7	0.012674323
215	0x3cf73fd5	0.030181805
216	0x3c4e0ba2	0.012576016
217	0x3c633389	0.013867267
218	0x3db35c1e	0.08757804
219	0x3d412d8b	0.047162574
220	0x3c7762e6	0.015099263
221	0x3c65f45a	0.014035309
222	0x3c5ed439	0.0136004025
223	0x3c30a54e	0.010781599
224	0x3dad02eb	0.08447822
225	0x3c5bd7ad	0.01341812
226	0x3c66e5f9	0.014092916
227	0x3daa947e	0.08329104
228	0x3dad4f98	0.08462447
229	0x3d4f7122	0.050645
230	0x3c95835f	0.01825112
231	0x3c5489da	0.0129723195
232	0x3c9217ea	0.017833669
233	0x3c773fe0	0.015090913
234	0x3d4f74cf	0.050648507
235	0x3c60c101	0.013717891
236	0x3c898672	0.016787741
237	0x3ce53576	0.027979594
238	0x3d242f0d	0.040083934
239	0x3c48844a	0.012238571
240	0x3d6019b8	0.054712027
241	0x3cfbb22d	0.03072461
242	0x3c9822af	0.018571226
243	0x3c8f9391	0.01752642
244	0x3db12536	0.086496755
245	0x3c98461b	0.018588116
246	0x3c703dfb	0.014663215
247	0x3da29a32	0.07939567
248	0x3da3b1df	0.079929106
249	0x3c7c8f4b	0.015415023
250	0x3c55cac3	0.01304883
251	0x3c433f23	0.011916908
252	0x3ca0a8a9	0.019611673
253	0x3c9ed4ce	0.019388583
254	0x3c669a9b	0.014074947
255	0x3cbbc6d3	0.022921955

net_model.2.bias f4 [64]
0	0xbb9907c2	-0.0046701143
1	0xbbb62f69	-0.005559851
2	0xbb9c4437	-0.004768874
3	0xbb9a93de	-0.004717334
4	0xa9460822	-4.3971886e-14
5	0x90c6ecc8	-7.846205e-29
6	0xbb99b498	-0.004690718
7	0xbbb15879	-0.005412158
8	0x3b5f9729	0.0034117198
9	0xbc3a5f4b	-0.011375259
10	0xbb999bb2	-0.00468775
11	0xbb99049b	-0.0046697385
12	0xb766a510	-1.37475e-05
13	0xbb99e0d4	-0.004695991
14	0xbb9ba477	-0.0047498303
15	0xbb9990fb	-0.0046864725
16	0xb37cbab5	-5.884313e-08
17	0xbb99aa27	-0.004689473
18	0xb9e53677	-0.00043718863
19	0xbbf14af1	-0.00736367
20	0xbb9a20cd	-0.004703617
21	0xbbb058d0	-0.005381681
22	0xbb9a79c5	-0.004714223
23	0xbb9984e6	-0.004685032
24	0xbb9a7ea2	-0.004714803
25	0xbc81c379	-0.015840279
26	0xbbb7314a	-0.0055905925
27	0xbbb02a5e	-0.0053761443
28	0xbb33550c	-0.0027363924
29	0xb948ee80	-0.00019162335
30	0xbb0d74ea	-0.0021584579
31	0xbb998f9c	-0.004686309
32	0xbb991a49	-0.004672323
33	0xbb992641	-0.0046737497
34	0xbb99424e	-0.0046770936
35	0xbb9aa446	-0.00471929
36	0xbb9aa899	-0.0047198054
37	0xbb9a40d7	-0.0047074365
38	0xbaf8cf2c	-0.001898264
39	0x9565749d	-4.6338173e-26
40	0xbb994395	-0.004677246
41	0xbb37203a	-0.0027942793
42	0xbb9c4556	-0.0047690077
43	0xbb99b6f6	-0.004691
44	0xba61d590	-0.0008614892
45	0xb9d3d7c9	-0.0004040583
46	0xbb999887	-0.004687372
47	0x9c7e0b9d	-8.405656e-22
48	0xae9b85dc	-7.072362e-11
49	0xbb990151	-0.0046693464
50	0x9b249a29	-1.3615574e-22
51	0xbb999803	-0.0046873107
52	0x9c9d4717	-1.0407765e-21
53	0xbb99108a	-0.004671161
54	0xbb9a024f	-0.0046999822
55	0xba028266	-0.00049785373
56	0xbadefc6e	-0.0017012486
57	0xbb9922bf	-0.0046733315
58	0xbb18c579	-0.0023311062
59	0xbb990575	-0.00466984
60	0xbb990e1b	-0.004670871
61	0xbb99a895	-0.004689286
62	0x9815b31e	-1.934823e-24
63	0x3ceb252b	0.028704247

net_model.4.weight f4 [32, 64]
0	0x3d138401	0.03601456
1	0x3d1a1c1f	0.037624475
2	0x3d14aa27	0.036295082
3	0x3d136bdf	0.035991546
4	0x98802a01	-3.3129638e-24
5	0x0f6e6ea7	1.1755617e-29
6	0x3d137408	0.035999328
7	0x3d167c16	0.03673943
8	0x3ba3849e	0.0049901744
9	0xbd89a47e	-0.067208275
10	0x3d12faed	0.035883833
11	0x3d133574	0.03593965
12	0x37f67041	2.9377758e-05
13	0x3d1311a2	0.035905488
14	0x3d13efe6	0.036117457
15	0x3d13b784	0.036063686
16	0x82ad1b43	-2.5435713e-37
17	0x3d138d64	0.036023512
18	0xa9192cd2	-3.40117e-14
19	0xbd733d25	-0.059384484
20	0x3d1375f1	0.03600115
21	0x3d15c8b3	0.036568355
22	0x3d137647	0.03600147
23	0x3d13148b	0.035908263
24	0x3d137397	0.035998907
25	0x3d883017	0.066497974
26	0x3d1eb3b0	0.038745582
27	0x3d155c08	0.03646472
28	0xbb01a04a	-0.0019779378
29	0x832758c7	-4.91788e-37
30	0x3a4cae70	0.00078079756
31	0x3d12e209	0.035860095
32	0x3d135b7e	0.035975926
33	0x3d139b96	0.03603705
34	0x3d12f9b4	0.035882667
35	0x3d1415e9	0.036153708
36	0x3d13a467	0.03604546
37	0x3d13a6eb	0.036047857
38	0xb85d9054	-5.2824922e-05
39	0x02df65af	3.2825269e-37
40	0x3d12f034	0.035873607
41	0xbafb9ad4	-0.0019195923
42	0x3d13799a	0.03600464
43	0x3d135803	0.035972606
44	0xb9b114ff	-0.00033775714
45	0xaee9fba5	-1.0640314e-10
46	0x3d13217b	0.0359206
47	0x01830689	4.813118e-38
48	0x93966c68	-3.797222e-27
49	0x3d13c9b4	0.03608103
50	0x835ce311	-6.491285e-37
51	0x3d130331	0.035891715
52	0x82698b21	-1.7158065e-37
53	0x3d12d3ad	0.0358464
54	0x3d139310	0.03602892
55	0x3d38dd94	0.04513319
56	0xb990cacd	-0.0002761692
57	0x3d125f56	0.03573545
58	0xbad30ab2	-0.001610121
59	0x3d12ff04	0.035887733
60	0x3d13601d	0.035980333
61	0x3d13bcbb	0.03606866
62	0x9851a43e	-2.7095538e-24
63	0xbd5e0cd6	-0.05421146
64	0x0281c8ce	1.9070103e-37
65	0x033d1b40	5.557339e-37
66	0x809a1b28	-1.4152408e-38
67	0x8321ca10	-4.7545604e-37
68	0x0303b2ab	3.870254e-37
69	0x832bb341	-5.0458157e-37
70	0x8354d206	-6.2542296e-37
71	0x8213ff06	-1.0873042e-37
72	0x0348bc56	5.8990917e-37
73	0x833f7ea8	-5.627525e-37
74	0x032c3240	5.060394e-37
75	0x0346ac68	5.8384883e-37
76	0x834e46d6	-6.0619275e-37
77	0x02024a04	9.572133e-38
78	0x832c590d	-5.0648482e-37
79	0x83175ac2	-4.4479097e-37
80	0x8300aa46	-3.7811284e-37
81	0x032e8561	5.1287116e-37
82	0x8272603c	-1.780697e-37
83	0x833d605e	-5.565273e-37
84	0x033899e2	5.424939e-37
85	0x8234d773	-1.3286142e-37
86	0x82ab73fa	-2.519276e-37
87	0x8246002d	-1.4546793e-37
88	0x0331f72f	5.229938e-37
89	0x83208220	-4.716915e-37
90	0x03093fdc	4.033399e-37
91	0x030a459f	4.0634476e-37
92	0x8294aa82	-2.1844512e-37
93	0x833609ac	-5.3496096e-37
94	0x83346130	-5.300881e-37
95	0x0324ad90	4.839451e-37
96	0x8338ff4f	-5.436582e-37
97	0x0369946a	6.8642917e-37
98	0x0365a004	6.748074e-37
99	0x823307b0	-1.3153049e-37
100	0x82e1765d	-3.3128716e-37
101	0x83409e77	-5.6605638e-37
102	0x033f284e	5.6176123e-37
103	0x02f45a75	3.5904497e-37
104	0x03588422	6.3628376e-37
105	0x83598316	-6.392105e-37
106	0x0361a5b4	6.6311775e-37
107	0x8302501f	-3.829554e-37
108	0x828c6e38	-2.0634414e-37
109	0x82abbf01	-2.5235823e-37
110	0x81d9da7e	-8.002673e-38
111	0x831a451d	-4.533587e-37
112	0x0318b2a1	4.487384e-37
113	0x034353fe	5.740177e-37
114	0x03254408	4.856724e-37
115	0x830864f0	-4.008268e-37
116	0x83012d04	-3.796137e-37
117	0x8343d44d	-5.754906e-37
118	0x03083621	4.0028945e-37
119	0x83213d2f	-4.7383883e-37
120	0x02ef7ef1	3.5190755e-37
121	0x033da79e	5.5734523e-37
122	0x8307c3f2	-3.989787e-37
123	0x831227a3	-4.2951045e-37
124	0x83499e55	-5.9250347e-37
125	0x0338f516	5.4354085e-37
126	0x833e1d5c	-5.5869685e-37
127	0x83544583	-6.2380996e-37
128	0x032d90ce	5.100636e-37
129	0x82fbe808	-3.7014315e-37
130	0x82dd6686	-3.2531877e-37
131	0x02ed54c2	3.4872669e-37
132	0x8312d3c0	-4.314862e-37
133	0x83467e0e	-5.8331674e-37
134	0x0341c35a	5.6941855e-37
135	0x0338d98e	5.432248e-37
136	0x031dfb5d	4.6426704e-37
137	0x83298f64	-4.982924e-37
138	0x8308d8fc	-4.0215894e-37
139	0x8323c557	-4.812793e-37
140	0x8305b6d3	-3.929506e-37
141	0x82c364a2	-2.8710435e-37
142	0x82d1d42d	-3.0831573e-37
143	0x8347dea5	-5.8736427e-37
144	0x035ca8e7	6.484608e-37
145	0x833975d0	-5.4501856e-37
146	0x030abc20	4.077051e-37
147	0x034a0149	5.936394e-37
148	0x0359f714	6.40542e-37
149	0x83049234	-3.8959147e-37
150	0x833a927d	-5.4828648e-37
151	0x03179813	4.4549484e-37
152	0x832a9363	-5.01277e-37
153	0x8338c6a2	-5.430076e-37
154	0x830c87eb	-4.129833e-37
155	0x032033ca	4.7079225e-37
156	0x031913d1	4.4985407e-37
157	0x830301c2	-3.849946e-37
158	0x831f40dc	-4.6800355e-37
159	0x018b8c02	5.126144e-38
160	0x8348c483	-5.90003e-37
161	0x82e76b5c	-3.400402e-37
162	0x0336a1a4	5.3670547e-37
163	0x0345c496	5.8118766e-37
164	0x028e31b0	2.0893544e-37
165	0x031470d4	4.362281e-37
166	0x032182b4	4.7463687e-37
167	0x0302f38f	3.848316e-37
168	0x03217896	4.7452073e-37
169	0x83532ff0	-6.2062357e-37
170	0x82ae8316	-2.5642242e-37
171	0x031d18ef	4.6166776e-37
172	0x81ed58ca	-8.7187456e-38
173	0x82295483	-1.2440413e-37
174	0x03102f1e	4.2371885e-37
175	0x033fcda0	5.63659e-37
176	0x8340c89b	-5.6654013e-37
177	0x0301d573	3.815472e-37
178	0x02524bad	1.5450081e-37
179	0x82e29fbe	-3.3299403e-37
180	0x007cfe30	1.1478787e-38
181	0x03247d45	4.833907e-37
182	0x032a0b9f	4.997185e-37
183	0x82157273	-1.0979636e-37
184	0x8319adae	-4.5162033e-37
185	0x8349ae37	-5.926858e-37
186	0x022762e0	1.2297598e-37
187	0x82c71e9c	-2.925799e-37
188	0x0362e9ce	6.6683825e-37
189	0x8355607c	-6.2705833e-37
190	0x8307524c	-3.9767407e-37
191	0x031b4ee9	4.564099e-37
192	0x0315b822	4.399854e-37
193	0x829f7563	-2.3430327e-37
194	0x035f300e	6.5588974e-37
195	0x831ba480	-4.5739243e-37
196	0x019c7104	5.746752e-38
197	0x834c2c39	-6.0000977e-37
198	0x830f4009	-4.209743e-37
199	0x02a7f479	2.4678765e-37
200	0x02feeac5	3.7456697e-37
201	0x83470883	-5.8490615e-37
202	0x03111986	4.264097e-37
203	0x83158842	-4.394358e-37
204	0x028c3d82	2.0606455e-37
205	0x83381d4c	-5.410637e-37
206	0x0250c087	1.5336679e-37
207	0x03378628	5.393287e-37
208	0x02aac35e	2.509139e-37
209	0x0321c9a4	4.754512e-37
210	0x83456676	-5.8010716e-37
211	0x02d5e6f4	3.1430098e-37
212	0x8337320e	-5.3836327e-37
213	0x82f6d7c3	-3.6270292e-37
214	0x83449d3a	-5.777971e-37
215	0x0331f4a2	5.229645e-37
216	0x82fe928f	-3.7406066e-37
217	0x030821f0	4.0005766e-37
218	0x833f490a	-5.62137e-37
219	0x03311515	5.2039826e-37
220	0x829914ba	-2.2493226e-37
221	0x8346fd81	-5.847798e-37
222	0x8319a351	-4.5150137e-37
223	0x0310e0bc	4.257578e-37
224	0x0340f90d	5.6709625e-37
225	0x833fced0	-5.6367264e-37
226	0x82b44d70	-2.649307e-37
227	0x03371e1d	5.3813435e-37
228	0x035db7e2	6.515715e-37
229	0x0323fd05	4.8191847e-37
230	0x834b6520	-5.9772424e-37
231	0x83527e9d	-6.18588e-37
232	0x0362d6cc	6.6662006e-37
233	0x0355396e	6.2661e-37
234	0x034fd098	6.1071287e-37
235	0x036e59c6	7.004497e-37
236	0x828dc5a4	-2.0831528e-37
237	0x826b27cc	-1.7276494e-37
238	0x835bb8d3	-6.4570484e-37
239	0x03477b6d	5.862253e-37
240	0x022ed2cd	1.2843998e-37
241	0x032fb3ba	5.1634194e-37
242	0x83572a22	-6.3231187e-37
243	0x030ccf99	4.1380613e-37
244	0x8349d4f2	-5.931304e-37
245	0x832e56f6	-5.123383e-37
246	0x82ea4bf2	-3.44268e-37
247	0x832d57a4	-5.0940737e-37
248	0x032a9f9d	5.0141737e-37
249	0x025a3842	1.6032256e-37
250	0x026f2730	1.7570193e-37
251	0x0329f4b4	4.994554e-37
252	0x835ab58a	-6.427284e-37
253	0x8348cc1a	-5.9009015e-37
254	0x830f504a	-4.211609e-37
255	0x834a106b	-5.938131e-37

net_model.4.bias f4 [32]
0	0xbb2d8f74	-0.002648321
1	0xba13ef25	-0.00056432403
2	0xba070ce9	-0.0005151765
3	0xba1b0e28	-0.000591489
4	0xbb2da071	-0.0026493336
5	0xb9c969f6	-0.00038416655
6	0xba099478	-0.0005248259
7	0xbb2db678	-0.0026506465
8	0xba190767	-0.000583759
9	0xbb2da41f	-0.002649553
10	0xbb2da65a	-0.0026496858
11	0xba10f680	-0.00055298954
12	0xbb2d854b	-0.0026477154
13	0xbb2d9b6b	-0.0026490341
14	0xb59b2727	-1.1559795e-06
15	0xbb2d7978	-0.0026470106
16	0xba17e38d	-0.00057941006
17	0xb9b37596	-0.0003422915
18	0xbb2d83e6	-0.0026476323
19	0x9575d2b1	-4.9643562e-26
20	0xbb2dfe34	-0.0026549222
21	0xbb2d9cc0	-0.0026491135
22	0xba1744b5	-0.0005770431
23	0xb928602e	-0.00016057558
24	0xba08d40e	-0.0005219587
25	0xbb2da45f	-0.0026495678
26	0xb9f7b1a4	-0.00047243864
27	0xbb2d94c9	-0.0026486388
28	0xba07e456	-0.0005183866
29	0xbb2dc315	-0.0026513983
30	0xbb2db4a0	-0.0026505366
31	0xbb2d719e	-0.0026465426

net_model.6.weight f4 [1, 32]
0	0xbd0aa2ac	-0.033846542
1	0x82f4ea3c	-3.5987022e-37
2	0x8314f040	-4.3769084e-37
3	0x82b7ca86	-2.7005676e-37
4	0xbd0a9ea9	-0.033842716
5	0x83527f00	-6.1859242e-37
6	0x8340adcf	-5.662325e-37
7	0xbd0aca78	-0.033884495
8	0x02ebdd0a	3.4657017e-37
9	0xbd0a8f5a	-0.033828117
10	0xbd0a875d	-0.0338205
11	0x833c26b8	-5.529268e-37
12	0xbd0ae078	-0.033905476
13	0xbd0aa171	-0.03384537
14	0x836c7c3c	-6.949678e-37
15	0xbd0aaaab	-0.033854168
16	0x831798a2	-4.4550126e-37
17	0xba110382	-0.0005531834
18	0xbd0ab666	-0.033865355
19	0x83617fa6	-6.626809e-37
20	0xbd0a9a70	-0.03383869
21	0xbd0a7f5d	-0.03381287
22	0x836ea0d9	-7.012656e-37
23	0x01a22824	5.9567e-38
24	0x8354a9c0	-6.2496064e-37
25	0xbd0a900b	-0.033828776
26	0x832fbf33	-5.1647364e-37
27	0xbd0ad770	-0.033896863
28	0x82ac41dc	-2.531093e-37
29	0xbd0aaaa5	-0.033854146
30	0xbd0aa3fc	-0.033847794
31	0xbd0ad49e	-0.033894174
