src/t1dsim_ai/models/IndividualModel/T1DEXI-01-0674/individual_model.pt (torch, 50089 bytes, 7 tensors)

net_model.0.weight f4 [128, 10]
0.0032408498 -0.00455269 0.0019388302 0.00323032 0.0020420349 0.0002884534 -0.041598625 -0.019132119
-0.030111203 -0.0154654775 -0.030360205 -0.03799462 0.022797504 0.034756795 0.0102689555 0.00022789802
-0.02782691 -0.017781954 0.00784655 -0.065973215 0.0022369071 0.0014013174 0.004785719 0.014715424
-0.007799977 0.00093451835 0.010814997 -0.010537533 0.002335926 -0.0044056512 0.004316479 0.0071223485
0.0061210627 0.013284935 0.001203856 0.0007533123 -0.00269991 -0.023494221 -0.0032069052 0.0117243305
-0.0006177423 -0.019527001 0.0077319425 -0.0027294625 -0.013265359 -0.0013053617 -0.043975566 -0.04197958
0.012739756 -0.054775476 0.002029164 -0.0024061177 0.003134856 0.01020158 -0.014506154 -8.6548906e-05
0.014751314 -0.016580777 0.008840697 -0.009746703 0.0027176354 -0.00029280837 0.0033215422 0.011564086
-0.011440319 4.5097728e-05 0.010667642 -0.016628109 0.008106433 -0.0072067482 0.0018998951 -0.00210782
0.0032163346 0.011060235 -0.013500328 -0.000105525214 0.014285309 -0.01630552 0.008558811 -0.008999371
0.0053080516 0.0076046446 0.0047590416 0.011560622 0.00036162123 0.0006327347 -0.005712853 -0.02399698
-0.0078830365 0.022695491 0.0021047313 -0.0021608868 0.0033700878 0.010586849 -0.0139145 -9.562259e-05
0.014631761 -0.016348379 0.008539445 -0.008579844 0.0023329519 -0.0018389807 0.0029367162 0.0106475325
-0.013771928 -6.4377666e-05 0.013838259 -0.01674993 0.008975044 -0.009480675 0.0020523479 -0.0024840706
0.0029994582 0.010569466 -0.0147357285 -9.9369856e-05 0.015491996 -0.016552519 0.009067543 -0.010703493
-0.01740444 -0.020592099 0.017728364 0.02096206 0.0073306775 -0.0012819257 -0.027607085 -0.012369258
0.004205604 0.0017605129 0.0040727123 -0.0040574446 0.0008535587 0.0027475397 0.0035682283 0.00027889633
-0.041404013 -0.018358054 -0.032638535 -0.013996978 0.002217253 -0.0019063047 0.0032313536 0.011107042
-0.012530757 -0.000122348 0.01307159 -0.016134756 0.008305907 -0.008482304 -0.026287908 -0.029882038
0.016169803 0.028097777 0.013583896 -3.2258053e-05 -0.019329196 -0.012341632 0.0111780055 -0.007859466
0.004376462 -0.0037179687 0.0002582152 0.0024369063 0.0042550815 0.00031294918 -0.040235084 -0.017393215
-0.032850344 -0.009540893 0.0029798804 0.0061281463 0.0055744313 0.015810426 -0.00900403 0.0016282639
0.019039107 0.00583404 -0.0016052391 -0.004900524 0.001842419 -0.0030525126 0.0029226253 0.0102895815
-0.015618971 -0.00010784045 0.015971199 -0.01651882 0.009058348 -0.011074718 -0.022775367 -0.02877359
0.01620911 0.026614653 0.009419285 -3.8168706e-05 -0.016188473 -0.011563592 0.009548888 -0.020562632
-0.0059538553 -0.03504213 0.004608242 -0.0060437904 -0.008670018 -0.004001098 -0.033308644 -0.042918943
0.012753902 -0.061330907 0.0026113696 0.0023009416 0.002339944 0.013621443 -0.012957785 -0.00066233356
0.035225406 0.032561596 0.0027285 -0.014536342 0.0051884847 0.00817535 0.0054453905 0.011817729
0.00056773383 0.000868675 -0.0035993652 -0.02548886 -0.0041552233 0.015988413 0.00332712 0.0014040193
0.0038396819 0.012280411 -0.0063180896 0.000748734 0.007348127 -0.017115215 0.0069614784 -0.003853428
-0.002458882 -0.01144165 0.0009351122 0.013546347 -0.0023096374 0.0012509354 0.0068668826 0.008410358
-0.034269862 -0.027903937 -0.0044850125 0.01290085 0.009750729 -0.013457501 -0.06811308 0.0028899447
00000000: 7064 543b bb2e 95bb 5920 fe3a c7b3 533b
00000010: a9d3 053b 8f3b 9739 5263 2abd f6ba 9cbc
00000020: c5ab f6bc ea62 7dbc f7b5 f8bc 3fa0 1bbd
00000030: d5c1 ba3c 245d 0e3d 1f3f 283c e9f7 6e39
00000040: 43f5 e3bc 76ab 91bc d18e 003c f71c 87bd
00000050: 1399 123b 69ac b73a 85d1 9c3b f618 713c
00000060: f396 ffbb 77fa 743a 6331 313c 9ea5 2cbc
00000070: 5616 193b 485d 90bb 4071 8d3b 9762 e93b
00000080: 3293 c83b 0ea9 593c b4ca 9d3a ef79 453a
00000090: f9f0 30bb f476 c0bc f12a 52bb 6817 403c
000000a0: fcef 21ba 17f7 9fbc 3c5c fd3b c8e0 32bb
000000b0: f356 59bc ac18 abba b91f 34bd c8f2 2bbd
000000c0: 69ba 503c 405c 60bd b9fb 043b f5af 1dbb
000000d0: 2872 4d3b 8724 273c 38ab 6dbc 9781 b5b8
000000e0: 7faf 713c 69d4 87bc 92d8 103c a3b0 1fbc
000000f0: 5b1a 323b 1384 99b9 3bae 593b 4b77 3d3c
00000100: 2d70 3bbc 5127 3d38 55c7 2e3c ac37 88bc
00000110: d8d0 043c 9626 ecbb e705 f93a 5a23 0abb
00000120: 24c9 523b fd35 353c 7b30 5dbc 6b4d ddb8
00000130: ee0c 6a3c 2793 85bc 413a 0c3c 1972 13bc
00000140: 2aef ad3b 6230 f93b bcf1 9b3b c368 3d3c
00000150: fb97 bd39 1bde 253a e232 bbbb 5195 c4bc
00000160: da27 01bc e5eb b93c 88ef 093b aa9d 0dbb
00000170: b1dc 5c3b 7774 2d3c a5f9 63bc fd88 c8b8
00000180: 0eba 6f3c 09ed 85bc 07e9 0b3c 7992 0cbc
00000190: 70e4 183b f409 f1ba ec75 403b fd72 2e3c
000001a0: a7a3 61bc 7f02 87b8 ddb9 623c 2637 89bc
000001b0: 100c 133c d554 1bbc af80 063b cacb 22bb
000001c0: 8f92 443b 8e2b 2d3c 206e 71bc c964 d0b8
000001d0: 24d2 7d3c 2699 87bc 0890 143c b45d 2fbc
000001e0: c293 8ebc c3b0 a8bc 133b 913c a0b8 ab3c
000001f0: 2e36 f03b 4a06 a8ba 4128 e2bc 6ea8 4abc
00000200: 2acf 893b 03c1 e63a 6374 853b 50f4 84bb
00000210: 5bc1 5f3a 1110 343b f0d8 693b d538 9239
00000220: 4197 29bd a163 96bc fcaf 05bd 9553 65bc
00000230: 554f 113b f9dc f9ba 1ec5 533b 50fa 353c
00000240: ce4d 4dbc 8b4a 00b9 392a 563c 092d 84bc
00000250: 8015 083c 5df9 0abc bd59 d7bc 2dcb f4bc
00000260: 8976 843c 4f2d e63c fd8e 5e3c d24c 07b8
00000270: 4358 9ebc 8e34 4abc f423 373c fdc4 00bc
00000280: 6d68 8f3b 2aa9 73bb 0f61 8739 81b4 1f3b
00000290: 366e 8b3b 5413 a439 8bcd 24bd 377c 8ebc
000002a0: 158e 06bd 6851 1cbc 194a 433b 9ece c83b
000002b0: b8a9 b63b de84 813c a485 13bc 786b d53a
000002c0: e7f7 9b3c 7a2b bf3b e366 d2ba 9394 a0bb
000002d0: 537d f13a aa0c 48bb 8489 3f3b a295 283c
000002e0: b6e6 7fbc 6728 e2b8 08d6 823c 7a52 87bc
000002f0: 7769 143c bc72 35bc 6893 babc 98b6 ebbc
00000300: f8c8 843c f906 da3c 5853 1a3c 5617 20b8
00000310: b09d 84bc 3875 3dbc f072 1c3c f772 a8bc
00000320: 8f18 c3bb 5688 0fbd bc00 973b fd0a c6bb
00000330: b10c 0ebc a51b 83bb a56e 08bd c6cb 2fbd
00000340: bef5 503c 1e36 7bbd 8323 2b3b 65cb 163b
00000350: bf59 193b 792c 5f3c e44c 54bc 74a0 2dba
00000360: 8448 103d 4f5f 053d a2d0 323b d629 6ebc
00000370: 2a04 aa3b e7f1 053c 3f6f b23b 269f 413c
00000380: f9d3 143a cbb7 633a 54e3 6bbb 04ce d0bc
00000390: 8a28 88bb 22fa 823c d00b 5a3b 1207 b83a
000003a0: 2ca3 7b3b c733 493c fa07 cfbb b046 443a
000003b0: 8fc8 f03b 3535 8cbc 1d1d e43b cb89 7cbb
000003c0: 3225 21bb c275 3bbc 5122 753a 7ff1 5d3c
000003d0: 495d 17bb 6df6 a33a 9603 e13b 99cb 093c
000003e0: 8e5e 0cbd cc96 e4bc 03f7 92bb 165e 533c
000003f0: 86c1 1f3c da7c 5cbc df7e 8bbd 3a65 3d3b

net_model.0.bias f4 [128]
0.022437539 0.012347852 0.009855492 0.0044375723 0.023256842 0.011105521 0.010705036 0.011314009
0.0038671251 0.011175943 0.011196843 0.011417824 0.010531559 0.020499067 0.011122831 0.009774765
0.019077666 0.007121961 0.011260721 0.008291011 0.016158018 0.0075035994 0.003793431 0.0100275995
0.026441429 -0.025203481 0.011362719 0.01917585 0.0057458063 0.009903449 0.011041372 0.008534437
0.008701793 0.021976052 0.017690085 0.028089477 0.0055343998 -0.020715592 0.010084508 0.011290443
0.026173947 0.011105749 0.022942076 0.021552477 0.027442552 -0.021945 0.01538807 0.032540835
-0.0153989885 0.011305621 0.010602282 -0.015493419 0.023512641 0.019824969 0.023976464 0.017719015
0.01492131 0.01506575 0.0310489 0.01821386 0.019715391 0.010942885 0.02029716 0.021065187
0.019744629 0.018634016 0.0052578743 0.022329915 0.0278085 0.008648721 -0.010399493 0.010690069
0.019564196 0.027496547 0.005855278 0.0071892324 0.0183911 0.01129674 0.011006391 0.0034681358
-0.024822775 0.009439455 0.02185471 0.009634292 0.0034020918 0.010061003 0.010318039 -0.015035998
0.009058984 0.0026279036 0.010249454 0.011203934 0.01746062 -0.016188972 0.019037142 0.020332476
-0.015435882 0.02150787 0.010586643 0.009461139 0.022405816 0.011144459 0.007590295 0.02076268
0.008606671 -0.016237516 0.0059554805 0.011112324 -0.015841704 0.03485661 0.014566638 0.007701846
0.018852325 0.0054341736 0.0065239985 0.0038796018 0.010995883 0.011058025 0.011025026 0.02234378
0.009509316 0.011272927 0.0059465226 0.022097753 0.011565122 0.02697926 0.011229808 0.010016869
00000000: eece b73c a54e 4a3c ee78 213c 0e69 913b
00000010: 2285 be3c eef3 353c 2d64 2f3c 655e 393c
00000020: 986f 7d3b 4d1b 373c f772 373c d311 3b3c
00000030: 8f8c 2c3c a9ed a73c 893c 363c 5626 203c
00000040: c448 9c3c 575f e93b e37e 383c 05d7 073c
00000050: d25d 843c c1e0 f53b 369b 783b cd4a 243c
00000060: b29b d83c 8877 cebc b32a 3a3c ac16 9d3c
00000070: 5147 bc3b 1342 223c dfe6 343c 06d4 0b3c
00000080: f791 0e3c 1f07 b43c ccea 903c e71b e63c
00000090: e959 b53b bfb3 a9bc 7e39 253c 8dfb 383c
000000a0: bf6a d63c e3f4 353c 05f1 bb3c d28e b03c
000000b0: 34cf e03c 00c6 b3bc 3e1e 7c3c 8a49 053d
000000c0: 0a4c 7cbc 363b 393c 32b5 2d3c 1cd8 7dbc
000000d0: 959d c03c f967 a23c 4a6a c43c 7827 913c
000000e0: 8378 743c 56d6 763c 435a fe3c 3c35 953c
000000f0: 2c82 a13c c949 333c 3b46 a63c e690 ac3c
00000100: 7dbf a13c 5da6 983c 3f4a ac3b 3aed b63c
00000110: a7ce e33c 5db3 0d3c a362 2abc 6625 2f3c
00000120: 1845 a03c 7040 e13c a2dd bf3b a793 eb3b
00000130: efa8 963c f615 393c 2654 343c aa49 633b
00000140: 2259 cbbc f2a7 1a3c a608 b33c 26d9 1d3c
00000150: a1f5 5e3b e8d6 243c fe0c 293c 8c59 76bc
00000160: 226c 143c e838 2c3b 53ed 273c b590 373c
00000170: 9309 8f3c bc9e 84bc c8f3 9b3c 4b90 a63c
00000180: c8e6 7cbc 4631 b03c 9973 2d3c e502 1b3c
00000190: 678c b73c 4097 363c 02b8 f83b 7f16 aa3c
000001a0: ff02 0d3c 8a04 85bc 3126 c33b 7710 363c
000001b0: 76c6 81bc cec5 0e3d e8a8 6e3c c45f fc3b
000001c0: 3170 9a3c 2711 b23b 44c7 d53b eb40 7e3b
000001d0: 1328 343c b82c 353c 50a2 343c 4e0a b73c
000001e0: f6cc 1b3c 15b2 383c 0cdb c23b 5906 b53c
000001f0: a37b 3d3c 9c03 dd3c 3bfd 373c cb1d 243c

net_model.2.weight f4 [64, 128]
-0.0011532909 -6.75351e-11 -0.0019305667 -6.873136e-08 -0.0016801102 -0.00084797567 -0.0003983035 -0.0009963139
-0.0006470355 -0.00096644374 -0.0007959385 -0.0009905054 -0.0004593269 -0.0010352969 -0.00086795277 1.5161052e-09
-0.00094979437 -0.0026075188 -0.0009687344 -1.0466694e-09 -0.0016446809 -0.0028089052 4.9699733e-10 -7.708677e-05
-0.002555941 -0.0019489911 -0.00041242267 -0.0009650218 -0.0021613527 -0.0016385796 -0.0008503906 -0.002636686
-0.0026520183 -0.002328369 -0.0009777788 -0.0026210442 -0.0021917864 -0.0018263104 1.4478842e-06 -0.0010610595
-0.0023544072 -0.0008253331 -0.0015121686 -0.0016708559 -0.0021684687 -0.0018631843 -0.0019243312 -0.0026743505
-0.0018115558 -0.00096723257 -0.00047982446 -0.0018009965 -0.0013224797 -0.0009908518 -0.0013842653 -0.0009830334
-0.0019006549 -0.002871536 -0.0026721824 -0.0009430957 -0.0015913585 -0.0008332205 -0.001044655 -0.0016844171
-0.0009948801 -0.0009869832 -0.0022447163 -0.0015547718 -0.0025639762 -0.0015246017 -0.0028074386 -0.00012697533
-0.000972106 -0.0024350567 -0.0017552451 -0.0026064655 -0.0009597547 -0.0010731027 -0.00079243333 -0.0018559964
-0.0019407732 -4.766555e-10 -0.0016458797 3.135788e-09 3.3067205e-05 2.6816933e-09 -0.00028409486 -0.0027440193
-0.0016160908 0.0004544988 -2.8554545e-05 -0.0012251813 -0.0021981911 -0.00184532 -0.002257691 -0.0015844537
-0.0018112061 -0.0016732577 -3.608985e-05 -7.0148243e-09 -0.0012753226 -0.0008389089 -0.0027146873 -5.0356688e-09
-0.0026467077 -0.0017874003 -0.0017035678 -0.00079041783 -0.0017892584 -0.0027308527 4.77917e-06 -0.001593662
-0.00096406415 -0.0021967993 -0.001713747 1.194492e-09 -0.00067834824 7.0311197e-09 -0.0007077094 -0.001455633
5.4376157e-09 -0.0009594546 -0.0017655507 -0.0011933844 -0.0009837495 -0.002173327 -0.0008669683 -2.3729714e-09
0.032131046 0.06012151 0.007838515 0.007469555 0.051529985 0.012662208 0.0105645005 0.012460843
0.007878828 0.01290707 0.012369417 0.013425401 0.031651106 0.032597125 0.011751391 0.046426695
0.03156239 0.014237842 0.013627984 0.04071786 0.05325731 0.033943612 0.008563682 0.009046262
0.030260457 -0.042914897 0.038774475 0.032340087 -0.047151778 -0.046380848 0.011759786 0.01635738
0.01824489 0.022186624 0.026455738 0.033783406 -0.047787733 -0.048809126 0.046182796 0.012247149
0.0268945 0.010856068 0.04549963 0.048261613 0.07069784 -0.046851985 0.04091852 0.0415962
-0.05518873 0.013084205 0.009922399 -0.05478438 0.04276 0.033200763 0.04452758 0.026390465
0.042052 0.055473767 0.039801538 0.024990983 0.044129472 0.010145167 0.031766694 0.048650242
0.032925945 0.028865926 -0.04818002 0.04568617 0.031362765 0.008424843 -0.04313944 0.03913195
0.033112567 0.029739281 -0.047988694 0.014347206 0.02976366 0.013564857 0.010633694 -0.050536133
-0.041428667 0.04094188 0.047661204 0.02825217 0.00949425 0.046718616 0.009256636 -0.043182
-0.047292512 0.01175048 0.040818393 0.010944498 0.017973276 -0.054655403 0.020838112 0.044859227
-0.054363634 0.048441414 0.040597677 0.040300515 0.025727818 0.011483785 0.021808632 0.060044736
0.0171912 -0.051978763 -0.047581814 0.012194599 -0.052784007 0.04909678 0.04803105 -0.048873704
0.031464376 -0.047653425 -0.046982445 0.008344257 0.011129873 0.052527584 0.011242214 0.043182947
0.04161063 0.011699991 -0.047578957 0.030450206 0.014568099 0.069578506 0.012643516 0.04027497
00000000: 052a 97ba e282 94ae 120b fdba 7799 93b3
00000010: 2537 dcba af4a 5eba 64d3 d0b9 bf96 82ba
00000020: d19d 29ba f158 7dba 87a6 50ba d9d3 81ba
00000030: d0d1 f0b9 cdb2 87ba 5387 63ba 365f d030
00000040: 9ffb 78ba e8e2 2abb aaf2 7dba 68da 8fb0
00000050: 5592 d7ba 9c15 38bb 149d 0830 a5a9 a1b8
00000060: 9381 27bb 4a75 ffba 6f3a d8b9 84f9 7cba
00000070: 7ba5 0dbb 9cc5 d6ba bfec 5eba 40cc 2cbb
00000080: 7ccd 2dbb 8d97 18bb d028 80ba d3c5 2bbb
00000090: 13a4 0fbb cf60 efba ec54 c235 4013 8bba
000000a0: 664c 1abb 2b5b 58ba f533 c6ba 9f00 dbba
000000b0: de1c 0ebb 1736 f4ba d739 fcba 2844 2fbb
000000c0: ba71 edba e18d 7dba f390 fbb9 6a0f ecba
000000d0: 0e57 adba 78df 81ba 3c70 b5ba 21d9 80ba
000000e0: 651f f9ba 6130 3cbb c81f 2fbb 153a 77ba
000000f0: 2195 d0ba 7b6c 5aba ceec 88ba a9c7 dcba
00000100: a366 82ba a95d 81ba 171c 13bb 7cc9 cbba
00000110: 6208 28bb 25d5 c7ba 01fd 37bb ae24 05b9
00000120: eed4 7eba 7995 1fbb 4110 e6ba 3cd1 2abb
00000130: 0c98 7bba 5aa7 8cba 4dbb 4fba e844 f3ba
00000140: 8b61 feba a605 03b0 8fba d7ba 5e7d 5731
00000150: a4b1 0a38 d948 3831 91f2 94b9 01d5 33bb
00000160: 02d3 d3ba cc49 ee39 6b88 efb7 4396 a0ba
00000170: 870f 10bb aade f1ba c5f5 13bb 72ad cfba
00000180: fe65 edba 3651 dbba 2e5f 17b8 0c07 f1b1
00000190: ba28 a7ba 39ea 5bba e5e8 31bb 3606 adb1
000001a0: 6374 2dbb 3447 eaba 404a dfba 0b34 4fba
000001b0: 8d85 eaba 1bf8 32bb c25c a036 6ce2 d0ba
000001c0: 40b9 7cba 2df8 0fbb cf9f e0ba 732b a430
000001d0: 2ed3 31ba 6296 f131 9385 39ba f0ca beba
000001e0: c6d5 ba31 e983 7bba 0d6a e7ba 566b 9cba
000001f0: 28f1 80ba 606e 0ebb 4245 63ba c111 23b1
00000200: d89b 033d f941 763d 1d6d 003c 2bc3 f43b
00000210: 1b11 533d 2675 4f3c ba16 2d3c 9028 4c3c
00000220: 3316 013c 2d78 533c 18a9 4a3c 37f6 5b3c
00000230: 97a4 013d 9084 053d e888 403c eb29 3e3d
00000240: 9147 013d d645 693c e847 5f3c c5c7 263d
00000250: 5624 5a3d 7508 0b3d b04e 0c3c c636 143c
00000260: c7e4 f73c 88c7 2fbd fcd1 1e3d 0a77 043d
00000270: 3922 41bd d8f9 3dbd 1eac 403c eaff 853c
00000280: 4f76 953c b9c0 b53c b4b9 d83c 7860 0a3d
00000290: 12bd 43bd 14ec 47bd 2c2a 3d3d 44a8 483c
000002a0: db51 dc3c a6dd 313c d25d 3a3d f8ad 453d
000002b0: 07ca 903d dee7 3fbd 2e9a 273d c760 2a3d
000002c0: 940d 62bd 225f 563c 8f91 223c 9665 60bd
000002d0: 1c25 2f3d 86fd 073d 8d62 363d d130 d83c
000002e0: b83e 2c3d 7638 633d f006 233d e4b9 cc3c
000002f0: 1bc1 343d ea37 263c cb1d 023d 7a45 473d
00000300: 5bdd 063d 3c78 ec3c 6a58 45bd 6c21 3b3d
00000310: 3e76 003d 5a08 0a3c fbb2 30bd d348 203d
00000320: 0ba1 073d cb9f f33c cb8f 44bd 8b10 6b3c
00000330: ebd2 f33c 223f 5e3c f238 2e3c fafe 4ebd
00000340: 1bb1 29bd acb2 273d 6538 433d 1871 e73c
00000350: c58d 1b3c 055c 3f3d 25a9 173c 9cdf 30bd
00000360: cbb5 41bd 1685 403c 3031 273d 8d50 333c
00000370: b13c 933c 58de 5fbd b0b4 aa3c 4fbe 373d
00000380: 67ac 5ebd 816a 463d c049 263d 2712 253d
00000390: 25c3 d23c 7c26 3c3c 04a8 b23c 78f1 753d
000003a0: 8fd4 8c3c afe7 54bd 26e5 42bd dbcb 473c
000003b0: 0b34 58bd b519 493d 35bc 443d cb2f 48bd
000003c0: cae0 003d 3d30 43bd aa70 40bd 5ab6 083c
000003d0: 125a 363c 2a27 573d 4331 383c 9ae0 303d
000003e0: e86f 2a3d 52b1 3f3c 27e2 42bd b672 f93c
000003f0: 09af 6e3c 2d7f 8e3d c026 4f3c 5ef7 243d

net_model.2.bias f4 [64]
-0.0029399754 0.010187723 0.010258557 0.010224292 -0.0017922433 0.010268158 -0.0029930768 0.008296572
0.010265294 0.010253665 -0.0027127918 0.010250026 -0.0024462135 -0.00258 -4.9565477e-18 0.017102482
0.013678226 -5.6660475e-12 0.010273945 0.010262191 -0.001862728 -9.2636465e-06 -4.446256e-17 -0.0007483953
-0.0026136008 0.0102348095 0.010248326 0.010163042 0.0102647 0.010266037 0.010272076 -8.150976e-16
-1.3624762e-13 -4.6897963e-05 0.010764666 -0.002681853 0.010997545 0.009498398 0.010250486 0.010263479
-1.9815555e-22 0.010262283 0.009455877 -0.0023802826 0.010257336 -3.3315132e-11 0.0052461675 0.0102603035
-0.0023669554 0.019885574 0.010268545 -2.2898704e-18 0.0102675175 -2.5093836e-05 0.013367915 0.01025766
0.010263904 -2.0155462e-15 0.010268667 -0.0014706376 -0.0021741167 -0.0027564224 0.010259603 0.008850816
00000000: 9aac 40bb 68ea 263c 8213 283c ca83 273c
00000010: b5e9 eaba c73b 283c 7f27 44bb 58ee 073c
00000020: c42f 283c fdfe 273c 18c9 31bb baef 273c
00000030: a750 20bb 3815 29bb 45dd b6a2 811a 8c3c
00000040: a31a 603c 385b c7ac 0c54 283c c022 283c
00000050: c826 f4ba 0f6b 1bb7 200c 4da4 f52f 44ba
00000060: f248 2bbb e7af 273c 98e8 273c e382 263c
00000070: 462d 283c e132 283c 364c 283c 96ef 6aa6
00000080: b466 19aa 4eb4 44b8 485e 303c 07c2 2fbb
00000090: 0c2f 343c 2b9f 1b3c a8f1 273c 2728 283c
000000a0: 2c8e 6f9b 2223 283c d3ec 1a3c 84fe 1bbb
000000b0: 630e 283c 8185 12ae 0be8 ab3b d51a 283c
000000c0: ec1e 1bbb 12e7 a23c 663d 283c 6ef6 28a2
000000d0: 1739 283c 9a80 d2b7 1905 5b3c bf0f 283c
000000e0: ef29 283c 443c 11a7 e93d 283c 69c2 c0ba
000000f0: a07b 0ebb 18a5 34bb e517 283c 0303 113c

net_model.4.weight f4 [32, 64]
-4.9227835e-37 -2.179473e-37 -5.3796736e-37 -1.6478336e-37 5.958299e-37 -4.0247906e-37 -6.680981e-38 -4.902e-37
5.991947e-37 8.2342215e-38 5.9767734e-37 5.915751e-38 6.7207705e-37 6.047588e-37 -5.566207e-37 -4.701485e-37
5.5031986e-37 -4.074063e-37 3.2557006e-37 2.5053508e-37 -6.1868107e-37 -6.62141e-37 -4.777697e-37 5.2249375e-37
-6.896135e-37 -2.5445764e-38 3.802849e-37 4.299389e-37 4.074973e-37 -2.1767965e-37 4.2272412e-37 6.6916176e-37
-8.888196e-38 -6.9087543e-37 6.8669127e-37 -4.908412e-37 -6.3706104e-37 -6.9183365e-37 -5.6255708e-37 -2.5841157e-37
6.0931506e-37 6.595879e-37 3.0768281e-37 -5.3568066e-37 4.133102e-37 -3.6284942e-37 5.408637e-37 -2.2163945e-37
-1.137835e-37 -5.0360147e-37 -2.4878063e-37 5.73669e-37 4.9353665e-37 6.076108e-37 -3.6488727e-37 -5.6544048e-37
-4.748749e-37 5.1326473e-37 3.6466398e-37 3.485046e-37 -6.512268e-37 -6.3451014e-37 -3.9433835e-37 5.937892e-37
-0.002758131 0.036680553 0.03672324 0.03683754 0.00041303443 0.03680092 -1.9955296e-06 0.04750357
0.036599487 0.036687225 1.4124367e-24 0.03662748 -0.002166582 0.0013533785 1.1511812e-19 0.016217485
-0.021457203 -2.8426774e-35 0.036665563 0.036773227 9.116425e-12 -4.761689e-06 -2.4659396e-37 -0.00026985983
7.9323803e-10 0.036863644 0.03667411 0.036844645 0.03671662 0.036717027 0.036721986 6.56337e-37
-5.3154497e-37 3.1393704e-38 -0.06882398 0.0026714618 -0.083434045 0.03660077 0.036655348 0.03666512
5.826435e-37 0.03664717 0.010453013 0.0006534712 0.03673671 1.7735217e-37 -0.061052162 0.03683998
-0.0022818493 -0.13686556 0.036569018 1.4705339e-17 0.036709916 0.0026182407 -0.080173805 0.036847178
0.03665611 -3.3337137e-37 0.036733713 -0.00026504992 -4.5238653e-09 0.0025510779 0.036748197 0.036125492
-0.002758277 0.036773548 0.03672186 0.03667374 0.00041502586 0.03668987 -2.015898e-06 0.047500424
0.036635354 0.036892947 1.3904452e-24 0.036888197 -0.0021668912 0.0013534961 1.1432251e-19 0.01621756
-0.021453395 -2.8336508e-35 0.0366075 0.03660284 9.1406865e-12 -4.726092e-06 2.966551e-38 -0.00025542086
8.1153456e-10 0.036666058 0.036759414 0.036781292 0.036531623 0.036726616 0.036728024 3.9770655e-38
-5.859096e-37 -6.9929535e-38 -0.06880802 0.002671616 -0.083384484 0.03659906 0.03659499 0.036654126
4.502408e-37 0.036707602 0.010453069 0.0006580264 0.03668729 4.2023928e-37 -0.06103938 0.03661826
-0.002281973 -0.13685462 0.036677647 1.5165514e-17 0.036713354 0.0026186234 -0.08012474 0.03672995
0.036675323 -3.8739194e-37 0.03668789 -0.00026607353 -4.527231e-09 0.0025511591 0.03686335 0.036116984
-0.0027583062 0.036838535 0.036549646 0.036829103 0.00041331977 0.03673059 -2.0199539e-06 0.04749964
0.036636952 0.036715373 1.3855447e-24 0.036807377 -0.0021669604 0.0013535309 1.1366565e-19 0.016217565
-0.0214571 -2.8008127e-35 0.03673917 0.036668 9.145768e-12 -4.952866e-06 -1.7287941e-37 -0.00027910928
8.15877e-10 0.036629304 0.03679232 0.03657896 0.036662295 0.036836043 0.03670339 4.7500875e-37
4.1530845e-37 -3.342423e-38 -0.068809524 0.0026716536 -0.08343079 0.036585722 0.03670331 0.036798377
6.31561e-37 0.036569834 0.010453068 0.00065523374 0.036715418 -3.1984738e-37 -0.061045386 0.036621496
-0.0022820032 -0.13685824 0.036735542 1.5033561e-17 0.036733422 0.002618704 -0.08019079 0.03673505
0.03662119 5.9322897e-37 0.036691308 -0.00026636035 -4.527863e-09 0.0025511773 0.036707874 0.036108535
00000000: 7e83 2783 c653 9482 910f 3783 9f4a 6082
00000010: 1bc0 4a03 dff4 0883 a4df b581 71ce 2683
00000020: 38e5 4b03 2628 e001 0a61 4b03 c40a a101
00000030: 2bb2 6403 ecc9 4d03 8068 3d83 b6fb 1f83
00000040: 9f43 3b03 18a2 0a83 4e92 dd02 5e81 aa02
00000050: b986 5283 9e50 6183 9c93 2283 a0cb 3103
00000060: cfa9 6a83 388a 0a81 7d67 0103 f64c 1203
00000070: 05aa 0a03 2525 9482 77d8 0f03 36b4 6303
00000080: b0f5 f181 bd17 6b83 3fab 6903 4d06 2783
00000090: d8c7 5883 366b 6b83 a26d 3f83 a5dd af82
000000a0: d456 4f03 3672 6003 e865 d102 5e48 3683
000000b0: 65a4 0c03 49f1 f682 e00b 3803 0ad7 9682
000000c0: c3df 1a82 e05d 2b83 b34f a982 9e35 4303
000000d0: 1bf1 2703 5ec2 4e03 5454 f882 d068 4083
000000e0: 7097 2183 aaa7 2e03 6d2d f802 112e ed02
000000f0: db99 5d83 a1e9 5783 b72f 0683 560e 4a03
00000100: c2c1 34bb 593e 163d 1c6b 163d f6e2 163d
00000110: 8b8c d839 90bc 163d f0ea 05b6 1a93 423d
00000120: 58e9 153d 5845 163d 6290 da17 b206 163d
00000130: 37fd 0dbb d963 b13a 51e8 0720 88da 843c
00000140: 04c7 afbc 8524 1786 a12e 163d 869f 163d
00000150: ba60 202d 99c6 9fb6 bad2 a782 f97b 8db9
00000160: 2a0b 5a30 55fe 163d 9737 163d 69ea 163d
00000170: 2b64 163d 9864 163d cb69 163d 0457 5f03
00000180: 19e0 3483 70ec 2a01 96f3 8cbd b113 2f3b
00000190: 78df aabd b0ea 153d eb23 163d 2a2e 163d
000001a0: 6843 4603 581b 163d 1d43 2b3c b64d 2b3a
000001b0: 3c79 163d 3666 7102 d511 7abd 85e5 163d
000001c0: 148b 15bb 7c26 0cbe 65c9 153d 00a2 8723
000001d0: 235d 163d ca96 2b3b 2a32 a4bd 11ed 163d
000001e0: b824 163d 7ce1 e282 1776 163d 66f6 8ab9
000001f0: 5770 9bb1 fc2f 273b 4785 163d 53f8 133d
00000200: 36c4 34bb dc9f 163d a969 163d 3437 163d
00000210: d497 d939 1e48 163d dd48 07b6 ce8f 423d
00000220: f40e 163d 0f1d 173d 3629 d717 1418 173d
00000230: 6702 0ebb cb67 b13a dcf7 0620 b0da 843c
00000240: 08bf afbc a8a9 1686 bff1 153d dcec 153d
00000250: fecd 202d d294 9eb6 b083 2101 02ea 85b9
00000260: ab12 5f30 262f 163d 0a91 163d fba7 163d
00000270: 2fa2 153d a66e 163d 2070 163d 3488 5801
00000280: ed5f 4783 c65d be81 38eb 8cbd 4716 2f3b
00000290: 7cc5 aabd e5e8 153d a1e4 153d a322 163d
000002a0: 8135 1903 b65a 163d 5943 2b3c 677f 2c3a
000002b0: 6945 163d 0100 0f03 6e04 7abd 07fd 153d
000002c0: 278d 15bb 9e23 0cbe 4d3b 163d 8fe0 8b23
000002d0: be60 163d 369d 2b3b 7118 a4bd 2572 163d
000002e0: dd38 163d 99d2 0383 0a46 163d c97f 8bb9
000002f0: f28d 9bb1 5931 273b 06fe 163d 67ef 133d
00000300: b3c4 34bb 01e4 163d 15b5 153d 1dda 163d
00000310: d7b2 d839 d172 163d 8b8e 07b6 fc8e 423d
00000320: a110 163d dc62 163d 1567 d617 55c3 163d
00000330: 9003 0ebb f668 b13a 5631 0620 b3da 843c
00000340: cdc6 afbc b0ea 1486 d07b 163d 2f31 163d
00000350: e1e4 202d cc30 a6b6 af4f 6b82 6a55 92b9
00000360: 3d44 6030 9c08 163d 8bb3 163d d2d3 153d
00000370: 342b 163d 64e1 163d 4b56 163d 19a3 2103
00000380: 7852 0d03 94fa 3581 02ec 8cbd e916 2f3b
00000390: c3dd aabd e9da 153d 3656 163d e5b9 163d
000003a0: b9e8 5603 40ca 153d 5843 2b3c fec3 2b3a
000003b0: e862 163d 46ad d982 ba0a 7abd 6c00 163d
000003c0: a98d 15bb 9124 0cbe 0278 163d fea8 8a23
000003d0: c975 163d 909e 2b3b 123b a4bd 7e77 163d
000003e0: 1a00 163d 88dd 4903 a049 163d 48a6 8bb9
000003f0: 8193 9bb1 a731 273b ff5a 163d 8be6 133d

net_model.4.bias f4 [32]
-0.0005878398 0.000583762 0.00058264664 0.00058740756 -0.00043218865 0.00058212515 0.0005825861 -0.0005876205
0.0005820176 -0.00054231746 -0.00057840126 0.00058336 -0.00043381195 -0.0005865286 0.00058547733 -0.0003766943
0.0005846648 0.00058237364 -0.00047872838 0.00058223936 -0.00055174856 -0.0005611989 0.0005867794 0.0005819129
0.000584539 -0.00056982983 0.00058174663 -0.00059419597 -0.00016520178 -0.00058329146 -0.0005885622 -0.0005915087
00000000: 4319 1aba 9b07 193a c1bc 183a 41fc 193a
00000010: 6197 e2b9 c299 183a b1b8 183a 8b0a 1aba
00000020: 8a92 183a 4f2a 0eba da9f 17ba a0ec 183a
00000030: 4171 e3b9 45c1 19ba b87a 193a 0e7f c5b9
00000040: 3144 193a 6faa 183a d6fd fab9 6ca1 183a
00000050: 38a3 10ba 6c1d 13ba 19d2 193a 838b 183a
00000060: c03b 193a a260 15ba 5b80 183a d1c3 1bba
00000070: 043a 2db9 07e8 18ba be49 1aba 7a0f 1bba

net_model.6.weight f4 [1, 32]
2.6334577e-37 0.031904306 0.031940877 0.031948145 6.380759e-37 0.0319178 0.03196234 6.922939e-37
0.031931367 2.030394e-37 4.693691e-37 0.03190274 0.00049923133 6.981754e-37 0.031954616 -5.846501e-37
0.031925227 0.031932343 0.00051339215 0.03195213 1.0928378e-37 9.45085e-38 0.031953674 0.03197072
0.03188924 5.0430736e-37 0.031936336 -5.538702e-37 -2.1600832e-37 1.222141e-37 3.4967421e-37 3.5385006e-37
00000000: 4e39 b302 17ae 023d 70d4 023d 0fdc 023d
00000010: 4020 5903 3dbc 023d f1ea 023d 4e93 6b03
00000020: 77ca 023d 742e 8a02 d1b7 1f03 73ac 023d
00000030: d9de 023a a893 6d03 d8e2 023d 35f2 4683
00000040: 07c4 023d 7dcb 023d 2a95 063a 3de0 023d
00000050: d7bf 1402 68a3 0002 dbe1 023d bbf3 023d
00000060: 4b9e 023d 5e9b 2b03 adcf 023d e678 3c83
00000070: f501 9382 6659 2602 d7f9 ed02 60d1 f002
