src/t1dsim_ai/models/IndividualModel/T1DEXI-01-1417/individual_model.pt (torch, 50089 bytes, 7 tensors)

net_model.0.weight f4 [128, 10]
-0.02232415 0.026321126 -0.020351984 -0.0061046937 0.020554349 0.0010205042 0.010456109 -0.009164631
0.00028176556 0.009534868 -0.043312624 0.029109532 -0.015680695 -0.028647278 0.01976821 -0.0017120496
0.0026837136 -0.004446038 0.0042745634 0.0027558065 -0.02114926 0.02623129 -0.021664092 -0.006460144
0.022301408 0.0005853592 0.011852723 -0.008332186 -0.0010419077 0.0080173295 -0.020924374 0.025961906
-0.021797659 -0.006473134 0.022154117 0.0003353197 0.01202302 -0.008271545 -0.0012798972 0.007768204
-0.021096716 0.026050385 -0.02171706 -0.006641516 0.021929847 0.0005180302 0.011776165 -0.008431426
-0.0011452159 0.008063485 -0.015971486 0.021375325 -0.028374355 -0.005447059 0.02381441 0.00805956
-0.020562127 -0.012768956 0.012833128 0.012426429 0.0010442606 0.033850424 -0.047925387 0.01871066
0.003229804 -0.00298708 0.0155914035 0.006879702 -0.047984518 -0.069677524 -0.04156576 -0.058296267
0.06921654 0.050551828 0.020383796 0.0057725143 -0.019163668 -0.0144628165 0.02505149 -0.02098918
-0.022292444 0.02636281 -0.020654436 -0.006004589 0.02082244 0.0009481233 0.010598396 -0.009073622
0.00016966542 0.009214096 -0.07002363 0.020833453 -0.011456038 -0.060024247 0.055226248 -0.0056440025
-0.02258139 0.01886656 0.018155342 0.0006833269 -0.040868398 0.028952815 -0.016146248 -0.02841853
0.019910024 -0.0019230032 0.0011245313 -0.0050791465 0.0042924955 0.0026734085 -0.04099269 -0.06099927
0.06345929 0.045348816 0.011583567 -0.003335261 -0.04444695 -0.017131196 0.03408419 -0.017774206
-0.02135018 0.026271086 -0.021363838 -0.006323414 0.022050707 0.0005060212 0.011789818 -0.008522375
-0.00091125397 0.0082511185 -0.020866783 0.031245649 -0.018480945 -0.0049554687 0.012644663 0.007749779
0.001402658 -0.014572131 0.009875231 0.006578702 -0.020805337 0.030917842 -0.018488016 -0.0052093435
0.013524817 0.006964906 0.0012361668 -0.014225249 0.008320309 0.0064719976 -0.022204628 0.026909288
-0.020170474 -0.006437986 0.019943431 0.0006070828 0.009241552 -0.009556911 0.0010436105 0.009934916
-0.020778859 0.03171202 -0.018112672 -0.003267812 0.010488863 0.008162787 0.0027220931 -0.015046066
0.013194389 0.006713032 -0.020920062 0.01718778 -0.027571285 -0.0076344213 0.02061052 0.0006127341
-0.00026511308 -0.007766461 -0.003811253 0.009918353 -0.039653353 0.031385984 -0.017838752 -0.039192
0.01995492 -0.004155407 -0.0047061075 -0.002369935 0.003055118 0.00096464914 -0.04273911 0.03052084
-0.016915835 -0.03829872 0.019150482 -0.0027419948 -0.0009410926 -0.0031803187 0.0015054758 0.001186113
-0.017824385 0.030963428 -0.021510873 -0.01671647 0.02230068 0.0054056025 -0.008872149 -0.016262492
0.008144103 0.008281738 -0.011276558 0.03229078 -0.027403843 -0.002548545 0.017579347 0.0022297786
-0.005774606 -0.023208149 0.018970253 0.010766853 -0.070878945 0.022196814 -0.010226962 -0.058208723
0.04992717 -0.0041016764 -0.026701674 0.01829252 0.01247295 0.0009731024 -0.020378927 0.03180203
-0.018514274 -0.0007113767 0.009551675 0.008491715 0.0040195733 -0.01607063 0.016143115 0.0069441563
-0.010892756 0.06414532 -0.046093643 -0.014509347 0.026602473 0.00429869 -0.097124435 -0.05954929
-0.05112771 -0.03536207 -0.022225777 0.026354313 -0.020588014 -0.0061078663 0.020786492 0.0010017245
00000000: 23e1 b6bc 679f d73c 34b9 a6bc e209 c8bb
00000010: 9861 a83c 70c2 853a 1a50 2b3c 4027 16bc
00000020: efb9 9339 2338 1c3c 9468 31bd 1d77 ee3c
00000030: cd74 80bc b2ad eabc f1f0 a13c da66 e0ba
00000040: 3ee1 2f3b 12b0 91bb a311 8c3b c39a 343b
00000050: 3741 adbc 01e3 d63c e578 b1bc 9eaf d3bb
00000060: 71b1 b63c ca72 193a ec31 423c b983 08bc
00000070: 9f90 88ba 1e5b 033c 9869 abbc 10ae d43c
00000080: 0191 b2bc 951c d4bb 8d7c b53c d9cd af39
00000090: 33fc 443c 6085 07bc 39c2 a7ba 6b8c fe3b
000000a0: 05d3 acbc 9e67 d53c fae7 b1bc 13a1 d9bb
000000b0: 39a6 b33c 6bcc 073a d1f0 403c f723 0abc
000000c0: 121b 96ba b51c 043c a2d6 82bc 4e1b af3c
000000d0: 5671 e8bc 3e7d b2bb 7016 c33c 3f0c 043c
000000e0: e871 a8bc e234 51bc 0a42 523c 3998 4b3c
000000f0: 92df 883a bea6 0a3d 694d 44bd 1947 993c
00000100: 1fab 533b e3c2 43bb 1673 7f3c 206f e13b
00000110: 6a8b 44bd 17b3 8ebd dc40 2abd 11c8 6ebd
00000120: 67c1 8d3d 6f0f 4f3d ebfb a63c 5c27 bd3b
00000130: 20fd 9cbc 73f5 6cbc c838 cd3c 80f1 abbc
00000140: a59e b6bc d2f6 d73c 7e33 a9bc 25c2 c4bb
00000150: d293 aa3c 7a8b 783a e5a4 2d3c 87a9 14bc
00000160: 37e8 3139 b8f6 163c 8d68 8fbd ebaa aa3c
00000170: 1bb2 3bbc fcdb 75bd eb34 623d 53f1 b8bb
00000180: 9bfc b8bc 0b8e 9a3c 83ba 943c 4b21 333a
00000190: 9f65 27bd 742e ed3c 2345 84bc facd e8bc
000001a0: 591a a33c 480d fcba 0265 933a f86e a6bb
000001b0: 10a8 8c3b 5a34 2f3b f3e7 27bd 5fda 79bd
000001c0: f2f6 813d aebf 393d 00c9 3d3c 6594 5abb
000001d0: 010e 36bd b956 8cbc dd9b 0b3d 369b 91bc
000001e0: 93e6 aebc 7636 d73c 3703 afbc a434 cfbb
000001f0: afa3 b43c 82a6 043a 152a 413c 6ea1 0bbc
00000200: 38e1 6eba b32f 073c d1f0 aabc e0f6 ff3c
00000210: 5a65 97bc 7c61 a2bb 902b 4f3c dcf1 fd3b
00000220: 64d9 b73a f3bf 6ebc b9cb 213c 2792 d73b
00000230: f46f aabc 6a47 fd3c 2e74 97bc 24b3 aabb
00000240: 3297 5d3c de39 e43b e006 a23a 0511 69bc
00000250: e851 083c 0d13 d43b 7be6 b5bc de70 dc3c
00000260: 8d3c a5bc bef5 d2bb 6860 a33c a324 1f3a
00000270: e169 173c 9794 1cbc c2c9 883a 0fc6 223c
00000280: 6d38 aabc 77e4 013d 0761 94bc ca28 56bb
00000290: 7bd9 2b3c 36bd 053c 2565 323b c683 76bc
000002a0: 472d 583c fef8 db3b 8d60 abbc 63cd 8c3c
000002b0: 2ddd e1bc 2b2a fabb 65d7 a83c e49f 203a
000002c0: e0fe 8ab9 cc7d febb 37c6 79bb 9680 223c
000002d0: 8e6b 22bd 978e 003d 9322 92bc ca87 20bd
000002e0: 8078 a33c 152a 88bb b135 9abb e950 1bbb
000002f0: 6038 483b 82e0 7c3a 340f 2fbd d706 fa3c
00000300: 1493 8abc 1edf 1cbd 79e1 9c3c 0ab3 33bb
00000310: a8b3 76ba e56c 50bb 6353 c53a 5977 9b3a
00000320: 7204 92bc 04a7 fd3c 9237 b0bc faf0 88bc
00000330: eaaf b63c 7b21 b13b 7d5c 11bc eb38 85bc
00000340: d86e 053c 20b0 073c 50c1 38bc 5643 043d
00000350: 067e e0bc 7d05 27bb 9002 903c 7a21 123b
00000360: e838 bdbb 041f bebc 8167 9b3c 7467 303c
00000370: fb28 91bd 18d6 b53c fd8e 27bc 456c 6ebd
00000380: 6f80 4c3d 5b67 86bb 78bd dabc 32da 953c
00000390: 585b 4c3c cc17 7f3a b5f1 a6bc d842 023d
000003a0: 3fab 97bc af7b 3aba a17e 1c3c d620 0b3c
000003b0: a0b6 833b 8ea6 83bc 913e 843c ce8b e33b
000003c0: 8877 32bc 9f5e 833d b0cc 3cbd 9db8 6dbc
000003d0: 6eed d93c 06dc 8c3b 2de9 c6bd f5e9 73bd
000003e0: 4a6b 51bd d1d7 10bd d512 b6bc 00e5 d73c
000003f0: 32a8 a8bc 7f24 c8bb 6f48 aa3c 4c4c 833a

net_model.0.bias f4 [128]
0.0058615976 -0.009327751 0.006971039 0.006986402 0.0068386397 0.007296789 0.034466542 0.053791728
0.0059389304 -0.016186278 -0.008394599 0.04814876 0.006682544 0.0016909185 0.002165868 0.0058009694
0.00048577948 0.008911415 -0.008198703 -0.008825436 -0.0014719998 -0.003962966 -0.016588189 -0.0005167255
-0.02285005 0.005923337 0.005212367 0.006377468 0.0068063284 -0.0067472258 0.0068075554 0.006856394
-0.006547018 0.0070897858 0.0023166048 0.006506109 0.0069550024 -0.0009143179 0.0014507286 -0.014475952
-0.011193939 -0.00258406 0.008989857 0.0067504332 0.0067643034 -0.0064680753 -0.011091996 -0.0009463088
0.006014931 0.0011380803 0.006221026 0.0069685285 -0.005443636 0.0005280077 -0.007994991 -0.0075782593
-0.015069875 -0.009684022 -0.008722859 -0.0014353032 0.005854988 0.0069642435 0.034594137 0.00657449
-0.008312511 -0.0026115903 -0.0028298777 0.0060488903 0.005856019 0.005876352 0.006798863 -0.0015548759
0.0057900236 -0.0025331054 0.006099073 -0.0025392224 0.05559023 0.0070751803 -0.0028590187 -0.012723242
-0.008737565 -0.014443608 0.05774079 -0.006057931 0.0057036774 0.0057309275 -0.010117739 -0.014372774
-0.0012193351 0.006816873 -0.008310007 -0.00278595 0.0065815104 0.007087569 0.0071724295 0.0069028353
-0.0147076035 -0.0046838447 0.006213995 -0.011395901 -0.016354524 -0.012407305 0.0067747254 -0.00077514845
0.0070283404 0.0057349764 0.05503917 0.0065140696 -0.0028835463 0.0012564816 -0.007895701 0.005054629
-0.011613763 -0.0016135374 0.0037659055 0.0010928555 0.006380072 -0.0006698624 0.0069473214 -0.0141551895
-0.012570548 -4.7778125e-05 0.0089491885 0.0072325445 0.0057194047 0.0075073 0.0068762247 0.007020553
00000000: a512 c03b 6cd3 18bc 506d e43b 30ee e43b
00000010: ab16 e03b e719 ef3b ca2c 0d3d b754 5c3d
00000020: 5c9b c23b 1699 84bc 8089 09bc a237 453d
00000030: 3ef9 da3b cfa1 dd3a 3cf1 0d3b 0f16 be3b
00000040: 38b0 fe39 2f01 123c da53 06bc 9098 10bc
00000050: 1ef0 c0ba c5db 81bb f4e3 87bc dc74 07ba
00000060: 0730 bbbc 8d18 c23b 81cc aa3b 14fa d03b
00000070: 9f07 df3b d517 ddbb ea11 df3b 9aab e03b
00000080: 5e88 d6bb 6f51 e83b 2ed2 173b 3331 d53b
00000090: cae6 e33b d6ae 6fba 6026 be3a 8b2c 6dbc
000000a0: c866 37bc 5559 29bb 314a 133c bd32 dd3b
000000b0: 17a7 dd3b 26f2 d3bb 34bb 35bc b511 78ba
000000c0: e618 c53b a32b 953a c0d9 cb3b 4158 e43b
000000d0: 8760 b2bb ff69 0a3a 6cfd 02bc 0c53 f8bb
000000e0: a3e7 76bc bba9 1ebc 53ea 0ebc c920 bcba
000000f0: 33db bf3b 4f34 e43b 95b2 0d3d d26e d73b
00000100: 3331 08bc 3727 2bbb 7875 39bb c535 c63b
00000110: d9e3 bf3b 6a8e c03b ffc8 de3b facc cbba
00000120: 3dba bd3b 7502 26bb bcda c73b 1569 26bb
00000130: 95b2 633d ead6 e73b 605e 3bbb 2575 50bc
00000140: 0128 0fbc e2a4 6cbc 9b81 6c3d 9c81 c6bb
00000150: eae5 ba3b 81ca bb3b e0c4 25bc c97b 6bbc
00000160: 19d2 9fba 1360 df3b b226 08bc 7c94 36bb
00000170: b6a9 d73b d73e e83b b306 eb3b 2e31 e23b
00000180: 29f8 70bc f07a 99bb c59e cb3b e0b5 3abc
00000190: ecf9 85bc 0248 4bbc 84fe dd3b 5533 4bba
000001a0: fe4d e63b 78ec bb3b c170 613d fa73 d53b
000001b0: e1f9 3cbb 87b0 a43a f85c 01bc 4da1 a53b
000001c0: a747 3ebc 557d d3ba 69cd 763b 253e 8f3a
000001d0: ec0f d13b b499 2fba 5ba6 e33b 2beb 67bc
000001e0: b3f4 4dbc 5f65 48b8 9e9f 123c fbfe ec3b
000001f0: d869 bb3b ccff f53b f451 e13b ab0c e63b

net_model.2.weight f4 [64, 128]
0.011239867 0.036749512 0.0125023285 0.0124669755 0.012361846 0.023272553 0.06124154 -0.096105024
0.011488745 0.09328748 0.03352472 -0.096059285 0.012335286 0.014384856 0.012657059 0.009779979
0.01809313 0.0134550575 0.04456731 0.044635035 0.020749662 0.03110032 0.090626 0.022158735
0.10567678 0.011435369 0.008347396 0.012107987 0.0124997115 0.03982375 0.01238258 0.012562625
0.041906603 0.022464097 0.012270142 0.01604538 0.012512138 0.024180802 0.014947339 0.08385667
0.054639004 0.029320382 0.013565888 0.012401824 0.020330787 0.04249142 0.05269817 0.037467983
0.018607022 0.015846826 0.0117319105 0.012523417 0.037759624 0.03546959 0.03822932 0.03472622
0.08014923 0.04856894 0.043914374 0.026459446 0.011314301 0.020503102 0.06274456 0.017479088
0.046997387 0.028603831 0.027819673 0.011984839 0.011151858 0.011522099 0.020483784 0.027429141
0.010938401 0.027366223 0.011592656 0.02818038 -0.096628174 0.0125911385 0.028200282 0.061142076
0.035259865 0.080561295 -0.09738343 0.032147814 0.017300671 0.017378952 0.04707643 0.078172125
0.025526738 0.012261254 0.045228567 0.028254775 0.012195336 0.012752825 0.012759932 0.0123829935
0.07982437 0.03481425 0.011940842 0.033238422 0.087728485 0.06776172 0.023629155 0.024096362
0.012431237 0.011378842 -0.09783101 0.012292142 0.026527155 0.019681092 0.037173018 0.0082932515
0.060588077 0.0277011 0.025366347 0.015928274 0.01189244 0.026807498 0.012375153 0.077213265
0.06113883 0.023436584 0.013463459 0.023191288 0.008945509 0.021473764 0.012482996 0.02384448
0.006119787 0.035555493 0.0074671097 0.0075582606 0.0073443716 0.01372654 0.0643954 -0.11410376
0.006434148 0.09802246 0.03194626 -0.111876495 0.007344656 0.0070798206 0.005865902 0.0044890423
0.010051917 0.008679832 0.044245817 0.04433865 0.013567105 0.022003565 0.09507678 0.01360617
0.10513961 0.0063613653 0.0027171734 0.0070335455 0.007544763 0.038624886 0.0074767685 0.007548877
0.027901093 0.012767794 0.005564194 0.008795447 0.007479677 0.015350061 0.0075381882 0.086517535
0.05550348 0.018012788 0.008759373 0.00761772 0.017119268 0.028365562 0.053248093 0.033766355
0.011323973 0.008228867 0.006762644 0.0076598385 0.024094995 0.031273138 0.03708016 0.033294387
0.082826264 0.04873009 0.043283194 0.01700203 0.006274079 0.01729144 0.06520207 0.009691041
0.047024697 0.017537247 0.014995169 0.0070449077 0.005973054 0.006432566 0.011516451 0.017805504
0.0056839595 0.016287798 0.0066181347 0.016952472 -0.1145163 0.0077500492 0.019775666 0.06252905
0.03395709 0.08377113 -0.11508015 0.029711077 0.010695719 0.010931587 0.0468651 0.08102304
0.016292665 0.0073945597 0.044912834 0.019948976 0.0070977495 0.0076878215 0.007818853 0.0074028806
0.08282053 0.021519031 0.006967131 0.030766381 0.09165592 0.069605954 0.014231519 0.012366481
0.007508148 0.0061484226 -0.11395129 0.0072968956 0.018460058 0.010267437 0.03614201 0.0026878838
0.06160545 0.017996175 0.017311072 0.008291203 0.0069379983 0.017260466 0.007518544 0.07998673
0.06242223 0.011493541 0.008697185 0.013605088 0.0036312973 0.01260673 0.0074688154 0.013949199
00000000: 6b27 383c a886 163d 91d6 4c3c 4942 4c3c
00000010: 5789 4a3c 15a6 be3c 69d8 7a3d b6d2 c4bd
00000020: 4a3b 3c3c 820d bf3d 3851 093d bbba c4bd
00000030: f019 4a3c 76ae 6b3c 8e5f 4f3c 343c 203c
00000040: 0b38 943c 9a72 5c3c 368c 363d 3ad3 363d
00000050: 32fb a93c 19c6 fe3c 209a b93d 3c86 b53c
00000060: 116d d83d 6a5b 3b3c 84c3 083c 9460 463c
00000070: 97cb 4c3c 3a1e 233d 4ee0 4a3c 78d3 4d3c
00000080: 42a6 2b3d a006 b83c b508 493c 9a71 833c
00000090: b6ff 4c3c d116 c63c afe5 743c 0cbd ab3d
000000a0: 26cd 5f3d 4c31 f03c 7543 5e3c 0531 4b3c
000000b0: c08c a63c 7c0b 2e3d 09da 573d 0778 193d
000000c0: c16d 983c 34d1 813c 3337 403c 052f 4d3c
000000d0: d6a9 1a3d 9048 113d 5996 1c3d 153d 0e3d
000000e0: 4825 a43d 3af0 463d 8fdf 333d 7bc1 d83c
000000f0: 9e5f 393c 1ff6 a73c 3880 803d 4e30 8f3c
00000100: 5580 403d 9552 ea3c 15e6 e33c 0f5c 443c
00000110: 48b6 363c 30c7 3c3c 9ccd a73c 14b3 e03c
00000120: fb36 333c 212f e03c 20ef 3d3c 8ada e63c
00000130: fee4 c5bd 104b 4e3c 4704 e73c 1d70 7a3d
00000140: a66c 103d 52fd a43d f770 c7bd 6dad 033d
00000150: 23ba 8d3c 4e5e 8e3c 37d3 403d b518 a03d
00000160: 731d d13c 6de3 483c 9741 393d 8f76 e73c
00000170: f2ce 473c 3af1 503c 090f 513c 0ae2 4a3c
00000180: f67a a33d 6399 0e3d 85a3 433c 0325 083d
00000190: feaa b33d a8c6 8a3d ee91 c13c bc65 c53c
000001a0: 63ac 4b3c 536e 3a3c a05b c8bd fb64 493c
000001b0: 7a4f d93c 3e3a a13c bc42 183d 6be0 073c
000001c0: 342b 783d 6bed e23c 16cd cf3c 037c 823c
000001d0: 82d8 423c 669b db3c 27c1 4a3c fd21 9e3d
000001e0: b66c 7a3d 14fe bf3c d795 5c3c a8fb bd3c
000001f0: 2f90 123c bfe9 af3c 7b85 4c3c 8055 c33c
00000200: 7f88 c83b a3a2 113d a8ae f43b 49ab f73b
00000210: 0ea9 f03b 48e5 603c bce1 833d 3baf e9bd
00000220: 8cd5 d23b 00c0 c83d 15da 023d 811f e5bd
00000230: 71ab f03b d7fd e73b c136 c03b d118 933b
00000240: ccb0 243c db35 0e3c 1a3b 353d 729c 353d
00000250: 9048 5e3c d240 b43c 9db7 c23d 6aec 5e3c
00000260: 7053 d73d 0073 d03b 9b12 323b a879 e63b
00000270: 0f3a f73b 2135 1e3d aeff f43b 925c f73b
00000280: d590 e43c 0230 513c d853 b63b c71a 103c
00000290: 1418 f53b d27e 7b3c e802 f73b 1b30 b13d
000002a0: 9e57 633d 8e8f 933c 7983 0f3c 119e f93b
000002b0: b53d 8c3c e55e e83c ac1a 5a3d 974e 0a3d
000002c0: 2f88 393c 5fd2 063c 2b99 dd3b 62ff fa3b
000002d0: de62 c53c 4318 003d 5ee1 173d b25f 083d
000002e0: d1a0 a93d 3499 473d b849 313d d747 8b3c
000002f0: ca96 cd3b c7a6 8d3c aa88 853d 2cc7 1e3c
00000300: f89c 403d 46aa 8f3c 4cae 753c f8d8 e63b
00000310: 9cb9 c33b 46c8 d23b 7faf 3c3c d9dc 913c
00000320: 8240 ba3b fd6d 853c f0dc d83b e9df 8a3c
00000330: 8687 eabd 20f4 fd3b 9400 a23c 3b0f 803d
00000340: 9716 0b3d 3390 ab3d 24af ebbd a564 f33c
00000350: 193d 2f3c 661a 333c 9ef5 3f3d 68ef a53d
00000360: 3278 853c 104e f23b 85f6 373d 096c a33c
00000370: 3d94 e83b 1fea fb3b a51a 003c dd93 f23b
00000380: cf9d a93d ae48 b03c 884c e43b c709 fc3c
00000390: 19b6 bb3d 918d 8e3d 512b 693c c89c 4a3c
000003a0: e906 f63b b578 c93b 4b5f e9bd cc1a ef3b
000003b0: 8c39 973c c138 283c a509 143d 3527 303b
000003c0: ff55 7c3d b76c 933c f3cf 8d3c d3d7 073c
000003d0: 2658 e33b d265 8d3c 1e5e f63b 15d0 a33d
000003e0: 74ae 7f3d 684f 3c3c a37e 0e3c e0e7 5e3c
000003f0: 0ffb 6d3b 758c 4e3c f7bc f43b 2e8b 643c

net_model.2.bias f4 [64]
0.00019518733 -0.001929417 3.5716195e-05 0.00012999088 -0.0024715497 -0.004178741 -6.1972216e-08 0.02522245
-0.0014599619 -0.00017512057 -0.00018327829 0.0001883627 0.0001776081 0.00017024534 4.1673004e-05 4.2757496e-05
7.787219e-05 -0.0012603891 0.023826761 -0.0033946754 0.00021273932 -0.0009877982 0.00021958692 0.00017844784
0.021341493 -1.2104598e-12 -0.0018396819 -7.568171e-06 -0.0006340619 -0.0013372827 0.008112607 0.00019240098
0.00019358871 0.00018539444 0.00018127334 0.00013227812 -1.7473987e-05 -0.0037384569 -0.0018049389 -0.0010088328
0.0001881075 -1.4773682e-28 -0.001141776 0.00020658424 0.000108042856 -0.0013445528 0.00011274902 -0.0010886759
0.00013530093 0.00019487379 0.020862857 0.00014213321 -1.1723058e-14 0.00019664934 0.00018154173 -0.0009699214
-0.0006159181 0.00018258212 -0.00197177 0.00018953205 0.00020696527 0.00018402902 4.9960432e-05 -2.4472606e-28
00000000: 33ab 4c39 7ee4 fcba f9cd 1538 294e 0839
00000010: b9f9 21bb d2ed 88bb 9615 85b3 509f ce3c
00000020: 315c bfba 92a0 37b9 642e 40b9 3a83 4539
00000030: 503c 3a39 e383 3239 0cca 2e38 8356 3338
00000040: 504f a338 a433 a5ba 5730 c33c 3479 5ebb
00000050: c712 5f39 0279 81ba ea40 6639 ba1d 3b39
00000060: 5bd4 ae3c 695b aaab 7b21 f1ba 18f2 fdb6
00000070: 2c37 26ba c347 afba bdea 043c 3fbf 4939
00000080: 13fe 4a39 7166 4239 3114 3e39 23b4 0a39
00000090: 1a95 92b7 e600 75bb b393 ecba d03a 84ba
000000a0: b93e 4539 5747 3b91 a5a7 95ba 899e 5839
000000b0: 1195 e238 b53b b0ba ab73 ec38 e7b1 8eba
000000c0: 91df 0d39 0957 4c39 95e8 aa3c 9809 1539
000000d0: 102f 53a8 a833 4e39 3d5c 3e39 5342 7eba
000000e0: 9075 21ba 8473 3f39 d038 01bb 1fbd 4639
000000f0: d104 5939 eaf7 4039 9b8c 5138 131d 9b91

net_model.4.weight f4 [32, 64]
0.040507685 0.044821214 0.04080688 0.04049489 -0.0012539275 -0.00041744637 1.9717834e-37 -0.05605713
3.131147e-05 -1.08664674e-10 -2.580653e-14 0.040434178 0.040213324 0.040395297 0.040616997 0.04058282
0.040422652 -6.9678777e-06 -0.053855922 -0.0004352229 0.040468194 0.0419764 0.0404635 0.04039267
-0.054128762 -1.5128788e-37 -0.0016567283 -5.1378523e-26 -4.1765265e-06 0.043640193 0.08511903 0.040336825
0.040470425 0.040522818 0.04037765 0.040637143 7.4848515e-15 1.1749006e-05 -0.00039500618 0.054166086
0.04036322 5.9258047e-37 0.042646937 0.040461134 0.04031417 0.04390183 0.040440578 0.04243139
0.04049847 0.040573996 -0.05386569 0.04040717 -7.918743e-38 0.040340215 0.040501326 0.0009909484
0.0003095267 0.040240716 0.0017997671 0.040384956 0.04046175 0.040545963 0.04067049 -8.791145e-31
1.2224961e-37 6.961399e-37 -6.626258e-39 -5.1848635e-37 5.0317727e-37 -3.900012e-37 -2.4022354e-37 -1.9253388e-37
6.514017e-37 -5.5530947e-37 5.6368255e-37 6.7573258e-37 -6.348081e-37 1.1939693e-37 -3.818964e-37 7.727033e-38
-4.440612e-37 5.530767e-37 -5.3125225e-37 -5.819304e-37 5.7337985e-37 -2.2523691e-37 1.4121232e-38 -8.9672015e-38
5.9492335e-37 -4.232968e-37 4.14465e-37 4.33464e-37 -1.4071817e-37 -2.984336e-37 -4.080031e-37 5.5291605e-37
-5.4904425e-37 4.3876893e-37 6.7739763e-37 -1.2381049e-37 -5.3003686e-37 -5.628287e-37 5.817638e-37 3.3616325e-37
5.7485487e-37 -5.446114e-37 5.708444e-37 -3.9837234e-37 -1.9206899e-37 -2.1454909e-37 -3.989666e-38 -5.119279e-37
5.1500207e-37 5.2214408e-37 5.4511757e-37 -4.8306054e-37 3.8613956e-37 -5.2725157e-37 4.4873563e-37 -4.6110504e-37
2.7668939e-37 6.396414e-37 -4.0906566e-37 -5.1833604e-37 -6.9318006e-37 6.1387204e-37 -5.3030497e-37 -5.768871e-37
5.2664733e-37 3.854743e-37 -2.9841357e-37 3.7413528e-37 -3.2697374e-37 -6.2799686e-37 6.129077e-37 5.723582e-37
4.343887e-37 -4.1696046e-37 -5.255816e-37 -4.3702862e-37 -4.375809e-37 -3.0482569e-37 -2.6952046e-37 -5.882439e-37
4.5654394e-37 -4.8315556e-37 4.766981e-37 6.568966e-37 5.533658e-37 -5.0820006e-37 1.5837786e-37 5.147237e-37
-5.617396e-37 -9.0274046e-38 -4.2242333e-37 4.25875e-37 5.0221443e-37 -4.5389923e-37 -5.8134004e-37 2.036747e-38
-6.3721584e-37 -3.6479456e-37 6.056033e-37 5.78677e-37 1.9136549e-37 4.2195666e-37 6.477091e-37 4.2879675e-37
4.9747786e-37 -6.1883264e-37 -2.2560943e-37 3.70835e-37 -1.7142512e-37 -1.601833e-37 4.5232143e-37 6.161111e-37
-6.405706e-37 3.484953e-37 2.0237232e-37 -3.5553404e-37 -4.1483367e-38 4.3393886e-37 5.489793e-37 -2.2068798e-37
-4.456311e-37 -5.354273e-37 4.8553046e-37 -3.6639794e-37 5.7563933e-37 -4.5216857e-37 -3.5108697e-37 4.433907e-37
4.2267372e-37 -6.0540937e-37 5.021082e-37 -6.251036e-37 3.9726834e-38 -4.9394843e-37 -6.2725716e-37 2.83422e-37
4.0467486e-37 -3.885701e-37 4.709014e-37 -6.299934e-37 -4.5597113e-37 -5.4363125e-37 2.5400757e-37 5.846993e-37
2.358241e-37 4.875042e-37 -6.651316e-37 3.0809092e-37 -5.7238325e-37 -3.5105955e-37 -5.8780888e-37 5.9533894e-37
-2.5333113e-37 4.6520584e-37 -5.4682527e-37 5.3834443e-37 -5.0982525e-37 -6.5349588e-37 -3.455087e-37 4.4900993e-37
5.756558e-37 -5.1214105e-37 -2.1441207e-37 3.9903815e-37 6.029865e-37 6.400369e-37 -4.5192535e-37 -5.40033e-37
6.8023965e-37 5.709149e-37 6.399086e-37 6.6534956e-37 -1.5485367e-37 -2.4781208e-37 -6.362713e-37 5.180601e-37
1.3218786e-37 3.9672975e-37 -5.850518e-37 3.7084873e-37 -4.019669e-37 -6.0811188e-37 -2.3033984e-37 -3.2145787e-37
6.3314274e-37 -1.7000191e-37 -7.3453005e-38 4.7753306e-37 -5.2725776e-37 -6.5226583e-37 -4.0907234e-37 -6.558492e-37
00000000: 63eb 253d 7396 373d 1d25 273d f8dd 253d
00000010: d35a a4ba b4dc dab9 5031 8602 299c 65bd
00000020: 6f54 0338 c6f4 eeae cf71 e8a8 4f9e 253d
00000030: bab6 243d 8a75 253d 025e 263d 2c3a 263d
00000040: 3992 253d 9dcd e9b6 0798 5cbd a12e e4b9
00000050: fac1 253d 72ef 2b3d 0ebd 253d c972 253d
00000060: 1fb6 5dbd 22ec 4d82 9426 d9ba 046a 7e95
00000070: 1724 8cb6 0fc0 323d e352 ae3d 3a38 253d
00000080: 51c4 253d 41fb 253d 0963 253d 2273 263d
00000090: c9d5 0628 991d 4537 d518 cfb9 42dd 5d3d
000000a0: e753 253d 0aa5 4903 8eae 2e3d 93ba 253d
000000b0: 7920 253d 68d2 333d 05a5 253d 8acc 2d3d
000000c0: b9e1 253d eb30 263d 45a2 5cbd fd81 253d
000000d0: 9691 d781 c83b 253d b8e4 253d b6e2 813a
000000e0: f847 a239 73d3 243d 2ae6 eb3a b26a 253d
000000f0: 38bb 253d 8613 263d 1a96 263d fda4 8e8d
00000100: c665 2602 57e2 6c03 5027 4880 886e 3083
00000110: ec38 2b03 e5b5 0483 d87c a382 2208 8382
00000120: 17a9 5d03 47f6 3c83 adcf 3f03 9cf0 6503
00000130: 9603 5883 c283 2202 def3 0183 9059 d201
00000140: 301b 1783 c733 3c03 99c6 3483 4a05 4683
00000150: 6e1c 4303 ce49 9982 40c4 9900 461c f481
00000160: 2271 4a03 5a0a 1083 fe08 0d03 0a80 1303
00000170: 2089 3f82 771a cb82 15d6 0a83 c825 3c03
00000180: 80d4 3a83 2a4e 1503 a881 6603 a985 2882
00000190: b95c 3483 4b85 3f83 c6f6 4503 e6c7 e402
000001a0: ec9c 4303 5852 3983 903f 4203 208f 0783
000001b0: 23b7 8282 b903 9282 d437 5981 3633 2e83
000001c0: 023f 2f03 2aad 3103 707e 3903 8260 2483
000001d0: 8065 0303 176a 3383 63b2 1803 eae7 1c83
000001e0: 174e bc02 a0a8 5903 a532 0b83 7061 3083
000001f0: 80e0 6b83 cce3 5003 1474 3483 f44d 4483
00000200: 7435 3303 8c2b 0303 fa16 cb82 8f9f fe02
00000210: dc86 de82 3eb2 5583 ca8f 5003 6ec3 4203
00000220: 98d0 1303 61e2 0d83 9dd8 3283 90b6 1483
00000230: ace6 1483 2074 cf82 166d b782 452b 4883
00000240: 965a 1b03 c968 2483 4336 2203 c487 5f03
00000250: f64c 3c03 78ee 2c83 a192 5702 c226 2f03
00000260: 6c26 3f83 d4bf f581 43be 0f83 f2ea 1003
00000270: 0ce5 2a03 3374 1a83 dcd1 4583 38c8 dd00
00000280: 54d5 5883 2d44 f882 7d13 4e03 e0e9 4403
00000290: 923c 8202 9c95 0f03 6c67 5c03 77e9 1103
000002a0: 6f48 2903 ed93 5283 b58a 9982 9260 fc02
000002b0: f054 6982 bc07 5a82 c1ea 1903 d9a6 5103
000002c0: 92f9 5983 722c ed02 3bba 8902 c4f6 f182
000002d0: 60db 6181 68a9 1303 d7ce 3a03 4531 9682
000002e0: f2a3 1783 4c32 3683 ab37 2503 865b f982
000002f0: 42e1 4303 70dd 1983 faef ee82 c7e0 1603
00000300: 13d4 0f03 9802 4e83 cbdb 2a03 34b6 5483
00000310: 204b 5801 fa14 2883 ce71 5583 14e3 c002
00000320: 27b4 0903 3b39 0483 4c3d 2003 2a60 5683
00000330: b028 1b83 f6fc 3883 5cde ac02 7ef6 4603
00000340: 5a7e a002 9be3 2503 2255 6283 02ad d102
00000350: 9dc5 4283 33eb ee82 6005 4883 5695 4a03
00000360: 8268 ac82 254d 1e03 3313 3a83 6a30 3703
00000370: 0b7c 2d83 855f 5e83 1b24 eb82 48ca 1803
00000380: b1e2 4303 c745 2e83 daeb 9182 20c9 0703
00000390: 882f 4d03 14cb 5903 40c8 1983 82c3 3783
000003a0: 3b79 6703 b445 4203 e7bf 5903 1f68 6203
000003b0: a1c6 5282 f4a6 a882 0c83 5883 6649 3003
000003c0: bfec 3302 0900 0703 3315 4783 f662 fc02
000003d0: 41c8 0883 04ee 4e83 dcc2 9c82 dcc5 da82
000003e0: 8372 5703 0565 6782 46f5 c781 ff7e 2203
000003f0: a16a 3383 5ef4 5d83 3a33 0b83 862c 5f83

net_model.4.bias f4 [32]
0.00040451673 -0.0004860055 -0.00042382663 -0.0005796656 0.0003983049 -0.00036461017 -0.00052912853 0.00040382482
-0.0005629647 0.00039832696 0.00040417325 -0.000537385 0.00039906887 0.00040122645 -0.00041932138 0.00039690718
-0.0005497036 -1.4616112e-22 0.0004024536 -7.836036e-05 0.0003988149 0.00039817774 -0.0005377347 -0.00012819626
-0.0004918054 0.000403359 -0.00017648123 0.00040311224 -0.00044532798 0.00040036216 0.0004009597 0.00040326448
00000000: 5115 d439 8ece feb9 0c35 deb9 b3f4 17ba
00000010: 94d3 d039 2629 bfb9 37b5 0aba 73b8 d339
00000020: ec93 13ba 8ad6 d039 37e7 d339 4cdf 0cba
00000030: 1e3a d139 b45b d239 5dd8 dbb9 fb17 d039
00000040: fc19 10ba adb2 309b 6800 d339 6655 a4b8
00000050: 0818 d139 83c2 d039 c4f6 0cba 6c6c 06b9
00000060: 80ec 00ba ee79 d339 d20d 39b9 cf58 d339
00000070: e97a e9b9 b3e7 d139 e637 d239 3e6d d339

net_model.6.weight f4 [1, 32]
-0.03947283 -5.7591223e-37 -8.1019266e-38 -6.918535e-37 -0.03949606 -2.4916199e-37 -6.011191e-37 -0.039497502
-6.3895685e-37 -0.0394975 -0.03946541 -5.556462e-37 -0.039574422 -0.039476734 -0.0005618374 -0.039521895
-5.1151838e-37 1.803638e-21 -0.039500203 -6.405133e-37 -0.039480273 -0.039498102 -6.123001e-37 -8.39116e-38
-4.6706744e-37 -0.039486155 -4.6423996e-37 -0.039497897 -2.3090372e-38 -0.039487652 -0.03950874 -0.03953002
00000000: 43ae 21bd 08f9 4383 308e dc81 f16c 6b83
00000010: 9fc6 21bd 2492 a982 dc8c 4c83 22c8 21bd
00000020: fe6c 5983 21c8 21bd 7ba6 21bd 9c13 3d83
00000030: ca18 22bd 5bb2 21bd 4548 13ba b6e1 21bd
00000040: 890f 2e83 6f47 081d f7ca 21bd 94f4 5983
00000050: 11b6 21bd c3c8 21bd dd5a 5083 da6d e481
00000060: 50ef 1e83 3cbc 21bd 01f9 1d83 8cc8 21bd
00000070: 906e fb80 cebd 21bd ebd3 21bd 3bea 21bd
