src/t1dsim_ai/models/IndividualModel/T1DEXI-01-0533/individual_model.pt (torch, 50089 bytes, 7 tensors)

net_model.0.weight f4 [128, 10]
0	0xbbe32942	-0.0069324085
1	0x3ce8586d	0.028362477
2	0xbcc03c3e	-0.023466226
3	0xbcf7c4eb	-0.030245265
4	0x3d11e0a6	0.035614632
5	0x3b689775	0.0035490666
6	0x3c0b2d9e	0.008494763
7	0x3bc58239	0.0060274866
8	0x3bf655d8	0.0075175576
9	0x3be065d7	0.0068480778
10	0xbc3b3c3f	-0.011427938
11	0x3cc8d4bf	0.024515508
12	0xbcd0fe5d	-0.025511915
13	0xbd30f0f3	-0.043198537
14	0x3d01b716	0.031668745
15	0xba96f925	-0.0011518343
16	0xbb6aa0a4	-0.0035801316
17	0x3c1fcf23	0.009753975
18	0x3c39fb7f	0.011351465
19	0x3ba53484	0.0050416607
20	0xbbbf2be3	-0.005834089
21	0x3cf3a98d	0.029743934
22	0xbcb2836f	-0.021791188
23	0xbca7c0fe	-0.020477768
24	0x3d242169	0.040070925
25	0x3bb273bd	0.005445926
26	0x3c862e63	0.01637954
27	0x3ba7e81c	0.005124105
28	0x3bae8ab7	0.0053265947
29	0x3c2b2cfa	0.010447735
30	0xbbbf61c9	-0.0058405143
31	0x3cef4121	0.02920586
32	0xbcb372ae	-0.02190527
33	0xbcb21529	-0.021738606
34	0x3d227605	0.039663333
35	0x3b9cd173	0.0047857105
36	0x3c66c447	0.014084882
37	0x3ba7fc71	0.005126529
38	0x3bb83790	0.005621858
39	0x3c0b4f6d	0.008502823
40	0xbc1ea180	-0.009682059
41	0x3cd0d2e1	0.02549118
42	0xbccda446	-0.025102746
43	0xbd274fc9	-0.040847573
44	0x3d0433ff	0.03227615
45	0xb8d6a0f2	-0.000102342936
46	0xbaebbfa1	-0.0017986187
47	0x3c0fc334	0.008774567
48	0x3c2607b3	0.010133672
49	0x3bafcd57	0.0053650546
50	0xbc1eb09b	-0.009685661
51	0x3cd41100	0.025887012
52	0xbccb3ae4	-0.024808355
53	0xbd23a191	-0.039949004
54	0x3d05c557	0.0326589
55	0x3a971337	0.0011526112
56	0x39c38668	0.0003729344
57	0x3c009ff2	0.007850634
58	0x3c20a44c	0.009804796
59	0x3bb5ecf7	0.00555193
60	0xbbeca3cd	-0.007221675
61	0x3cea0853	0.028568422
62	0xbcbffdbd	-0.023436422
63	0xbcf0e7bd	-0.029407376
64	0x3d11c6e2	0.03559006
65	0x3b547068	0.0032415632
66	0x3c04c760	0.008104175
67	0x3bb8884b	0.0056314818
68	0x3bfe3f35	0.0077589997
69	0x3bdf4bd1	0.006814458
70	0xbb4beca7	-0.0031116398
71	0x3d091c80	0.033474445
72	0xbc9504ff	-0.018190859
73	0xbb871ad5	-0.0041230717
74	0x3d318260	0.043337226
75	0x3c15d621	0.009145291
76	0x3d03e9a4	0.03220524
77	0x3b62c69f	0.003460325
78	0xba813d97	-0.0009860274
79	0xbc9964e9	-0.018724876
80	0xbc0a5017	-0.0084419465
81	0x3cdefd23	0.027220314
82	0xbcc79f25	-0.024367878
83	0xbd1262be	-0.0357387
84	0x3d0a6b2b	0.03379361
85	0x3afabf5d	0.0019130517
86	0x3b0aeef9	0.0021199568
87	0x3bdfb8af	0.006827436
88	0x3c0ea189	0.008705505
89	0x3bc646bf	0.006050914
90	0xbc1cff54	-0.009582359
91	0x3cd66f24	0.026176043
92	0xbcc8239f	-0.024431048
93	0xbd20076a	-0.03906957
94	0x3d0647de	0.03278338
95	0x3a03987e	0.00050199765
96	0xb9a8d6d0	-0.00032203505
97	0x3c068cb8	0.008212261
98	0x3c238a65	0.009981726
99	0x3bafbbca	0.0053629624
100	0xbbe4839b	-0.0069736964
101	0x3ced7f49	0.028991358
102	0xbcbc570c	-0.022990726
103	0xbce3d3ee	-0.027811017
104	0x3d143efd	0.036192883
105	0x3b57514b	0.003285485
106	0x3c0c6006	0.008567816
107	0x3bbd2761	0.0057725166
108	0x3bf86d74	0.007581407
109	0x3be32e12	0.0069329822
110	0xbbf61da9	-0.00751086
111	0x3ce86e0c	0.028372787
112	0xbcbffdb9	-0.023436414
113	0xbcfdd0b6	-0.03098331
114	0x3d1013e2	0.03517521
115	0x3b2eca91	0.0026671032
116	0x3bb86a0a	0.005627875
117	0x3bcd3927	0.0062629166
118	0x3c060db4	0.008181978
119	0x3bd9b0be	0.0066433838
120	0xbbc96a76	-0.0061467243
121	0x3cef1cbc	0.029188506
122	0xbcb3c7a3	-0.02194578
123	0xbcba370b	-0.022731325
124	0x3d21180f	0.039329585
125	0x3b95ea78	0.00457507
126	0x3c53502c	0.012897532
127	0x3baddeb7	0.0053060907
128	0x3bc4a8da	0.006001574
129	0x3c00f3dd	0.007870642
130	0xbc0c5e64	-0.008567426
131	0x3cdd4318	0.027009532
132	0xbcc7d41e	-0.024393138
133	0xbd14bbec	-0.03631203
134	0x3d0a7340	0.033801317
135	0x3b0be8ba	0.0021348433
136	0x3afb6c4a	0.0019182053
137	0x3be268c9	0.006909464
138	0x3c108ff2	0.008823382
139	0x3bc186c9	0.00590596
140	0xbbc08a01	-0.0058758263
141	0x3cf046ed	0.029330695
142	0xbcb1be56	-0.021697205
143	0xbcad03dc	-0.021120004
144	0x3d22604f	0.03964263
145	0x3ba19416	0.0049309833
146	0x3c6b1f12	0.014350669
147	0x3baabde5	0.0052106255
148	0x3bb8be4f	0.005637921
149	0x3c11baa7	0.008894599
150	0xbc23b6bb	-0.009992297
151	0x3ccefc97	0.025266929
152	0xbccd8524	-0.0250879
153	0xbd2945ed	-0.041326452
154	0x3d02ed4e	0.031964593
155	0xb9bd582c	-0.00036114582
156	0xbb23beea	-0.002498562
157	0x3c12e05d	0.008964625
158	0x3c2c0a69	0.010500529
159	0x3ba7bd4d	0.005119002
160	0xbbe69559	-0.0070368466
161	0x3cea3a87	0.028592361
162	0xbcbf49d1	-0.023350628
163	0xbcf0b7be	-0.02938449
164	0x3d12f97e	0.035882466
165	0x3b663f10	0.0035132803
166	0x3c0cce22	0.008594068
167	0x3bb93814	0.005652437
168	0x3bf583f4	0.0074925367
169	0x3bdd3c0c	0.006751543
170	0xbc0fe9bd	-0.008783755
171	0x3cdbe192	0.026840959
172	0xbcca22db	-0.024674824
173	0xbd1854a9	-0.037190113
174	0x3d084b04	0.033274665
175	0x3b01d5a5	0.001981118
176	0x3ad36bb6	0.0016130123
177	0x3be9269e	0.007115199
178	0x3c12d9d2	0.008963065
179	0x3bc1b193	0.005911061
180	0xbc1d401b	-0.0095978035
181	0x3cd60425	0.026125023
182	0xbcc97ef1	-0.024596663
183	0xbd1f0214	-0.03882034
184	0x3d0641ec	0.03277771
185	0x3aacbcd5	0.0013178835
186	0x3a117553	0.00055487937
187	0x3bfce5ba	0.007717815
188	0x3c20df28	0.00981883
189	0x3bb2e39c	0.005459262
190	0xbbcd4b00	-0.006265044
191	0x3cef316d	0.029198373
192	0xbcb2af34	-0.021812059
193	0xbcb6af57	-0.022300405
194	0x3d2143aa	0.03937117
195	0x3b92c9a4	0.004479604
196	0x3c5475c4	0.012967531
197	0x3baf051a	0.0053411843
198	0x3bc5466b	0.0060203574
199	0x3bfeb862	0.007773445
200	0xbc4d9f40	-0.012550175
201	0x3cafc591	0.021456512
202	0xbcd305cb	-0.025759598
203	0xbd3bd5d2	-0.04585821
204	0x3cfea457	0.031084223
205	0xba47f683	-0.00076279807
206	0xbbd98d98	-0.0066391937
207	0x3c3aa961	0.011392922
208	0x3c4ffb8e	0.012694253
209	0x3b92a020	0.004474655
210	0xbbc68be1	-0.0060591553
211	0x3cf066c9	0.029345887
212	0xbcb1b7ff	-0.021694181
213	0xbcad7f73	-0.021178937
214	0x3d2291b9	0.039689753
215	0x3ba1d32e	0.0049385047
216	0x3c6c2d73	0.014415133
217	0x3bac3a65	0.0052559846
218	0x3bb90e01	0.0056474213
219	0x3c1013cc	0.008793782
220	0xbc437278	-0.011929147
221	0x3cc5910b	0.024117013
222	0xbcd1e5f0	-0.025622338
223	0xbd3231cd	-0.043504525
224	0x3d004318	0.031313986
225	0xbae95e0e	-0.001780452
226	0xbb8785ce	-0.004135824
227	0x3c2978ca	0.01034374
228	0x3c434906	0.011919266
229	0x3b9df5d7	0.004820566
230	0xbbc08399	-0.0058750627
231	0x3cef83e5	0.029237697
232	0xbcb23eef	-0.021758525
233	0xbcae4cc3	-0.021276837
234	0x3d221435	0.039570052
235	0x3b9f896f	0.0048686783
236	0x3c66dd63	0.014090869
237	0x3ba8488a	0.0051356005
238	0x3bbc7e2f	0.005752347
239	0x3c0dece7	0.008662439
240	0xbb3fb565	-0.0029252407
241	0x3d08564f	0.033285435
242	0xbc930e72	-0.017951224
243	0xbb84b1cd	-0.004049516
244	0x3d315df7	0.043302502
245	0x3c1ce8a1	0.009576947
246	0x3cf2e2e3	0.029649204
247	0x3b3256c0	0.0027212352
248	0xba8739e2	-0.0010316933
249	0xbc44822a	-0.011993924
250	0xbc0be464	-0.008538339
251	0x3cdd0900	0.02698183
252	0xbcc80df9	-0.024420725
253	0xbd14b8d7	-0.03630909
254	0x3d09d3da	0.033649303
255	0x3af95761	0.0019023233

net_model.0.bias f4 [128]
0	0x3bb8ab91	0.0056356867
1	0x3ba5f737	0.0050648707
2	0x3bcf2d6e	0.0063225543
3	0x3bce7c9a	0.0063014748
4	0x3baff943	0.0053702905
5	0x3bbb032b	0.0057071648
6	0x3bb5ae9b	0.0055444962
7	0x3bcd3ec4	0.0062635858
8	0x3bbd7d24	0.00578274
9	0x3bae89c3	0.005326481
10	0x3bb5e902	0.0055514583
11	0x3bb0551e	0.0053812405
12	0x3bc87000	0.006116867
13	0x3bb9f6c7	0.00567517
14	0x3bcdb3af	0.0062775235
15	0x3bad1362	0.0052818516
16	0x3bb9c9a3	0.005669789
17	0x3bbc087c	0.005738316
18	0x3bb392f0	0.005480163
19	0x3bc66927	0.0060550156
20	0x3b9ff0ef	0.0048810164
21	0x3bca68d8	0.006177049
22	0x3ba70af9	0.0050977436
23	0x3bcbd219	0.006220114
24	0x3bbe1654	0.0058010016
25	0x3bbc745e	0.0057511767
26	0x3bb916f3	0.0056484877
27	0x3bb77ebb	0.0055998242
28	0x3baea610	0.005329855
29	0x3ba9e8d8	0.005185228
30	0x3bb5590e	0.005534298
31	0x3bb30254	0.005462924
32	0x3bb90630	0.0056464896
33	0x3bbbbe60	0.0057294816
34	0x3bb9a196	0.0056650145
35	0x3bbe185e	0.0058012446
36	0x3baee663	0.005337523
37	0x3bbb85ee	0.005722753
38	0x3bac44d9	0.0052572307
39	0x3bc02f42	0.0058650086
40	0x3b9d048a	0.004791801
41	0x3bb5847c	0.005539475
42	0x3bccf85a	0.0062551918
43	0x3bae7c65	0.0053248876
44	0x3bac243f	0.0052533443
45	0x3ba3341f	0.0049805786
46	0x3ba56952	0.0050479556
47	0x3bca39c3	0.0061714365
48	0x3bca437b	0.006172595
49	0x3bb2baf1	0.005454414
50	0x3bae0b8e	0.005311436
51	0x3bbaafba	0.005697218
52	0x3bb141f7	0.005409475
53	0x3bb3e755	0.0054902234
54	0x3ba6a500	0.0050855875
55	0x3bc83ab7	0.006110515
56	0x3bc4ef8a	0.0060100006
57	0x3ba2180d	0.0049467147
58	0x3ba6bb26	0.005088228
59	0x3bcd3983	0.0062629594
60	0x3bba2749	0.0056809527
61	0x3bb21461	0.0054345583
62	0x3ba1a9bb	0.0049335635
63	0x3bb8b648	0.005636964
64	0x3bb1198c	0.0054046568
65	0x3bb57aec	0.005538335
66	0x3ba70d2e	0.0050980067
67	0x3bbb67e7	0.0057191732
68	0x3baff630	0.005369924
69	0x3bb97144	0.0056592543
70	0x3baa438e	0.0051960414
71	0x3bad9c1d	0.005298151
72	0x3bcf12f8	0.0063194
73	0x3bc1fcff	0.005920052
74	0x3bb7acd5	0.00560532
75	0x3ba45f17	0.0050162184
76	0x3b9bcffb	0.004755018
77	0x3bbda4c2	0.005787463
78	0x3bb33d58	0.005469959
79	0x3bb64aa9	0.0055630994
80	0x3bc6151e	0.006044998
81	0x3b9d06d9	0.004792076
82	0x3ba1843c	0.0049290936
83	0x3ba97814	0.005171785
84	0x3ba9ffd0	0.005187966
85	0x3bb8afc0	0.0056361854
86	0x3bb727d6	0.0055894656
87	0x3b9eabb5	0.0048422464
88	0x3ba6f172	0.0050947005
89	0x3bb4ff8d	0.005523628
90	0x3ba64cbf	0.005075067
91	0x3b9fb27c	0.004873572
92	0x3bb1341a	0.0054078223
93	0x3bb78acf	0.005601264
94	0x3bb9bfd2	0.0056686187
95	0x3bd0582d	0.0063581676
96	0x3ba3711a	0.004987848
97	0x3bc1829b	0.005905462
98	0x3bbb0aa6	0.0057080565
99	0x3ba6c85d	0.005089803
100	0x3bb5766b	0.005537798
101	0x3bc3017a	0.0059511038
102	0x3bb8f467	0.0056443694
103	0x3baf0174	0.0053407494
104	0x3bba7223	0.0056898757
105	0x3bb59420	0.0055413395
106	0x3bc0c1dc	0.005882485
107	0x3bb462ef	0.005504958
108	0x3bc22d4a	0.005925809
109	0x3baa2cc6	0.0051933257
110	0x3ba56c27	0.005048293
111	0x3bae15d7	0.005312662
112	0x3b9d4155	0.004799048
113	0x3bad01d1	0.0052797575
114	0x3bb77237	0.0055983323
115	0x3bb575a7	0.005537707
116	0x3bab43c6	0.005226585
117	0x3bb29c45	0.0054507577
118	0x3bb400ed	0.0054932744
119	0x3bc1d02b	0.005914708
120	0x3ba8dd46	0.005153331
121	0x3bb8fd40	0.005645424
122	0x3bae59a8	0.0053207465
123	0x3bb71cee	0.0055881655
124	0x3bbcb3ae	0.005758724
125	0x3bb98c4a	0.0056624757
126	0x3bcf8859	0.0063333926
127	0x3bbb495f	0.0057155336

net_model.2.weight f4 [64, 128]
0	0x3cdd3ee7	0.027007533
1	0x3cedbf99	0.029022025
2	0x3cdee9a8	0.027211025
3	0x3cdc35fc	0.02688121
4	0x3ce84ec3	0.028357869
5	0x3ce6b893	0.028164184
6	0x3cdc6cb0	0.026907295
7	0x3cf150ef	0.029457537
8	0x3ce14c54	0.027502216
9	0x3ce630df	0.028099475
10	0x3cdda8b4	0.027057983
11	0x3cdf2ca9	0.027242975
12	0x3cdda70b	0.027057191
13	0x3ce2dce6	0.027693223
14	0x3cdc7783	0.026912456
15	0x3ce8fb90	0.028440267
16	0x3cddb9d0	0.027066141
17	0x3ce2cdd0	0.02768603
18	0x3ce545ee	0.027987447
19	0x3cdd54b9	0.027017938
20	0x3cf45e8a	0.029830236
21	0x3cde0afc	0.027104847
22	0x3cefc84d	0.029270316
23	0x3cdd3ad0	0.027005583
24	0x3cf3b29e	0.029748257
25	0x3ce18279	0.027528035
26	0x3cddd239	0.027077781
27	0x3ce6d204	0.028176315
28	0x3ce8e311	0.028428586
29	0x3ce8ad5f	0.028402982
30	0x3cdc4aff	0.02689123
31	0x3cde8358	0.027162239
32	0x3ce66036	0.028122049
33	0x3cdfdfc5	0.027328381
34	0x3cdceed5	0.026969353
35	0x3ce1ccaa	0.027563412
36	0x3ce92757	0.028461142
37	0x3ce1fa0c	0.027585052
38	0x3ce96f42	0.028495435
39	0x3cdeed8a	0.027212877
40	0x3cf27e1b	0.029601147
41	0x3cdd6518	0.027025744
42	0x3cddf43e	0.027094003
43	0x3ce75c14	0.028242148
44	0x3ce8ecd1	0.028433235
45	0x3cf34e42	0.029700402
46	0x3cec8c8b	0.02887561
47	0x3cde10c6	0.027107608
48	0x3cdd9c72	0.027052138
49	0x3cde265f	0.027117906
50	0x3ce9a0df	0.028519092
51	0x3ce1780a	0.02752306
52	0x3cdf6040	0.027267575
53	0x3ce39066	0.027778815
54	0x3cec506a	0.028846938
55	0x3cdd3322	0.027001921
56	0x3d046a47	0.032327916
57	0x3cf19152	0.02948824
58	0x3cedb5b0	0.0290173
59	0x3cde7d2d	0.027159298
60	0x3cde6bab	0.02715095
61	0x3cde2fa5	0.027122328
62	0x3cf088d1	0.029362114
63	0x3cdcd9dc	0.026959352
64	0x3ce57454	0.028009571
65	0x3cdeabd5	0.027181545
66	0x3ceccbf1	0.02890584
67	0x3cdd7404	0.02703286
68	0x3ce7369b	0.02822428
69	0x3ce1cef9	0.027564513
70	0x3cebb6dd	0.02877372
71	0x3ce8f813	0.028438604
72	0x3cde579c	0.027141385
73	0x3cdb6ffd	0.026786799
74	0x3ce1d75a	0.027568508
75	0x3cf1820d	0.029480958
76	0x3cf8f4ef	0.030390231
77	0x3ce10673	0.027468896
78	0x3cdd1a16	0.026989978
79	0x3cde5db4	0.02714429
80	0x3cddbb35	0.027066806
81	0x3cf2d18c	0.029640935
82	0x3cf081be	0.02935874
83	0x3ce90338	0.028443918
84	0x3cefe891	0.029285701
85	0x3cdddabf	0.027081845
86	0x3ce314eb	0.027719935
87	0x3cf272e9	0.029595809
88	0x3ced5f2c	0.028976046
89	0x3cdea275	0.027177075
90	0x3cee54a3	0.029093092
91	0x3cf2ca4a	0.029637475
92	0x3ce9440c	0.02847483
93	0x3cdf8579	0.027285324
94	0x3ce466a3	0.027880972
95	0x3cdcd515	0.026957074
96	0x3cf17318	0.029473826
97	0x3cddca4c	0.027074002
98	0x3ce23297	0.027612014
99	0x3cee2132	0.029068563
100	0x3cdc8bb5	0.026922086
101	0x3cf89ed3	0.03034917
102	0x3cdc4ea9	0.026892977
103	0x3ce8e04c	0.028427266
104	0x3ce51d53	0.027968084
105	0x3cde41c4	0.027130969
106	0x3cf58bca	0.029973883
107	0x3cdf30c4	0.027244933
108	0x3cdd2e69	0.02699967
109	0x3ced7070	0.028984278
110	0x3ced82c8	0.028993025
111	0x3ce94372	0.028474543
112	0x3cf1bf51	0.029510172
113	0x3ce8ec69	0.028433042
114	0x3ce6f8e0	0.028194845
115	0x3cdcbc3e	0.02694523
116	0x3ce6f89a	0.028194714
117	0x3ce7170b	0.02820923
118	0x3ce52953	0.027973806
119	0x3cf845b8	0.030306682
120	0x3ce7fe2f	0.028319446
121	0x3cdd26d4	0.026996054
122	0x3ce6f346	0.028192174
123	0x3ce658a0	0.028118432
124	0x3cdbad72	0.026816104
125	0x3ce2d3ba	0.02768885
126	0x3cdc95f8	0.02692698
127	0x3ce2fd04	0.027708538
128	0x3cddeb50	0.027089745
129	0x3cedd67c	0.029032938
130	0x3cdf025d	0.027222807
131	0x3cdd954b	0.027048727
132	0x3ce8269c	0.028338723
133	0x3ce66a10	0.028126746
134	0x3cddcd70	0.0270755
135	0x3cf144ab	0.029451689
136	0x3ce11cf6	0.02747963
137	0x3ce6f55a	0.028193165
138	0x3cdd2bb3	0.026998376
139	0x3cde91aa	0.027169067
140	0x3cdcbe0e	0.026946094
141	0x3ce2009c	0.027588181
142	0x3cdd0fd3	0.026985085
143	0x3cea22d5	0.028581062
144	0x3cdd4f71	0.02701542
145	0x3ce3def2	0.02781627
146	0x3ce5480b	0.027988454
147	0x3cdd7420	0.027032912
148	0x3cf4ac83	0.029867416
149	0x3cdde46a	0.027086455
150	0x3cefe80f	0.029285459
151	0x3cdcdd96	0.02696113
152	0x3cf3dc3a	0.029768098
153	0x3ce06be0	0.027395189
154	0x3cdea7ee	0.027179684
155	0x3ce63ac6	0.028104197
156	0x3ce8cb81	0.02841735
157	0x3ce8f0f6	0.028435212
158	0x3cdd6491	0.027025493
159	0x3cde42e7	0.02713151
160	0x3ce655af	0.028117029
161	0x3ce0a6ce	0.027423289
162	0x3cdd865c	0.027041607
163	0x3ce19d36	0.027540784
164	0x3ce82fdd	0.028343135
165	0x3ce1cfbf	0.027564881
166	0x3ce9406a	0.028473098
167	0x3cdf0e4d	0.027228499
168	0x3cf30ac8	0.029668227
169	0x3cdd840a	0.0270405
170	0x3cdd62f0	0.027024716
171	0x3ce7ca14	0.0282946
172	0x3ce9515a	0.028481174
173	0x3cf24e9c	0.0295785
174	0x3cec474e	0.028842594
175	0x3cdd7f64	0.027038284
176	0x3cdd7ce8	0.027037099
177	0x3cde235c	0.02711647
178	0x3ce9ace7	0.02852483
179	0x3ce1bce3	0.027555889
180	0x3cde56d4	0.027141012
181	0x3ce33038	0.027732953
182	0x3cec8a2c	0.02887448
183	0x3cdcd365	0.02695627
184	0x3d046321	0.0323211
185	0x3cf166cb	0.02946796
186	0x3ced34a9	0.028955774
187	0x3cde23e4	0.027116723
188	0x3cdd1515	0.026987592
189	0x3cdd1564	0.026987739
190	0x3cf03114	0.029320277
191	0x3cdc6ab6	0.026906352
192	0x3ce54416	0.027986567
193	0x3cdda5ca	0.027056593
194	0x3ced7d55	0.028990427
195	0x3cdea427	0.027177883
196	0x3ce63296	0.028100293
197	0x3ce1b1f8	0.027550682
198	0x3ceae701	0.028674604
199	0x3ce8cdd0	0.028418452
200	0x3cdddff9	0.027084338
201	0x3cdc0f7d	0.026862854
202	0x3ce0ed54	0.027456917
203	0x3cf14417	0.029451413
204	0x3cf91a65	0.030408094
205	0x3ce1c2f3	0.02755878
206	0x3cdebbd0	0.027189165
207	0x3cde6d77	0.027151806
208	0x3cdd2211	0.026993783
209	0x3cf2d862	0.029644195
210	0x3cf0e192	0.029404435
211	0x3ce97d26	0.028502058
212	0x3cef04b9	0.029177057
213	0x3cde8e8c	0.027167581
214	0x3ce2136e	0.027597155
215	0x3cf21ebb	0.029555669
216	0x3ced423d	0.028962249
217	0x3cdead7b	0.027182331
218	0x3cee5008	0.029090896
219	0x3cf2e5bb	0.02965056
220	0x3ce8bf72	0.0284116
221	0x3cddffc8	0.027099505
222	0x3ce4f8d2	0.027950678
223	0x3cdda3f6	0.027055722
224	0x3cf1b8bf	0.02950704
225	0x3cdd6178	0.027024016
226	0x3ce1838c	0.027528547
227	0x3cede6d5	0.029040733
228	0x3cdc37b5	0.026882032
229	0x3cf88093	0.030334746
230	0x3cdddc3f	0.02708256
231	0x3ce6f680	0.028193712
232	0x3ce6127d	0.028084988
233	0x3cde174e	0.027110722
234	0x3cf59f19	0.02998309
235	0x3cde3772	0.027126048
236	0x3cdd3d10	0.027006656
237	0x3cee33c7	0.029077424
238	0x3ced7bee	0.028989758
239	0x3ce94c19	0.028478669
240	0x3cf245c3	0.02957428
241	0x3ce984be	0.02850568
242	0x3ce60c85	0.028082142
243	0x3cdc61b7	0.026902063
244	0x3ce6753a	0.02813207
245	0x3ce6f6b5	0.028193811
246	0x3ce5d2b6	0.028054576
247	0x3cf82124	0.03028924
248	0x3ce7e80f	0.028308896
249	0x3cdd6adb	0.027028492
250	0x3ce86494	0.028368272
251	0x3ce64daa	0.028113205
252	0x3cdd945c	0.027048282
253	0x3ce374c8	0.027765647
254	0x3cdd8c65	0.027044484
255	0x3ce38527	0.027773453

net_model.2.bias f4 [64]
0	0xbb2a2a42	-0.002596513
1	0xbb2ab05a	-0.0026045055
2	0xbb352390	-0.0027639605
3	0xbb2e27d7	-0.002657404
4	0x3da16e88	0.0788241
5	0x3ca4a5c7	0.02009858
6	0xbb2be016	-0.0026226095
7	0xbb353d26	-0.0027654856
8	0xb9d1f1ca	-0.00040043733
9	0xba135f8f	-0.00056218443
10	0xbb2aec60	-0.0026080832
11	0xbb29d951	-0.0025916884
12	0xbb2ba1e4	-0.0026189024
13	0xbb2b2833	-0.002611649
14	0xbb347a94	-0.0027538883
15	0xbc8a34a0	-0.016870797
16	0xbb2dec6f	-0.002653863
17	0xbb2e700e	-0.0026617083
18	0xbb3091db	-0.0026942405
19	0x910aaa90	-1.0938839e-28
20	0xbb2ad141	-0.0026064666
21	0xbae7f99e	-0.0017698293
22	0xbb2a0a7d	-0.0025946193
23	0xbb2b820d	-0.0026170046
24	0xbb33a42b	-0.0027411084
25	0xa16d827c	-8.047142e-19
26	0xbb29df0e	-0.0025920304
27	0xbb1e414f	-0.0024147814
28	0xb90d63fb	-0.00013484053
29	0x3c55cbd1	0.013049082
30	0xb81bf15c	-3.7179663e-05
31	0xbb29bd8f	-0.002590034
32	0xbb2a0089	-0.002594026
33	0xbb2bed19	-0.002623385
34	0xbb2bf3c9	-0.0026237837
35	0xbb2bc766	-0.002621138
36	0xbb2d1ee0	-0.0026416108
37	0xbbc4ebe0	-0.006009564
38	0xbc5155b4	-0.012776781
39	0xb9e2679f	-0.00043183283
40	0xbb2b1105	-0.0026102674
41	0xbaca7006	-0.0015444763
42	0xbac2c485	-0.0014859593
43	0xbb2c98f9	-0.0026336296
44	0xbb2b7c84	-0.0026166746
45	0xbc80fa14	-0.015744247
46	0xbb31ff36	-0.0027160174
47	0xb98c9aaf	-0.0002681813
48	0xbb2f7a65	-0.0026775834
49	0xbb2c7050	-0.002631206
50	0x3ce95723	0.028483933
51	0xbb2a9237	-0.0026027092
52	0xbc7cd347	-0.015431232
53	0xbb2b86fe	-0.002617299
54	0xbb2a9a6b	-0.0026031982
55	0xbc37cc02	-0.011218073
56	0x3d001d9a	0.03127823
57	0xbb2a4fe2	-0.0025987555
58	0xbb381265	-0.0028087136
59	0xbb2b8a49	-0.0026174954
60	0xbb2c1978	-0.0026260298
61	0xbb2afe8b	-0.002609166
62	0x3c84783b	0.016170612
63	0xbbe28f42	-0.0069140503

net_model.4.weight f4 [32, 64]
0	0x3cdae2e2	0.026719514
1	0x3cda9969	0.02668448
2	0x3cdcff0c	0.026977085
3	0x3cda8807	0.026676191
4	0x3dd68131	0.1047386
5	0xbc314677	-0.010820023
6	0x3cda9f3f	0.026687263
7	0x3cdaaae4	0.026692815
8	0x2c96bac5	4.283992e-12
9	0xb428dfeb	-1.572768e-07
10	0x3cd9b115	0.026573697
11	0x3cda4758	0.026645347
12	0x3cd87805	0.026424417
13	0x3cd9c9c1	0.026585462
14	0x3cdb8d7c	0.026800863
15	0x3c478d9e	0.01217976
16	0x3cd9ede8	0.0266027
17	0x3cdac0e9	0.026703315
18	0xbaa0d255	-0.0012269715
19	0x0b13c947	2.8462594e-32
20	0x3cdacb55	0.026708284
21	0x3cd8304f	0.026390223
22	0x3cdac47e	0.026705023
23	0x3cd9d986	0.026592981
24	0x3afdf997	0.0019376752
25	0x214bdb2b	6.906914e-19
26	0x3cd9f7c2	0.026607398
27	0xba838e16	-0.0010036852
28	0x2e7bc038	5.7241517e-11
29	0xbc07611f	-0.008262902
30	0xb9ed78fc	-0.00045294303
31	0x3cd958da	0.026531626
32	0x3cda805e	0.026672538
33	0x3cdb1982	0.026745562
34	0x3cd9c014	0.026580848
35	0x3cdba994	0.02681426
36	0x3cda9658	0.026683018
37	0x3cc4725d	0.023980314
38	0x3c8ef0fb	0.017448893
39	0xadfca263	-2.8721197e-11
40	0x3cd999f2	0.026562665
41	0x39b5db28	0.00034686294
42	0xb95e7f8e	-0.00021219088
43	0x3cdaac7a	0.026693571
44	0x3cd945ce	0.026522543
45	0x3c7eaa05	0.0155434655
46	0x3cda2f59	0.026633905
47	0x308b7a43	1.014833e-09
48	0x3cda94d6	0.026682299
49	0x3cdb7548	0.026789322
50	0x3d7dbde7	0.061948683
51	0x3cd9bee1	0.026580276
52	0x3c274c25	0.010211025
53	0x3cd9874b	0.02655377
54	0x3cdab1ed	0.02669617
55	0x3c960f0d	0.018317724
56	0xbc945af4	-0.018109776
57	0x3cd88ce9	0.026434379
58	0xbb2e7fa9	-0.0026626384
59	0x3cd9ee81	0.026602985
60	0x3cdab81c	0.026699118
61	0x3cdb22f3	0.026750064
62	0xbc26acfc	-0.010173079
63	0x3cbee765	0.023303697
64	0x02688a45	1.708435e-37
65	0x03477aef	5.8621965e-37
66	0x016e56cc	4.377597e-38
67	0x8331c6b9	-5.2243747e-37
68	0x03274fa0	4.9168294e-37
69	0x831a27f0	-4.530238e-37
70	0x827c1e7b	-1.8522783e-37
71	0x82868b46	-1.976947e-37
72	0x03521c12	6.1745677e-37
73	0x8352e284	-6.197348e-37
74	0x03471328	5.8502834e-37
75	0x034872da	5.890656e-37
76	0x835956cb	-6.38702e-37
77	0x022b7219	1.259584e-37
78	0x8310a392	-4.2505566e-37
79	0x0275252e	1.8010427e-37
80	0x83121007	-4.2923942e-37
81	0x033b53e1	5.505065e-37
82	0x830553cb	-3.9181377e-37
83	0x836243b1	-6.6493137e-37
84	0x032901cb	4.9666695e-37
85	0x82834af0	-1.9291732e-37
86	0x80cddbd0	-1.890513e-38
87	0x8244f2e6	-1.4469514e-37
88	0x0335625a	5.330402e-37
89	0x833b1ef0	-5.4989875e-37
90	0x0324fcb7	4.848537e-37
91	0x032212f1	4.7629265e-37
92	0x81b580c8	-6.667369e-38
93	0x82666538	-1.692678e-37
94	0x830d147a	-4.145968e-37
95	0x033fbabc	5.6344216e-37
96	0x833c6ec3	-5.5375383e-37
97	0x0320abc2	4.7216942e-37
98	0x036476fa	6.7139756e-37
99	0x8217cfeb	-1.1153397e-37
100	0x83345cb9	-5.3003686e-37
101	0x8348392b	-5.8840343e-37
102	0x0328fc12	4.9660125e-37
103	0x02f10ba6	3.5418453e-37
104	0x0352cacd	6.1946257e-37
105	0x836c2e53	-6.9407344e-37
106	0x034d2184	6.028256e-37
107	0x830c41cd	-4.121784e-37
108	0x8246d70f	-1.4608461e-37
109	0x82bacf5a	-2.7449258e-37
110	0x824572f5	-1.4506265e-37
111	0x8351e8b0	-6.168669e-37
112	0x031ab0eb	4.5459624e-37
113	0x0320cb5f	4.7253233e-37
114	0x034f7bb6	6.0973846e-37
115	0x8305376a	-3.91488e-37
116	0x0327eff3	4.9352337e-37
117	0x833930b8	-5.442254e-37
118	0x02dad77e	3.2155908e-37
119	0x832c71d6	-5.0676934e-37
120	0x02ae6227	2.5623339e-37
121	0x034fb2aa	6.103693e-37
122	0x8307fd3c	-3.9963633e-37
123	0x83249fc4	-4.837867e-37
124	0x83432eb2	-5.7358953e-37
125	0x03283caf	4.9440424e-37
126	0x834f03ab	-6.0836043e-37
127	0x835541af	-6.2670475e-37
128	0x03461a9f	5.821753e-37
129	0x81fd1e74	-9.298122e-38
130	0x82f3b7d1	-3.5811146e-37
131	0x0309cf71	4.0498813e-37
132	0x8323ff4d	-4.8194466e-37
133	0x83607360	-6.5960128e-37
134	0x03205898	4.7121475e-37
135	0x033e6801	5.5955372e-37
136	0x03224510	4.76868e-37
137	0x83280c1a	-4.9384655e-37
138	0x8324b0bd	-4.8398154e-37
139	0x8319aeb3	-4.5163204e-37
140	0x834356ff	-5.7405216e-37
141	0x83014e2a	-3.799942e-37
142	0x8275844e	-1.8037727e-37
143	0x835611fa	-6.2909584e-37
144	0x033d427b	5.5618424e-37
145	0x832aa827	-5.015154e-37
146	0x03134920	4.328336e-37
147	0x0360b6ec	6.6037668e-37
148	0x034dcf1c	6.0481835e-37
149	0x8300eb18	-3.7885694e-37
150	0x82d9663c	-3.1943964e-37
151	0x0315a20d	4.397319e-37
152	0x834c64d3	-6.0065952e-37
153	0x82f266ba	-3.5617666e-37
154	0x83100cf5	-4.233267e-37
155	0x03263cea	4.885294e-37
156	0x031fb218	4.693034e-37
157	0x8324693e	-4.831608e-37
158	0x8326e024	-4.9040316e-37
159	0x028f1729	2.1025255e-37
160	0x832d5680	-5.093943e-37
161	0x8311830e	-4.2762114e-37
162	0x03367f2a	5.363097e-37
163	0x03123d0c	4.297562e-37
164	0x028c7d30	2.0643005e-37
165	0x03009d84	3.779664e-37
166	0x03181a6c	4.4699116e-37
167	0x032ed165	5.1374377e-37
168	0x030e84a9	4.1882336e-37
169	0x834dbb44	-6.0459056e-37
170	0x82508a3a	-1.5321096e-37
171	0x02c7cdf0	2.9358624e-37
172	0x8244c2f8	-1.4455759e-37
173	0x825299d2	-1.5472508e-37
174	0x02f442ee	3.5890993e-37
175	0x033d85fa	5.5695906e-37
176	0x83645834	-6.710443e-37
177	0x02dffc17	3.2911598e-37
178	0x01aad122	6.274823e-38
179	0x82dc6d40	-3.23888e-37
180	0x812bdd78	-3.1566636e-38
181	0x0323761d	4.803698e-37
182	0x033d6431	5.565712e-37
183	0x82a9ebf6	-2.4967753e-37
184	0x82df8944	-3.2845692e-37
185	0x8349f858	-5.9353676e-37
186	0x03296507	4.978061e-37
187	0x82e11dd3	-3.3077897e-37
188	0x03348616	5.305117e-37
189	0x83466852	-5.8306724e-37
190	0x8315e514	-4.4050133e-37
191	0x03190d4d	4.4977927e-37
192	0x0314fc5c	4.3782985e-37
193	0x82e74f10	-3.398778e-37
194	0x03463912	5.8252484e-37
195	0x832c956c	-5.0717785e-37
196	0x0288c6db	2.0097541e-37
197	0x834d4356	-6.0321383e-37
198	0x836a412a	-6.8841224e-37
199	0x02ad9a44	2.550861e-37
200	0x02dffec4	3.2913133e-37
201	0x831383a6	-4.3350542e-37
202	0x03001475	3.7639303e-37
203	0x831e6339	-4.654593e-37
204	0x026e1c47	1.7493594e-37
205	0x834ff232	-6.110986e-37
206	0x029ff0d6	2.3501183e-37
207	0x034b6593	5.977294e-37
208	0x02a7b51e	2.46424e-37
209	0x035274c0	6.1847476e-37
210	0x834b939d	-5.982579e-37
211	0x02e79024	3.4025132e-37
212	0x8332ae15	-5.2509335e-37
213	0x82f85f34	-3.6494969e-37
214	0x834f7430	-6.096521e-37
215	0x031ee02a	4.6689355e-37
216	0x829bd9ca	-2.2900208e-37
217	0x031c8e92	4.6007942e-37
218	0x8364fe9b	-6.729545e-37
219	0x03298573	4.981783e-37
220	0x82ec0593	-3.4680283e-37
221	0x834a8df0	-5.95254e-37
222	0x83119be8	-4.279064e-37
223	0x02f5f028	3.6137357e-37
224	0x035e93cf	6.5409612e-37
225	0x835c9d8c	-6.4833044e-37
226	0x82dceffc	-3.246384e-37
227	0x0325dfd0	4.8746066e-37
228	0x032a322e	5.0016113e-37
229	0x035784ac	6.333512e-37
230	0x036e2b21	6.9991423e-37
231	0x833d2a78	-5.559086e-37
232	0x035b2b3d	6.440795e-37
233	0x03682b59	6.8228433e-37
234	0x03337b14	5.274466e-37
235	0x036a9b0e	6.8944414e-37
236	0x8228d0ac	-1.2402577e-37
237	0x82962057	-2.2059081e-37
238	0x8357e0f9	-6.3441077e-37
239	0x036192da	6.6290135e-37
240	0x01afd2fa	6.4587584e-38
241	0x032597f5	4.866358e-37
242	0x8343f0a3	-5.7581587e-37
243	0x02f9b4b6	3.6690985e-37
244	0x8312ce8d	-4.3142652e-37
245	0x834e48e0	-6.0621615e-37
246	0x8350187d	-6.1153817e-37
247	0x83037295	-3.8628974e-37
248	0x033055e5	5.1820354e-37
249	0x0232914d	1.3119074e-37
250	0x01e839d6	8.530633e-38
251	0x03206780	4.7138586e-37
252	0x8349f1a4	-5.934598e-37
253	0x832ab6e1	-5.0168445e-37
254	0x834899c8	-5.895125e-37
255	0x834aad4c	-5.95614e-37

net_model.4.bias f4 [32]
0	0xbb9b106f	-0.0047321836
1	0xba041ca7	-0.000503967
2	0xba07d86d	-0.0005182091
3	0xba1aff40	-0.0005912669
4	0xbb9b406b	-0.004737904
5	0xba03c633	-0.00050267874
6	0xba18187f	-0.000580199
7	0xbb9bf693	-0.0047596185
8	0xba19400a	-0.00058460294
9	0xbb9b5d85	-0.004741373
10	0xbb9afd98	-0.0047299378
11	0xba046023	-0.0005049726
12	0xbb9c963f	-0.004778653
13	0xbb9b7861	-0.004744575
14	0xb9e16a9d	-0.00042994777
15	0xbb9b8bb3	-0.004746878
16	0xba1963f7	-0.0005851383
17	0xb5236152	-6.086385e-07
18	0xbb9b5554	-0.0047403965
19	0xb9f2a681	-0.00046281892
20	0xbb9b1c82	-0.004733623
21	0xbb9acb01	-0.004723907
22	0xba19d39c	-0.0005868019
23	0xb9947bb2	-0.0002832092
24	0xb9fa9044	-0.00047791202
25	0xbb9b016f	-0.0047303955
26	0xb9bf1f4e	-0.00036453683
27	0xbb9c3208	-0.0047667064
28	0xa97b015c	-5.5734375e-14
29	0xbb9b6531	-0.0047422876
30	0xbb9c0710	-0.004761584
31	0xbb9c6238	-0.004772451

net_model.6.weight f4 [1, 32]
0	0xbcb908f5	-0.022587279
1	0x836c90ef	-6.9520542e-37
2	0x83586e52	-6.3603336e-37
3	0x83053592	-3.9146683e-37
4	0xbcb942ec	-0.022614919
5	0x8212155b	-1.0732515e-37
6	0x833e92aa	-5.6004344e-37
7	0xbcb94db6	-0.022620063
8	0x03122814	4.295155e-37
9	0xbcb952e3	-0.022622531
10	0xbcb90999	-0.022587584
11	0x8325b932	-4.8701736e-37
12	0xbcb99414	-0.022653617
13	0xbcb9274b	-0.022601744
14	0xba1036e1	-0.00055013417
15	0xbcb9794e	-0.02264085
16	0x83418100	-5.6865687e-37
17	0x831f4016	-4.6799467e-37
18	0xbcb91e23	-0.022597378
19	0x83439e8d	-5.7487357e-37
20	0xbcb9294d	-0.022602702
21	0xbcb92bf9	-0.022603976
22	0x8342db5f	-5.72633e-37
23	0x82fc1c94	-3.7044475e-37
24	0x83341a41	-5.2927384e-37
25	0xbcb913fe	-0.02259254
26	0x8335d2d0	-5.343312e-37
27	0xbcb95cff	-0.022627352
28	0x02cfcbac	3.0532818e-37
29	0xbcb92cad	-0.02260431
30	0xbcb97817	-0.022640271
31	0xbcb96c7a	-0.022634733
